models/trained/ConvNet3_2.pt (torch, 437732 bytes, 8 tensors)

conv1.weight f4 [16, 1, 3, 3]
0	0x3e564efc	0.20928568
1	0xbe534e9c	-0.20635456
2	0xbedf0537	-0.43558666
3	0x3e5ec1c3	0.21753602
4	0x3eaa041b	0.33206257
5	0x3de7652f	0.11298596
6	0x3eb39422	0.35073954
7	0x3e879972	0.26484257
8	0x3db1f9cc	0.08690223
9	0x3d833635	0.064068235
10	0x3eca1d14	0.3947531
11	0x3ea0adf7	0.31382725
12	0x3d97dd70	0.07415283
13	0x3e5395e9	0.20662655
14	0x3ec53db9	0.38523653
15	0x3db3750b	0.087625585
16	0xbd75023a	-0.059816577
17	0x3e8437ba	0.25823766
18	0xbe409a2b	-0.1880881
19	0x3e8fb8d5	0.28070703
20	0x3ec18944	0.37800038
21	0x3ec480f8	0.38379645
22	0xbe1825e8	-0.1485821
23	0x3ea0b0f3	0.31385002
24	0xbe76043a	-0.2402505
25	0xbcc9708e	-0.024589803
26	0xbebf2a20	-0.37336826
27	0xbe1aa8d3	-0.15103464
28	0x3ec263c3	0.37966737
29	0x3e31e0e1	0.1737094
30	0x3dde6e20	0.108608484
31	0x3ebe95b1	0.3722358
32	0x3dffe729	0.12495262
33	0x3e9dc7b5	0.30816427
34	0x3e7d2ee4	0.24724919
35	0x3ddb4411	0.10706342
36	0xbd47387a	-0.048637845
37	0x3e197279	0.14985074
38	0x3ea121ae	0.31471008
39	0xbea59c28	-0.323457
40	0xbd6d557e	-0.05794286
41	0x3e2726d2	0.16323403
42	0xbe84d0be	-0.25940508
43	0x3e826e41	0.25474742
44	0x3ed97fcb	0.4248031
45	0x3e9b2ed1	0.30309156
46	0x3df206d5	0.11817709
47	0xbe90c80b	-0.2827762
48	0x3e88bb40	0.2670536
49	0x3e9d7310	0.30751848
50	0x3e3048f8	0.17215335
51	0xbddd83bf	-0.10816144
52	0xbd934e61	-0.07192684
53	0x3d42b83e	0.04753899
54	0x3e944768	0.2896073
55	0xbe90bb32	-0.2826782
56	0xbe8be907	-0.27326223
57	0xbe4c1c55	-0.19932683
58	0xbe9c9265	-0.3058044
59	0xbe549647	-0.20760451
60	0x3e3f6970	0.18692565
61	0x3ec7c1d4	0.39015067
62	0x3edb5274	0.42836344
63	0x3e5a76dc	0.21334404
64	0x3dbb0b1b	0.091329776
65	0xbedfd3d7	-0.43716308
66	0xbd399ce7	-0.04531565
67	0x3ed4074d	0.4141182
68	0xbe8096f5	-0.2511517
69	0x3d319d53	0.043362927
70	0x3ea52282	0.3225289
71	0x3eafbd30	0.34324026
72	0x3e8de5f6	0.2771451
73	0x3e35e1c4	0.17761904
74	0x3ec5f7bc	0.3866557
75	0x3ecc7596	0.3993346
76	0x3e8ea1aa	0.27857715
77	0xbe7a3f1f	-0.24438141
78	0xbe4765eb	-0.19472472
79	0xbd0ffe75	-0.03515478
80	0xbee740ad	-0.4516653
81	0xbea96547	-0.3308508
82	0xbee0bcce	-0.43894047
83	0xbe3734b9	-0.17891206
84	0xba925029	-0.0011162806
85	0x3e8b61c9	0.27223042
86	0xbe093fd6	-0.13403258
87	0x3ed027a7	0.40655252
88	0x3d274de1	0.040845755
89	0x3ebe73df	0.37197778
90	0x3e9e031a	0.3086174
91	0x3e3f5e2a	0.18688264
92	0xbea0e856	-0.31427258
93	0x3eac9377	0.33706257
94	0x3c5cb8b5	0.013471772
95	0xbe98128a	-0.29701644
96	0x3e63448f	0.22194122
97	0xbdd9e4a1	-0.10639311
98	0xbeba3b65	-0.3637344
99	0xbe711579	-0.23543347
100	0xbe556870	-0.20840621
101	0x3dc2aae3	0.0950525
102	0xbe6206b2	-0.22072867
103	0xbe9d9509	-0.30777767
104	0xbe7b80ba	-0.24560824
105	0xbec234dc	-0.37930954
106	0xbe3e1e73	-0.18566303
107	0x3ebb98d2	0.3664003
108	0xbe7956f9	-0.24349584
109	0xbebecc42	-0.3726521
110	0xbe1f7a85	-0.15574081
111	0xbed4414a	-0.41456062
112	0xbdd0bfe9	-0.10192854
113	0x3e8d7f0e	0.27635998
114	0xbe80d423	-0.25161847
115	0x3eb0ca84	0.34529507
116	0x3e8dffc4	0.27734196
117	0x3eb47fa1	0.35253623
118	0x3dd59dd3	0.10430493
119	0x3ec359b2	0.3815437
120	0xbd367a2d	-0.04455011
121	0x3e49ce0a	0.19707504
122	0xbe2ed772	-0.17074373
123	0xbe6dbd37	-0.23216711
124	0xbecfe2a0	-0.4060259
125	0xbe4cd5fd	-0.20003505
126	0xbe9c3a4f	-0.30513236
127	0xbe5417a6	-0.20712146
128	0xbe9a0431	-0.30081323
129	0xbeaf7da1	-0.34275535
130	0xbdd5f9dc	-0.104480475
131	0xbdcb7be2	-0.09935738
132	0xbe8c3a81	-0.27388385
133	0xbd1b5db6	-0.037931167
134	0xbea76c6c	-0.32699907
135	0x3deeb5bc	0.11655757
136	0x3de95bbf	0.11394452
137	0x3ea54c07	0.32284567
138	0xbea69c92	-0.3254133
139	0xbdb7b25d	-0.08969567
140	0x3eb3f227	0.35145685
141	0xbd0f69d6	-0.035013042
142	0xbc6eeee5	-0.014583324
143	0x3e660e18	0.22466314

conv1.bias f4 [16]
0	0xbd8332b1	-0.06406153
1	0x3e43d4db	0.19124167
2	0x3da4f382	0.08054258
3	0xbe4ef883	-0.20211987
4	0x3df02355	0.11725489
5	0x3e4176d8	0.18892992
6	0x3c24c22a	0.010056058
7	0x3e7f8e58	0.24956644
8	0xbdd2983e	-0.10282944
9	0xbd1ddba9	-0.038539562
10	0x3d1aa9e1	0.037759665
11	0x3e83fb80	0.25777817
12	0x3e3a56bb	0.18197148
13	0x3d3ed534	0.046590045
14	0xbb2e875b	-0.002663097
15	0xbe47c21a	-0.19507638

conv2.weight f4 [32, 16, 3, 3]
0	0xbc820b2f	-0.015874473
1	0x3c00f8f6	0.007871857
2	0xbd5fe1e1	-0.054658774
3	0x3dd3e501	0.103464134
4	0x3d10f439	0.03538916
5	0x3df195c8	0.11796147
6	0x3dad4de3	0.08462121
7	0x3df99798	0.12187117
8	0xbd3b45e6	-0.045720957
9	0x3ca22d10	0.019796878
10	0xbd93df33	-0.07220306
11	0x3be29691	0.0069149216
12	0xbc708360	-0.01467976
13	0x3d5445ef	0.051824506
14	0xbd6c41e6	-0.057680033
15	0x3cc226e7	0.02370019
16	0xbca5f964	-0.02026052
17	0xbcad1fff	-0.021133421
18	0xbd35c9d4	-0.04438193
19	0x3b103ad3	0.0022007718
20	0xbcf628ed	-0.030048812
21	0x3cf26188	0.029587522
22	0x3ccee6fd	0.025256628
23	0xbd216537	-0.039403167
24	0x3da027a7	0.07820063
25	0x3de92496	0.11383931
26	0x3e075429	0.13215698
27	0x3cebfa20	0.028805792
28	0xbcb6f4f0	-0.022333592
29	0xbd534971	-0.05158371
30	0x3ccd0a63	0.025029367
31	0x3ceaecf2	0.028677437
32	0x3d2a902b	0.041641396
33	0xbd4a849a	-0.049442865
34	0x3cb2a586	0.021807443
35	0xbcbecdd8	-0.023291513
36	0x3c39d5d3	0.011342484
37	0xbd773493	-0.060352873
38	0x3d617539	0.055043433
39	0xbc0b322c	-0.008495849
40	0x3d3a2025	0.04544081
41	0x3d895ad7	0.067067795
42	0xbb64e51d	-0.0034926601
43	0xbbdd1c61	-0.006747768
44	0x3cff1538	0.031138048
45	0x3d320bae	0.04346817
46	0xbca48976	-0.020085078
47	0x3d4a6462	0.04941214
48	0x3d4e945e	0.050434463
49	0x3cb5fd1b	0.022215417
50	0x3ccb412e	0.024811354
51	0x3d9c8724	0.076429635
52	0x3d28ba71	0.04119343
53	0x3d8889e3	0.06666925
54	0x3d4981ab	0.049195927
55	0x3d118c05	0.035533924
56	0xbc5224a6	-0.0128261205
57	0xbbdd2728	-0.0067490526
58	0x3d0ad898	0.033897966
59	0x3d8510ef	0.064973705
60	0xbd2bb9a7	-0.0419251
61	0xbcf0198d	-0.029309059
62	0x3cd2d13c	0.025734536
63	0x3da77992	0.081774846
64	0xbcdd46f7	-0.027011378
65	0x3d3a5ca1	0.045498494
66	0x3de85415	0.113441624
67	0x3d018f36	0.031630717
68	0x3de2afc0	0.11068678
69	0x3dc2e0fd	0.09515569
70	0x3da0faff	0.07860374
71	0x3c2fbf14	0.010726709
72	0x3d6976ee	0.056998186
73	0xbd4698b5	-0.048485477
74	0xbd3d108b	-0.046158355
75	0xbc55889a	-0.013033057
76	0xbd9cb773	-0.07652178
77	0xbd680480	-0.056644917
78	0xbd34f28f	-0.044176634
79	0x3d8927b9	0.066970296
80	0x3de1507c	0.11001679
81	0x3cf190bf	0.029487966
82	0x3c1b82d3	0.00949164
83	0xbd514d8c	-0.051099345
84	0xbd040df4	-0.03223987
85	0x3dabb7ff	0.08384704
86	0x3d861fed	0.06549058
87	0xbdb71ac5	-0.08940653
88	0x3c6fd6a3	0.014638576
89	0x3c54954c	0.012975048
90	0x3c850cc6	0.016241442
91	0xbd3792f5	-0.044817884
92	0x3c5f7b30	0.01364021
93	0x3c3c99ff	0.011511325
94	0xbd0905d5	-0.033452827
95	0xbc9b5f74	-0.018966414
96	0xbe0b3bfe	-0.13597104
97	0xbda603e4	-0.08106211
98	0xbd586247	-0.0528281
99	0xbd77d048	-0.060501367
100	0xbdac897a	-0.08424659
101	0xbd5e349f	-0.054249402
102	0xbd8f90b0	-0.07010019
103	0xbcfcf2ad	-0.030877436
104	0xbc579534	-0.013158131
105	0xbd9dab6d	-0.076987125
106	0xbdaa2da3	-0.08309486
107	0xbd272825	-0.04080977
108	0x3b9e785e	0.004836126
109	0xbd6e6042	-0.058197267
110	0xbd1c2042	-0.0381167
111	0xbe0b49c3	-0.13602357
112	0xbd42fcb5	-0.04760428
113	0x3d505d7d	0.050870407
114	0xbe1efc22	-0.15525869
115	0xbda5f4ae	-0.081033096
116	0xbd16af00	-0.036787987
117	0xbd238091	-0.039917532
118	0x3a634386	0.00086694246
119	0xbc07628e	-0.008263243
120	0xbcdb0782	-0.026736978
121	0xbc6c969f	-0.014440208
122	0xbd195dd6	-0.037443005
123	0xbbbcb8d1	-0.0057593365
124	0x3de0b87e	0.10972689
125	0x3e0c1903	0.13681416
126	0xbd828943	-0.06373837
127	0xbc4f19bc	-0.012640413
128	0xbd2937f9	-0.041313145
129	0xbd5c55de	-0.053792827
130	0xbd29e76c	-0.041480467
131	0xbd7c29ee	-0.061563425
132	0xbd1a6512	-0.037694044
133	0xbd36049b	-0.044437986
134	0xbd7767aa	-0.060401596
135	0xbd174c85	-0.03693821
136	0xbc19ff07	-0.009399182
137	0x3cff5457	0.031168146
138	0xba506ad6	-0.000795049
139	0xbcdb7660	-0.026789844
140	0xbb3530e4	-0.002764755
141	0xbd03ce46	-0.03217914
142	0x3caf8bd7	0.021428986
143	0x3d6e1b34	0.05813141
144	0x3e1a50f3	0.15069942
145	0x3e017260	0.12641287
146	0xbdfd4982	-0.12367536
147	0x3d07f467	0.033192065
148	0x3d758937	0.05994531
149	0x3cdb6ba1	0.02678472
150	0xbd2b2d71	-0.041791383
151	0x3c324bd7	0.010882339
152	0x3dd3b73f	0.10337686
153	0x3c6d1463	0.014470193
154	0xbe15fa32	-0.14646223
155	0xbd775e9f	-0.060392972
156	0x3dae9b4c	0.08525714
157	0x3c7264e3	0.014794561
158	0xbe23c052	-0.15991333
159	0x3d678c5c	0.05653034
160	0x3e024381	0.12721063
161	0x3bf54438	0.007484939
162	0x3d26a4ec	0.040684626
163	0xbded1837	-0.11576884
164	0xbda19762	-0.07890202
165	0x3db97ee2	0.09057404
166	0x3d0736dc	0.033011302
167	0xbe116053	-0.14196901
168	0xbca958d9	-0.020672249
169	0x3cc40d0a	0.023931999
170	0xbc4741c8	-0.01216168
171	0xbd7cd70b	-0.06172852
172	0xbdef972e	-0.11698757
173	0xbe24357d	-0.16036029
174	0x3d55284e	0.05204039
175	0x3d9665b5	0.07343618
176	0xbd2cc05b	-0.042175632
177	0xbd197522	-0.037465222
178	0x3c8c1dfc	0.017104141
179	0x3d6b5dbb	0.057462435
180	0x3c820124	0.015869685
181	0xbd9b3683	-0.07578757
182	0xbd2cdc8f	-0.04220253
183	0x3dbd492b	0.09242471
184	0x3db7dba3	0.08977439
185	0xbd8d9977	-0.06914037
186	0x3c2b1e9a	0.010444308
187	0x3cf5974e	0.029979374
188	0x3d6f5b17	0.05843648
189	0x3e22beda	0.15893117
190	0x3ac19b0a	0.0014770937
191	0xbe0b7b0d	-0.13621159
192	0x3d40279a	0.046912767
193	0x3e1a4d56	0.15068564
194	0x3db15073	0.086579226
195	0xbd923b1d	-0.07140181
196	0x3d9ae61c	0.07563421
197	0x3dddb9fb	0.108264886
198	0x3c5bfd52	0.0134270955
199	0x3d040842	0.032234438
200	0xbcf549cc	-0.029942416
201	0xbd583a6b	-0.052790087
202	0x3d7a9182	0.061173923
203	0x3cd56f73	0.02605412
204	0x3d9f1673	0.07767954
205	0x3c95ce0a	0.018286724
206	0x3dc20047	0.09472709
207	0x3dc6b696	0.09702794
208	0x3bf0ce85	0.007348838
209	0xbe058bd7	-0.13041626
210	0x3b31c256	0.002712389
211	0x3e10fa81	0.1415806
212	0x3d92dc9f	0.071709864
213	0xbd176fd2	-0.036971875
214	0x3df6910b	0.120393835
215	0x3e2fb6f9	0.17159642
216	0x3c9f3c80	0.019438028
217	0xbdbb5e3f	-0.091488354
218	0xbd9b39df	-0.075793974
219	0xbd806cae	-0.06270729
220	0xbcb66b45	-0.022267947
221	0xbd93d193	-0.072177075
222	0xbd92eacb	-0.071736895
223	0xbc352a78	-0.011057489
224	0xbcc00c3c	-0.023443334
225	0x3dfeacef	0.12435328
226	0x3deef8fd	0.116685845
227	0xbc8056d5	-0.015666405
228	0xbe008025	-0.12548883
229	0xbc4e5d18	-0.0125954375
230	0x3d93a7a6	0.07209711
231	0x3cf8b145	0.030357966
232	0xbd830dbc	-0.06399104
233	0x3c69db63	0.014273497
234	0xbd3c3a2c	-0.045953915
235	0x3d9b48d7	0.075822525
236	0xbd594bf8	-0.053050965
237	0xbd263903	-0.040581714
238	0x3c98e9d4	0.018666185
239	0x3d5e0a36	0.054208957
240	0xbd04a071	-0.03237957
241	0x3d8f65ac	0.07001814
242	0x3d48b94e	0.049004845
243	0xbdddde63	-0.108334325
244	0xbd69f4f5	-0.057118375
245	0xbccafb4f	-0.024778036
246	0x3ca985ad	0.020693624
247	0xbd828048	-0.06372124
248	0xbd5668ee	-0.052346162
249	0x3cf18166	0.029480647
250	0xbb3c5ddd	-0.002874247
251	0xbd38ff19	-0.045165155
252	0xbd4f9072	-0.050674863
253	0xbd7de36b	-0.06198446
254	0xbcd5336f	-0.026025502
255	0x3c5c691b	0.0134527935

conv2.bias f4 [32]
0	0xbd812ef5	-0.063077845
1	0xbd128649	-0.035772596
2	0x3d9632df	0.07333922
3	0xbd67acdc	-0.056561336
4	0xbc2d4bed	-0.010577184
5	0xbccd3c6c	-0.025053225
6	0xbc8fb88e	-0.017544057
7	0xb88cf0c4	-6.720566e-05
8	0x3c9248b3	0.017856931
9	0xbbdbf45f	-0.006712481
10	0xbb2e8508	-0.0026629586
11	0xbcea73bb	-0.028619638
12	0xbd7ab3ec	-0.061206743
13	0x3b8c6b0b	0.0042852215
14	0xbd4da690	-0.050207675
15	0x3d184dea	0.03718368
16	0xb996d0f2	-0.00028765906
17	0xbceeb4ca	-0.029138941
18	0xbda2158b	-0.07914265
19	0x3d36449e	0.044499032
20	0x3c07ca13	0.008287924
21	0xbbee13aa	-0.0072655277
22	0x3c6a68e7	0.014307237
23	0xbcff3ff3	-0.031158423
24	0xbd1d9f3c	-0.038481936
25	0xbcf57539	-0.029963123
26	0xbd3eaaca	-0.046549596
27	0x3d815487	0.063149504
28	0x3be5580c	0.0069990214
29	0x3cffca0a	0.03122427
30	0x3d6487ce	0.055793576
31	0xbd855991	-0.06511224

fc1.weight f4 [128, 800]
0	0x3b750365	0.0037386057
1	0x3b0ecda4	0.0021790052
2	0x3c22640b	0.009911547
3	0x3d10b44a	0.035328187
4	0x3c17535f	0.009236186
5	0xbc898fb6	-0.01679216
6	0xbd23fff1	-0.040039007
7	0xbc9fdb8c	-0.019513868
8	0x3bc9b997	0.0061561572
9	0xbbe255d5	-0.0069072046
10	0xbc45c561	-0.012070985
11	0x3d48bf13	0.049010348
12	0x3d4be662	0.049780257
13	0x3c422f36	0.011852076
14	0xbc9a5b98	-0.018842503
15	0x3baebca0	0.0053325444
16	0xbbbfffdd	-0.0058593587
17	0x3bd2c5a1	0.0064322506
18	0xbd061792	-0.032737322
19	0xbba96283	-0.005169214
20	0xbc24486b	-0.010027031
21	0xbb6742bc	-0.003528758
22	0x3cf58682	0.029971365
23	0x3c46339b	0.012097265
24	0x3a991331	0.0011678693
25	0xbcbd78a2	-0.023128811
26	0xbd1257ba	-0.035728194
27	0x3ca5e393	0.020250117
28	0x3d429ba1	0.0475117
29	0xbc8a15aa	-0.016856033
30	0xbcfaaf49	-0.03060116
31	0xbd51e9fc	-0.051248536
32	0xbc308b10	-0.010775343
33	0x3d1d5712	0.038413115
34	0x3d72fcb8	0.059323043
35	0xbbfde256	-0.0077479286
36	0xbc4edd61	-0.012626023
37	0x3bbcf902	0.0057669887
38	0x3ce50c40	0.027959943
39	0x3b5679ed	0.0032726482
40	0x3c037080	0.008022428
41	0xbbd4474c	-0.006478226
42	0xbcce8942	-0.025211934
43	0x3b436b2a	0.0029818513
44	0xbd377c7f	-0.044796463
45	0xbc270f4f	-0.010196521
46	0x3bf61530	0.00750985
47	0x3c303a69	0.010756114
48	0xbc914fc1	-0.017738225
49	0xbca3c42d	-0.019991005
50	0xbc12557d	-0.008931515
51	0xbd137438	-0.035999507
52	0xbd457164	-0.04820384
53	0xba84abbb	-0.001012198
54	0xbc9d5e26	-0.019209933
55	0xbc5fccac	-0.013659637
56	0xbcc20e84	-0.023688562
57	0xbd0e4044	-0.034729257
58	0x3a5fc7bf	0.00085365394
59	0xbc801e7c	-0.015639536
60	0x3c4b5dc0	0.012412488
61	0xbb170fa7	-0.00230501
62	0xbc6e5f14	-0.014549036
63	0x3cae6441	0.02128804
64	0xbc2de21d	-0.010612992
65	0xbc56d42e	-0.013112111
66	0xbd16d9ae	-0.03682869
67	0x3a5f71a1	0.0008523707
68	0x3c77aba0	0.015116602
69	0x3bab67ce	0.0052308803
70	0x3cb83edb	0.02249091
71	0x3be6c7cd	0.007042861
72	0xbcae00e5	-0.02124066
73	0xbcd2c05d	-0.025726492
74	0x3c3a382c	0.0113659315
75	0x3b7ed98e	0.0038886997
76	0x3c5dd78a	0.013540158
77	0xbac3a4cf	-0.0014926436
78	0xbc4467ca	-0.011987636
79	0xbc81ccb2	-0.015844677
80	0xbbbe4ac5	-0.005807253
81	0x3b966e12	0.004590758
82	0xbab71b50	-0.0013969932
83	0x3c1f907e	0.0097390395
84	0xbd42ffff	-0.04760742
85	0x3b656c63	0.003500723
86	0xbd80a0a7	-0.06280642
87	0xbc98c8b8	-0.018650398
88	0xba82b40f	-0.0009971875
89	0xbcd8c626	-0.026461672
90	0xb9bc6440	-0.00035932846
91	0xbd227d18	-0.03967008
92	0x3d19cd90	0.037549555
93	0x3d7346a7	0.05939355
94	0x3bc3f15d	0.0059797005
95	0x3b973f93	0.004615733
96	0x3c16dbdc	0.009207692
97	0x3cd20385	0.025636444
98	0x3b9a1152	0.004701772
99	0xbc999fb7	-0.018752916
100	0x3c3270be	0.010891138
101	0x3a5c716d	0.0008409236
102	0x3c9d39bc	0.019192569
103	0xbc7590f0	-0.014988169
104	0xbc4c388c	-0.012464654
105	0x3c8b30b1	0.016990991
106	0x3d811fa9	0.06304867
107	0x3d1b75c5	0.03795411
108	0xbc706076	-0.014671436
109	0xbcb90532	-0.022585485
110	0x3ca3fe95	0.020018855
111	0x3c71fe2b	0.014770071
112	0x3ada187c	0.0016639377
113	0xbd5f06c1	-0.0544498
114	0x3c459f37	0.012061886
115	0xbb916a50	-0.0044377223
116	0x3ca6d4ea	0.020365197
117	0x3d0d38ec	0.034478113
118	0xbc868b0b	-0.016423723
119	0x3c247c0a	0.010039339
120	0xbc19091c	-0.009340551
121	0xbc057df6	-0.008147707
122	0x3c12115a	0.00891527
123	0x3ba242b2	0.0049517984
124	0xbc8a38bf	-0.016872762
125	0xbc127b97	-0.008940599
126	0xbc35ca04	-0.011095528
127	0x3cf6c133	0.030121421
128	0x3d2f3aa9	0.042780552
129	0x3c3c8e3d	0.011508522
130	0xbccc847c	-0.024965517
131	0x3a2489bd	0.0006276628
132	0x3c16cbba	0.009203846
133	0x3c6b77a1	0.0143717835
134	0xbd50265c	-0.050817832
135	0xbd0afecd	-0.033934403
136	0xbd12c02e	-0.035827808
137	0x3c25cbae	0.010119362
138	0xbc0140f5	-0.007889022
139	0x3a6d220f	0.00090459076
140	0xbd15879a	-0.036506273
141	0xbcab04de	-0.020876344
142	0xbc803699	-0.015651034
143	0xbcb6558d	-0.02225759
144	0x3c764239	0.015030437
145	0xbd11dc6e	-0.03561061
146	0xbcc9439b	-0.02456837
147	0x3caf23b1	0.021379324
148	0x3d193908	0.037407905
149	0x3c376a47	0.011194772
150	0x3c3eab7f	0.011637568
151	0xba74021f	-0.00093081774
152	0x3bb1c648	0.0054252483
153	0xbc8a5eed	-0.016890967
154	0xbcd60828	-0.026126936
155	0x3cc3f961	0.023922624
156	0xbb0729b9	-0.0020624234
157	0x3c874b35	0.016515354
158	0x3b5ca5b8	0.0033668112
159	0xbd035bd9	-0.032070015
160	0xbacfa499	-0.0015841901
161	0x3b383e62	0.0028113355
162	0x3c67a179	0.014137619
163	0x3c84e409	0.016222017
164	0x3b3ab334	0.002848816
165	0xbd006331	-0.031344596
166	0x3b9b37a7	0.004736859
167	0x3cd63efc	0.02615308
168	0x3ca5cb2d	0.020238483
169	0x3c9b5a20	0.018963873
170	0xbb9b6e57	-0.004743378
171	0xbc04b2c0	-0.008099258
172	0xbc15a00d	-0.009132397
173	0x3c404ab1	0.011736558
174	0xbb35a91a	-0.00277192
175	0x3b97d322	0.0046333233
176	0x3ccc11ae	0.024910774
177	0x3c0c0f02	0.0085485
178	0xbb889ea8	-0.004169304
179	0xbcbb420f	-0.022858648
180	0x3cfe8a59	0.031071829
181	0x3d1b9b48	0.037989885
182	0x3a054030	0.0005083112
183	0x3cd58427	0.026063992
184	0xbcf04dbc	-0.029333942
185	0x3c295a49	0.010336467
186	0xbb973236	-0.00461414
187	0x3a8df441	0.001083024
188	0xbc80a608	-0.01570417
189	0x3b74c18b	0.0037346806
190	0x3b027f7e	0.0019912417
191	0xbb0cfdfe	-0.0021513696
192	0x3c8effd5	0.017455975
193	0x3c42c0bf	0.011886775
194	0x3ca88599	0.020571517
195	0xbc88899b	-0.016667178
196	0x3bceb6d0	0.006308414
197	0x3d10c3e0	0.03534305
198	0x3bd26e17	0.006421815
199	0xbbdb215f	-0.0066873278
200	0x3b371162	0.0027933945
201	0x3cba8faf	0.022773592
202	0x3cd2d158	0.025734589
203	0x3cccc7bd	0.024997586
204	0xba5fa922	-0.00085319777
205	0xbbdb3e47	-0.0066907736
206	0xba8ebe25	-0.0010890408
207	0xbab504af	-0.00138106
208	0xbac12610	-0.0014736075
209	0x3bfc7884	0.0077047963
210	0xbbb2014d	-0.005432284
211	0x3d0ca20e	0.034334235
212	0x3d26384a	0.040581025
213	0xbc194254	-0.009354193
214	0xbc86df91	-0.016464027
215	0x3cbd9691	0.023143085
216	0x3c034cdc	0.00801393
217	0x3bbbbd2c	0.005729338
218	0xbc87a6e2	-0.016559068
219	0xbd0e6081	-0.034760002
220	0x3b9ddec4	0.0048178155
221	0x3cd6cf7f	0.026221989
222	0x3d20e88b	0.03928427
223	0x3c7374df	0.014859407
224	0x3cadd931	0.021221729
225	0xbba4988b	-0.0050230674
226	0xbc5f3974	-0.013624538
227	0xbcdec091	-0.027191432
228	0xbcae47b8	-0.021274433
229	0xbca4df28	-0.02012594
230	0xb9db9e6e	-0.00041888974
231	0x3b01d4b0	0.001981061
232	0x3c13e2be	0.0090262275
233	0xbcaeb93a	-0.021328557
234	0x3c10de43	0.008842054
235	0x3abcd1dc	0.0014405805
236	0x3c7659b6	0.015036037
237	0x3b631712	0.0034651202
238	0x3ca86a7e	0.020558592
239	0x3c952e56	0.018210571
240	0x3bf4d329	0.0074714613
241	0xbc05aeda	-0.008159364
242	0xbc6629b9	-0.014048033
243	0xbb393876	-0.0028262413
244	0xbc18e2a7	-0.009331382
245	0x3c3416ea	0.010991791
246	0xbc63987e	-0.013891337
247	0xbc9b8a2f	-0.01898679
248	0x3bf4dd4a	0.007472669
249	0xbc6f0b43	-0.014590087
250	0xbcbe3bd3	-0.023221886
251	0xbd7e84a2	-0.062138207
252	0xbd10b804	-0.03533174
253	0xbc65c61a	-0.014024282
254	0x3c062964	0.008188579
255	0xbd542584	-0.05179359

fc1.bias f4 [128]
0	0xbbf5faa9	-0.0075066877
1	0xbc0d1246	-0.008610314
2	0xbc4958ef	-0.01228927
3	0x3b0c6f72	0.0021428731
4	0x23540ea0	1.149564e-17
5	0x00000bef	4.281e-42
6	0x3c3aa1dd	0.01139113
7	0x3bd8a8fd	0.006611942
8	0xbc88aebd	-0.016684884
9	0x3ba49aea	0.00502335
10	0xba08959a	-0.00052102807
11	0x3bc5d14e	0.006036914
12	0x9e95540e	-1.5810753e-20
13	0x37b2be13	2.1307764e-05
14	0x3051f628	7.6383566e-10
15	0xbbef8278	-0.0073092543
16	0x80000dc0	-4.933e-42
17	0x3be1a426	0.006886023
18	0x3c571419	0.01312735
19	0x33e08b01	1.04560975e-07
20	0xbbacf03c	-0.0052776616
21	0xbb87601a	-0.0041313292
22	0x3bd86718	0.0066040866
23	0x3b635da9	0.0034693277
24	0x8000453b	-2.4835e-41
25	0x3c041c34	0.008063365
26	0x3c3cb3b0	0.01151745
27	0x3bdc8c2e	0.006730578
28	0x3c381102	0.011234524
29	0xbbc3bbe3	-0.0059733256
30	0xbc14b631	-0.009076641
31	0xbc4a5d5e	-0.012351362
32	0xbbc486b8	-0.005997505
33	0x3bd4a6d9	0.0064896164
34	0x3c2f225e	0.010689346
35	0x3c3a0cf2	0.011355625
36	0x3ba58e4c	0.0050523635
37	0xbbd2276b	-0.0064133904
38	0x3c27f003	0.010250094
39	0x28a8e92a	1.8752866e-14
40	0x3c8c35f8	0.017115578
41	0x3c6f36d2	0.0146004725
42	0x22393e91	2.5105298e-18
43	0x3c122fd8	0.00892254
44	0x3c116c88	0.0088759735
45	0x919c09e9	-2.4618568e-28
46	0xbbf228e5	-0.007390129
47	0x3c0e0441	0.008668006
48	0xb58dd2c8	-1.0566664e-06
49	0x3b31a25b	0.0027104828
50	0xbbae1d7e	-0.0053135743
51	0x3c0ef038	0.008724265
52	0x3b516b5e	0.0031954865
53	0xb27b29b5	-1.4619606e-08
54	0xb52a3cfa	-6.341867e-07
55	0x3c5a5752	0.013326483
56	0xbb7be8a3	-0.0038438223
57	0xb83d0698	-4.5067252e-05
58	0xbba2fcb6	-0.004973973
59	0xbc087baf	-0.00833027
60	0x3baa8d11	0.0052048047
61	0x3a01e600	0.0004955232
62	0xbbbe70e7	-0.005811799
63	0xbbe92226	-0.0071146665
64	0x3b1a5e81	0.0023554864
65	0x3b6023f0	0.0034201108
66	0xb9963500	-0.00028649718
67	0x3b3a47f1	0.0028424228
68	0xb889a7ff	-6.563961e-05
69	0x3b5efed9	0.0034026413
70	0xba5a9da9	-0.0008339533
71	0xbc1504cd	-0.009095383
72	0x3caa8379	0.020814644
73	0x3b80a3a7	0.003925759
74	0x3c24f65f	0.010068505
75	0xbbdcef2c	-0.0067423787
76	0x80000ddb	-4.97e-42
77	0xbbcd66ce	-0.006268359
78	0x3c694c06	0.014239317
79	0xbba96984	-0.005170049
80	0xb6729443	-3.614711e-06
81	0x3c3a9f64	0.011390541
82	0x39c69f53	0.0003788421
83	0xba10e8cb	-0.0005527853
84	0x97b933bb	-1.1968403e-24
85	0x37c8ab49	2.3921619e-05
86	0x3b8c8d44	0.004289301
87	0x3c2e5c06	0.010642057
88	0x3c8f85db	0.017519882
89	0xbc25e97d	-0.010126469
90	0x3bc1c939	0.00591388
91	0xbb9494f7	-0.0045343596
92	0x3c054a2a	0.008135358
93	0x3b46465b	0.0030254337
94	0x3b891500	0.0041834116
95	0xbbc4a3e3	-0.006000982
96	0xb6855014	-3.973031e-06
97	0x0fb60baf	1.7951086e-29
98	0x3ba463c1	0.0050167744
99	0x3a96384e	0.0011460872
100	0xba329382	-0.00068121415
101	0xa5eecdd7	-4.14259e-16
102	0xbb881828	-0.0041532703
103	0xb7be1a10	-2.2661901e-05
104	0x2621655e	5.5995474e-16
105	0x3c82bf3c	0.015960328
106	0x3c2a3dfd	0.010390756
107	0x3b5ce0a3	0.003370323
108	0xbbb5ce8f	-0.0055483053
109	0xb7c3157f	-2.3255821e-05
110	0x3bc4c83c	0.006005315
111	0xb9fb8fb0	-0.00047981506
112	0x3ba2d909	0.0049697203
113	0x3b91850b	0.004440909
114	0x3b916825	0.004437464
115	0xacc219cc	-5.5166757e-12
116	0xbb912542	-0.0044294903
117	0xbb762c84	-0.0037563154
118	0x3c37e500	0.011224031
119	0x39b96853	0.00035363677
120	0x3c450c29	0.012026825
121	0x3bbcddbe	0.0057637384
122	0x3a7588bb	0.0009366383
123	0xbb89809c	-0.0041962396
124	0x3b88bf88	0.004173223
125	0xb9bac43b	-0.00035622888
126	0x3c066ce2	0.008204671
127	0xb0d6fea8	-1.5642927e-09

fc2.weight f4 [10, 128]
0	0x3daae217	0.083439045
1	0xbdaeee06	-0.08541493
2	0xbd823f8b	-0.06359776
3	0x3c42ddbd	0.011893687
4	0x3c152665	0.009103392
5	0x3a1aec68	0.0005909861
6	0xbbb4e17d	-0.0055200444
7	0x3dd6411e	0.10461639
8	0x3dbdbb95	0.09264294
9	0x3d1827b5	0.037147243
10	0xbc5df437	-0.013546995
11	0x3c63b4ff	0.013898133
12	0x900a5348	-2.727986e-29
13	0x3a1a99cd	0.0005897552
14	0xb4a9a0a8	-3.1595596e-07
15	0xbdf16721	-0.117872484
16	0xb65fb1bb	-3.3333042e-06
17	0xbc2d4c78	-0.010577314
18	0x3ccbab96	0.024862092
19	0x371a2047	9.18663e-06
20	0xbd9f4938	-0.07777637
21	0x3dbc52f0	0.091955066
22	0x3dc72b14	0.097250134
23	0xbd1ad7a3	-0.037803303
24	0x3bc2a501	0.00594008
25	0xbd934c01	-0.07192231
26	0x3db4f399	0.08835525
27	0x3d302b03	0.04300977
28	0xbb92d3b4	-0.0044808034
29	0xbd5c8aff	-0.053843495
30	0x3d3754f2	0.044758745
31	0xbdf38658	-0.118908584
32	0xbde4afbd	-0.11166332
33	0x3b943360	0.004522726
34	0xbdb46e8f	-0.0881015
35	0xbd655a2e	-0.055994205
36	0xbcc7c0fc	-0.024384014
37	0xbde4d0d5	-0.11172644
38	0x3e2e011d	0.16992612
39	0x2cceaaaf	5.873822e-12
40	0xbd9ea95e	-0.07747148
41	0x3d942427	0.07233458
42	0x3954f8dd	0.00020310604
43	0x3e01cca1	0.12675716
44	0x3d9cafcc	0.07650718
45	0xbae44e91	-0.0017418434
46	0xbe05355f	-0.1300864
47	0x3dbdf395	0.09274975
48	0xb537e98e	-6.851268e-07
49	0xbc8156e1	-0.015788497
50	0x3da68578	0.08130926
51	0xbd9cae09	-0.07650382
52	0xbde9ff9e	-0.11425708
53	0xb26ebf39	-1.3896902e-08
54	0x322c751d	1.0038346e-08
55	0xbd0d8e9b	-0.034559827
56	0xbd8e5d92	-0.06951441
57	0x3bd7b284	0.00658256
58	0x3d873342	0.066015735
59	0xbd863cbd	-0.06554554
60	0x3de6a72e	0.11262356
61	0x3d81eb7f	0.063437454
62	0xbdcff39e	-0.10153888
63	0xbd12d24e	-0.035845093
64	0xbd2c3d17	-0.042050447
65	0x3d4fa021	0.05068982
66	0xbc5d2390	-0.013497248
67	0x3d356211	0.044282977
68	0xbc63648f	-0.0138789555
69	0xbe06aa1a	-0.13150826
70	0x3d71ceb3	0.059035014
71	0xbd7cff2c	-0.06176679
72	0x3d0a0b86	0.033702396
73	0xbe1feca4	-0.15617615
74	0xbddd4d65	-0.108057775
75	0x3d039735	0.032126624
76	0x33fd3a0f	1.17917914e-07
77	0x3d166ff7	0.03672787
78	0xbe098f6e	-0.1343362
79	0x3df4997e	0.11943339
80	0x39cb1bf4	0.00038740004
81	0x3da43057	0.080170326
82	0x3cc951bd	0.024575109
83	0xbc501b09	-0.012701758
84	0xb71cf5bf	-9.355542e-06
85	0x3b369655	0.00278606
86	0xbd9d8def	-0.07693087
87	0xbe0e9624	-0.13924462
88	0x3daf061f	0.085460894
89	0xbdcb56cb	-0.09928664
90	0xbdb76b89	-0.089560576
91	0x3c868d50	0.016424805
92	0x3de8577c	0.11344811
93	0xbbd6944e	-0.006548441
94	0x3cc04683	0.023471123
95	0xbd3def57	-0.04637083
96	0xb7b23d78	-2.1247877e-05
97	0xbb3fb456	-0.0029251776
98	0x3dc7f89c	0.09764215
99	0xbaf8af8e	-0.0018973218
100	0xbc91c4a0	-0.017793953
101	0x3981405d	0.00024652752
102	0xbd841563	-0.06449392
103	0x3b17acf6	0.0023143864
104	0xbc275bb8	-0.010214739
105	0x3d6591e3	0.05604733
106	0x3c044736	0.008073619
107	0xbe0eea5c	-0.13956589
108	0x3de06106	0.10956006
109	0x3a06672e	0.00051270693
110	0xb9bf2266	-0.00036455988
111	0xbd276b61	-0.04087389
112	0xbe15883f	-0.14602755
113	0xbc896b9a	-0.016774941
114	0x3d5deba1	0.05417979
115	0xba01da77	-0.0004953513
116	0xbe15615a	-0.14587918
117	0xbcfd4357	-0.0309159
118	0xbd26e060	-0.040741324
119	0xbc45d993	-0.0120757995
120	0x3ddc0e6d	0.10744939
121	0xbda3abe0	-0.07991767
122	0x3ca6d607	0.020365728
123	0x3c9c6a5e	0.019093689
124	0x3d110cb5	0.03541251
125	0xbe0cd319	-0.13752402
126	0x3cba5ba9	0.022748785
127	0x3374d395	5.700311e-08
128	0xbde6ed99	-0.11275787
129	0xbd6548db	-0.055977684
130	0xbe16a580	-0.1471157
131	0x3d5e198f	0.054223593
132	0x3c1e230d	0.009651911
133	0xb843f9e8	-4.6724366e-05
134	0x3df71f3e	0.12066506
135	0xbdbbfe3a	-0.09179349
136	0xbe31742e	-0.17329475
137	0x3dd2ed98	0.10299224
138	0x3c4af042	0.0123863835
139	0x3c04cde6	0.008105731
140	0x8c10b96e	-1.1149157e-31
141	0x39b15e3d	0.00033830284
142	0x1fa0107e	6.778992e-20
143	0xbdb9bf15	-0.09069649
144	0x357cce46	9.4177483e-07
145	0x3e206a98	0.15665662
146	0x3b184f90	0.0023240782
147	0xb5106f5a	-5.380622e-07
148	0x3dc72c4a	0.09725244
149	0xbc43d0af	-0.0119516095
150	0xbdc44c68	-0.09584886
151	0xbdc9cae2	-0.0985315
152	0xbb017fbe	-0.0019759978
153	0xbdcb62f0	-0.0993098
154	0x3de2da06	0.11076741
155	0x3d53f344	0.051745668
156	0x3dcb20dc	0.09918377
157	0x3d074430	0.033024013
158	0x3db8177e	0.08988856
159	0xbd973173	-0.073824786
160	0xbbeace79	-0.0071657267
161	0xbccef9da	-0.025265623
162	0x3dba6cf5	0.09102813
163	0x3d93856d	0.07203183
164	0x3dba58f8	0.09099001
165	0xbce66fc8	-0.028129473
166	0x3e33aaeb	0.17545669
167	0x29ce9725	9.174457e-14
168	0x3e0dece5	0.138599
169	0x3dad56f7	0.08463853
170	0xbb309449	-0.0026943854
171	0x3c40a334	0.011757661
172	0xbc2284b2	-0.009919332
173	0x390639d9	0.00012800786
174	0xbd5441ca	-0.051820554
175	0xbd4974ee	-0.04918378
176	0xb5844c1d	-9.856918e-07
177	0xbdf8a205	-0.12140278
178	0xbdf64908	-0.12025648
179	0x3dfdd338	0.123938024
180	0xbd1699b8	-0.03676769
181	0xb2c2f6b2	-2.2696756e-08
182	0x39ab5129	0.0003267613
183	0xbc9abd96	-0.01888923
184	0xbbde6ec1	-0.0067881052
185	0xb9b60d78	-0.0003472378
186	0xbdfd0c42	-0.123558536
187	0xbda8d06e	-0.0824288
188	0x3c87959c	0.016550831
189	0xbd987e0e	-0.07445918
190	0xbde98963	-0.114031576
191	0xbdf00b0d	-0.11720858
192	0x3d36ca2a	0.044626392
193	0x3a8abb5b	0.0010584401
194	0xbcb10fc7	-0.021613969
195	0x3de469ac	0.11152968
196	0x3c4e93c2	0.01260847
197	0x3cf5d001	0.03000641
198	0xbd4dc5a6	-0.05023732
199	0x3c01c479	0.007920378
200	0x3e34d212	0.1765826
201	0x3ddb49e4	0.10707453
202	0x3dae794e	0.08519231
203	0xbd311d63	-0.043240916
204	0x8f9e0bb1	-1.5584506e-29
205	0xbd03b3e2	-0.03215397
206	0x3d895106	0.06704907
207	0xbdcfc734	-0.10145417
208	0xad14c675	-8.456892e-12
209	0x3da323fc	0.07965848
210	0xbd8e8ff3	-0.0696105
211	0x3bfeebe4	0.007779585
212	0xb989fb6c	-0.00026318
213	0x3c067797	0.008207223
214	0xbda23846	-0.079208896
215	0x3dc49017	0.095977955
216	0x3d889963	0.06669881
217	0xbcfa7aee	-0.030576196
218	0x3d925c56	0.07146518
219	0xbde8108e	-0.113312826
220	0x3d740c45	0.059582014
221	0xbcbb4d63	-0.02286405
222	0xbb7640e2	-0.0037575294
223	0xbdff0748	-0.12452561
224	0x38ee3029	0.00011357695
225	0xba22f7af	-0.00062167173
226	0xbe023a1e	-0.12717482
227	0x3dbc04af	0.09180581
228	0xbe11c476	-0.142351
229	0xb9c330f3	-0.00037229768
230	0xbd066c25	-0.03281798
231	0xbabd5707	-0.0014445492
232	0x3bc1edd9	0.005918246
233	0x3dc3b2a5	0.09555558
234	0xbd53461e	-0.05158054
235	0x3d6b69ae	0.05747383
236	0xbdc3a1de	-0.09552358
237	0x38521ace	5.0092865e-05
238	0xbdd52d21	-0.10408998
239	0xbad134b9	-0.0015961147
240	0x3d9c66d3	0.076368
241	0xbd814546	-0.06312041
242	0x3de64371	0.11243332
243	0x38a2a96c	7.756319e-05
244	0x3db13e3a	0.08654447
245	0xbd0e0e4a	-0.034681596
246	0x3d801fa7	0.06256037
247	0xbd80e78d	-0.06294165
248	0x3db8ef81	0.09030057
249	0xbcd6b9d2	-0.026211653
250	0xbe202aa3	-0.15641265
251	0xbdd52423	-0.10407283
252	0xbba182b4	-0.004928911
253	0x3dd0e37c	0.10199639
254	0x3c99d694	0.018779077
255	0x36c8f07e	5.9884615e-06

fc2.bias f4 [10]
0	0x3d4914ca	0.04909209
1	0x3d70a805	0.058753986
2	0x3d81bfbe	0.063354
3	0xbd01d1b7	-0.03169414
4	0x3c8c89e8	0.017155603
5	0xbb6d358e	-0.003619525
6	0xbd87a554	-0.06623331
7	0x3d4699cc	0.048486516
8	0xbb3bb344	-0.0028640786
9	0xbd00e2ff	-0.03146648
