models/trained/ConvNet2_5.pt (torch, 442402 bytes, 12 tensors)

conv1.weight f4 [8, 1, 3, 3]
00000000: 1e04 513e 9d17 6e3e 08c0 8d3d 440e 55bd
00000010: 1eae b63e afe6 b73e fde1 dabd 9cef d9be
00000020: 59f3 d2be ea92 4d3e f0f8 9fbe 2442 f2be
00000030: e89e d23e aa0c 69be c77c 8ebe 8ed0 293e
00000040: 4fd9 51be 4265 523e 3fca 4e3d 28f2 49bf
00000050: 3abf a0be 6441 4dbe ae9e 87bd edac 843e
00000060: cd4f 833e d069 db3e 1588 3e3e e2e4 8bbe
00000070: 817e 23be e73d 3ebd c2d3 2abe 3f9e 233e
00000080: f08a 733e 649b 623b a17b 31be 5249 853e
00000090: 5e79 333e 9cab 533c fd4f 9a3d c99b 0cbd
000000a0: c46d 043e 6f4a ea3d b6d4 5d3e 0afa 813e
000000b0: 53b6 ec3d f344 473d ea43 9ebd 8fe8 603e
000000c0: 794e 85be 4808 42bf 4bd4 433e 18ed 193f
000000d0: 5d81 62be 24c2 9b3d 3f03 1dbf 1b87 5cbd
000000e0: 9548 fdbd 91a2 8bbd 8e7c ee3e a5cb 933e
000000f0: e02d 233e a47f 44bd 48f9 dbbe 218f 34be
00000100: a79e d9bd c9f6 083d 9df2 a3be a72e 023e
00000110: 3093 9b3e 27f7 64be d7b8 dd3d 40f4 1c3d
0.20411727 0.23251195 0.06921393 -0.052015558 0.35679716 0.35918185 -0.10687635 -0.4256562
-0.41201285 0.20075575 -0.31244612 -0.47316086 0.4113686 -0.22758737 -0.27829573 0.16583464
-0.20493053 0.2054644 0.050485846 -0.78885126 -0.31395894 -0.20044476 -0.066220626 0.25913182
0.2564682 0.42854166 0.18606599 -0.2732306 -0.15966226 -0.046445753 -0.16682342 0.15978335
0.23783469 0.0034577483 -0.17332317 0.260325 0.17526767 0.012919333 0.07534788 -0.034328256
0.12932497 0.11439978 0.21663174 0.25386077 0.11558213 0.04864974 -0.07727797 0.21963714
-0.26036432 -0.75793886 0.19123952 0.601274 -0.2211966 0.07605389 -0.6133308 -0.053839784
-0.123673595 -0.068181165 0.46579403 0.28866306 0.15935469 -0.04797329 -0.42963624 -0.17632724
-0.10625964 0.033438478 -0.32021037 0.12713109 0.30385733 -0.22359906 0.10826271 0.038318872

conv1.bias f4 [8]
00000000: 021b 1abe df95 91be fbc9 0cbe d5e8 a4bd
00000010: 338f 7dbd bbcf 9fbe f7f7 85be 2249 0cbe
-0.15049365 -0.28434655 -0.13748924 -0.08052222 -0.061904144 -0.31213173 -0.26165745 -0.13699773

conv2.weight f4 [32, 8, 3, 3]
00000000: cc9f 32be b07a fbbd bbf5 39be 4f35 303e
00000010: f15c f9bc 3d7a 81be 63db 323e d36a 6c3d
00000020: 5428 133e 0ef1 ac3d 95dc 6ebc f588 82be
00000030: d71e 16be 4be9 a5bd e93f 843e fd43 0fbf
00000040: 8768 01bf 3f6b d73d d73a f13d aeec 823e
00000050: e396 82be abf3 1f3e c56e 863e 8ac1 67bc
00000060: 7cbf 56be b55d 57be 8c27 d5be aa17 95be
00000070: 3a7d d1be 21c2 b9bd 7e14 d83d 3b4d b23d
00000080: 216a d3bd 20b6 2ebe 6ced 983e c547 b7bd
00000090: 12e9 66bc a53a 78be f9e2 98be 7967 123c
000000a0: 050c 393d a8f6 c73c ceaf aabd a205 453e
000000b0: 89b1 c03d 4658 3cbf d9ed 873e 7fdc 7f3e
000000c0: c3bd a1be d499 313e 1d2a ca3e aea9 2abe
000000d0: b21f 623d 5c02 4a3e 094e 2f3d 101f 16be
000000e0: 96be 1bbf a76f 373e 263e 5f3d 9d97 8f3c
000000f0: ed89 a7bd 6bfc 493e 288a 17be 28ef 70be
00000100: d813 debe f181 a9be fea3 eb3d 9673 9f3c
00000110: b145 34be a308 2abe af6e d73e 2fca b2bd
00000120: a8c3 9fbd 792d a93d 2de5 59bd a8d3 45bd
00000130: 5c49 c7bd 29b4 9fbe 5ce3 0b3e 14ff edbc
00000140: db9b 06bf 046c 1bbe fe25 86be 8529 6dbe
00000150: bb3e c53d 82ec 713e 5874 c23c 925c 053e
00000160: b6b7 073f ed9f ac3d ad05 683e e221 4ebc
00000170: c492 27bf 4066 c33e e9b1 cfbd cc31 94be
00000180: 9bfe c4bd eaec cbbc b26c 683e 6f7b c6bd
00000190: 89fb a1bc 7713 75be 68b4 853e 5819 46be
000001a0: 7c17 51bc a467 813e 9980 8cbe f6f3 83bc
000001b0: 266e 29be 80f5 28be e30e 83be 5f24 b73d
000001c0: 8269 263c 03b7 9cbe c04e 183e 4adc 993c
000001d0: daba 3cbe 01e7 d43d ed7a 2abc 51ef 713e
000001e0: e6a3 d43d 199e f4bc 9875 3dbe 08bc 55bd
000001f0: 042e 04bf 127e c43d db3f 91be a6f2 6b3d
00000200: 0ef1 a6be acee b8bd 4531 403d c1d1 09bf
00000210: ae67 2c3e 0cb6 52be 1519 a1be 23f6 10be
00000220: 4cc9 cdbd e6ab 31be c53c 363e f0af 8fbd
00000230: 31f3 513e a19d 563e d65c 66be 3d4d fe3d
00000240: bf14 173d dfbf 4fbe 034b f23d 8334 783e
00000250: a284 e6be a5a4 693c 8e20 42be 6df7 07be
00000260: c120 c9bb 8942 cc3c f17c 8a3e c0e1 23bf
00000270: 3ab1 0dbe 6c02 c0bd 9e99 d4be f89f bd3c
00000280: 4607 96be 9bc3 babe c274 2e3d 4f60 14bf
00000290: b21c a5be 16c3 5abe 726d 40be d0f8 013e
000002a0: 8f97 a23e 40c1 febc 8624 b0bd 595a 72bd
000002b0: b702 89be 9ac8 1c3d f8e8 d6be 871c 673d
000002c0: e3e5 c13d 3524 5f3d 728e 0dbe f121 543e
000002d0: 6939 6a3e d388 81be 3843 673d 42d6 2cbe
000002e0: 9c1b 28be 0a0c 0d3e e291 603e 9de7 08be
000002f0: e42f fabc f121 f2be 7f4d a4bc 80a6 90bd
00000300: 045c bfbe 91de 12be 006b caba 308a 8c3e
00000310: d7ac c63c 010b 893d fb6f 453d 7832 8fbe
00000320: ab8e 89be 7f0e 91bd 4c51 81be 1616 cc3d
00000330: 4808 a23e f2b1 0f3e a60b 093e f83f 51bc
00000340: e770 67bd bf66 2a3e 2ee1 afbe b321 80bd
00000350: ca8c 713e 129c 1dbe bb7a 02be 6eb4 4d3e
00000360: 7dcc 1fbe 3d3e a639 9cc7 6ebe d2d5 f1bd
00000370: fa75 a03b 06d0 f6bd 439c 0abe bd62 543d
00000380: e7c6 b1bd 1669 20bd b221 fb3d 5bb5 3c3d
00000390: 06d2 9dbd dc10 34bd 6a27 0fbe 4bb3 97bc
000003a0: ada9 153e f738 d23d ce87 843d 82cd 07bd
000003b0: e702 07be cc7d cfbd 3931 b9be b8e4 103d
000003c0: a4ff 84bd 5dda 453d b668 2f3e 008d 76bb
000003d0: dcd7 943d 93fe 03be 8281 f7bd f461 1ebd
000003e0: 463b 1c3d 5ee6 19bd 8f95 5a3e 6751 3ebd
000003f0: 3328 0ebd 27a0 2cbe 7b46 63be f820 cbbd
-0.1744377 -0.1227926 -0.18160145 0.17207836 -0.030439826 -0.25288573 0.17466502 0.057719063
0.14370853 0.08444415 -0.014578958 -0.25495115 -0.14660202 -0.08101138 0.2583001 -0.55963117
-0.5055012 0.105185024 0.11778801 0.25571197 -0.25505742 0.15620296 0.26256385 -0.014145264
-0.20971483 -0.2103184 -0.41631734 -0.29119617 -0.40915853 -0.0907023 0.105507836 0.08706137
-0.10322977 -0.17061663 0.2986864 -0.08949236 -0.014093654 -0.24241121 -0.29860666 0.008935803
0.04517748 0.024409607 -0.08334313 0.1924043 0.09408862 -0.73572195 0.2654865 0.24986456
-0.3159009 0.17343837 0.39485255 -0.1666629 0.05520601 0.19727463 0.04279903 -0.14660287
-0.60837686 0.17913686 0.05450263 0.01752835 -0.08180604 0.19725196 -0.14798796 -0.23528731
-0.43374515 -0.3310695 0.115058884 0.019464295 -0.1760471 -0.16604857 0.42076632 -0.0872997
-0.0780099 0.08260626 -0.053197075 -0.048297554 -0.09730789 -0.3119214 0.1366095 -0.029052295
-0.52581567 -0.15177923 -0.2620086 -0.2316037 0.096311055 0.23625377 0.023737118 0.13023594
0.53014696 0.08428941 0.22658415 -0.0125813205 -0.6545832 0.38163948 -0.101413555 -0.28944242
-0.09618875 -0.024893243 0.22697714 -0.09691512 -0.019773262 -0.23933206 0.26114202 -0.19345605
-0.012761947 0.25274384 -0.27441862 -0.01610754 -0.16545925 -0.16499901 -0.25597295 0.08942484
0.010156991 -0.30608377 0.1487379 0.0187818 -0.18430653 0.10395623 -0.010405284 0.23626448
0.10382824 -0.029860543 -0.1850189 -0.052181274 -0.51632714 0.095943585 -0.2836903 0.057604454
-0.32605785 -0.09029898 0.046921987 -0.53835684 0.16836426 -0.20577258 -0.3146445 -0.14156394
-0.1004816 -0.1735073 0.17796619 -0.07015979 0.20502926 0.20958568 -0.22496352 0.12417076
0.03688502 -0.20288037 0.118307136 0.24238782 -0.45023066 0.014260446 -0.18957731 -0.13277979
-0.006137938 0.02493407 0.27048448 -0.6401634 -0.13837138 -0.09375462 -0.4152345 0.023147568
-0.29302424 -0.3647736 0.042591818 -0.57959455 -0.32248455 -0.21363482 -0.1879175 0.1269257
0.31756255 -0.031098008 -0.08600716 -0.059168193 -0.26759884 0.038277246 -0.41974616 0.05642369
0.094676755 0.05447789 -0.1382387 0.20716073 0.22873463 -0.252997 0.05646059 -0.16878608
-0.16416782 0.13774124 0.2193065 -0.13369603 -0.030540414 -0.4729152 -0.020056484 -0.07063007
-0.3737489 -0.14342715 -0.0015443265 0.2744918 0.024252338 0.06691552 0.048202496 -0.27968192
-0.2686666 -0.07082843 -0.25257337 0.0996515 0.31646943 0.14032724 0.1338335 -0.012771599
-0.056504156 0.16640757 -0.34351486 -0.062564276 0.23588863 -0.15391567 -0.1274213 0.2008836
-0.1560535 0.00031708358 -0.23318332 -0.11808361 0.0048968764 -0.12051396 -0.13536172 0.051851977
-0.08680516 -0.039162718 0.12262286 0.04607139 -0.077060744 -0.04396139 -0.13979879 -0.01851811
0.14615507 0.102647714 0.06471215 -0.033154972 -0.13184701 -0.10131416 -0.36170366 0.035374373
-0.06494072 0.04830395 0.17129788 -0.0037620664 0.072677344 -0.12890081 -0.120852485 -0.038667634
0.038142465 -0.03757321 0.21346115 -0.04646435 -0.034706306 -0.16857968 -0.22194855 -0.09918398

conv2.bias f4 [32]
00000000: e0c8 13bd c11c 0e3e 872f 043e 6e5d fbbd
00000010: 7bf1 4ebe e526 9f3e 1a23 df3c 55e2 3ebd
00000020: 6447 273d 7498 25be 2de0 a73c 96da 4ebe
00000030: 1736 29be da8f 8ebe 179a 18be 2a55 f1bc
00000040: f653 8bbe ef78 703e 9989 e7bc db73 57be
00000050: c064 0ebe 3cfd e4bd 8cd0 9abc 63ae 2ebd
00000060: 361e 11be 18b1 6abe 6699 15bc 34db b1bd
00000070: db06 23be f04a aebd cc5a 783e 6a5d 0fbe
-0.03608024 0.13878156 0.12908755 -0.1227368 -0.20209305 0.31084362 0.027238417 -0.046602566
0.040839568 -0.16171438 0.020492638 -0.20200571 -0.1652454 -0.27844125 -0.1490253 -0.029459555
-0.27212495 0.23483633 -0.028263854 -0.21040289 -0.1390562 -0.11181113 -0.018898271 -0.042646777
-0.14171681 -0.22919118 -0.009130811 -0.08684388 -0.15920584 -0.08510387 0.24253386 -0.14000478

conv3.weight f4 [64, 32, 5, 5]
00000000: 39b9 ecbd fa0e 35be d517 3fbe b5b8 0abe
00000010: 3180 abbd c577 1e3e eecb 483d 1312 07be
00000020: 738d 793d fde1 92bd 0053 78bd b696 31bd
00000030: 5266 ef3d 4f37 eebd 9f59 923d fc80 abbd
00000040: 917a 16be 6993 6fbe 6fc6 16be 9181 253d
00000050: dfe5 aabd 2916 82be a417 8ebe d86f 03be
00000060: 36c9 9ebd b9df d13d 19ac e63c 499b 87be
00000070: c4bd e4bb aa2a 633e 3e46 13be 207b eebe
00000080: 9e86 f2bd 736f ac3d 248e 853d 540c c3bc
00000090: 11ee 71be 0f29 e6bd 8908 653e 8b51 5abc
000000a0: d16e 053f 8ed3 ff3d ca4c bcbd 0487 4b3e
000000b0: 56ae f5bc 0c90 9b3e 0b75 873e 7171 073e
000000c0: fd3c e8ba 2668 5cbd e952 03be 0c20 a0bd
000000d0: 19b7 8b3d 4018 31bb 2e15 8ebe 2c63 32be
000000e0: 4c9d 21be 9423 28be 6f85 3cbe fdef 62be
000000f0: fec2 62be 84e8 4dbe 4b70 91be 3895 e7be
00000100: 4944 b5be 8a8f 73be 469f 7dbe 69c2 e3bd
00000110: ba42 81be 6ec6 97be 5ad9 32be 154d 98bd
00000120: 01b4 843d 8f5b 1ebe b248 2ebe d5db 5c3e
00000130: 4eec 1e3e 2e27 163d 15a7 8e3b 1b43 8fbd
00000140: 7335 ccbb a648 cf3c 9b89 6b3d 5888 ecbc
00000150: db53 393d f6e1 5dbe 3d47 02be 90ed 0bbd
00000160: 1825 9c3a b88e 173d b5f9 09be 0fbf 36bd
00000170: 11b8 cc3a 269f adbd ee73 5fbd e7dc 493e
00000180: 32a1 93bd 5ec2 d2bc 4cfb 3bbe 12b4 63be
00000190: d952 d13d 98ad 3bbd 94dc c1bd 0c2c 61bd
000001a0: cbdf 34bd ef86 773e 40e0 d83d cc2e 2ebd
000001b0: 7ec4 3dbd d7c0 473d b46d 9ebd 0791 1d3d
000001c0: 3f3e 003b 4126 b6bc 7488 febd 4859 5cbe
000001d0: 7be8 15be 3d58 03be 90cc 143e 55b4 173e
000001e0: eeba 28bd 8a6c 0bbd 4a5a d2bd c9e9 f2bd
000001f0: a0ae 043e 333b d8bc dde0 afbe 5876 e9bd
00000200: 79f1 c0be f427 c1bd bf0f 57be 93e6 84be
00000210: 3cec 98be 346b 6bbe 9b68 93be 2488 783e
00000220: c4d4 bdbe 3aff 3bbd 2c19 9ebe db03 68be
00000230: 904d 0abf 85fa 5ebd 4e78 2a3d df9e c6bd
00000240: 912b d3be 6b00 16be d050 eebd 4a2d 743b
00000250: 8edf b53e 6a2e fa3c a3dd b8be 355c 29be
00000260: 751b 40bd e728 c0be a571 12be cbd8 ddbd
00000270: 9996 78be 09ae 4cbe 1014 4fbe 50ee d1bd
00000280: 6b6a 0b3d 421a 83be 8e50 1bbd 6d27 aabe
00000290: 00a4 94bd 31e5 39be 6b28 bcbb afb2 0b3e
000002a0: 6097 043d 78c9 35be 5d7d cfbe 9948 91be
000002b0: cef4 0d3c 08e2 983e 6591 a63d df0f b2ba
000002c0: b629 2e3e e119 b3bd 1c4e 4bbd ee81 0ebe
000002d0: 86fd 283e 073c a23d 3f49 17bd 1a0b b1bc
000002e0: 336b 543d 9e61 713e 2254 9abd b66f 2ebd
000002f0: afda b6bd d5ff 2cbe a691 e33d 1926 a2bd
00000300: 2481 dabc f7d8 5cbd 7d32 3d3d 369b 493e
00000310: 7b8f dcbc 4eae 93bd 8e18 e4bb 95c3 193e
00000320: bda8 22be fb51 8fbe feb5 c1be 873e 57be
00000330: 861a 62be 4322 743e 7c81 8fbe 73fc e2bd
00000340: 6872 05bd 34f1 a53d 9f62 6c3e 4fbe 4cbe
00000350: 2cbb 603e 7880 bf3d eb3e 9bbe af20 afbe
00000360: 067d 77be e117 973e 8cc4 6cbe 3b92 1abe
00000370: 7737 83be 34c4 a0bd a59e e63d f61f e03d
00000380: f71d e03e 0d9a 0f3c 1c3a f43d 97e1 6abd
00000390: 6b08 f3bd 07d5 33be e64d c83d 03bd bfbd
000003a0: 2ba6 abbd 8446 dcbc c82d 173c 19c7 a8bd
000003b0: 6426 103e 8285 dfbd 8b72 463c bf34 b33d
000003c0: 612f a33c a47e 79bd f7ad 11be c9f2 353d
000003d0: e85a 7ebd fcd2 cebd b84e 90bd ad98 35bc
000003e0: 6206 183d d039 15be 0ca8 a2bd 16a7 afbe
000003f0: 348f 433d 4d96 80bd 8018 d4bd dece 2ebe
-0.11558766 -0.17681494 -0.18661435 -0.13547023 -0.0837406 0.15475376 0.049022608 -0.13190489
0.060925912 -0.0717201 -0.06062603 -0.04335662 0.11689438 -0.11631643 0.07146 -0.08374211
-0.14695193 -0.23396076 -0.14724134 0.040406767 -0.08344626 -0.25407532 -0.2775241 -0.12835634
-0.07753222 0.1024775 0.028158234 -0.2648566 -0.0069806296 0.22184244 -0.14382264 -0.46578312
-0.118420824 0.08419695 0.06521252 -0.02380959 -0.23625971 -0.112383 0.22366537 -0.013325105
0.5212222 0.12491523 -0.09194334 0.19875723 -0.029990356 0.30383337 0.26456484 0.13226868
-0.0017718371 -0.05381026 -0.12824596 -0.078186125 0.068220325 -0.002702251 -0.27750534 -0.17420644
-0.1578266 -0.16419822 -0.18410276 -0.22161861 -0.22144696 -0.20108229 -0.28405985 -0.45231032
-0.3540366 -0.23785225 -0.24767789 -0.11121065 -0.2524622 -0.29643577 -0.17465726 -0.07436577
0.064796455 -0.15464614 -0.17019919 0.21568234 0.1551983 0.03665846 0.004353414 -0.06995221
-0.0062319576 0.025303196 0.057504278 -0.028873608 0.045245986 -0.21668229 -0.12722488 -0.034162104
0.001191291 0.03700134 -0.13474162 -0.0446158 0.0015618821 -0.08477621 -0.05455392 0.19713174
-0.0720848 -0.025727447 -0.18357581 -0.2223666 0.1022088 -0.04581985 -0.094659 -0.054973647
-0.044158738 0.24172567 0.10589647 -0.042525098 -0.046329968 0.04876789 -0.07735768 0.038468387
0.0019568352 -0.022235038 -0.1242837 -0.21518433 -0.14639466 -0.12826629 0.1453116 0.14814885
-0.041193895 -0.034039058 -0.102711275 -0.11860997 0.12957239 -0.026395416 -0.34351245 -0.113995254
-0.3768423 -0.094314486 -0.210021 -0.25957164 -0.29867733 -0.22990113 -0.28790745 0.24270684
-0.3707639 -0.0458977 -0.3087858 -0.2265772 -0.540246 -0.054438133 0.041618638 -0.09698271
-0.41244176 -0.14648597 -0.116365075 0.003725844 0.3552212 0.03053971 -0.36106595 -0.1653908
-0.046901185 -0.37531206 -0.14301164 -0.108323656 -0.24276198 -0.19988264 -0.20222497 -0.102505326
0.034037035 -0.2560597 -0.03791862 -0.33233204 -0.07257843 -0.18153836 -0.005742123 0.13642381
0.032370925 -0.17752635 -0.40525332 -0.283757 0.008664323 0.29859948 0.081332006 -0.0013585052
0.17008099 -0.087451704 -0.049635038 -0.13916752 0.16502962 0.079216056 -0.036935087 -0.021611739
0.051860046 0.23572394 -0.07535578 -0.042587005 -0.08928429 -0.16894467 0.111117646 -0.07917423
-0.026672907 -0.05391785 0.046190728 0.19688115 -0.026923886 -0.0721098 -0.006960935 0.15016015
-0.15884681 -0.27992234 -0.37834162 -0.21019946 -0.2208043 0.23841195 -0.28028476 -0.11083307
-0.03257981 0.081026465 0.23084496 -0.19994472 0.219464 0.09350675 -0.3032144 -0.34204623
-0.24168786 0.29510406 -0.23121852 -0.15094845 -0.25628254 -0.07849923 0.11260728 0.10943596
0.4377286 0.008764756 0.11925146 -0.057344045 -0.1186684 -0.17561732 0.09780483 -0.09362223
-0.083813034 -0.026889093 0.009227224 -0.082411 0.14077145 -0.109141365 0.01211227 0.08750295
0.019920053 -0.06091179 -0.14226519 0.04442099 -0.062098414 -0.10098836 -0.070462644 -0.011083764
0.037115462 -0.14572835 -0.07942209 -0.34307164 0.04774399 -0.062786676 -0.103562355 -0.17071101

conv3.bias f4 [64]
00000000: 1f08 1dbc 34d5 84bd 9374 51bd edaf 03bd
00000010: 432f 3bbd c073 c0bd 8ab3 b0bc 8ded 47bc
00000020: 8c55 0fbd 8725 bfbd 0767 2abd b6e4 67bd
00000030: 177f 2bbc b3ec dfbd ad0c 28be d43e 38bd
00000040: c297 e6bc 69ab 323d 7e98 8ebd ee9d 223e
00000050: 3391 8abd c508 7cbd d2bc 2abd 5b96 453d
00000060: 1495 5fbd 215c 8ebc b029 04bd 0a44 c33c
00000070: 30fe 6fbd e2e7 a1bc 101c e3bc 80d7 77bc
00000080: 0251 60bd e876 80bd 6581 eabd d5f7 8fbd
00000090: d809 113c 472e 10bd ae07 15bd c79d ac3c
000000a0: a947 6a3d eca1 a8bd b340 2ebc bcbc afbd
000000b0: fb5e cabc 96af 83bd 7f52 503c 535a 843d
000000c0: ebd3 14bd 6983 74bd e24f bd3c f4d9 80bc
000000d0: ad47 0abc 14ad 9e3d 66f1 8cbd 510a 51bd
000000e0: cc69 68bd 7373 363c 7813 fa3c 93df 2cbd
000000f0: f16d 41bd 0d20 4cbc 4226 29bd 938d 5abd
-0.009584456 -0.06485978 -0.051136564 -0.032150198 -0.04569937 -0.093970776 -0.021569986 -0.012202633
-0.034993693 -0.0933333 -0.04160216 -0.0566146 -0.010467312 -0.10933819 -0.16411085 -0.044981793
-0.028148536 0.0436205 -0.06962679 0.15880558 -0.06765976 -0.0615318 -0.04168398 0.048239093
-0.05458553 -0.017377915 -0.03226632 0.023836154 -0.05859202 -0.01976389 -0.027723342 -0.015127063
-0.054764755 -0.062726796 -0.11450461 -0.07029692 0.008852445 -0.035200384 -0.036384277 0.021071328
0.057197247 -0.08234009 -0.010635543 -0.0858092 -0.024703493 -0.06429975 0.012714981 0.064625405
-0.036334913 -0.059695635 0.02310938 -0.015728928 -0.00843994 0.07747856 -0.068819806 -0.05103523
-0.05674152 0.011135924 0.030526862 -0.042205404 -0.04722399 -0.012458813 -0.04129625 -0.053357672

fc1.weight f4 [86, 576]
00000000: 634a da3c 9700 103d 6baa c1bc e6ea 1e3c
00000010: 199a 98bd 343a 01bd cb33 143c 1847 f5bc
00000020: ee54 9bbd 2020 c93b 18c4 cebc a03a f6bb
00000030: a9b9 e6bc e966 a2bd fc8b 17bd 9602 7e3c
00000040: 505c 48bc d8c1 35bd 2ba2 d53a 8082 e33a
00000050: 805f dabb 0605 cdbc 2cd8 033d c035 ae3c
00000060: 4b0e fa3c 5200 0ebd 43d8 253d 8f4a 23bd
00000070: 1a8f 5cbd 9a66 13bb b262 a9bd 3bfe bdbc
00000080: b1b4 24bc 7e0c 953c 409d d03b eadf 57bd
00000090: 208e 37bc 7605 ef3c ab1c f5b9 9bd1 0a3d
000000a0: 4003 e7bc 9efa be3c 5cfb 023d 6873 27bd
000000b0: 6ec9 9a3c 43c9 89bd 8792 c0bc 839a 8cbd
000000c0: 8658 23bd 0094 d9b9 3fa3 6fbd 3be1 8abd
000000d0: b88f efbc 87a2 85bc 451c 53bd 7ce4 aabd
000000e0: 8217 88bd a071 f0bc 8c74 acbb 4b59 75bc
000000f0: 4cf0 1bbd 6e00 a1bc 6a7f 01bd 60af f4bb
00000100: 58ff fd3c b095 c8bc a4a6 5abd 68e3 7ebd
00000110: 5318 d53c 408d 48bb 285e a9bc 97c0 20bd
00000120: 1509 9ebc b8cb 65bc 7e78 133d 3cde a8bd
00000130: 9804 28bc 3b70 373c 56f2 ce3b ee32 13bd
00000140: eede 83bc 533f 90bd 9663 203b 5661 36bc
00000150: 2aa9 04bd b3f9 72bd 402d ddbb 7d75 01bd
00000160: c707 86bc 98a6 dd3c 8b7d 87bd e58a 09bd
00000170: f94d 56bd 7a03 debb f676 13bd 5d20 a7bd
00000180: 867b 48bd 6244 5fbd 3eac 9cba 4ed1 a13c
00000190: 960c 29bd 6d4d 69bd 164b 80bc 66cf 1a3c
000001a0: d6c6 87bd 8bc0 933c 9348 11bd 2802 e4bc
000001b0: 9629 f93c 708d 243c a1f9 9ebd e096 a2bc
000001c0: 5bd6 643c 2be3 813a 549f 26bd 0bd9 b33b
000001d0: 0c4d 19bd c805 7fbd a8c7 60bd 8bd6 f33b
000001e0: 1679 4fbd 9e83 a9bd 7c80 18bc 6132 94bc
000001f0: 1614 75bd 65c9 78bd a723 223d 4b34 f7bc
00000200: 70d0 3cbc ab2f f3ba 9b6a 62bc 3665 0abc
00000210: 97e6 043d 66d3 213c dbe2 93bc c027 98bb
00000220: 54ee 63bd cf18 5cbd 673a 4dbd f99b 8dbd
00000230: 491b 74bd 89bf ddbc b855 a9bc 5733 81bd
00000240: 28e5 abbc 4047 6f3b 4b8a 6d3c c08c f1bb
00000250: 6042 543c d285 0a3d 7b04 c33c 2bd5 99bb
00000260: 70f7 0e3c 63ab 8fbd cf1a 92bd 9de1 8fbd
00000270: 56f8 e4bb bd31 66bc 9d40 5bbd a689 75bd
00000280: 2073 02bd 7b1c 1abd eb49 abbc c49c 4abd
00000290: 051a eebb 401e 12bd 2b0d df3c 15ef 47bc
000002a0: 0f9d 13bc 56fb 8639 a8a8 9ebc 3b79 d0bc
000002b0: 9406 1abd e0d9 0ebd b012 c4bc 0055 bf3a
000002c0: 765f bf3b 6e02 00bd f08e 01bc de74 fa3c
000002d0: 9b1c 68bb 5ba4 c5bb dbff 2cbc 61c6 adbc
000002e0: 3d42 f6bc d19a 9cbc 0a9b 8ebd 2ba0 09bd
000002f0: 7be5 fbbb d686 bfbb f390 ed3c 4323 a43c
00000300: 5677 cbb9 c039 8dbb 13d9 26bd 969d 53bc
00000310: d6cb 43bc b38d fbbc 2670 893c cd39 69bd
00000320: 85fa a2bd cdf4 eebc 315c 82bd 02cb 3ebc
00000330: 813e 52bc d74a 4ebd bb49 2dbd 251a a8bd
00000340: 8087 b1ba 314c 3ebc 42b7 08bc 576a 19bd
00000350: 5cba 0d3d 33b8 a2bd 363c 37bd 4657 75bc
00000360: 9818 7dbd 58c7 19bd f71e 05bd 5a49 a3bd
00000370: 683a 84bd 63d8 58bd df04 06bd c24e ccbc
00000380: a3e3 b2bc f35d eebc 77be 63bc b67c 7ebd
00000390: 70e1 7bbc 4bb2 b0bb 2605 853c b8ef cdbc
000003a0: 5b88 0cbd 5670 d4bc 787a a7bd de52 d13c
000003b0: 2045 abbc ac85 253d 8064 db3b 662b a23c
000003c0: 0a87 1a3d ab82 85b9 ee80 a7bc 9d28 8ebd
000003d0: 27d8 58bd 9644 e33b 341c 16bc eefd 01bd
000003e0: 2f6b 0bbd 484c ebbc 26a0 48bc 5865 89bd
000003f0: 16a3 f83c 602c 09bc 003a 59bb 4e7b 103d
0.026646798 0.035156813 -0.023640832 0.009699559 -0.07451267 -0.031549647 0.0090455515 -0.029941127
-0.075845584 0.006137863 -0.02523999 -0.007514313 -0.028164702 -0.07929785 -0.036998734 0.015503546
-0.01222904 -0.044374317 0.001629894 0.0017357618 -0.0066642165 -0.02502681 0.03218858 0.021265864
0.030524394 -0.034668274 0.040489446 -0.039866026 -0.05384741 -0.0022491575 -0.08270778 -0.023192516
-0.010052846 0.018194433 0.006366402 -0.052703775 -0.011203319 0.029177409 -0.000467514 0.0338913
-0.028199792 0.023312863 0.031977996 -0.040881544 0.018894877 -0.06727841 -0.02350737 -0.06865408
-0.039879344 -0.00041499734 -0.058505293 -0.067812406 -0.029243335 -0.01631285 -0.05154063 -0.08344361
-0.06645109 -0.029351056 -0.005262917 -0.014974902 -0.03807096 -0.019653525 -0.031615652 -0.0074671954
0.031005546 -0.024485439 -0.053381577 -0.06222859 0.026012575 -0.003060177 -0.02067478 -0.039246168
-0.01929144 -0.014025621 0.036003582 -0.08245513 -0.0102550015 0.011196191 0.00631551 -0.035937242
-0.016097512 -0.07043328 0.002447342 -0.011131605 -0.03238789 -0.059320163 -0.006749779 -0.031606186
-0.01636113 0.027056977 -0.06615742 -0.033579726 -0.052320454 -0.006775317 -0.036002122 -0.0816047
-0.048945926 -0.054508574 -0.0011953188 0.019753125 -0.04127177 -0.056958605 -0.015660804 0.009448862
-0.06629722 0.018036148 -0.035469603 -0.02783306 0.030415338 0.010043487 -0.07762457 -0.019847333
0.013967122 0.000990962 -0.04067929 0.00548852 -0.037426993 -0.062261373 -0.054877907 0.007441347
-0.050652586 -0.08277057 -0.009307977 -0.018090429 -0.05983361 -0.06073894 0.039584782 -0.030176302
-0.011524305 -0.0018553635 -0.013819362 -0.008446982 0.03244647 0.0098770615 -0.018052509 -0.0046434104
-0.05564721 -0.053734597 -0.050104525 -0.06914515 -0.059596334 -0.02706887 -0.020670757 -0.063086204
-0.020983294 0.0036510974 0.014498304 -0.007371515 0.012955278 0.033819027 0.023805847 -0.004694601
0.008725986 -0.07015111 -0.071340196 -0.07025454 -0.0069876118 -0.0140499445 -0.053528417 -0.059945725
-0.031848073 -0.037624817 -0.02090927 -0.04946591 -0.0072662854 -0.03567338 0.027227959 -0.012202998
-0.009009614 0.00025745732 -0.019367531 -0.025448432 -0.03760393 -0.03487575 -0.023934692 0.0014597476
0.0058402373 -0.031252317 -0.007907614 0.030573305 -0.003541744 -0.0060315556 -0.010559048 -0.021212758
-0.030060882 -0.019116791 -0.06963165 -0.033600014 -0.0076872683 -0.005844931 0.028999781 0.020036345
-0.0003880809 -0.004309863 -0.04073436 -0.012915989 -0.011950454 -0.030707216 0.01677711 -0.05693989
-0.07957939 -0.029169464 -0.0636524 -0.0116450805 -0.012832285 -0.05036434 -0.042306643 -0.08208112
-0.001354441 -0.011614845 -0.008344473 -0.03745493 0.034601554 -0.079452895 -0.044735156 -0.014974421
-0.061791033 -0.037543625 -0.032500234 -0.07972975 -0.064564526 -0.052940737 -0.03271949 -0.024939898
-0.021837061 -0.029097533 -0.013900391 -0.062130652 -0.015373573 -0.005392348 0.016237807 -0.02513872
-0.034309726 -0.025932472 -0.08177656 0.02555221 -0.020906985 0.040410683 0.00669533 0.019796085
0.03772644 -0.00025465092 -0.02044722 -0.0694134 -0.052940514 0.0069356663 -0.009161998 -0.031736307
-0.034037765 -0.028722897 -0.012245214 -0.06708783 0.030351203 -0.008372396 -0.0033146143 0.035273843

fc1.bias f4 [86]
00000000: c410 a7bc 0f3f 85bd ac17 c4bd 667d 45bd
00000010: bb6e 54bd d46f 5cbd d329 acb8 e039 a8bc
00000020: d3db 14bc 9901 42bd 280f d8bb 9a2c 94bd
00000030: 6abe a5bc d922 973d 5b14 9d3d cd93 04bc
00000040: 4cfc 7cbd 9df3 273e ad76 403a 1f70 bb3c
00000050: 22e6 30be 0821 44bc 841f 90bd fc9c a2bc
00000060: dbcc 5ebd fd3d 83bd cbdd 893d 1154 d83d
00000070: 6b95 1c3d d5c6 aa3c 8ecb 363b 5201 abbc
00000080: 757a 043d 3674 103c 619d 43bd 3792 a5bc
00000090: d953 8ebd 6e4f 953d 97fc 8cbc 27bd 3cbd
000000a0: b4d0 f0bc 9c3b 853c eff8 b73a d77f 51be
000000b0: f442 b93c 3592 1bbd dade 28bd 221e 6b3c
000000c0: 5ea0 9cbc 0305 53bd 42b6 2cbd 5cda d8bd
000000d0: 4167 5ebd 0791 c9bd 233e 4ebd 78fc e13b
000000e0: fd67 96bc 81ac bdbc 92cd c6bc 9c02 58bd
000000f0: 34e5 a03c 1c1b 90bd c7cf 28bd 9b9d 8abc
00000100: 291b 91bd d9e4 49bc e6fc 3dbc ccbb 94bb
00000110: 2dbc c2bc ce17 783d eb2c d3bc de8b 843b
00000120: 1066 23bd 7074 73bd 1bf2 debd 0d6f b63c
00000130: fbac 87bd da6e 6a3d 978d 31bd bfe6 243d
00000140: 0d78 03bd fe48 bfbc 93aa cf3c 39aa 17bd
00000150: 3331 793d 43f7 0ebc
-0.020393737 -0.06506168 -0.095748276 -0.048215292 -0.051863413 -0.053817585 -8.2093895e-05 -0.02053541
-0.009085613 -0.047364805 -0.0065936036 -0.072350696 -0.020232398 0.073796935 0.07669898 -0.008091879
-0.061764047 0.16401525 0.0007341903 0.022880612 -0.17275289 -0.011970766 -0.07037261 -0.019850247
-0.054394584 -0.06408308 0.06731757 0.105629094 0.038228434 0.020846764 0.0027892324 -0.020874653
0.032343347 0.008816769 -0.04775751 -0.020211322 -0.069495864 0.07290541 -0.017210288 -0.046078827
-0.029396392 0.016263776 0.001403598 -0.20458923 0.022614934 -0.03798123 -0.041228153 0.014350446
-0.019119438 -0.05151845 -0.042166002 -0.10588524 -0.05429769 -0.09842115 -0.050352227 0.0068965517
-0.018360132 -0.023153545 -0.024267945 -0.052736863 0.019640543 -0.07036421 -0.041213777 -0.016920855
-0.070852585 -0.012322628 -0.01159594 -0.0045389887 -0.02377137 0.060569577 -0.025778254 0.004044994
-0.039892256 -0.059437215 -0.10886022 0.02226975 -0.0662479 0.057234623 -0.04334792 0.04025912
-0.03209691 -0.023350235 0.02534989 -0.03702757 0.060837936 -0.008725944

fc2.weight f4 [64, 86]
00000000: f8e2 5c3d c28d adbc a193 f53d 7054 a4bd
00000010: 7a3d efbc e213 57bd 9a7f a53e 8db7 fe3d
00000020: f07e 213c 933c babc 515c 12ba 811e 2dbd
00000030: 25dd 50bd 48e3 0b3d 76a2 423e dbe4 0ebd
00000040: f974 483e 7cdd 8b3e 53cd 10bd 4ccb d23b
00000050: ff17 dbbd f506 7d3d 3aac 97bd b6ea de3c
00000060: 0f20 64bd 037b ea3d b3a7 7fbd 475c 8a3b
00000070: f7b4 0abe d6c8 8cbd 29fb 063d 86ef 223d
00000080: c19c 843d 792a 9bbd c8d9 423d 3753 033e
00000090: c67e 29bb f09f 0ebe 3741 b73d ef98 32be
000000a0: a557 99bd f000 933d 0b92 403d 37e2 663c
000000b0: 1c0b aabd 17d8 933c 97ff f13d f0b5 b33c
000000c0: c85e b73d 1a4e 8abd e49e 59bd 096f debd
000000d0: 91c9 80bd 3ec3 dfbc eae9 fa3d d799 3f3d
000000e0: 493f 653d 0f99 a7bb 3832 ecbd 623e f13c
000000f0: 2a59 333d 6af6 d1bd 3a7d e13a e746 24bd
00000100: ae9f 85bd 6894 3cbe 9731 0cbd d9a4 de39
00000110: 15fd a43d b00c ca3d 0bfb 75be a725 b3bd
00000120: 5c87 9cbd 0532 f8bc 20ee 4bbb 9c10 463d
00000130: 1e4f 77be 523d 273d 689f 813d 88c4 0a3d
00000140: 69d9 ccbb 3774 6bbe 32a9 babe 3298 163e
00000150: b726 abbd b03d 7c3e 5ff6 503d 2e07 9c3c
00000160: d73a 6cbe af92 0ebb eedc c03d e938 523c
00000170: 0166 86be 956c a3bd 76b8 45bd c51a 8cbc
00000180: 64ed 93be 28b2 90bd f43a 3e3c 2705 a73c
00000190: d88b 653d dd05 d5bc 5ec5 0bbe 7e63 06be
000001a0: 8735 f1bd c12c 2c3e 24a0 f83d c339 10bd
000001b0: 57b3 6bbd 56b7 883d 3dd0 1dbd da26 473d
000001c0: 08ef 15be 4404 6fbe 2be4 b8bd 67d9 2cbe
000001d0: bfed d23d f69e 1f3c 8be9 d2bd a598 8cbd
000001e0: cc37 833c eaac 86be 8066 7dbd 25a8 7cbe
000001f0: 00e7 c7bd f2be d5bc a10e 11bd 436d 313c
00000200: e711 cdbd dd16 d1bd d641 b4bd fbc5 d33c
00000210: ea75 b7bd 5616 2ebe 7faa 60bd 8353 6c3d
00000220: a951 fd3b 20ca 9ebd afcb f0ba 8e42 6e3e
00000230: bc99 163d c0d3 933d 2eec 66bd 14e1 afbd
00000240: a5bb e33d 8adc 6f3d 0ab3 423e ffc9 d33c
00000250: 8446 d33d 10fd 6a3d f40d 0fbb f56b 5a3d
00000260: 35a1 ce3d aa11 a63c e4d0 cb3d 1f5e 42be
00000270: 0bff fa3b 7490 5cbe 430c f9bc 8634 51bd
00000280: 64cd 3abd 66e4 cebc 39d6 0dbe 2409 263e
00000290: 3ffc d83d a668 80be 32de f2bc 450a f1bc
000002a0: 0d5a 153d 833a 62bd 1734 67be 090a a4bd
000002b0: ae50 08bd 6cd2 73bd 390c 35bc e591 05be
000002c0: 7a22 b53c e2d0 533d daea c3bd c103 05be
000002d0: db46 fa3c a489 56bd 0234 93bd aeab ebbd
000002e0: 604d 77bb b2b2 c63b ca27 23bd b574 213d
000002f0: 42c0 e2bd 85e5 8dbd b7bd 2d3c 7bf2 10be
00000300: 6dcf 9d3d c351 adbd 55c0 42bd 93c4 943d
00000310: 819e 9c3d 6371 823d b1ae 2cbe 92a6 20be
00000320: fa7f 2ebd e157 153d 7b16 183d 9602 853d
00000330: 7aef 98bd 8763 15bd b914 a93d c4f6 1fbe
00000340: 098f fdbd e1ab 70bd 4eec 0d3c cd3b 4ebd
00000350: e2f1 823d a30d a43c 0e33 873c a2a5 5dbd
00000360: 79e5 30be 44c6 2ab9 416e 2e3c cb50 6ebd
00000370: c852 d0bc 6680 03bd 8362 043d af1a 33bd
00000380: 2935 47bc afcd 5a3d 7e7c 4a3c 75fa 89bc
00000390: 3c75 82bd 67ef adbd b8d5 eaba ef8c da3d
000003a0: 79e1 8cbd e526 87bc b479 89ba 70e3 30bd
000003b0: 5d85 c8bd c25d 243d b903 7d3d 77a3 77bc
000003c0: b676 7c3d 1c31 00bd 3b57 ab3c a1a1 edbd
000003d0: 10c4 283d fe4c ae3d 2eaf c8bd 98c9 b6bd
000003e0: 2b86 edbd 6356 55bd 0133 743d c3c7 4bbd
000003f0: 9c09 b5bd f134 25be fa13 38be c1b6 c9bd
0.05392739 -0.02118576 0.119910486 -0.08023918 -0.029204119 -0.052509196 0.32323915 0.12437353
0.009856924 -0.022733962 -0.0005583214 -0.04226542 -0.05099215 0.0341523 0.19007286 -0.034886222
0.19575872 0.27317417 -0.035352062 0.0064329263 -0.10697936 0.061774213 -0.074058965 0.027211528
-0.055694636 0.11449244 -0.06241579 0.004222426 -0.13545595 -0.06874244 0.03295437 0.03977921
0.06475211 -0.075764604 0.047570974 0.12824713 -0.0025862916 -0.13928199 0.089479856 -0.17441152
-0.0748742 0.07177913 0.047014277 0.01409202 -0.083029 0.018047376 0.11816328 0.02193734
0.08953625 -0.06753178 -0.053130046 -0.10861022 -0.06288446 -0.027314778 0.12251647 0.046777572
0.055968557 -0.0051146816 -0.11533016 0.029448692 0.043786205 -0.10252078 0.0017203458 -0.04010668
-0.06524597 -0.18415987 -0.03422698 0.0004246596 0.08056084 0.09865701 -0.24021547 -0.08747416
-0.07643005 -0.030297289 -0.0031117275 0.048355684 -0.24151275 0.040829964 0.063292325 0.033878833
-0.0062515032 -0.22993551 -0.3645721 0.14706495 -0.08356994 0.24632907 0.051016208 0.019046392
-0.2306932 -0.002175491 0.09417139 0.012830951 -0.26249698 -0.07979695 -0.04827162 -0.017102608
-0.28892052 -0.070652306 0.011610735 0.020388199 0.05604157 -0.026003772 -0.13649508 -0.13123891
-0.11777788 0.16813947 0.121399194 -0.035211336 -0.05754408 0.066755936 -0.03852867 0.048621036
-0.14641964 -0.23341471 -0.090278946 -0.16879807 0.10299253 0.009742489 -0.10298451 -0.06865052
0.016017817 -0.26303798 -0.06186533 -0.24673517 -0.09760857 -0.026092026 -0.03541434 0.010829273
-0.1001318 -0.10209439 -0.0880162 0.02585124 -0.08958037 -0.17000708 -0.054850098 0.05769683
0.007730682 -0.07753396 -0.0018371249 0.23267576 0.036767706 0.072181225 -0.056377582 -0.08587852
0.11119775 0.05855993 0.1901361 0.025853155 0.10316184 0.057370245 -0.0021828385 0.053325612
0.100893416 0.020272095 0.09951952 -0.18981217 0.007659798 -0.2153948 -0.030401355 -0.05107548
-0.045606032 -0.025255393 -0.1385125 0.16214424 0.10594987 -0.2507984 -0.029646967 -0.029423842
0.036462832 -0.055231582 -0.22578464 -0.080097266 -0.033280067 -0.059526846 -0.011050277 -0.13043936
0.022111166 0.051712878 -0.09566279 -0.12989713 0.030551365 -0.052377358 -0.07187654 -0.11507355
-0.0037735328 0.0060637826 -0.039832868 0.03941794 -0.110718265 -0.06928543 0.010604314 -0.14154999
0.07705579 -0.084628604 -0.047546703 0.07264056 0.0764742 0.06369283 -0.16863514 -0.15688542
-0.042602517 0.03646076 0.037130814 0.06494634 -0.074675515 -0.03647187 0.08255906 -0.15621477
-0.123807974 -0.058757666 0.008662296 -0.05035 0.06393792 0.020026034 0.016503837 -0.054113038
-0.17275037 -0.00016286323 0.010646404 -0.05818252 -0.025430098 -0.032104872 0.03232051 -0.04372662
-0.01215867 0.05341881 0.012358783 -0.01684306 -0.06370017 -0.08492928 -0.0017916476 0.10671412
-0.06878943 -0.016498039 -0.0010488541 -0.04318565 -0.09791062 0.040128477 0.06177113 -0.015114657
0.06163665 -0.031296834 0.020915618 -0.11603094 0.041202605 0.08510779 -0.09799038 -0.0892517
-0.11597856 -0.052084338 0.059618954 -0.049751054 -0.088397235 -0.16133477 -0.1797637 -0.09849311

fc2.bias f4 [64]
00000000: 5a86 16bd cf2b 7bbe a78e eabd 70af 27be
00000010: 0f13 113e 00ec 2dbe a4de 6cbd e29e 1e3e
00000020: 34a7 f3bd e827 9dbc a622 b43d 6a3a fbbc
00000030: 4530 46be 56f6 2e3d 67c7 ae3d f825 7cbd
00000040: 2d03 113d f387 243c 322e e7bd 743a 0dbe
00000050: 3160 423e 92ac bd3d 87ba 683d a8d4 a13d
00000060: bab7 8ebc 0e41 dabd f956 1cbe 4ecb 80bd
00000070: 5021 f93c 8547 ddbd 4066 86bd 9b1a 543d
00000080: 6cbd fabd 15b9 5fbd 1629 ea3d 89e5 09be
00000090: 54f9 153d 9932 613c 244c b8bb 04e0 fcbb
000000a0: 8969 c0bc 47ae 88bd 8da0 0cbe b5f4 d23c
000000b0: c93e 853c 694a 11bc a890 c2bd 56a4 84bd
000000c0: 3efe 93bd 664a 72bd d604 aa3c f2e7 0abe
000000d0: 06f4 023e 50fc 5bbe a481 a5bd 1e75 573d
000000e0: 26df 87bd c385 c83d c98f 20be 7cbc b6bd
000000f0: 5e08 b6bd 2109 18be 1f4c 2bbc 76b4 cb3c
-0.03674922 -0.2452843 -0.1145299 -0.16375518 0.14167427 -0.16984558 -0.057829514 0.15490296
-0.11897126 -0.019184068 0.08795671 -0.030667502 -0.19354351 0.042715393 0.08534127 -0.061559647
0.03540342 0.010042178 -0.11288108 -0.1379183 0.18982007 0.09261431 0.05681851 0.07901889
-0.017421592 -0.106569394 -0.15267552 -0.06288777 0.030411392 -0.10804657 -0.065624714 0.051783185
-0.122431606 -0.054619867 0.11433618 -0.13466467 0.03661473 0.013744974 -0.005624311 -0.0077171344
-0.023487823 -0.06673866 -0.1373312 0.025751451 0.01626529 -0.008867838 -0.09500247 -0.06476657
-0.07226227 -0.059152983 0.02075426 -0.13565043 0.127884 -0.21482968 -0.080813676 0.052601926
-0.06634359 0.09791138 -0.1567985 -0.08922669 -0.08888315 -0.14847232 -0.01045516 0.024866324

fc3.weight f4 [10, 64]
00000000: 0942 6b3e 17e7 7cbc e4fb b0bd 0236 80be
00000010: fd67 3cbd 24eb 283d 0077 84bd fe10 e23c
00000020: 51e4 c4bd 8922 553b e07a e03d 8f6e ff3d
00000030: fbf1 babd 1fb5 8abe 2b09 233e f7f7 cebd
00000040: b388 433e 394e 6dbe b102 0cbd b1e6 20bd
00000050: b270 c5bd 025d b2bd 0465 22bc 59ec dbbd
00000060: 9f91 d93d 0edd 15be 9cad 26be 2458 ad3d
00000070: acbe 783d 8566 edbd bd08 c63c d24b 993b
00000080: 605c ef3d 713c 563e efab 37bd 607d 8fbd
00000090: cc9e 083c 81fa e53b 973b e13d 6ad5 38be
000000a0: 929d 15be ad28 b93b 8cbc 903c 23e8 a03d
000000b0: 6b4c 0a3e 6a05 51bd d71f 80be 38f8 a3bd
000000c0: 1b03 0ebc f20d 9cbc c801 21be 9a1f ce3d
000000d0: bfed db3d 23e1 d83d 9805 0ebd 7387 0ebd
000000e0: 3710 f33c 1afb 8dbd 6eac ecbd d589 babd
000000f0: 9b3d d93d fa9c 57be a4ff d5bc 0d9b eb3d
00000100: 9e6f d0bd 8d1e 45be bbf7 6b3d 4eb2 edbc
00000110: cfc1 24be 4984 69bd ace6 0dbd 51b4 2f3d
00000120: faae e8bd d473 6cbd 7ed4 c5bd f09f 3fbe
00000130: d90d dfbd e65f 273e 350a 643e cc8e e93d
00000140: 5ae9 a0bd 38c8 983c 4f78 2f3d f938 ec3d
00000150: 4239 193e 0606 a6bd bf9b 4b3e a2f0 a33d
00000160: 311e f6bd b344 d03d 39b3 22be 60a9 0e3b
00000170: 4379 debd 8bb3 313d b7e5 883d feef e23c
00000180: d33a 05be 2fca d5bd 2b5a 9c3d d769 0fbe
00000190: 21f1 243d 0c4a 673d 4867 6ebe ece3 903d
000001a0: 5111 48bc 0760 eabd 1a51 d6bd ba51 f13d
000001b0: f98a 00be eeb9 87bb f53b 90bd 3b62 f33c
000001c0: fd41 1b3d 1898 013e 9b9f e83d dcf7 403e
000001d0: cb54 1fbd 6d0c d53d fc63 cfbd 4446 24bd
000001e0: 4a3d 773d 8a22 27bd 1922 17bc 00d3 2bbe
000001f0: ff84 37bd 7373 1e3d 7627 ba3b d4d3 a0be
00000200: b629 ef3d fd41 c23b 457a eabd cfce 15be
00000210: 6d66 1bbe bf97 593b eda6 083d c919 bdbd
00000220: b992 0fbe 14d2 593e 4b28 a0bd ea03 35bb
00000230: 84f3 eebd 7e8b 8dbd d3df 603d c9b3 91bd
00000240: 1c79 2c3d 11ab 41bd 063d 95bd bc47 4b3e
00000250: 62e6 05be ddb4 963d 562e aebd d863 6cbd
00000260: 514c 693b f6c5 d43d b2ab 2b3d fc7e 763d
00000270: 1761 0b3e 2a36 1d3e 6aca 5bbe 6cca f63c
00000280: 10ff 053e 6888 e2bb 6899 083d 536a 89bd
00000290: 5e14 29be 4344 d63c eb85 953d 1419 32be
000002a0: 514e 8d3c 4aee 83bd 4547 fd3d 0934 943d
000002b0: 8b15 2dbe 4d70 7f3d b215 073e b166 2d3d
000002c0: 961e f9bc 53a1 1c3e 4adf 9f3c e25c 3bbd
000002d0: 20ab 45be 89d7 1e3e 8590 8b3d 02d1 bcbd
000002e0: 0ea3 73bd 0ab7 25bd a8dd 5c3a 6b40 c53a
000002f0: 00e3 ef3c 5aa6 1fbd dd7d c4bb e0d0 d8bd
00000300: 9d7f 743d b794 abbd cb05 b6bd 9078 d7be
00000310: 84d5 e33d 63ce 853d d318 09bd ce50 29be
00000320: 30a0 cebd 0d45 2bbd 60ff 5bbe 7073 233d
00000330: 59a6 02bc 1028 9abd b29e 64be 8057 1b3e
00000340: eff1 dabc cf07 b93d 5bbf 633d b579 9ebd
00000350: 4350 253e 8235 243e 468c ae3b 03d6 c33d
00000360: e9e5 07be e5af 2fbe 77f3 ebbc b10f 31bd
00000370: b67d 83bc 76c0 d43d aff9 2ebd 17e4 95bd
00000380: 31b6 263c 287f 0fbe 6a71 9cbd b559 20bd
00000390: ffc9 ffbd e536 9c3d b65d 43be 6868 0e3e
000003a0: 2bca 4fbd e10b ca3c 037e 633d 0852 c3bd
000003b0: 2d37 423d 0603 debd 1d5f f23d bcd3 de3d
000003c0: b351 b43c 992a e0bd f898 8abd 92c4 ffbc
000003d0: 718c 5b3d f0b0 fd3c 37ff febd 3f6c bdbd
000003e0: b779 283d c6ad f1bd 091a a63d 7a6d aabd
000003f0: a63c e13b 09aa a2bd 6b1f bdbd 29af 03bb
0.22974409 -0.0154359555 -0.08641794 -0.25041205 -0.04599761 0.041239873 -0.0646801 0.027595993
-0.096138604 0.0032521805 0.109609365 0.12472259 -0.09128185 -0.2709131 0.15921466 -0.10105889
0.19095115 -0.23174371 -0.034182254 -0.039282504 -0.096406356 -0.08709146 -0.009911779 -0.10738439
0.10623478 -0.14635107 -0.16277164 0.08464077 0.060728714 -0.1159182 0.024174089 0.004678228
0.11687541 0.20921494 -0.044841703 -0.07006335 0.008338641 0.007018388 0.10997694 -0.18050161
-0.1461089 0.005650601 0.017668031 0.078567766 0.13505714 -0.051030554 -0.25024292 -0.08006328
-0.008667733 -0.019049618 -0.15723336 0.10064621 0.10738706 0.105898164 -0.034673303 -0.034797143
0.029670818 -0.069326594 -0.11556326 -0.091083206 0.106074534 -0.21055976 -0.026122876 0.11504183
-0.10177539 -0.19249935 0.0576093 -0.029015686 -0.16089557 -0.057010923 -0.034643814 0.042896573
-0.11361499 -0.05772765 -0.0965967 -0.18713355 -0.10891313 0.16345176 0.22269519 0.114041895
-0.07857008 0.01865016 0.042839345 0.11534304 0.14963248 -0.08106618 0.19883631 0.080048814
-0.12017477 0.10169353 -0.1588868 0.0021768436 -0.108629726 0.043384116 0.0668444 0.027702328
-0.13010721 -0.10438954 0.07634386 -0.14005218 0.04026902 0.0564671 -0.23281586 0.07074723
-0.01221116 -0.11444097 -0.10464688 0.11783166 -0.12553014 -0.0041420376 -0.07042686 0.029709926
0.03790473 0.12655675 0.11358567 0.18844551 -0.038899224 0.10402761 -0.101264924 -0.040106073
0.060361184 -0.040804423 -0.009224438 -0.16779709 -0.04480457 0.03868432 0.0056809736 -0.31411612
0.116778776 0.0059282766 -0.11449102 -0.14629672 -0.15175791 0.003320202 0.033362318 -0.09233434
-0.14020814 0.21271545 -0.07820185 -0.0027620741 -0.11667541 -0.06911372 0.054900955 -0.071143694
0.042107686 -0.047282282 -0.0728703 0.19851583 -0.13076165 0.07358716 -0.08504932 -0.057712406
0.0035598467 0.103893206 0.04191179 0.060179695 0.13611256 0.15352693 -0.21463934 0.03012582
0.1308558 -0.0069132335 0.033349425 -0.06709733 -0.16511676 0.026155597 0.073009335 -0.17392379
0.017249258 -0.064419344 0.12367109 0.072364874 -0.16902749 0.062362958 0.1319187 0.042334262
-0.030410092 0.15295915 0.019515652 -0.045742877 -0.1930356 0.15511908 0.06814674 -0.092195526
-0.059481673 -0.040457763 0.00084253633 0.0015049105 0.029283047 -0.038977005 -0.0059964494 -0.10586715
0.059692014 -0.083779745 -0.08887824 -0.4208417 0.11124709 0.06533506 -0.03347094 -0.16534731
-0.10089147 -0.0418139 -0.21484137 0.03990501 -0.007974231 -0.075271726 -0.22326162 0.15170097
-0.026726691 0.090346925 0.055602413 -0.077380575 0.16143899 0.16036037 0.0053267805 0.09562304
-0.13271298 -0.17156942 -0.028802617 -0.043227855 -0.016051155 0.103882715 -0.042718586 -0.07318895
0.010175274 -0.1401335 -0.076388195 -0.03914805 -0.124896996 0.07627658 -0.19078717 0.13907015
-0.05072991 0.024663867 0.055540096 -0.095371306 0.0474159 -0.108404204 0.11834548 0.10880229
0.022011613 -0.10945625 -0.06767458 -0.031221662 0.053600732 0.03096816 -0.12451022 -0.09249162
0.0411317 -0.11800723 0.081104346 -0.08321662 0.006873685 -0.07942588 -0.09234508 -0.0020093417

fc3.bias f4 [10]
00000000: 28ab e4bd 7181 453e bc71 f2bd e265 b63c
00000010: 978d 0abe 6f7a e9bc 07c1 edbd db52 cebd
00000020: ea97 9fbb 3f4c 5fbd
-0.11165458 0.19287659 -0.11838099 0.022265378 -0.13530575 -0.028500764 -0.11609083 -0.10074397
-0.0048704045 -0.054516073
