models/trained/ConvNet1_2.pt (torch, 442274 bytes, 14 tensors)

conv1.weight f4 [4, 1, 5, 5]
00000000: 3800 16be 5b13 f93c ce8d 743e ecb7 3c3e
00000010: 5300 11be 689b 8cbc 0510 92bd 39bb 113e
00000020: 130b 4d3e 7f4c 8cbe 19fc 433d 55f6 2e3e
00000030: ea2f ef3d 1fa2 a5bd 5061 69be 285c 5d3e
00000040: d4dc 903e 4906 293c 261e a53d 1f1e 14be
00000050: bca3 823a 5907 9ebd 58c8 603e 7f9b 9f3d
00000060: 441b 9ebd b27f c0bd 3965 1fbd ebf2 05bd
00000070: c338 0f3e 7204 a7bd 2325 673d 36fe 08b9
00000080: 6ede e93d 1a1a 323e fa04 823e dde7 0bbe
00000090: 4922 2f3d 11ec 853e 61b3 8d3e 0a55 473e
000000a0: 4661 39be 0e48 253e 726a 753e c6b4 c13e
000000b0: 7297 a53e 1ef6 e3bc 373d 253e 8dcb 8dbd
000000c0: c590 3d3e aa12 ef3c b2c7 d93d 573a a1bd
000000d0: 796f f6bd 276d 2ebc dfe3 02be 6d2f a3bd
000000e0: 001f d83d 75eb 05be a863 3b3e 9f04 163e
000000f0: 65f1 acbd 3f25 a43c eb1e bf3e 584a c83e
00000100: 38a5 a03e 0cc3 d2bd 6034 3b3e 415c a43e
00000110: 50b7 313e dc12 973d 1333 82be f46b 94be
00000120: cf62 5ebe b626 093d 20c6 993d df8e 6f3e
00000130: b175 413b 98f4 f7bd cbe2 51be 44f5 47be
00000140: 5110 57bd 26c6 473d e103 fcbd c124 87bd
00000150: fab9 1cbe 76c7 c13d 6e21 893d 7039 76be
00000160: 4842 10be 5010 c4bd ee3f 203e a1c0 f1bd
00000170: 3e88 8dbc e701 c53d bc41 363d 2db9 883b
00000180: 29f7 d7bb d91a d8bd b9a9 41bd f657 7b3e
-0.14648521 0.030404737 0.23882219 0.18429536 -0.1416028 -0.017163947 -0.07131962 0.14231576
0.20023756 -0.27402112 0.04784784 0.17086156 0.11679061 -0.08087563 -0.22791028 0.21617186
0.28293478 0.01031644 0.08062391 -0.14464615 0.000996701 -0.07716245 0.21951425 0.077933304
-0.07720044 -0.09399356 -0.038914893 -0.032702368 0.13986497 -0.08155145 0.0564319 -0.00013064672
0.11419378 0.1739277 0.25394422 -0.13662668 0.042757306 0.26156667 0.27675918 0.19466034
-0.18103513 0.16140768 0.23966387 0.37833232 0.32342106 -0.027827319 0.16136633 -0.0692359
0.18512256 0.029183704 0.10633792 -0.078724556 -0.120329805 -0.010646141 -0.12782238 -0.0796803
0.10552788 -0.13078101 0.18299735 0.146502 -0.0844448 0.020037292 0.37328276 0.3911922
0.31376052 -0.102911085 0.18281698 0.32101634 0.17355084 0.07376644 -0.25429592 -0.28988612
-0.2171738 0.033484183 0.075084925 0.23394345 0.0029519612 -0.121071994 -0.20496671 -0.19527155
-0.052505795 0.048772953 -0.12305427 -0.06598807 -0.1530532 0.09461872 0.06695829 -0.24045348
-0.14087784 -0.09573424 0.15649387 -0.11804319 -0.01727688 0.096195035 0.044496283 0.0041724653
-0.006590743 -0.10551996 -0.047281 0.24545273

conv1.bias f4 [4]
00000000: 8625 e0bd 414f c33e 8ed1 c03e b31e 2c3e
-0.10944657 0.38146403 0.37659878 0.16808586

conv2.weight f4 [8, 4, 5, 5]
00000000: 72c2 c13a ae47 6c3d b483 e83b 5efd aabc
00000010: 23f1 103c a8e4 623d 7faf 6a3d c406 7ebd
00000020: efed 43bc cef0 85bd ce00 9b3d 9177 823a
00000030: 6f68 e73b d878 2abd 63df 99bd ea67 2f3c
00000040: bba5 593c 6015 8a3d 76a0 d13c a96c 8fbc
00000050: 75ad 45bc 162a 0abe 0060 7dbd 9e5e f4bd
00000060: 5539 47bd 89ee 7d3d 4c24 ab3d 468f b53d
00000070: 0447 003c 0cda 933d 53a8 723c bf21 2eba
00000080: 3305 c2bc 05a4 283d 2fb8 313c 09de 45bc
00000090: 657f 9dbc d23b aabd 9f1d c8bb 5932 a8bc
000000a0: 95d3 32bc 73c3 88bc 7f14 d5bc 75ad dcbc
000000b0: 93e4 e9bd 343c 503c 3343 5b3c 4ec0 983c
000000c0: 3a8f c138 b1f6 c0bd 27ec 0a3d 15d7 b73d
000000d0: 9e00 cb3d 1e4b 053e 52b8 1e3d 137f 3b3d
000000e0: 3174 2e3d b5d4 063d f1ec f63d f761 373e
000000f0: 5a92 883d 9d81 533d 4b2f 93bc 0a9a dabd
00000100: 4c96 cfbc cd17 133d 0374 253d d180 c6bc
00000110: ae56 14be b404 33bd 28a5 ce3d c61f be3d
00000120: 5142 bc3d c515 963d 4ab1 57bc dc9c 943d
00000130: 5487 da3d 0f1f 8e3d f148 6ebc 720c 1e3b
00000140: 290a 6d3d 630b 983b a7de 313d d354 ab3d
00000150: 0f9b 963c 54a3 d53a 69ff d93d 9ef9 b73d
00000160: f469 b7bc 2743 f8bb 7bf6 9b3d 9814 c13d
00000170: 22cd 1f3d ec77 373d eedd 84bd 53cc 923d
00000180: cbb8 ad3c 2c2d 333d f312 563d bd22 bf3d
00000190: 8eac 283d 88d8 d63d cac4 013e ab5f 443d
000001a0: ab7c cfbb f414 d6bc 959c f13d 5e64 3f3e
000001b0: 752f 793d c160 beba 53c6 063d 377a 523e
000001c0: 300f c93d 9495 d53d f6f2 4ebc e942 d83d
000001d0: dae5 2e3e cd0c 033e 3321 683d d95b 2b3c
000001e0: c9f5 463d e64e 083d 6a77 663d e9fd aabd
000001f0: afa0 06bc 1691 6b3d 6075 0e3e a8c1 833d
00000200: af16 d1bb e3a5 063c 5b50 133e d6ee 9b3d
00000210: 11ff 523d a07b 0fbd ef8e d3bd f02b 063e
00000220: 2b30 0b3e f3dd ebbc c5fc a73c 3a5b 3abc
00000230: 2be2 823d 56df f43d 3432 173e 946a 2fbd
00000240: 0c9b e3bd d484 023e ee1d 9e3b 2193 1e3d
00000250: 6df1 a23d b1db 78bc 30da 67bc 5225 e43d
00000260: 7536 8d3d aaef b5bc f1d1 3bbd 3386 a53d
00000270: 9c36 8c3c ef82 b63d bd09 453c 649d c43a
00000280: 5843 0a3c 27b9 9f3c a215 563c 1a96 a0bc
00000290: e53b a83b 6e5c a23d e0ad 813d 91cb 183e
000002a0: 44b3 ba3c e98d 35bc ca8e 00bc ec5d 2e3e
000002b0: c3d6 d63d fee4 153e 02ab b63c 4482 8dbd
000002c0: 72ff 93bc 75d0 cc3c f218 983d 5b15 1f3d
000002d0: 1ae9 da3b d9e9 66bd b1cd 33bd 504c d53c
000002e0: b3f4 943d 0f73 cfbc 8441 e3bd 3119 d9bb
000002f0: 3a5b f53d 2f61 b63c 5c2c 64bd b8dd 8bbd
00000300: e695 a13c 22a0 b1bb 2d75 1ebd 9640 eabd
00000310: 1223 0cbd 174a aebb 5636 3d3d 6b64 31bc
00000320: 6c9d a13d 0f86 b93b d83d 143e 7249 9d3d
00000330: 07a3 643c 119e b73d 9b37 423d 86e4 b43d
00000340: a9c7 f33c 98e7 42bd 9871 5f3d bda8 dd3d
00000350: cd99 d23d d052 f43c ac8e cebd f519 143e
00000360: b07e 003e 01c2 633d 663b a9bd 9896 bebd
00000370: 620a 243e d12c ca3d 78d0 c53c 6e5a c5bd
00000380: 8f9a eabd 4b04 003e f90e fa3d cfb0 8dbd
00000390: 92cc 04be af6d f23c 508d 383d 1410 a63c
000003a0: be78 b4bc 5af6 01be 1acb 013e 9ce9 0e3e
000003b0: 67dc c4bc df94 2cbc c4ef 2bbd e9a7 f93d
000003c0: 33cc 12bd 291c 3dbd 48bf c2bd 6167 92bd
000003d0: 33b3 d63d cd82 6c3d 030a 923d 1fb7 04be
000003e0: f3da 18bc 0d5d 25bd 8197 093d 5620 9fbc
000003f0: a9c4 b9bd a780 ebbd f996 9d3d 0bf2 033d
0.0014782681 0.057685547 0.0070957784 -0.020872768 0.008846554 0.055393845 0.057296272 -0.06201817
-0.011958583 -0.065400705 0.07568513 0.0009953846 0.00706201 -0.04161915 -0.07513311 0.010705927
0.013284142 0.06742358 0.025589209 -0.017507868 -0.012065281 -0.13492617 -0.06185913 -0.11932109
-0.04863866 0.061995063 0.083565325 0.08865218 0.007829431 0.072193235 0.014810639 -0.0006642602
-0.02368412 0.041172046 0.010847135 -0.012076863 -0.019225786 -0.08312191 -0.0061070467 -0.02053182
-0.010914703 -0.01669476 -0.02601075 -0.02693818 -0.1142055 0.012709666 0.013382721 0.018646386
9.229635e-05 -0.09422053 0.03391662 0.089765705 0.09912227 0.13016936 0.03875 0.045775484
0.042591278 0.032917697 0.12056912 0.17908464 0.06668539 0.05163728 -0.017966887 -0.10673912
-0.025340222 0.03591137 0.04039384 -0.024231346 -0.1448619 -0.043705657 0.10090095 0.09283404
0.09192336 0.07328371 -0.013164828 0.07256481 0.10670343 0.06939518 -0.014543758 0.0024116305
0.057871018 0.0046400293 0.04342523 0.08365788 0.018384485 0.0016299286 0.10644419 0.089831576
-0.02238939 -0.0075763646 0.07615372 0.09427756 0.03901399 0.0447921 -0.06487642 0.07167878
0.02120628 0.04374425 0.052264165 0.09332798 0.041180186 0.10490519 0.12672725 0.0479428
-0.0063320003 -0.026133038 0.11797444 0.18690631 0.060836274 -0.0014524685 0.03290398 0.20554434
0.0981735 0.104289204 -0.012631169 0.10559637 0.17079869 0.12797852 0.056672286 0.01045891
0.048574243 0.03327837 0.056266226 -0.08349211 -0.008217021 0.05751141 0.13911963 0.064334214
-0.006380878 0.008218261 0.14386122 0.07613914 0.05151278 -0.035030007 -0.10329997 0.13102698
0.13592593 -0.028792357 0.020506272 -0.011374289 0.06390794 0.119566604 0.14765245 -0.04282625
-0.11113557 0.12745982 0.0048253452 0.03871453 0.079562046 -0.015189097 -0.014151141 0.11139931
0.068951525 -0.022209007 -0.045854513 0.08082237 0.017115884 0.08911692 0.012026248 0.0015000519
0.008438908 0.019497467 0.013066681 -0.019602824 0.005134093 0.07927786 0.06331992 0.14921404
0.022790559 -0.011081197 -0.007846544 0.17028016 0.10490181 0.14638135 0.02229834 -0.06909612
-0.018066142 0.025001744 0.07426633 0.038838726 0.00668062 -0.05637536 -0.043897334 0.026037365
0.07273235 -0.025323419 -0.110964805 -0.0066253175 0.11980291 0.022263138 -0.055706367 -0.06829399
0.019724797 -0.0054207006 -0.038685966 -0.114381 -0.034213133 -0.005318891 0.046194397 -0.010827164
0.07891354 0.005661733 0.14476717 0.07680024 0.013954884 0.08965696 0.04741631 0.0883265
0.029758291 -0.047584146 0.05455169 0.108232 0.102832414 0.029824644 -0.10085806 0.14463027
0.12548327 0.05560494 -0.082632825 -0.09306067 0.16019586 0.09871829 0.024147257 -0.09636389
-0.11455261 0.12501638 0.12209887 -0.06918489 -0.12968662 0.029593317 0.04505664 0.020271339
-0.02203023 -0.12691632 0.12675133 0.13956302 -0.024030877 -0.0105335405 -0.041976705 0.121902294
-0.03583927 -0.046169434 -0.0950914 -0.07148624 0.10483398 0.05774193 0.07130816 -0.1296048
-0.009329545 -0.040371943 0.03359175 -0.019424599 -0.09070713 -0.11499148 0.076948114 0.032213252

conv2.bias f4 [8]
00000000: 0227 143e cc4b edbb 942c f63c 5797 823d
00000010: b44b 113d 1bfe 4539 9513 c23d a7ba 9f3c
0.14468005 -0.0072417017 0.030050553 0.06376522 0.035472587 0.00018882046 0.09476391 0.019498182

conv3.weight f4 [16, 8, 3, 3]
00000000: 8cad a43c b946 73bb 16c8 64bc 7d10 2e3d
00000010: 9745 d03d 6c4b f63b 34c9 683b 9c4e 2d3e
00000020: 1cbd 843d 7ba5 493c e426 3c3d da19 b6bd
00000030: 4476 ff3d e93e 363d 9f6a cebd d802 073e
00000040: 576d 093e b7f7 8b3d 0b66 043d dfce 593d
00000050: 4fb5 a6bc b4f4 d23d 4f57 363e a059 52bd
00000060: 52ff 2b3d 9db8 c43d bc79 4ebd b02a c83c
00000070: fc07 43bd 1c0c cf3d 9727 27be aad4 0cbc
00000080: 40ce 2f3d 31b5 5fbe b29a 2a3e 3c40 2e3e
00000090: 5625 713d 0c16 1bbd 2c42 733d c143 cebc
000000a0: 7b10 273e 1adc ce3d bf23 b2bc f9b2 e6bd
000000b0: bd3c 22be c984 75bd b61b ad3d 8774 ac3d
000000c0: e0d0 023e 90ed 9fbb 1cb2 0cbd 6b28 1c3e
000000d0: c67f 2fbd 778f 06be e372 053d ce35 ea3d
000000e0: 60f6 c53c 6d95 a93d b2dd ea3d c149 473c
000000f0: 891f 2a3d e642 cbbd 4787 f8bd 9fd6 38bd
00000100: fbea afbd 4de2 183e 9673 073d e836 a73c
00000110: bec5 093d bff7 e4bc 644c d5bd d908 96bc
00000120: ea20 c7bd c6e4 aabc fdd3 9e3d cec2 05be
00000130: 6571 89bd a83b 4cbc 0fbf 54bd e73c b93b
00000140: e4b4 e13d 29d9 cd3c c963 0fbd 9ebd 47bd
00000150: 0596 53bc 0867 d93d a7ba 253e 2028 103e
00000160: c18b 303e 19a6 2b3e c0d0 b2bc 3070 833b
00000170: 7352 d93d 33b8 383e 5acd e33d 538d 333e
00000180: ed87 4f3e 9f65 5f3e ee86 003e 6c38 b8bd
00000190: 5336 b8bd 388e 06be 62ff 8abd c180 9fbd
000001a0: c49e 29be 2257 32be e51c 18bd 13b8 84bd
000001b0: b02b b1bd b64d 603b 9388 aa3d 230f 153d
000001c0: 902d 483d 4c6e 1b3d 68ac 76bd bdce a6bd
000001d0: 70c0 063c db5f 6ebb dc80 803d 06c4 1b3e
000001e0: 657a 1b3d 1202 15bc 0526 3c3e 65d8 6f3d
000001f0: 74c7 d53c b348 283e 6b72 c63c dc78 883d
00000200: a7b6 513c 8a8e 29bd 6bb6 1a3d 7e6d 7e3d
00000210: ef8b 233d bf42 9cbc e092 9abc 2785 1ebd
00000220: 03c5 febd c52a e6bd 8f86 b6bd 9041 0ebd
00000230: 5edf 08be bc35 a7bd 3b49 c2bd 7e9b 5abd
00000240: d694 953c 8be3 0bbd ea55 833b ad6e 663b
00000250: a27f a33b 971b 2f3d a8a6 a33b dd72 a1bb
00000260: 7d57 1a3d eb8c 0ab9 6586 47bd b9dd 68ba
00000270: 79b7 3dbc 5744 823d b805 ff3c a49e 66bd
00000280: d6ac 8ebc 336d 283d d545 073e 8bdc 063e
00000290: 4877 923c da40 ed3d 6db1 a53d 1192 a63d
000002a0: d7a6 d53d e4c4 af3d 8b9f cd3c 2982 063e
000002b0: cd37 8d3d b4df 1fbd df86 d6bc e43a a0bd
000002c0: dcda b1bd 0cbd 2bbe 9918 e3bd 526f da3d
000002d0: b1c4 59bd a8ac 7039 276d f43d 1960 203d
000002e0: 6d49 783c bbf8 f23d cccd c03d 1f4c bdbd
000002f0: 4ef9 f33c ba64 a5bc 2c78 93bd cdf9 bd3d
00000300: 0f0a ac3d f4ad bc3d 8e91 593d 8e9d b838
00000310: 8fc8 d2bb 278b 4bba be9b 8f3c 5b92 7abd
00000320: b347 95bb 37ee 6f3d 373f 1b3d 0343 16bc
00000330: 988e 18bd 6975 9f3d 8dc3 babd fce6 80bd
00000340: 1c2b f1bd 74e4 b6bd c16e 0bbd 9b4f 93bd
00000350: ab51 053d 7123 843d 7abf a7bd 8bdf 1dbd
00000360: db65 9d3d 3ac5 f83d 40e5 bc3d e047 e63d
00000370: 9942 af3c ec5a 843c d256 0dbc 5651 e03d
00000380: b5ed 033e d13d 953d b75a 523d 4e12 ddbc
00000390: 0f66 d93d cc74 2d3d 72a5 a7bd 3753 f6bb
000003a0: 0169 b03d 31f1 5cbd 5232 4b3d 438d 83bd
000003b0: 6f07 d5bd c9c6 97bd 65bd c6bd a209 0dbd
000003c0: a270 cfbd 4c5c 30bd 45cd 17bd ff04 693d
000003d0: 71cb 183e a42e 053d e373 10bd 203f 493d
000003e0: e3b3 ea3d e01a cabd 866d f73c 2dd7 803d
000003f0: e511 a13c d05f 55bd 6997 d2bd 2d89 83bd
0.020102285 -0.0037121011 -0.01396372 0.042496193 0.10169523 0.007516315 0.0035520317 0.16924518
0.06481382 0.01230752 0.045935526 -0.088916495 0.12473729 0.04449359 -0.1007893 0.13184679
0.13420616 0.06834357 0.03232388 0.053175803 -0.020350127 0.1030058 0.17806743 -0.051355004
0.04199154 0.09605525 -0.050409064 0.024434417 -0.047615036 0.101097316 -0.16323696 -0.008595625
0.042921305 -0.21846463 0.16660574 0.17016691 0.058873497 -0.037862822 0.05938928 -0.025178792
0.1631488 0.10100575 -0.02174556 -0.11264605 -0.15843482 -0.059941087 0.08452551 0.08420663
0.12774992 -0.0048806146 -0.034349546 0.15249793 -0.042846464 -0.13140665 0.032580268 0.11436044
0.024165332 0.08280454 0.11468066 0.01216358 0.04153398 -0.09924869 -0.12135177 -0.045126554
-0.08589741 0.14930077 0.033069216 0.020411924 0.033635847 -0.027950166 -0.10414961 -0.018314766
-0.09723075 -0.02086104 0.07755277 -0.13062593 -0.067110814 -0.012465395 -0.05194002 0.005653012
0.1102083 0.025127964 -0.035007272 -0.048764817 -0.012914185 0.10615355 0.16184483 0.14077806
0.17240812 0.1676258 -0.021828055 0.0040111765 0.10611429 0.18039016 0.11123152 0.1753438
0.20266695 0.21816109 0.12551472 -0.089951366 -0.089947365 -0.1314019 -0.06786992 -0.0778823
-0.1656447 -0.17416051 -0.03713693 -0.06480422 -0.08650911 0.0034226007 0.08326831 0.03639139
0.048871577 0.037946984 -0.060223013 -0.08144901 0.008224592 -0.0036373052 0.06274578 0.15211496
0.03795852 -0.009094732 0.18373878 0.05855598 0.026096083 0.16433983 0.02422448 0.06663677
0.012799895 -0.0413957 0.037771624 0.06211614 0.039928373 -0.019074796 -0.018868864 -0.038701203
-0.12439921 -0.112386264 -0.08912384 -0.034730494 -0.13366458 -0.08164546 -0.09486624 -0.053370945
0.018259447 -0.03415255 0.0040080445 0.0035161183 0.0049895803 0.04275092 0.004994232 -0.004927023
0.03768109 -0.00013213202 -0.048712153 -0.0008883137 -0.011579388 0.06360691 0.031130657 -0.056303635
-0.017416399 0.041119765 0.13210233 0.13170068 0.017879143 0.11584635 0.08090482 0.08133329
0.10432213 0.08582476 0.02510049 0.1313559 0.06895409 -0.0390317 -0.026187358 -0.078237325
-0.08684322 -0.16771334 -0.11088676 0.10665764 -0.053166095 0.00022952503 0.11934882 0.039154146
0.015154225 0.11863848 0.09414253 -0.092430346 0.029781964 -0.020189632 -0.07200655 0.09276161
0.08400356 0.092128664 0.053117327 8.8031506e-05 -0.0064326 -0.0007764571 0.017530318 -0.06117473
-0.0045556664 0.05857679 0.037902083 -0.00917125 -0.037245363 0.07786066 -0.091193296 -0.06294057
-0.117758006 -0.08930293 -0.03404117 -0.07192918 0.032548588 0.064520724 -0.08190818 -0.038543265
0.07685443 0.12146993 0.092234135 0.11244178 0.02139406 0.016156636 -0.008626657 0.109530136
0.12883647 0.07287181 0.051356044 -0.026986267 0.10615169 0.042347714 -0.08185853 -0.007517244
0.08613778 -0.053940956 0.049608536 -0.06423428 -0.104018085 -0.07410962 -0.09704093 -0.034433015
-0.10128905 -0.04305677 -0.037060995 0.05688953 0.14921357 0.032515183 -0.03526677 0.049132466
0.11460092 -0.09868407 0.030203592 0.062910415 0.019661853 -0.052093327 -0.102827854 -0.064226486

conv3.bias f4 [16]
00000000: 5d7a 8b3c 4afe 123c a445 863c 0393 d53c
00000010: e2e4 b83d 15a2 813d 8691 313d d0d6 76bd
00000020: 240b f3bc 7ac5 a9bc deb2 e93c 8c42 b9bc
00000030: e309 e33d e2bd 913d e1f6 d63d aecb 9f3c
0.01702612 0.00897176 0.01639063 0.026071077 0.09028031 0.06329743 0.043351673 -0.060263455
-0.029668398 -0.020724047 0.028527673 -0.02261474 0.1108587 0.071162954 0.10496307 0.019506302

conv4.weight f4 [64, 16, 3, 3]
00000000: 0a5d 3a3d f8d1 97bc 8a4f 35bd ecd4 493d
00000010: 6dbb 4f3d 676c 203c 6cb8 83bd d8f0 8d3d
00000020: 5bd3 b93d 7792 55bc 5afc 043d 7dd3 953c
00000030: 2cee f4ba b27d 823d cbeb 5f3d 6732 553d
00000040: 229f 053e d40a a63d cf60 2bbc a09f 333d
00000050: 5fba b3bc 02e0 123c 5de6 f93c cda7 fa3a
00000060: 511f 253b 6e25 9d3d 4504 153d 23ab 8ebc
00000070: 5adb 763c f18e 91bc 0d82 303d a760 443d
00000080: 8e63 7b3c d869 8abd b07f 653b 996a d63a
00000090: cdb5 73bc f692 503c dc6d 5b3d 149f 1cbc
000000a0: 7707 133d 88f2 5f3d 5911 33bd 554a f2bb
000000b0: 7995 94bb e5d8 ce3b ebc5 c6bd deae 38bd
000000c0: 05d0 8e3d b11c b9bc 8bed 2bbc 2fc3 02bd
000000d0: 4951 003c fb58 04be de5c 463d c10d f63c
000000e0: be05 62bc f612 f2bc 56e4 97bd 7d6b 90bd
000000f0: 3d2a 33bd b252 a0bd 7a04 27bd 16d9 9dbd
00000100: 62aa 7cbd 6084 2bbc c4fd 223c 00be 38bd
00000110: 29f5 18bb bbdc 2c3d bc40 483d 52cd df3a
00000120: b322 26bd 2c3a 7bbd 38ca 2fbd febf 0dbd
00000130: 4aa5 4ebd f236 e63b c6d0 853d c0ad 68bc
00000140: 96da c5bd d6ea 983c 9efa 9bbc fafc 8dbc
00000150: cc28 ebbc 484f cebc 6e71 363c e989 153c
00000160: 9e64 9b3b b972 423d 971a 65bd ed7d 42bd
00000170: 3119 2e3c cb0e 07bd a16c 03bc 6f0b 5b3d
00000180: fef8 813b 3d54 003d 605a b4bb af93 a43d
00000190: df35 963d 58a8 c93c 0b68 253c baad 26bd
000001a0: 3307 583c bc3c b83d 2805 973d 0250 943d
000001b0: 7eae 563d ec0c 893d 8c0c 623c 8ca8 5abc
000001c0: a4bb 263d adb5 db3c 9876 513d fbca 603b
000001d0: 1a5e ee3d 5944 ba3d 3c9e 1c3d 335d 723d
000001e0: 7df8 d2bb 3af9 57bd c240 903b 2e7e 95bd
000001f0: f074 d3bd cb3f 86bc b493 d4bc df2f a73d
00000200: 522e 233d b0d5 aebc bb13 04bd 9a19 54bc
00000210: 4bb5 243d 465f 043d 3ef6 af3c c667 8c3c
00000220: 957a c43c 664c 83bd 81aa 42bd c3b9 283d
00000230: f632 25bd b975 f5bc 140a 6b3c aaa2 d9bd
00000240: f68d a63b 555e ae3d 5977 0bbd 1717 cd3c
00000250: 5b7a 253d 3237 03bc cb71 b3bc 649a 063d
00000260: da45 9dbc 8eaa c73d 59f5 003d 2a12 013d
00000270: 0539 a03d 61a3 c63c 97f4 85bb fd0f a5bd
00000280: 56de 35bd 2a73 f3bc c235 8a3d 8966 753c
00000290: 038b 8ebc f38d b23c f477 43bd 176b d2ba
000002a0: 16a6 72bc e3e8 36bd e6a7 673c 0980 123d
000002b0: 1dc7 243d f9af c43c 354a 103c 080f 08bd
000002c0: e677 d5bb fd82 9e3c ec12 c03d e160 5c3d
000002d0: befe 80bd 34a9 90bd 60b3 5c3c 6908 093c
000002e0: 0fd6 903d 7a7b 1cbd d91e a1bc 9a24 48bd
000002f0: 0f4f 3cbd f662 96bc 8abe f7bc 5766 bf3c
00000300: 8fbe 41bb b38c adbc ea59 773d 0b19 113c
00000310: 0b95 a2bc 1e72 af3c 4307 9cbd fdfc 28bd
00000320: 050b fcbc f6bc b2bd 4a91 36bd 69ff f13c
00000330: 8357 87bc ebb8 4f3d 6354 eb3d ef93 003c
00000340: b172 b6bc b2b8 1bbc ee3d 113d 06cb 15bd
00000350: 897b 67bd 7885 eb3c a3d4 9fbd e51b f2bc
00000360: ff46 853c d06b 5f3d c00f 7d3d af12 883c
00000370: 82c5 8c3d 9d12 00bc a1ba b93c 79cf f83c
00000380: 8f54 fb3b d280 93bc 87a5 fdbb f593 ffbc
00000390: bbaa 0fbc af45 983d c4af 5a3c 7722 3bbb
000003a0: 12c6 293d 35da 5d3d 0c84 cb3c d5ca 103d
000003b0: f25d a23c 0f05 3fbd 3311 2cbd 5912 20bd
000003c0: 4409 8c3c afc0 96bd bb71 13bd f4d7 513d
000003d0: 89ba 853d 6d43 f1bc 3651 c7bb 7618 ab3c
000003e0: 076a a13a 968c 133d a1fc c5bc de03 ae3c
000003f0: fe02 123d f247 1c3d 10b2 8abb 2b03 87bc
0.045498885 -0.018532738 -0.044265307 0.049275324 0.050715853 0.00979147 -0.0643166 0.06930703
0.09073516 -0.013035408 0.032467224 0.018289322 -0.0018686703 0.06371631 0.05466823 0.05205002
0.13048986 0.08107534 -0.010460093 0.043853402 -0.021939455 0.00896454 0.030505354 0.0019123495
0.0025195668 0.07673155 0.036381025 -0.017415589 0.015066946 -0.017768355 0.043092776 0.047943737
0.01534356 -0.06758469 0.0035018735 0.0016358673 -0.014874888 0.012730351 0.053571567 -0.009559412
0.03589579 0.054674655 -0.043717716 -0.007394115 -0.00453442 0.006312477 -0.097057186 -0.04508864
0.0697327 -0.022596689 -0.010493646 -0.031924423 0.00783188 -0.12924568 0.04842841 0.030035855
-0.013795314 -0.029550057 -0.074165985 -0.07051752 -0.043741453 -0.07828273 -0.040775754 -0.077074215
-0.061685927 -0.010468572 0.009948198 -0.045103073 -0.0023339486 0.042202692 0.04888986 0.001707474
-0.040560436 -0.061334774 -0.04291746 -0.034606926 -0.0504506 0.007025593 0.06533961 -0.0142015815
-0.096608326 0.018666666 -0.019040402 -0.017332543 -0.028705977 -0.025184289 0.011135442 0.009127119
0.004742219 0.04747269 -0.05593356 -0.047483373 0.010626123 -0.032973092 -0.008021505 0.0534777
0.0039664498 0.031330336 -0.0055039376 0.08035981 0.07334494 0.024616405 0.010095607 -0.040693022
0.01318531 0.08995959 0.0737403 0.07241823 0.052412502 0.06691918 0.013796937 -0.013345849
0.04070629 0.026820028 0.05113849 0.0034300673 0.11639042 0.090950675 0.03823684 0.059170913
-0.0064383135 -0.052727915 0.004402251 -0.072994575 -0.103250384 -0.01638784 -0.025949337 0.081634276
0.039839096 -0.021342129 -0.03224538 -0.012945557 0.040211957 0.032317422 0.021479722 0.017139327
0.023984233 -0.06411056 -0.047525886 0.04119278 -0.040331803 -0.029963361 0.0143456645 -0.10626729
0.005082841 0.08514086 -0.034049366 0.025035424 0.04039989 -0.008008765 -0.021904847 0.032862082
-0.019198347 0.097493276 0.03148398 0.031511463 0.078233756 0.024247827 -0.0040879953 -0.0805969
-0.04440149 -0.029718 0.06748535 0.01497806 -0.01740027 0.021796202 -0.047721818 -0.0016053644
-0.014810106 -0.04465569 0.014139151 0.035766635 0.04022895 0.024009692 0.008806755 -0.03321746
-0.006514537 0.01934957 0.09378609 0.05380333 -0.06298588 -0.07063523 0.013470501 0.008363822
0.070720784 -0.038203694 -0.01966803 -0.04886303 -0.045973834 -0.018357735 -0.030242223 0.02336423
-0.0029563045 -0.021185255 0.060388483 0.008856068 -0.01984646 0.02141672 -0.076185726 -0.041256893
-0.030766973 -0.08727448 -0.044572152 0.029540734 -0.016521221 0.05071346 0.11490705 0.00784777
-0.022271486 -0.009504484 0.03545945 -0.03657057 -0.056514297 0.028750166 -0.07804229 -0.029554317
0.016269205 0.054546177 0.0617826 0.016610472 0.06873609 -0.007816938 0.022672 0.030372368
0.0076699923 -0.018005762 -0.0077406797 -0.031198481 -0.008768733 0.07435166 0.01334757 -0.0028554478
0.04144866 0.054163177 0.024843238 0.035349686 0.019820187 -0.046635684 -0.04200859 -0.039079998
0.017094262 -0.0736097 -0.035997134 0.05123134 0.065297194 -0.029451096 -0.006082679 0.020885687
0.0012314924 0.036022745 -0.024168314 0.021242078 0.035647385 0.03815455 -0.0042326525 -0.016481003

conv4.bias f4 [64]
00000000: a83e 073b beb8 f0bb b620 243c e7be 823c
00000010: 1255 e53c 0b68 b93c 50a7 b23b 7514 b43c
00000020: 1044 ad3c 78e4 d1ba 3ffc b0bc 39cb b73b
00000030: cc1b a8bc 5638 9e3c 1a6b 48bb 768b 053d
00000040: b29b 4dbd e594 343d 22f8 9d3b d849 b9bc
00000050: 8410 843d 07eb 29bd 8561 40b8 c55b 903d
00000060: d3f9 3bbc f495 c3bb 3234 2cbc 8342 143d
00000070: bb74 3b3c 18d3 1ebc 82e0 2c3c 83f2 aebc
00000080: 823d 0d3d c316 15bc fe70 cb3c 0cc0 3e3c
00000090: f1fd 75bc e4ba 17bd 1e0a 8abc e7f2 5dbd
000000a0: fd5c 3bbb b9c3 933c 6d84 043d 99fa b83c
000000b0: 69d1 2fbc c1a6 8dbb 0dc2 393d 05f0 b8bc
000000c0: 3ed3 1abb ebb2 06bd e588 2abc 47e7 2e3d
000000d0: 81ff 4ebb 9f8d 1a3d 4903 06bd 66de 6c3d
000000e0: a28f 96ba 456a 2cbb df9b 333c ebf1 a03c
000000f0: b746 e1bb b8d5 d4bb 9bf6 0b3d 213b f2bc
0.0020636711 -0.0073462417 0.0100175645 0.01596017 0.027994666 0.02263262 0.005452074 0.02198241
0.021150619 -0.0016013524 -0.021604655 0.005608943 -0.020521067 0.019313972 -0.0030581416 0.032603703
-0.05019731 0.04408731 0.0048208395 -0.02261822 0.064484626 -0.041483905 -4.586719e-05 0.07048754
-0.011473137 -0.0059688035 -0.010510491 0.036196243 0.011441405 -0.009693883 0.010551574 -0.021355873
0.034482487 -0.009099665 0.024834152 0.011642467 -0.015014158 -0.037043467 -0.016850527 -0.054186728
-0.002858936 0.018037664 0.032352854 0.022580432 -0.01073108 -0.004322857 0.045351077 -0.022575388
-0.0023624445 -0.032885473 -0.010408615 0.042701032 -0.0031585398 0.037732717 -0.032717977 0.057829283
-0.0011486898 -0.0026308459 0.0109624555 0.019646605 -0.006874885 -0.006495204 0.03417073 -0.02956921

fc1.weight f4 [144, 576]
00000000: f50d 0000 6c00 0000 6a6f 78a3 ea0d 0000
00000010: 3b8a 98a6 499a 23b1 7809 0000 e248 2ba9
00000020: 4b6f 70b1 f302 0080 7729 4aad 8590 fdad
00000030: 74ef 0591 7754 97b5 ba3d 63b5 b199 b816
00000040: 9dbd 85b5 c0d4 54b5 d225 b68c deda c9b0
00000050: be9b 82ae 8468 8417 73bd 15ab 847c 74ab
00000060: 8c1b 0000 8629 8fa7 ab8a 2ea9 530e 0000
00000070: 050e 0080 7aae 4e94 620f 0080 c80d 0080
00000080: 8e6c b2ab 0f0e 0000 c20d 0000 f315 22ad
00000090: 360e 0080 c70d 0080 ac0d 0080 030c f48c
000000a0: e195 6caf 54e3 9fad 222f 609d e54f 31b2
000000b0: 88d6 1fae 730e 0080 14e3 2280 9856 1501
000000c0: 03ef 9100 a540 c9aa 472c 7617 b840 a003
000000d0: 8c66 1ba3 3fe7 f414 f10d 0000 1bdb 0504
000000e0: 2804 47a3 76c6 9a10 3397 6eb4 3f80 00b4
000000f0: 7180 c1a3 0845 1db4 6912 1bb5 be0d 0080
00000100: 45eb 50ac 04fd eca7 3756 4018 8da0 50ae
00000110: 5dd9 74ab db1d 9c85 51b5 42ab dddc 0c9d
00000120: f20d 0000 2912 d991 480c 490b 9107 2e04
00000130: d148 29a9 15ac 4718 4efc f784 b46b 6aa3
00000140: 2424 1094 ab75 0704 dcd9 11a7 b626 45af
00000150: d3a3 f906 5174 ecb1 c834 f7b3 c0c6 0910
00000160: bcb4 39b1 6794 b3b3 e00d 0080 097b 0c8e
00000170: beda 1380 9771 ec15 9d6b 52aa bcfb ac0e
00000180: deb8 6f0f 9be0 5ca0 b0ee ea02 c00d 0080
00000190: 0d90 fea2 53a4 d4a5 c20d 0080 0bef b9a1
000001a0: 36a6 e8ad cb0d 0000 e436 e19e 8367 caad
000001b0: cd0d 0080 2ead 5c82 17e8 72a9 c10d 0080
000001c0: f10d 0080 7b03 dcac f70d 0080 190e 0080
000001d0: 0157 86a6 337e 0300 e38b a69e 1cea d5a9
000001e0: d625 bbaa f0d6 77b5 2d75 5ab4 ad47 1cae
000001f0: 76ba e3b4 a7bf 2fb5 be0d 0080 65e0 e6a1
00000200: 482e 7c17 6d8a 6795 817a fbac 314f 8da7
00000210: e172 3889 3a0c 3fa7 4a43 029e 350f 0080
00000220: e510 0080 1e0e 0080 4d3d db0f b0b7 e7a9
00000230: 68f8 8fa4 3626 42a3 91ff 4aaf 7ecb 1aa9
00000240: bf0d 0080 f7d3 3ca1 214e 3f8e 716b 00a8
00000250: 77ad 92b0 eb79 0101 acb5 1f9d aa12 21a0
00000260: d50d 0000 cd0e 0000 470e 0080 0a11 0080
00000270: b850 7f16 75a1 96ad f325 8daa b022 bba5
00000280: 1ab2 46b1 7b5c bda6 b20d 0000 0a9c 3c8d
00000290: c70d 0000 d5c2 b8a4 71e7 f5b3 4a6c dbb1
000002a0: c852 01ab db17 1eb4 9970 78b1 b00d 0080
000002b0: 8d3c 2110 539a eca7 d00d 0080 1a7b 8cac
000002c0: da4f acb2 b20d 0000 f38b 84a7 fdd2 f5b2
000002d0: d9da fd00 86ac 94ae e2ac 2fac 6148 9c16
000002e0: 8e7e edb2 5370 ebb1 380f a007 11e2 70b2
000002f0: 7d1a aab0 dd0d 0080 db42 2707 2134 cc93
00000300: eaef e080 45e5 0aa7 d315 12af ae0d 0000
00000310: d981 9793 589c d0af dc0d 0080 916c 929d
00000320: 1ef9 ea93 ee92 45a9 cacc 9ab3 f8ff adaf
00000330: 6be9 93ab 030d f9b2 6ab0 93ae fc0d 0000
00000340: d20d 0080 cd0d 0000 5de1 5507 b80e 33ad
00000350: bce1 b8ad f702 03a6 333b 5bb1 52fb 33b2
00000360: b40d 0000 d00f f810 27ce 0aa7 0ce7 2f91
00000370: db5b edb3 e7b9 75b3 2b4d dea0 2aec a0b3
00000380: 0f98 2db4 c70d 0080 8a48 e2a8 99d6 e4a3
00000390: 60f6 34ac 1188 60b3 d1b4 fbad e24a 21ac
000003a0: b9f6 82b1 4e4c 62aa 0511 0000 7e22 f8a2
000003b0: a89d 3f8d ace5 769d 1e80 8aad 98be 3f9d
000003c0: c8e6 638e ed95 d3a5 fa2a 0000 9399 1b85
000003d0: 6450 0eb1 9c74 68b0 e6b6 2c94 d488 0eae
000003e0: 13c1 47ac e4d9 908c 3d2d 2ead ff43 2e9c
000003f0: 7d44 3107 17bd 26ae d987 faad e3b8 4a0e
5.007e-42 1.51e-43 -1.34677e-17 4.991e-42 -1.0584586e-15 -2.3807323e-09 3.397e-42 -3.8032843e-14
-3.498786e-09 -1.058e-42 -1.1491578e-11 -2.882695e-11 -1.0565637e-28 -1.1274959e-06 -8.4653914e-07 2.9823796e-25
-9.964457e-07 -7.9285746e-07 -2.8064302e-31 -1.4686881e-09 -5.939381e-11 8.556684e-25 -5.319835e-13 -8.6859014e-13
9.882e-42 -3.9735493e-15 -3.8756037e-14 5.139e-42 -5.029e-42 -1.04347516e-26 -5.518e-42 -4.944e-42
-1.2677791e-12 5.043e-42 4.935e-42 -9.2135076e-12 -5.098e-42 -4.942e-42 -4.905e-42 -3.7601382e-31
-2.1517323e-10 -1.8177161e-11 -2.967052e-21 -1.0320922e-08 -3.6342956e-11 -5.183e-42 -3.203867e-39 2.7429106e-38
1.3401888e-38 -3.5749629e-13 7.9542773e-25 9.4188135e-37 -8.424282e-18 2.4728914e-26 5.001e-42 1.5734683e-36
-1.0788692e-17 6.104807e-29 -2.2220483e-07 -1.1967585e-07 -2.0979499e-17 -1.4646878e-07 -5.776879e-07 -4.93e-42
-2.9689179e-12 -6.577748e-15 2.4858946e-24 -4.7436322e-11 -8.6987866e-13 -1.4681137e-35 -6.917427e-13 -1.864303e-21
5.003e-42 -3.4247755e-28 3.872043e-32 2.0457076e-36 -3.7588696e-14 2.5807026e-24 -5.8301126e-36 -1.27079724e-17
-7.2772696e-27 1.5923204e-36 -2.0240894e-15 -1.7930799e-10 9.390411e-35 -6.8817276e-09 -1.1511435e-07 2.7171597e-29
-2.7023779e-09 -8.362331e-08 -4.977e-42 -1.7315572e-30 -1.823344e-39 9.5498854e-26 -1.8689083e-13 4.2643685e-30
1.1819214e-29 -1.870904e-19 3.452021e-37 -4.933e-42 -6.8999358e-18 -3.6887488e-16 -4.935e-42 -1.2599362e-18
-2.6449159e-11 4.948e-42 -2.3845504e-20 -2.301071e-11 -4.951e-42 -1.6212747e-37 -5.39361e-14 -4.934e-42
-5.001e-42 -6.2531625e-12 -5.01e-42 -5.057e-42 -9.3217e-16 3.20778e-40 -1.763379e-20 -9.499712e-14
-3.3244127e-13 -9.2327446e-07 -2.034546e-07 -3.5533954e-11 -4.2417713e-07 -6.547147e-07 -4.93e-42 -1.5644803e-18
8.1484007e-25 -4.6759277e-26 -7.1474497e-12 -3.922122e-15 -2.220221e-33 -2.6513203e-15 -6.896058e-21 -5.455e-42
-6.06e-42 -5.064e-42 2.161868e-29 -1.02903254e-13 -6.243718e-17 -1.05248526e-17 -1.8462588e-10 -3.437137e-14
-4.931e-42 -6.397741e-19 -2.3580185e-30 -7.128725e-15 -1.06722e-09 2.378103e-38 -2.1137397e-21 -1.3643406e-19
4.962e-42 5.31e-42 -5.122e-42 -6.112e-42 2.0624206e-25 -1.7124727e-11 -2.5072964e-13 -3.2462834e-16
-2.8914031e-09 -1.3139576e-15 4.913e-42 -5.81198e-31 4.942e-42 -8.012734e-17 -1.14508005e-07 -6.38605e-09
-4.594489e-13 -1.4723575e-07 -3.6152754e-09 -4.91e-42 3.1798298e-29 -6.5670477e-15 -4.955e-42 -3.9927063e-12
-2.0059748e-08 4.913e-42 -3.6789093e-15 -2.86177e-08 2.3312888e-38 -6.760907e-11 -2.4964965e-12 2.5248837e-25
-2.7647982e-08 -6.85217e-09 2.408307e-34 -1.402124e-08 -1.2376656e-09 -4.973e-42 1.2583331e-34 -5.1548243e-27
-2.0657216e-38 -1.9275634e-15 -1.3286376e-10 4.907e-42 -3.82458e-27 -3.7946069e-10 -4.972e-42 -3.8758133e-21
-5.9315553e-27 -4.387023e-14 -7.208435e-08 -3.1650393e-10 -1.0509765e-12 -2.8993332e-08 -6.7161235e-11 5.017e-42
-4.958e-42 4.951e-42 1.6090567e-34 -1.017824e-11 -2.1018624e-11 -4.5453773e-16 -3.1902345e-09 -1.0476315e-08
4.916e-42 9.7843115e-29 -1.9263103e-15 -1.3876263e-28 -1.1052881e-07 -5.7212585e-08 -3.7659328e-19 -7.4935386e-08
-1.6167199e-07 -4.942e-42 -2.51225e-14 -2.4810695e-17 -2.5716304e-12 -5.2277816e-08 -2.8615695e-11 -2.2921044e-12
-3.811547e-09 -2.0099306e-13 6.105e-42 -6.7257055e-18 -5.904619e-31 -3.2676566e-21 -1.5745679e-11 -2.5377174e-21
-2.8091027e-30 -3.670426e-16 1.5417e-41 -7.316272e-36 -2.0709416e-09 -8.456682e-10 -8.719851e-27 -3.240859e-11
-2.8386779e-12 -2.231785e-31 -9.9008e-12 -5.7659654e-22 1.3336127e-34 -3.7911976e-11 -2.8482038e-11 2.4987442e-30

fc1.bias f4 [144]
00000000: e00d 0000 29a7 c0bb 0cdb 8bbb cd47 a33c
00000010: 34ea beba dad5 9a3b 207a b83b 6f5b a13a
00000020: d326 3e9b 9930 203c faff 9a3c b90d 0080
00000030: 2c22 023b 0fb0 72bb bf0d 0080 0771 4e3b
00000040: 5823 80bc 6dc8 1c3c 0e23 803c 7b29 ad3c
00000050: 3f54 9a3c 37af 7c3c 4399 523c d870 80a8
00000060: cc9b e5b9 31bf 023c 4e8b 969b b535 bfbb
00000070: 37eb e23a d4ff 973b 0746 523a 5375 842b
00000080: 6411 ccbb 378b 2d39 d361 4fbb 4e9c 8abc
00000090: fe62 f13a c596 56bc 0b50 9dbc 0b32 793c
000000a0: fe01 92bb b23a 3fb1 e3cd 6ebb dbfc ce3b
000000b0: ca4b 872d 9aea 47bb a964 0280 d60d 0000
000000c0: 42dc 8aba 6dc3 3abc 13cb a63c d50d 0080
000000d0: 5820 923a f20d 0000 aa7a a93c 2995 1dbc
000000e0: afcf 753c d49e 513b cc26 7bb3 eb0f c82c
000000f0: eaa1 2bbc 3a1f 723c 6fc3 0000 c92c 913b
00000100: b6b8 253c f185 01bc 5ed4 043c df5e 943b
00000110: 0ee9 0c3c eb0d 0000 836f 343c a7b5 033b
00000120: 0a0e 0080 b807 9cbb 0910 9dbb e93b 0e3c
00000130: 5a33 993c ee33 94bc d0c9 54bc 37da 4dac
00000140: 1c71 70bc d5f3 d03b 9ddb 323b 9a5c 53b1
00000150: 015d fa2d ce7a 923c 10a3 c53b fa33 ce3a
00000160: 6d54 de3c cc0d 0080 e286 66bc 3680 0180
00000170: 27bc 7eb0 3298 77bc 58ef babb c164 9b3c
00000180: 0b0e 0080 8248 563b 700b 833c c577 233b
00000190: 4ff0 130e ba48 943b 9271 83bb f71b 9e3a
000001a0: dd2c 243c f70d 0000 a1df 1abc fd57 24ba
000001b0: 15e2 543c 808e 93a4 b20d 0080 84b1 8d3c
000001c0: f2a9 07b7 79e9 fbba 14da 41bc cd0d 0000
000001d0: a71c c63b 17c5 b73b 6018 3eb2 4405 512c
000001e0: 268a b711 1525 94aa 9d35 083b 013b 29bc
000001f0: 6c28 d2ba 5d79 689e 0d8d 4a3b d0ca c934
00000200: 8cf3 643c cd10 3d3c 5f59 6b3b e331 5a3b
00000210: 22ce 3ebb 2969 0d3b b2d4 33bc 0e0e 0080
00000220: a94d cfbc db38 c23c ec31 f3bb eb19 cd3c
00000230: 0cfc ac3c ffcc cf3a db6c 32bc 487e b42a
4.977e-42 -0.005879302 -0.004268056 0.019931698 -0.0014565648 0.0047252 0.005629793 0.0012310575
-1.5728976e-22 0.009777212 0.018920887 -4.923e-42 0.0019856794 -0.0037031209 -4.931e-42 0.0031500475
-0.015641853 0.00956927 0.015641715 0.021137943 0.018839 0.015422634 0.012853923 -1.4259793e-14
-0.0004379436 0.007980154 -2.4905442e-22 -0.00583526 0.0017312531 0.0046386514 0.0008021299 9.411728e-13
-0.006227659 0.00016550427 -0.0031644 -0.016920235 0.0018416343 -0.01309747 -0.019203207 0.015209685
-0.004455804 -2.7827523e-09 -0.0036438636 0.006316764 1.538138e-11 -0.0030504824 -2.19781e-40 4.963e-42
-0.0010594206 -0.011399132 0.020360505 -4.962e-42 0.0011148555 5.003e-42 0.020688374 -0.009618082
0.015003129 0.0031985538 -5.8475777e-08 5.686109e-12 -0.010475615 0.014777953 7.0108e-41 0.0044303876
0.010114839 -0.007905469 0.008107273 0.004527911 0.008600486 4.993e-42 0.011012915 0.0020097287
-5.036e-42 -0.0047616623 -0.0047931713 0.008681276 0.018701244 -0.018091168 -0.012987569 -2.9253386e-12
-0.014675405 0.0063767233 0.0027291544 -3.075718e-09 2.8463011e-11 0.017880823 0.0060314015 0.0015732043
0.027139867 -4.95e-42 -0.0140702445 -1.37829e-40 -9.267204e-10 -0.01511197 -0.0057048015 0.018968942
-5.038e-42 0.0032697027 0.015996665 0.0024943214 1.8234853e-30 0.0045252712 -0.0040113414 0.0012062778
0.010020462 5.01e-42 -0.009452731 -0.0006269215 0.012993355 -6.399249e-17 -4.913e-42 0.01729656
-8.0861955e-06 -0.001921936 -0.011831779 4.951e-42 0.006045896 0.0056082117 -1.1064998e-08 2.970361e-12
2.895745e-28 -2.6315812e-13 0.002078391 -0.010329009 -0.0016033775 -1.2307075e-20 0.0030906827 3.7586733e-07
0.013974082 0.01153965 0.0035911424 0.0033293895 -0.0029114564 0.0021577573 -0.0109760035 -5.042e-42
-0.025305586 0.023708751 -0.0074217226 0.025036773 0.021116279 0.001585394 -0.010890211 3.2062048e-13

fc2.weight f4 [96, 144]
00000000: 5d43 3fba f83c dbbc 34b3 99bd 8d89 88bd
00000010: 6500 c8bb 71d9 0bbd 168f e03c badc 76bc
00000020: cf11 6e3b 2cbc 1e3d 24ed 143d 6a10 0080
00000030: 157c 09bd 8f26 513d f168 6eb8 da22 783c
00000040: 2fc9 f2bc 863e 503d 39cc 00ba f5d3 723d
00000050: 6ca3 b73c 64c2 1c3d 9c78 97ba c40d 0080
00000060: 0ba5 b93b 3d3d 333b d47c 8d1c abf8 a9bc
00000070: dbf2 2d3d 0c28 80bd b15c cebc 0313 00ad
00000080: 251d ed3b 2fe7 a23c ad25 6e3d 51fa c4bc
00000090: 7b18 88bb c2c8 d1bb 438a 81bd 37d3 82bd
000000a0: 0427 e3bb 51e6 8b32 dd79 eebb 2c99 59bd
000000b0: 920f c937 ed4b 723d d12c ad3a 7de9 bdb9
000000c0: c9fc 1b3d ad09 80bc 1b3e c43d f7fe ef33
000000d0: 0305 d0ba fa0d 0000 1653 7c3c 1e26 813d
000000e0: d860 133d 79e8 3fbd ffbc 073c b3d6 3a3b
000000f0: 3d31 a2bd 4785 7a3d a3d8 deb9 1797 883d
00000100: e0ee 2c3c 8135 d1bc 283c 36bd c5ab de3c
00000110: bc27 e3bc 5a95 3cb6 8ee9 67bc 112a fe3b
00000120: a7dc d3ad 1904 18bc 73b4 e53c 830a 233d
00000130: 1e06 873d 835f 07bd 1def c9bb c121 2e3a
00000140: 15f7 943d ca0f cd3d 26c4 a1bc b40d 0080
00000150: 4e69 b535 63a1 3c3d 1781 31bd b526 91bd
00000160: 1cc8 c23d f761 35b8 d124 0a3c 5dcb 9139
00000170: 7a41 a4b6 3a12 0b3d fbd0 7cbc 3de5 bb3c
00000180: 2f98 8939 22ac 46bc 318e 6c3d 8607 c2bc
00000190: f7f9 460e 2a5a 133d 2ea5 bcbd b49d cabc
000001a0: d3b7 8d3d 126e 9bb6 27b8 343d 3401 0ebd
000001b0: 502e b43d 4f2b 2f3a 00d1 0c39 820b 903b
000001c0: 7e55 423b cd80 913d 993c 4b3d d503 fdb6
000001d0: f891 d0bd ab0f d43c e177 c63b 80c9 0eba
000001e0: 7218 4fbb 8675 8b90 0678 f03c c778 5dbd
000001f0: e90c 9ebc de10 3821 2d12 2dbd 0423 9a39
00000200: b876 61bc 7b71 85bd ed6f 9b3a 5dc9 6e3c
00000210: dc64 e43c 14cf cd3b ce1f 78bc 320e 0080
00000220: 372c e53b 3e4c c53d d965 7cbd 6c10 7fbb
00000230: 45d8 af3d ded6 f93c f203 a6bd 4aec a5b7
00000240: 330e 0000 9e1b 79b8 4a5d 9bbb e02b 33bb
00000250: 5cfa c029 c0a9 8bba 2de4 c3ba ea6a 0d3b
00000260: c20d 0000 c1a3 a0b8 8387 12b7 9910 0000
00000270: 5cc0 24b8 1217 a9b8 1d0e 0000 0929 94ba
00000280: a7ce 0abb 890f c9bb 8c53 dcba fb80 80ba
00000290: 8154 21ba 18ac a9b7 4507 89ba 3c0f 0000
000002a0: dc66 19b2 6bd9 d3ba dc95 2207 4c20 04b8
000002b0: 9220 d4ba 8cf9 1f3b 5839 31b8 b40d 0000
000002c0: 8ce4 7736 144f 60ba 662b 2cbb cbcc 0cb9
000002d0: 3015 d6ba 11c9 30b7 2774 0eb9 5e92 80b9
000002e0: 4d72 3d39 f66e 29a8 3ef6 e3bb 1b7a 55ba
000002f0: c40d 0080 939f 96bb 5210 0080 cf0d 0080
00000300: 0296 05bb 761c 28b8 a1ab d2bb 250e 0080
00000310: dba9 28b8 c70d 0080 8afd 713b 1087 79b8
00000320: 7970 19ba fad8 6dba 60e1 02b1 a711 a126
00000330: e498 f9bb a664 54bb 370e 0000 aefa 37b8
00000340: 8716 62b9 895e dd39 977e d3b8 7079 c639
00000350: 3be2 1db9 c80d 0000 4944 033c 76d9 193c
00000360: 220e 0080 b8eb c6ba 677f beba 4ea6 463c
00000370: 598b b33a b1b3 f4b8 3d0e 30b9 9ab4 2687
00000380: 343d a7bb 5360 133b 56df 9fb9 bd10 0000
00000390: cc0e 0000 a33d a83b 8f4d 29bb e945 ca3a
000003a0: cb6b b8bb 260e 0080 0c90 31b7 b910 0000
000003b0: 9d0a 0080 edf7 a238 91ce 34b0 9044 94b9
000003c0: 240e 0000 420b 0838 bc3f c43a 82c3 f0b8
000003d0: bb0d 0000 942c 5eba d4ed 8ab7 41fc b938
000003e0: a02b 4b39 dd0d 0000 fccb d9b6 489d d93a
000003f0: 6d53 6ebc 171b 961b 0f0e 0000 0e9d 00bc
-0.00072961097 -0.02676247 -0.075048834 -0.06666861 -0.0061035627 -0.034142915 0.027411979 -0.015067274
0.0036326533 0.038753673 0.036358967 -5.888e-42 -0.0335656 0.051062163 -5.6841356e-05 0.015145028
-0.029636947 0.050840877 -0.0004913244 0.05928417 0.022416793 0.038271323 -0.001155633 -4.938e-42
0.0056654266 0.0027349733 9.362865e-22 -0.020748457 0.042467933 -0.06257638 -0.025190683 -7.280179e-12
0.0072361403 0.019885628 0.0581414 -0.024045141 -0.004153309 -0.006402106 -0.063251995 -0.06387942
-0.0069321413 1.6286466e-08 -0.007277711 -0.05312459 2.3968318e-05 0.05915444 0.0013212209 -0.00036222851
0.03808287 -0.015629614 0.09582158 1.11756826e-07 -0.0015870634 5.014e-42 0.015400669 0.063060984
0.03598103 -0.046852563 0.008284806 0.0028509318 -0.07919548 0.06116226 -0.00042504547 0.06669443
0.010554999 -0.025538208 -0.044490963 0.027181515 -0.027728908 -2.8101117e-06 -0.014154805 0.0077564796
-2.4085912e-11 -0.009278321 0.028040146 0.039804947 0.06592964 -0.03305007 -0.0061625377 0.0006642603
0.0727369 0.10012777 -0.019746851 -4.916e-42 1.3516199e-06 0.046052348 -0.043336 -0.07087461
0.09510824 -4.3245e-05 0.008431629 0.00027808073 -4.8952033e-06 0.03395293 -0.015430684 0.022936458
0.00026244062 -0.012126001 0.05775279 -0.023685228 2.4525738e-30 0.03597466 -0.09211193 -0.024733402
0.06919827 -4.632174e-06 0.044120934 -0.034669116 0.08797896 0.00066821737 0.00013429299 0.004395903
0.0029653008 0.07104645 0.049618337 -7.5404337e-06 -0.10184091 0.025886377 0.006056771 -0.0005446896
-0.0031600264 -5.5006906e-29 0.029354107 -0.05407026 -0.019293265 6.236395e-19 -0.042253662 0.00029399258
-0.013761215 -0.06515785 0.0011858918 0.014574376 0.027880125 0.006280789 -0.015144302 -5.092e-42
0.006993796 0.09633683 -0.061620567 -0.00389197 0.08586172 0.030497964 -0.08106221 -1.9779563e-05
5.094e-42 -5.9391947e-05 -0.0047413455 -0.0027339384 8.569943e-14 -0.0010655448 -0.0014945321 0.0021578618
4.935e-42 -7.659896e-05 -8.733829e-06 5.954e-42 -3.9279796e-05 -8.062845e-05 5.063e-42 -0.0011303733
-0.0021180303 -0.006135885 -0.0016809567 -0.0009804064 -0.00061542547 -2.0226507e-05 -0.0010454437 5.465e-42
-8.92916e-09 -0.0016162818 1.2231565e-34 -3.150133e-05 -0.0016184023 0.0024410216 -4.2253494e-05 4.916e-42
3.69389e-06 -0.00085567054 -0.0026270985 -0.00013427732 -0.0016333219 -1.0537232e-05 -0.00013585445 -0.00024523115
0.00018067025 -9.405445e-15 -0.0069568446 -0.00081435003 -4.938e-42 -0.0045966594 -5.855e-42 -4.954e-42
-0.00203836 -4.0080828e-05 -0.006429151 -5.074e-42 -4.021251e-05 -4.942e-42 0.0036924803 -5.9492013e-05
-0.00058532465 -0.00090731645 -1.90456e-09 1.1176404e-15 -0.007617103 -0.0032408624 5.1e-42 -4.3864064e-05
-0.00021561432 0.0004222284 -0.00010084843 0.0003785598 -0.00015056964 4.944e-42 0.008011886 0.009390226
-5.07e-42 -0.0015176451 -0.0014533818 0.012124611 0.0013698145 -0.00011668297 -0.00016789972 -1.2541526e-34
-0.0051037315 0.0022487834 -0.00030493242 6.005e-42 5.308e-42 0.005134301 -0.0025833582 0.0015432212
-0.0056280843 -5.076e-42 -1.0583561e-05 5.999e-42 -3.807e-42 7.770942e-05 -6.5777167e-10 -0.00028279843
5.073e-42 3.243541e-05 0.0014972608 -0.00011480508 4.926e-42 -0.00084752706 -1.656163e-05 8.8684734e-05
0.0001937584 4.973e-42 -6.490851e-06 0.001660266 -0.014546257 2.4832925e-22 5.043e-42 -0.007849945

fc2.bias f4 [96]
00000000: 3918 ea3c bb00 99b7 3781 fb3c 66bd 023d
00000010: 3cfd 0dbb 1890 d93c 0bb0 1211 26b3 10bc
00000020: f02d ae09 5331 8ebb 3d5a 80bb a19a ca0a
00000030: 281d 9abc 1019 d23b 3505 df3c 5131 88bb
00000040: d60d 0000 4b2c 003b 605d 313d 0e1a cc3c
00000050: d08c 1c81 9151 ac3c 0c21 22ba c412 313c
00000060: a710 110b 57e2 c53c 65d3 253d 88a4 913b
00000070: e3bf 74bc 2089 e13c 5d34 cd3c 1348 493c
00000080: 681c ef3b db66 5d3d 4b9c fe3b 7087 74bc
00000090: ba30 013d 8b97 763c 5689 00b4 08ac d23c
000000a0: be02 5f3c c451 933b a992 aa3c 750f 0000
000000b0: e3f5 8abc 7857 d63c 8037 5a3c 6578 b93c
000000c0: 7b73 af3c 8ab8 74bc 8049 f597 a0cb f33c
000000d0: e9c4 363d 6e12 49bc a453 4dbb f139 ee3c
000000e0: 4853 483c ed0f 86ba 3e98 123d a1d0 4b3a
000000f0: 42c0 4fbb 4cc8 f6bb 7301 0100 bcdf ae3c
00000100: cbf5 9e2b edbb 0f3d dcf6 f3b9 6c15 c23c
00000110: 30ec 333c 1410 d93c 8269 063c 008c 7e3c
00000120: cc58 040f 80c5 f039 f4b1 e6b3 0710 8f3c
00000130: 75db be80 fd6b 2a3c a52e 2bba ed0d 0080
00000140: 8be7 023d 0518 4ebc 9322 8d3c 9995 c73c
00000150: 3a5f 243c 988c b4b8 6779 9c3c 877b a43a
00000160: 041f ecb3 67a2 38bb 731b 463c f934 f13b
00000170: 6379 b396 8119 983a bcc0 3c3d a4c0 c63c
0.028576003 -1.8239361e-05 0.030701263 0.031918906 -0.0021665832 0.026557967 1.1571617e-28 -0.008831775
4.1932176e-33 -0.004339376 -0.0039170072 1.9510057e-32 -0.01881273 0.006411679 0.027224163 -0.0041562696
4.963e-42 0.001955765 0.04330194 0.024914768 -2.8753703e-38 0.021034988 -0.0006184734 0.010807697
2.7938512e-32 0.024155779 0.040484805 0.0044446625 -0.0149383275 0.027531207 0.025049383 0.01228525
0.0072970875 0.05405317 0.0077700964 -0.014924869 0.03154061 0.015050779 -1.1970891e-07 0.025716797
0.013611494 0.004495831 0.020821886 5.545e-42 -0.016962951 0.026164755 0.013318896 0.022640416
0.02141737 -0.014936576 -1.5851308e-24 0.029760182 0.044621382 -0.01227246 -0.0031330371 0.029080363
0.012226887 -0.0010228135 0.03578972 0.00077749236 -0.0031700288 -0.0075312015 9.2355e-41 0.02134692
1.1294796e-12 0.03509133 -0.00046532496 0.023691855 0.010981604 0.026496924 0.008203866 0.015536308
6.525204e-30 0.00045923516 -1.0742579e-07 0.017463697 -1.752747e-38 0.010401723 -0.0006530083 -4.996e-42
0.031959098 -0.012578969 0.0172284 0.024363326 0.010032469 -8.6092565e-05 0.019100858 0.0012549021
-1.0995248e-07 -0.0028172971 0.012091505 0.007361051 -2.8995615e-25 0.001160428 0.046082243 0.02426178

fc3.weight f4 [10, 96]
00000000: 77d6 4dbd a5a4 3bb8 0be3 72bd 4626 da3d
00000010: 74b2 d2bd 88c7 903d 923a ae10 2e40 343c
00000020: b335 15bb 7840 963d fbc3 9cbd 81b2 78b7
00000030: 791d d13c b614 a0bb 9e8c f33c 9e1b 4cbd
00000040: 2226 362f 7903 493d fe08 433d bf01 bbbd
00000050: d1b4 48b0 b924 d7bd e5a0 063c ea45 d3bc
00000060: 14fa 96b4 656f bdbd 4a92 213d 2e0f 90bd
00000070: 8f9c 23bd 8bee a5bd 7c1a 303d fc30 e83c
00000080: 39a4 bfbd 6bd7 403d 9bca 863d 2c2e 893d
00000090: 0329 98bd 3e54 aabb 5c03 781d 6a50 13bd
000000a0: b802 0a3b d656 8c3d 262a e9bd f00d 0080
000000b0: bb3e dcbd 6ffe a6bd 32b2 a73d 3704 173e
000000c0: 42b8 80bd 5782 c63d f266 9e98 8679 e23c
000000d0: 8a42 653c 96ab 00be 182d 443d fb80 d03d
000000e0: 4ce1 1fbd bd96 8d3d 6a70 5e3d 4074 f13c
000000f0: c8da 753c 63f3 4a3d 8f58 b6bb 9c14 ab3d
00000100: 92b0 9237 d7d5 ad3d 7861 833d 950e a13d
00000110: 5373 093e 6008 82bd 01b4 03bd 27b2 d03d
00000120: 1e71 fb38 4d37 2e3c e2e2 43ba 55c0 dd3d
00000130: 611e 20b9 9983 a2bd 00a4 67bb ba28 6eb4
00000140: 1a83 2ebc 4811 3a3d 6a53 ecbd ed7f e2bd
00000150: 69ca e4bd 8def 8081 8d35 933d 10da 91bd
00000160: d60d 0080 76cf fdbd f30a b4bd 7008 c13d
00000170: 9a68 4238 a808 fdba 11bd d3bd d4f1 e53b
00000180: 9945 e2bd 72b8 fc3b 0899 8d3d 22db cebd
00000190: 63a6 f6bc e31f 7d3d 8e38 3612 2642 fa3d
000001a0: e366 c234 dc3d 003e e7c2 cdbd 63ad 9db8
000001b0: 02a5 edbb 7850 80bb b7b1 e6bd 6b05 a13d
000001c0: abd9 fcb3 550f 04be 614e f53d 398a dfbc
000001d0: 592f 99b6 093c d73d dd27 19bd 100f a5bd
000001e0: edf5 192c da64 cbbd d4ac 0f3d a877 b9bd
000001f0: c96f 423c 39c2 aa3d 9bd3 19be 2e71 9e3c
00000200: e57b 8abb 4ad0 88bd 5f19 153c 31e5 133b
00000210: 6923 b4bd 2a6d 8f3c da82 8099 990e 0f3d
00000220: 3861 823d 7b3f 0f3e 14f7 12bc f80d 0000
00000230: b32e 833c e4d9 df3c dd47 f7bc 7f4d 123e
00000240: 0285 c13d aae3 80bd 09be f917 9e20 0b3c
00000250: d1cf f0bd 6621 f4bc 2f5b 593b b791 69bd
00000260: 10f8 c8bd 14f3 15bd 0376 86bd eca2 55bd
00000270: 0163 003d 4aef 08bd 7b21 20bb c4a5 7b3d
00000280: d55b ed37 01dc 12be 4be5 4c3d 06b3 073d
00000290: 8526 ef3d 9cf2 c2bd 5fe7 80bd 9a5e 11be
000002a0: e906 f9b9 db85 0ebb 3000 883b 80af 6db8
000002b0: d331 8cb6 5eee da3d 8e33 423d 663b a3b3
000002c0: 4e68 e03c 116a c1bd 38b1 aa3d dfed dfbd
000002d0: efb3 5bbd 25be 0200 708a 023d 8077 153e
000002e0: 8639 5b03 a99a a33d ea8e d4bc a257 7a3d
000002f0: b5e7 903b c23b 28bd c777 a9bd 7068 fc3d
00000300: a3f8 cebd 5480 0bb9 4f0f 81bc 3497 01bb
00000310: d4e1 a4bc 4573 21be 8c84 a312 dadd 9f3d
00000320: 3d20 c139 8f15 e7bd 00af 8cbd 6ce0 02b8
00000330: fe26 a43d 5682 06bd dc12 5bbc 2797 993d
00000340: d45d 4835 d852 e33c 64f8 0ebc 4c19 a9bd
00000350: 9c5b 3e3a 21e5 703d e406 e7bd b373 61bd
00000360: 768c ad38 758a 603d 96f9 053e 0521 f2bd
00000370: 0c60 013e 58b9 bc3d adf4 b73d 8b89 dabd
00000380: 092f abbd 868a 82bd 286d babd 20a8 b93d
00000390: bcee cfbd c031 da3d 6540 871d 4244 f5bd
000003a0: 9bbf d8bd 0447 943d 812c c93d d80d 0000
000003b0: 0cd9 173d fcaf 8b3d b7a4 933d 8ecc 20be
000003c0: 624e a9bd 8226 3d3d 70c2 1099 0451 073e
000003d0: f6be fc3c 2355 a2bd 89b8 9fbc f6d7 7e3d
000003e0: e69d 553c 956b adbd dfda 0a3d 6c8f 1ebe
000003f0: 8be4 68bd 1fbe 90bd 6c4e 463b 2d1c 9b3d
-0.050253358 -4.473761e-05 -0.059298556 0.10651831 -0.102879435 0.070693076 6.872114e-29 0.01100163
-0.0022767603 0.07336515 -0.07654568 -1.4823513e-05 0.025526749 -0.0048852814 0.029730137 -0.049831025
1.6566351e-10 0.049075577 0.047615997 -0.091311924 -7.301653e-10 -0.10505051 0.008217071 -0.025790174
-2.8121633e-07 -0.092497624 0.039446153 -0.07034145 -0.039944228 -0.08102139 0.042994007 0.02834367
-0.09357495 0.04708044 0.06581613 0.0669826 -0.07429697 -0.0051980307 3.2824263e-21 -0.03596536
0.002105875 0.068525 -0.11384992 -5e-42 -0.107541524 -0.08153998 0.08188285 0.14747702
-0.062851444 0.09692829 -4.094599e-24 0.027645838 0.013992915 -0.12565455 0.047894567 0.10180851
-0.03903322 0.06913517 0.054306425 0.029474378 0.015005775 0.049548518 -0.005564756 0.0835354
1.7486778e-05 0.08488052 0.06415075 0.078641094 0.13422899 -0.06349254 -0.032154087 0.1019023
0.000119896824 0.010633302 -0.0007472468 0.108277 -0.00015270106 -0.079352565 -0.0035345554 -2.2180294e-07
-0.010651374 0.045426637 -0.115393475 -0.11059556 -0.11171419 -4.736351e-38 0.071879484 -0.0712167
-4.963e-42 -0.12393086 -0.08791151 0.094254375 4.6350622e-05 -0.0019304948 -0.10338796 0.0070173535
-0.11048431 0.0077124173 0.06913954 -0.1010039 -0.030108636 0.061797988 5.7498783e-28 0.12219648
3.6210176e-07 0.12523597 -0.1004694 -7.518639e-05 -0.0072523365 -0.0039158426 -0.11264365 0.078623615
-1.1774258e-07 -0.12896474 0.1197784 -0.02728759 -4.5652673e-06 0.10509498 -0.037391532 -0.080595136
2.1879124e-12 -0.09931345 0.03507693 -0.09056026 0.011867472 0.08337826 -0.15022127 0.019341078
-0.004226195 -0.06680353 0.009100287 0.0022567029 -0.087958165 0.017508108 -1.328774e-23 0.03492603
0.06366199 0.1398906 -0.008970041 5.011e-42 0.016013479 0.027325578 -0.030185634 0.14287375
0.09449197 -0.062934235 1.6139219e-24 0.008491663 -0.11758388 -0.029801082 0.0033165922 -0.05702373
-0.09812939 -0.03660877 -0.06565478 -0.052157328 0.031344417 -0.03343133 -0.0024434018 0.061437383
2.8295364e-05 -0.14341737 0.05002336 0.033129714 0.11677269 -0.0951893 -0.062941305 -0.14196244
-0.0004749813 -0.0021747265 0.004150413 -5.666865e-05 -4.1781254e-06 0.10689996 0.047412448 -7.6010835e-08
0.027393486 -0.09444059 0.08334583 -0.10934042 -0.053638395 2.51882e-40 0.031870306 0.14596367
6.442435e-37 0.079884835 -0.025947053 0.06111873 0.004422153 -0.041072614 -0.08274799 0.12324607
-0.101060174 -0.00013303879 -0.01575437 -0.0019773962 -0.020127214 -0.15766628 1.0319422e-27 0.07805987
0.00036835848 -0.11283409 -0.06869316 -3.1203424e-05 0.0801525 -0.03283914 -0.013371196 0.07499533
7.4642344e-07 0.027749464 -0.008726213 -0.08256778 0.00072615757 0.058812264 -0.11280611 -0.05504198
8.275446e-05 0.054819543 0.1308349 -0.11822704 0.12634295 0.09215039 0.08982215 -0.106707655
-0.083585806 -0.063740775 -0.09102851 0.090652704 -0.10152957 0.1065402 3.5800785e-21 -0.1197591
-0.10583421 0.07240108 0.098229416 4.966e-42 0.037072226 0.06820676 0.07209151 -0.15703031
-0.082669035 0.046179302 -7.483892e-24 0.13214499 0.030852776 -0.07926395 -0.019497173 0.062217675
0.013038134 -0.08467785 0.033900138 -0.15484399 -0.05685858 -0.07067513 0.0030259145 0.075737335

fc3.bias f4 [10]
00000000: a806 39bd 0c63 143c 610d 373d 946c 163d
00000010: 5aed 1f3d af5e 613d 516b 91bd e1b5 e9bc
00000020: be3b 73bc ba81 c3bc
-0.045172364 0.009056818 0.044690493 0.036724642 0.039044715 0.055021938 -0.07100547 -0.02852911
-0.014845787 -0.02386557
