models/trained/ConvNet3_6.pt (torch, 437732 bytes, 8 tensors)

conv1.weight f4 [16, 1, 3, 3]
0	0x3e2bc95a	0.16776028
1	0xbe980675	-0.29692426
2	0xbebe77cb	-0.3720077
3	0x3eb3a0b9	0.3508356
4	0x3e6bdf27	0.23034345
5	0xbe48add6	-0.19597563
6	0xbd8c4af3	-0.06850233
7	0x3e9b9148	0.30384278
8	0x3df30529	0.118662186
9	0xbe072fae	-0.13201782
10	0xbe5be043	-0.21472268
11	0xbcf0c757	-0.029391928
12	0x3d00fe0f	0.03149229
13	0x3dcebbb1	0.10094393
14	0x3e6d711b	0.23187678
15	0x3e0d5529	0.13802017
16	0x3d02cbab	0.031932514
17	0xbe0a2b4b	-0.13493077
18	0x3e6ab5aa	0.22920862
19	0x3e73e180	0.2381649
20	0xbea872da	-0.32900125
21	0x3f196388	0.599175
22	0xbc1957e7	-0.009359336
23	0xbf0c50e6	-0.5481094
24	0x3edd5a6d	0.43233052
25	0xbe60f445	-0.21968181
26	0xbebf7647	-0.37394926
27	0xbe355209	-0.17707075
28	0xbe102e3d	-0.14080139
29	0xbe38a940	-0.18033314
30	0xbe343053	-0.17596559
31	0xbe17e5d8	-0.14833772
32	0xbe42dab6	-0.19028744
33	0xbdf3824c	-0.118900865
34	0xbde8459b	-0.11341401
35	0xbe84a1be	-0.2590465
36	0x3efd8a83	0.4951974
37	0x3f0a0028	0.5390649
38	0x3f109b6d	0.5648716
39	0xbda2e98e	-0.07954703
40	0x3ddaba11	0.106800206
41	0x3e56c558	0.20973718
42	0xbf35fc18	-0.7108779
43	0xbf409004	-0.7521975
44	0xbef33a11	-0.4750524
45	0xbe460c26	-0.19340572
46	0xbf00b5ca	-0.5027739
47	0xbdd6b83f	-0.10484361
48	0x3e7d6a51	0.24747588
49	0x3ea82001	0.32836917
50	0x3e6bd588	0.23030674
51	0xbd5e41a8	-0.054261833
52	0x3e100ab4	0.14066583
53	0xbd8688e8	-0.065690815
54	0x3a57d252	0.0008232939
55	0x3e0a4b58	0.13505304
56	0xbe297262	-0.1654754
57	0xbcf38e81	-0.029731037
58	0x3dcd602d	0.1002811
59	0xbdbc04ca	-0.09180601
60	0x3d683af4	0.056696847
61	0x3d4005fd	0.04688071
62	0x3d4128a9	0.047157917
63	0xbd1a0f17	-0.037612047
64	0xbed1e52e	-0.40995163
65	0xbe1adfc3	-0.15124421
66	0x3e982d28	0.2972195
67	0xbe49daab	-0.19712321
68	0xbe9f2414	-0.31082213
69	0x3eb6acc6	0.3567869
70	0x3dde9a47	0.1086927
71	0xbe8355a3	-0.25651273
72	0xbde5e80b	-0.11225899
73	0xbea6b783	-0.32561883
74	0xbee7ad32	-0.45249325
75	0xbf013aae	-0.50480163
76	0xbeeae090	-0.45874453
77	0xbc9971ab	-0.018730959
78	0xbedd88e0	-0.4326849
79	0x3df98c42	0.12184955
80	0x3f17f53c	0.5935857
81	0xbebe72da	-0.37197
82	0x3c050503	0.008118871
83	0x3ea7f4cb	0.3280395
84	0xbeb33f13	-0.3500906
85	0xbdb375dd	-0.08762715
86	0x3ee2f61f	0.443284
87	0xbeb11c6a	-0.3459199
88	0xbe976176	-0.29566544
89	0x3e221f36	0.15832219
90	0xbdff8081	-0.12475682
91	0x3eb058c0	0.3444271
92	0x3eb5d9e8	0.35517812
93	0x3ed4a9fa	0.41535932
94	0x3f02c54a	0.5108229
95	0xbe174597	-0.1477264
96	0x3e877af4	0.26460993
97	0xbe818640	-0.25297737
98	0xbf09fb9e	-0.5389956
99	0x3e668988	0.22513402
100	0x3e5690a5	0.20953615
101	0x3db1c67e	0.086804375
102	0xbd4f2705	-0.05057432
103	0x3e4ba5d1	0.19887473
104	0x3e3e06a9	0.18557228
105	0x3d106367	0.035251047
106	0x3e68abbe	0.22721764
107	0x3ece9eb6	0.40355462
108	0xbc13bbc3	-0.009016934
109	0xbe32da07	-0.17465983
110	0x3dab4780	0.08363247
111	0xbdf32bce	-0.118735895
112	0xbd4a1b8e	-0.049342684
113	0x3e322cb5	0.17399867
114	0xbb790ebc	-0.0038003167
115	0x3da99e3c	0.08282134
116	0xbae8c540	-0.001775898
117	0x3da67562	0.08127858
118	0xbd534aa8	-0.05158487
119	0xbdbc5996	-0.09196775
120	0x3d3cf48d	0.04613166
121	0x3cc64370	0.024202079
122	0x3d757fdd	0.059936393
123	0x3d611701	0.05495358
124	0xbbb6affe	-0.005575179
125	0x3d5a532c	0.053301975
126	0xbe433706	-0.19063959
127	0xbf04677f	-0.5172042
128	0xbeabc522	-0.33548838
129	0x3d8c8ea1	0.06863142
130	0xbe533c35	-0.20628436
131	0xbe8189a3	-0.2530032
132	0x3f076114	0.52882504
133	0x3eed4cf2	0.46347767
134	0x3e94e31d	0.29079524
135	0xbc8f98e8	-0.017528966
136	0xbdb6e86a	-0.08931048
137	0xbdc2b2f9	-0.095067926
138	0x3d917aeb	0.07103523
139	0x3cde8493	0.027162826
140	0x3dd53e42	0.10412265
141	0xbc8d7fc9	-0.017272847
142	0x3c3a1e57	0.011359773
143	0x3ce3b638	0.02779685

conv1.bias f4 [16]
0	0xbe3d414e	-0.18481943
1	0xbdafc014	-0.08581558
2	0xbcb16c93	-0.021658218
3	0x3e9d2634	0.3069321
4	0x3ca42771	0.020038338
5	0xbd801b0c	-0.06255159
6	0xbd9c2ba9	-0.07625515
7	0xbb70b877	-0.0036731043
8	0x3e866c04	0.26254284
9	0xbe3b68aa	-0.18301645
10	0xbd851a2e	-0.06499134
11	0xbdf55251	-0.11978591
12	0xbd784416	-0.060611807
13	0xbe0914b9	-0.13386811
14	0x3c081968	0.008306839
15	0xbd809cc2	-0.06279899

conv2.weight f4 [32, 16, 3, 3]
0	0xbd3934cb	-0.045216363
1	0xbd447228	-0.04796043
2	0xbd41d414	-0.047321394
3	0xbd193cbd	-0.03741144
4	0xbb39ba15	-0.0028339673
5	0xbc1822ca	-0.009285638
6	0xbce03919	-0.027370976
7	0xbd01c2b8	-0.03167984
8	0x3cdcce10	0.026953727
9	0xbd06fccd	-0.032955933
10	0xbcc67e6d	-0.024230206
11	0xbc952152	-0.018204365
12	0xbc3f335b	-0.011669959
13	0xbc2e9f4b	-0.010658096
14	0xbd0c05ad	-0.0341851
15	0xbc7ba198	-0.015358351
16	0xbce0100e	-0.027351405
17	0xbd08531c	-0.033282384
18	0xbcd5087c	-0.026005022
19	0xbd3d2391	-0.046176497
20	0x3c1c644a	0.009545395
21	0xbc6d4f88	-0.014484294
22	0xbde6fba9	-0.11278469
23	0x3d6b201d	0.057403672
24	0xbd0deb8b	-0.03464846
25	0xbe2009d1	-0.15628745
26	0x3e019630	0.12654948
27	0x3cc036bd	0.023463601
28	0xbca8acbe	-0.020590182
29	0xbd495a90	-0.049158633
30	0xbcca8d86	-0.024725687
31	0xbc1745dc	-0.009232964
32	0xbc921a5a	-0.017834831
33	0xbd25e11c	-0.040497884
34	0xbb21f5cf	-0.0024713164
35	0xbcb2454d	-0.02176156
36	0xbe28fdc2	-0.16503051
37	0xbe408f7e	-0.18804738
38	0xbdf66630	-0.120312095
39	0xbe3e50fb	-0.18585579
40	0xbe63552e	-0.22200462
41	0xbe205140	-0.15655994
42	0xbe4c071f	-0.19924591
43	0xbe8ee66a	-0.27910167
44	0xbd9a3c6c	-0.07531056
45	0xbd00301c	-0.03129588
46	0xbb2d5ba4	-0.0026452327
47	0xbc986315	-0.018601933
48	0x3b34e94f	0.0027604883
49	0xbc408f12	-0.011752861
50	0xbdbcc34c	-0.092169374
51	0x3d6104ec	0.054936334
52	0xbd276731	-0.040869895
53	0xbdd27ec0	-0.10278082
54	0xbc6ee0ab	-0.014579932
55	0xbaf2a617	-0.0018512633
56	0x3cb0cbd7	0.021581573
57	0xbc548584	-0.012971286
58	0x3c3aff33	0.011413383
59	0x3af6b787	0.0018823006
60	0xbc016a52	-0.007898884
61	0x3c7f0712	0.015565651
62	0x3d0278eb	0.031853598
63	0x3bcf66d5	0.006329397
64	0xbc8d3c59	-0.01724069
65	0xbdc15f14	-0.09441963
66	0x3a993dc7	0.0011691385
67	0xbc815d01	-0.015791418
68	0xbd02ee0f	-0.03196531
69	0xbc0a54ef	-0.008443101
70	0xbd497cd1	-0.0491913
71	0x3d3e11a2	0.046403535
72	0x3d8e7365	0.069556035
73	0x3d5f561e	0.054525487
74	0xbc9d20b3	-0.019180631
75	0x3dc62be7	0.096763425
76	0xbd78d7bd	-0.06075262
77	0xbd7316f3	-0.059348058
78	0x3b04117b	0.002015202
79	0xbd92243f	-0.0713582
80	0xbd8e8158	-0.06958264
81	0x3dec32f5	0.11533157
82	0x3dc60e7c	0.096707314
83	0xb98febfd	-0.0002745091
84	0x3dca8421	0.09888483
85	0xbb94c633	-0.0045402288
86	0xbcf19c57	-0.029493494
87	0x3dc20654	0.09473863
88	0xbdc83a98	-0.09776801
89	0xbce5aeea	-0.028037507
90	0xbdf1f7f0	-0.118148685
91	0x3cdfeec8	0.02733554
92	0x3e3808ba	0.17972079
93	0xbe24a679	-0.1607913
94	0xbc4f3f9f	-0.012649446
95	0x3d918e35	0.07107202
96	0xbd89ea94	-0.06734195
97	0x3ce7b45c	0.028284244
98	0x3dbdb53a	0.09263082
99	0xbd4b8d67	-0.0496954
100	0x3df25294	0.11832157
101	0x3dbcadec	0.092128605
102	0x3d4435b0	0.047902763
103	0x3dc322ce	0.09528123
104	0x3d2635d6	0.040578686
105	0x3de99c67	0.114067845
106	0x3dd21c2d	0.1025928
107	0x3d3d2df7	0.046186414
108	0x3ce76513	0.028246438
109	0x3d194cb2	0.037426658
110	0x3ca00b83	0.01953674
111	0x3d05ee5f	0.03269803
112	0x3c707102	0.014675381
113	0xbcad619c	-0.021164708
114	0x3d149122	0.036271222
115	0xbcfc6263	-0.030808633
116	0xbc6a1f61	-0.014289708
117	0xbcfde4d1	-0.030992897
118	0x3ab72e97	0.0013975677
119	0x3cd1e4f0	0.025621861
120	0xbce64bc5	-0.028112302
121	0x3c88fc64	0.016721912
122	0x3ca47158	0.020073578
123	0xbbb2ecb3	-0.0054603457
124	0x3cad3a91	0.02114609
125	0x3cc20a14	0.023686446
126	0xbdd345ef	-0.10316073
127	0xbe0796fc	-0.1324119
128	0xbe0f6969	-0.14005055
129	0xbbbcb518	-0.0057588927
130	0xbdeb79e3	-0.114978574
131	0xbe141975	-0.14462836
132	0xbdf0e031	-0.11761511
133	0xbe300af6	-0.17191681
134	0xbd92077e	-0.07130335
135	0xbbe87840	-0.007094413
136	0x3b84082f	0.004029296
137	0xbb67bec4	-0.0035361508
138	0x3bc6249e	0.0060468456
139	0xbc8ad2a1	-0.016946139
140	0xbca75ffa	-0.020431507
141	0x3c433b3f	0.011915981
142	0xbc94932e	-0.018136587
143	0xbc88a927	-0.01668222
144	0x3da9028a	0.082524374
145	0xbdbe2e61	-0.0928619
146	0xbdca28bd	-0.098710515
147	0xbe078d17	-0.13237415
148	0xbdb1490f	-0.08656513
149	0xbdb4aeda	-0.08822413
150	0xbe22c015	-0.15893586
151	0xbd6a5d84	-0.05721809
152	0x3d075414	0.033039168
153	0x3db2bbe2	0.08727242
154	0x3d1cf5de	0.038320415
155	0xbd1d011a	-0.03833113
156	0xbbcce1ac	-0.006252488
157	0xbc7a334b	-0.015271018
158	0xbd2525c0	-0.040319204
159	0x3bd90c54	0.006623784
160	0xbcf823d1	-0.030290516
161	0xbd7e316f	-0.062058862
162	0xbe4d6742	-0.20058921
163	0xbe6009b2	-0.21878698
164	0xbe08dbe5	-0.13365133
165	0xbc8119c7	-0.015759362
166	0xbcc3bd4c	-0.023893975
167	0x3e8cf409	0.27529934
168	0xbdc70a62	-0.09718777
169	0x3e1ea656	0.1549314
170	0x3e621bc7	0.22080909
171	0xbdf17124	-0.11789158
172	0xbdcae540	-0.09907007
173	0xbd9dca2b	-0.07704576
174	0xbdcd5798	-0.10026473
175	0xbd9c079c	-0.07618639
176	0xbdf3d724	-0.11906269
177	0xbd86a526	-0.06574468
178	0xbd9d84fb	-0.0769138
179	0xbe053ed1	-0.13012244
180	0x3d917d72	0.07104005
181	0x3e535046	0.2063609
182	0xbd6bb18a	-0.05754236
183	0x3e43f3d4	0.19135982
184	0xbdbfdab1	-0.09367884
185	0xbe10d89c	-0.1414513
186	0xbdc2221e	-0.094791636
187	0xbda937c3	-0.08262589
188	0xbd2ac068	-0.0416874
189	0x3e4e7fe8	0.2016598
190	0x3d418297	0.04724368
191	0xbdb0a149	-0.08624513
192	0xbce3b295	-0.027795115
193	0xbd453361	-0.048144702
194	0xbde093b6	-0.109656736
195	0x3c8a9a0e	0.016919162
196	0xbd8f67ea	-0.07002242
197	0xbdfeeaf4	-0.124471575
198	0xbc2e711b	-0.010647084
199	0xbd56c56f	-0.05243438
200	0x3bdbf487	0.0067124995
201	0xbd6696ed	-0.056296278
202	0xbc94551b	-0.018106988
203	0x3d311821	0.0432359
204	0xbd2fe3ed	-0.042941976
205	0x3c615408	0.013752945
206	0x3d36b8f6	0.044609986
207	0x3b090b43	0.0020911254
208	0xbda32ad1	-0.07967151
209	0xbe35b922	-0.17746404
210	0xbd467c3a	-0.048458315
211	0xbcbb0957	-0.022831602
212	0xbd9a26ee	-0.075269565
213	0xbd1661c0	-0.036714315
214	0x3cbd3bd0	0.02309981
215	0x3d47e817	0.048805322
216	0xbd380e3f	-0.04493546
217	0xbe435249	-0.19074358
218	0xbe4bc786	-0.19900331
219	0xbd23fec2	-0.040037878
220	0xbd89db08	-0.0673123
221	0xbddafb51	-0.10692466
222	0x3d0e6dd0	0.034772694
223	0xbe0c4e7a	-0.13701811
224	0xbd8993fe	-0.067176804
225	0xbc9d7d00	-0.019224644
226	0xbd9523c8	-0.07282215
227	0x3c1dd558	0.009633385
228	0xbd9d8d55	-0.076929726
229	0x3df539a3	0.11973884
230	0x3e12cf30	0.14336848
231	0x3e0b73cb	0.1361839
232	0x3e646a64	0.2230621
233	0x3e3ae3d5	0.18250974
234	0x3d3ff51f	0.046864625
235	0x3d5326d7	0.051550712
236	0x3c025b1f	0.007956295
237	0x3d177b9e	0.036983125
238	0xbdd672e5	-0.10471133
239	0x3e033f98	0.12817228
240	0xbe445db3	-0.19176368
241	0xbd17bb5d	-0.037043918
242	0x3e06c9eb	0.13162963
243	0xbe17f740	-0.14840412
244	0xbc1c3cb8	-0.009535961
245	0x3e1e654c	0.15468329
246	0xbdcaf877	-0.09910672
247	0xbc153485	-0.00910676
248	0x3e1b9837	0.15194784
249	0xbe167418	-0.14692724
250	0xbcca745c	-0.024713688
251	0x3d6ec4b0	0.058293045
252	0x3bc90091	0.0061341007
253	0xbc5ce20a	-0.013481626
254	0xbbd8fad7	-0.0066216993
255	0xbccbc24f	-0.024872927

conv2.bias f4 [32]
0	0x3c44571d	0.01198366
1	0xbda0b4c2	-0.07846977
2	0xbd0a9f9e	-0.03384363
3	0xbd0db4b0	-0.034596145
4	0xbd4225ab	-0.047399204
5	0xbd1333d3	-0.035938095
6	0xbb6a8e02	-0.003579021
7	0xbc8fa219	-0.017533349
8	0xbd38b552	-0.045094796
9	0xbbf128e9	-0.007359613
10	0xbb0f726e	-0.0021888274
11	0x9be70ae4	-3.8222782e-22
12	0xbd65225b	-0.055940967
13	0xbc653009	-0.013988503
14	0xbd49d22b	-0.049272697
15	0xbd3b8bea	-0.04578773
16	0xbd147349	-0.036242757
17	0xbd2a12e2	-0.041521914
18	0xbcd9ea40	-0.026600957
19	0xbdec9119	-0.11551113
20	0xbc829b10	-0.01594308
21	0xbd450625	-0.048101563
22	0xbc502adc	-0.012705531
23	0xbccd1d42	-0.025038365
24	0xbd7716f3	-0.06032462
25	0xbd92686d	-0.07148824
26	0x3b3a2157	0.002840122
27	0xbcda86b9	-0.026675569
28	0xbd53bf02	-0.05169583
29	0xbd32dff7	-0.04367062
30	0xbd398670	-0.045294225
31	0xbd928da7	-0.07155924

fc1.weight f4 [128, 800]
0	0xad37dfac	-1.0452011e-11
1	0x2e0d6055	3.214525e-11
2	0xafb5b23c	-3.305035e-10
3	0xb111a4ff	-2.1194067e-09
4	0xaa067c71	-1.1944765e-13
5	0x2e6c10c5	5.3675082e-11
6	0xb73d6284	-1.1288215e-05
7	0xb604d03b	-1.9790739e-06
8	0xb5197969	-5.7173617e-07
9	0xb0408724	-7.004124e-10
10	0xb59a029b	-1.1474652e-06
11	0xb807b39d	-3.2353786e-05
12	0xb69d1cc7	-4.6823147e-06
13	0xb63baa10	-2.796416e-06
14	0xb337b506	-4.2772648e-08
15	0xb4633e0c	-2.1163595e-07
16	0xb6d10e1d	-6.2303284e-06
17	0xb618a8cf	-2.2748025e-06
18	0xb6911d17	-4.3247232e-06
19	0x2ebb9bdc	8.5314616e-11
20	0x2af5b398	4.364536e-13
21	0xb38111d0	-6.010271e-08
22	0xb5ab5873	-1.2766235e-06
23	0xb62c141d	-2.5641705e-06
24	0xab04ecce	-4.7224453e-13
25	0x2c7687c8	3.5034076e-12
26	0x2d1b273b	8.819441e-12
27	0xad40c79f	-1.0958261e-11
28	0xacfdce6b	-7.2136095e-12
29	0xa881807c	-1.4377598e-14
30	0xae0abd5d	-3.1545756e-11
31	0xb52c7797	-6.424902e-07
32	0xb462c050	-2.1117853e-07
33	0x33bc09b9	8.756201e-08
34	0x2da3148d	1.8540081e-11
35	0xb4d24074	-3.9162444e-07
36	0xb67fb3f3	-3.8102705e-06
37	0xb5f9f3d2	-1.8622907e-06
38	0xb623bd6d	-2.4399153e-06
39	0x2e4b600f	4.6242173e-11
40	0xb4acf422	-3.2215127e-07
41	0xb62a0fd1	-2.534118e-06
42	0xb68cea31	-4.1995886e-06
43	0xb689ca77	-4.106488e-06
44	0xae39c2fb	-4.2237307e-11
45	0x2d960c48	1.705848e-11
46	0xb3b51634	-8.432508e-08
47	0xb670f435	-3.5904934e-06
48	0xb4d5d9c6	-3.9832793e-07
49	0xac21e620	-2.3007221e-12
50	0x29eb0202	1.0436445e-13
51	0x2b8c9cc6	9.991112e-13
52	0xa9f00d2b	-1.0660425e-13
53	0xabba8f92	-1.3255944e-12
54	0xaa36c7b8	-1.6234139e-13
55	0x2a8ab3e6	2.4638554e-13
56	0x2aeff945	4.2627894e-13
57	0xb33ade92	-4.3508926e-08
58	0xb36f054b	-5.5651338e-08
59	0x2be8f855	1.6553517e-12
60	0xacb9c15f	-5.2794847e-12
61	0xb3400e98	-4.4716757e-08
62	0xb40b82d0	-1.2992973e-07
63	0xb47435e7	-2.274388e-07
64	0xadfd6611	-2.8808097e-11
65	0xacc0bec1	-5.478146e-12
66	0xb498554e	-2.8374274e-07
67	0xb510f449	-5.399966e-07
68	0x32898fb6	1.6014251e-08
69	0x2cc126ae	5.4896842e-12
70	0xacda7e91	-6.2099843e-12
71	0xb190c94d	-4.213837e-09
72	0xb4133e8e	-1.3713199e-07
73	0xafb18c1f	-3.2295674e-10
74	0xaa9e2322	-2.8090816e-13
75	0x2c05a415	1.899152e-12
76	0xb75dcef1	-1.3220809e-05
77	0xb89bcb3d	-7.428832e-05
78	0xb883b479	-6.2801824e-05
79	0xb6853f32	-3.971066e-06
80	0xac8c3691	-3.9850974e-12
81	0xb3c194d7	-9.014337e-08
82	0xb5cc82a5	-1.5237207e-06
83	0xb5232eb3	-6.079019e-07
84	0xadba2612	-2.1162658e-11
85	0xadada663	-1.9741713e-11
86	0xb3b56f89	-8.4487574e-08
87	0xb5b00cd8	-1.311676e-06
88	0xb397eb96	-7.074338e-08
89	0x2de03f68	2.549401e-11
90	0xad8cd5cf	-1.6011107e-11
91	0xb31b8363	-3.6208245e-08
92	0xb4dedc84	-4.1511169e-07
93	0x3011dd2d	5.3065e-10
94	0x2e825c74	5.9281385e-11
95	0xac0fba38	-2.0424894e-12
96	0xadae3c18	-1.9808197e-11
97	0x2c64c831	3.2511877e-12
98	0x2d2ea23e	9.92678e-12
99	0xac41511f	-2.747198e-12
100	0xaae0292b	-3.981896e-13
101	0x318851f3	3.9674375e-09
102	0xb5e49ff4	-1.7033876e-06
103	0xb6111597	-2.161925e-06
104	0xb0a21b15	-1.1794749e-09
105	0xac592a6c	-3.0861104e-12
106	0xb4694363	-2.1724331e-07
107	0xb80edbf5	-3.406029e-05
108	0xb858bf92	-5.1676827e-05
109	0xb6a8e32b	-5.033236e-06
110	0xb27a1df4	-1.4558726e-08
111	0xb7e7476e	-2.7570608e-05
112	0xb7b7f4b1	-2.1929243e-05
113	0xb7ffae13	-3.0479428e-05
114	0xb6ac9efd	-5.144508e-06
115	0xb300207c	-2.9831867e-08
116	0xb88257c4	-6.215231e-05
117	0xb8b2b2c6	-8.5210006e-05
118	0xb835f8b2	-4.338538e-05
119	0xb4d889a8	-4.0333293e-07
120	0xad450048	-1.1198216e-11
121	0xb78e475c	-1.6960948e-05
122	0xb84a1576	-4.818054e-05
123	0xb7123df2	-8.716701e-06
124	0xb0c7ed28	-1.454656e-09
125	0x2a0b7637	1.2386694e-13
126	0xb329df22	-3.9551317e-08
127	0xb2abbddd	-1.999336e-08
128	0xa9acf793	-7.681282e-14
129	0x297ea797	5.654469e-14
130	0x2c836540	3.734485e-12
131	0x30356fb4	6.6006156e-10
132	0x2c4e6172	2.9328454e-12
133	0xa855f4e7	-1.187698e-14
134	0xa812f571	-8.15785e-15
135	0x2b814fcb	9.188148e-13
136	0x2ba9e9d3	1.2073071e-12
137	0xa894603b	-1.6473034e-14
138	0xaa071b2b	-1.1999834e-13
139	0x27d6ff35	5.9673628e-15
140	0xacb92867	-5.262502e-12
141	0x2ccf5a1f	5.8932993e-12
142	0x2a2d8db3	1.5414648e-13
143	0xa56ef375	-2.0725696e-16
144	0x23502f61	1.12857355e-17
145	0x2cccf4aa	5.825192e-12
146	0x2b9e179a	1.1233126e-12
147	0xab46595f	-7.046776e-13
148	0xaa8705d4	-2.3984861e-13
149	0x273590f0	2.5197367e-15
150	0x24b3e264	7.8012396e-17
151	0xa774cbc5	-3.3972266e-15
152	0x2a76e0e2	2.1927211e-13
153	0x2c0559b8	1.895024e-12
154	0x991fb2bc	-8.2562025e-24
155	0xaa5616d8	-1.9014944e-13
156	0xb1a6390f	-4.8377227e-09
157	0xb221876e	-9.4022266e-09
158	0xb1cb73fd	-5.921264e-09
159	0xa3b51e85	-1.9636985e-17
160	0xae93c913	-6.720504e-11
161	0xb35fffc8	-5.2153865e-08
162	0x32c8ea14	2.338951e-08
163	0xaee87820	-1.0571477e-10
164	0x28b928ba	2.0556788e-14
165	0x2dc744ba	2.2654201e-11
166	0xb242d69a	-1.1341081e-08
167	0x31d57893	6.2128236e-09
168	0xb219ad90	-8.945236e-09
169	0xa8dead15	-2.4722014e-14
170	0xa8c48508	-2.1818064e-14
171	0xa9ee31fc	-1.0577994e-13
172	0x3013a130	5.370735e-10
173	0xad303185	-1.0015437e-11
174	0xaa3f9043	-1.7014259e-13
175	0xacf6dfb3	-7.016576e-12
176	0xb698afba	-4.5504103e-06
177	0xb8a17b9e	-7.700104e-05
178	0xb9341ea6	-0.00017177555
179	0xb830423c	-4.2023355e-05
180	0x2d542168	1.20582225e-11
181	0xb1f887bb	-7.2331807e-09
182	0xb629e63c	-2.5316976e-06
183	0xb7e616fb	-2.7428838e-05
184	0xb742f5e1	-1.1620549e-05
185	0x2cd0a59e	5.9301028e-12
186	0x2c0fbbdd	2.0425807e-12
187	0xaeeae505	-1.068177e-10
188	0xb128d361	-2.4567373e-09
189	0xb3bfe7e5	-8.936312e-08
190	0xac9a2f58	-4.3821995e-12
191	0x2eac02f3	7.822178e-11
192	0x2db75949	2.0844342e-11
193	0x2f2d0d0a	1.5738891e-10
194	0xadd89729	-2.4623486e-11
195	0x293d59f0	4.204444e-14
196	0x2dc5f590	2.2505359e-11
197	0x2e033985	2.983704e-11
198	0xae86c3e0	-6.128409e-11
199	0x2e4f9e25	4.720681e-11
200	0xa3103ff3	-7.8197974e-18
201	0xa48046f5	-5.563136e-17
202	0xa48e5ce2	-6.174003e-17
203	0x299e8a65	7.040617e-14
204	0xa9593e88	-4.8237916e-14
205	0x22ad1b26	4.692049e-18
206	0x282c484f	9.5635974e-15
207	0x2bdabf0c	1.5542858e-12
208	0xaffa9aa1	-4.5584606e-10
209	0xac58f750	-3.0832732e-12
210	0x281d7fe5	8.7429834e-15
211	0x2d4c44d2	1.1611339e-11
212	0x311a7b9d	2.2480215e-09
213	0x318d0b95	4.104957e-09
214	0x2e09a63b	3.1297836e-11
215	0x29013932	2.8693363e-14
216	0x31396dfe	2.6983566e-09
217	0x314743ed	2.8996923e-09
218	0x31a74651	4.8683337e-09
219	0x2db74252	2.0834143e-11
220	0x28fcfa3a	2.8086139e-14
221	0xab208d70	-5.7039703e-13
222	0x2b323dbc	6.3323977e-13
223	0xaecaf8a8	-9.230067e-11
224	0x29d1a419	9.309931e-14
225	0xaab521e4	-3.2175575e-13
226	0x308cdaf7	1.0248574e-09
227	0x32c0c91d	2.2443198e-08
228	0x2e7ab63a	5.700527e-11
229	0x2b9f6d30	1.1327935e-12
230	0xb2076bb4	-7.882523e-09
231	0xb5ed022b	-1.7658507e-06
232	0xb7b05470	-2.1020154e-05
233	0xb65b74ec	-3.27016e-06
234	0x2cb120cb	5.0342833e-12
235	0xb3bc71fd	-8.7751665e-08
236	0xb71fba47	-9.52051e-06
237	0xb8283c6a	-4.0110586e-05
238	0xb6812e6f	-3.849905e-06
239	0xa922c777	-3.6144234e-14
240	0xb57bae96	-9.375884e-07
241	0xb8263e55	-3.9635535e-05
242	0xb79dd46b	-1.8814773e-05
243	0xb6c414d1	-5.8436785e-06
244	0xb0edb08f	-1.72942e-09
245	0xb3b4ff97	-8.428395e-08
246	0xb8215501	-3.8464557e-05
247	0xb8d2f540	-0.00010059262
248	0xb8908091	-6.8904024e-05
249	0xb50babe8	-5.203169e-07
250	0xad8001e0	-1.4552748e-11
251	0xad382085	-1.046641e-11
252	0xabacac8b	-1.2269225e-12
253	0xab17636b	-5.3783947e-13
254	0xaa1207ea	-1.297015e-13
255	0xae24f416	-3.7506075e-11

fc1.bias f4 [128]
0	0xaf6a4703	-2.1307404e-10
1	0x3bb67598	0.0055682175
2	0xb26b5196	-1.3697351e-08
3	0xbc42d840	-0.011892378
4	0x3c33eb26	0.010981357
5	0x3ab04b21	0.0013450125
6	0x333f3ef4	4.452791e-08
7	0x3ce6d0f5	0.02817581
8	0x3b963a2f	0.0045845727
9	0x38e8184b	0.00011067147
10	0x3bb4320c	0.00549913
11	0xbc72cfbb	-0.014820035
12	0xbca5967a	-0.020213354
13	0x3bd272be	0.0064223697
14	0x3aa52fae	0.0012602711
15	0x3b76b0c0	0.0037641972
16	0xb9c91c6c	-0.00038358883
17	0x3b7f37d4	0.0038943188
18	0x3b73f33e	0.003722384
19	0x3ca2da28	0.019879416
20	0x3c95bef8	0.018279538
21	0xb97a9aba	-0.00023899498
22	0x39865d56	0.00025628012
23	0xbc1cbd90	-0.00956668
24	0xbb514008	-0.0031929035
25	0x3ac8ab4f	0.0015309843
26	0xb6552014	-3.1758145e-06
27	0x3935ba6d	0.00017330954
28	0xbbc7da2f	-0.0060990076
29	0xbbff850e	-0.007797844
30	0x3cf8fd49	0.030394213
31	0x3c61aee5	0.013774608
32	0xba805693	-0.0009791426
33	0x3ba71318	0.0050987117
34	0xbcb1d00a	-0.021705646
35	0x3cea7699	0.028621005
36	0x3a5fcd5a	0.00085373747
37	0xbc2a2fd3	-0.010387379
38	0x3c0a470b	0.0084397895
39	0x3ad99925	0.0016601427
40	0xb988f17d	-0.00026119864
41	0xba5fec4c	-0.0008541986
42	0xbc2db0db	-0.010601248
43	0xbc3762e1	-0.011193008
44	0x3b8222aa	0.0039714174
45	0xbb280b29	-0.0025641418
46	0xb83dbc12	-4.5236266e-05
47	0x3c1e3b63	0.009657714
48	0xb6e14ac5	-6.714227e-06
49	0x3b19182d	0.0023360357
50	0xba122a21	-0.00055757357
51	0x3c696330	0.01424484
52	0x3cefbb7b	0.029264202
53	0xbb627b49	-0.0034558347
54	0xb9d07470	-0.00039759604
55	0x3cc9d94f	0.024639754
56	0x3a2d0b56	0.00066011155
57	0x3bea33ea	0.007147302
58	0xbbcf3d25	-0.0063244277
59	0xb87ad7f2	-5.980576e-05
60	0xbbe5b9b2	-0.007010662
61	0x3cbe7da9	0.023253279
62	0x3bbc6a4f	0.0057499777
63	0xbc55ef46	-0.0130575355
64	0xbae746c7	-0.0017644995
65	0xb98b0511	-0.0002651592
66	0x39bff532	0.00036613044
67	0x3ba2a887	0.0049639377
68	0xbb817359	-0.003950518
69	0xbbef8d52	-0.007310548
70	0xba1575b6	-0.0005701439
71	0xbb4b70a9	-0.0031042492
72	0x3be441e0	0.0069658607
73	0xba050cb5	-0.0005075441
74	0xb9a4fd9f	-0.0003146948
75	0xb94b4890	-0.0001938662
76	0xb9ed9e8d	-0.00045322292
77	0xa81e0145	-8.771037e-15
78	0xba7423e6	-0.00093132106
79	0x3a070b3d	0.0005151516
80	0x37df3575	2.6608564e-05
81	0x3b02de2f	0.0019968858
82	0xba8643d4	-0.0010243603
83	0xbbc64dc3	-0.0060517504
84	0x3a05ad4d	0.0005099371
85	0xb28da0fe	-1.6487771e-08
86	0x1c821ba7	8.609826e-22
87	0xbbc6b4f8	-0.0060640536
88	0xb96b20f9	-0.0002242363
89	0xbb17bd45	-0.0023153585
90	0xbb74f8ef	-0.0037379821
91	0x3c5b8c5b	0.013400163
92	0xb99c4e36	-0.0002981291
93	0xbc2d7ed3	-0.010589319
94	0xbc7cbace	-0.015425397
95	0x3c1d8587	0.009614355
96	0x3a8a601f	0.0010557211
97	0x3aade79a	0.0013267875
98	0xba5c5006	-0.00084042584
99	0xbc25fe0e	-0.010131372
100	0x3c5a672c	0.013330262
101	0x9c07016f	-4.4669606e-22
102	0x3c5b8223	0.013397726
103	0xb655c0e6	-3.1851755e-06
104	0xb9e3cc4b	-0.00043449024
105	0xb98ec882	-0.0002723374
106	0xbb4c4073	-0.0031166344
107	0x3902b832	0.00012466384
108	0xba9009b1	-0.0010989216
109	0x38ab41a3	8.166141e-05
110	0xbc4d76d7	-0.012540541
111	0xbc83e043	-0.016098147
112	0xbc00aa77	-0.007853142
113	0xb76110cf	-1.3414959e-05
114	0x3cc0e4f5	0.023546675
115	0x39e3d66b	0.00043456568
116	0xbae93150	-0.0017791186
117	0xbc530571	-0.012879715
118	0xbc6e4e3e	-0.014545022
119	0x3239c323	1.0812786e-08
120	0xbc95c2fc	-0.018281452
121	0x3c96ff9c	0.01843243
122	0xbc745a4c	-0.014914107
123	0x3ce0a019	0.02742009
124	0x1b51107e	1.7293404e-22
125	0x3999392b	0.00029225028
126	0x39ce4302	0.00039341307
127	0x3cd12a59	0.025532888

fc2.weight f4 [10, 128]
0	0xbbb49eef	-0.0055121104
1	0x3d65a382	0.056064136
2	0x3aa15a89	0.0012310307
3	0x3d63c6f0	0.055609643
4	0xbd2bd1ce	-0.041948132
5	0xbdfde300	-0.123968124
6	0xb57865bc	-9.253524e-07
7	0x3e1a4032	0.15063551
8	0x3c26f688	0.010190614
9	0x3aacfa5c	0.0013197172
10	0x3d56199a	0.05227051
11	0xbe54db15	-0.20786698
12	0xbd883309	-0.06650359
13	0xbdb39107	-0.08767896
14	0xbd192e38	-0.037397593
15	0x3d239d93	0.039945196
16	0xbd378f8a	-0.044814624
17	0xbd85b9e7	-0.06529599
18	0x3dc78a90	0.097432256
19	0xbd505a9d	-0.050867666
20	0x3e010067	0.1259781
21	0xbbefee68	-0.0073221214
22	0xbc09a8ed	-0.008402091
23	0xbcb625b2	-0.022234771
24	0xbb76d5ad	-0.0037663982
25	0x3b8f5076	0.0043736054
26	0xb90078eb	-0.00012252077
27	0xbca4dbba	-0.020124305
28	0xbd31e8b9	-0.043434832
29	0x3d75c9f7	0.06000706
30	0x3e856f7b	0.26061615
31	0x3e560068	0.20898592
32	0x3b170ef7	0.0023049691
33	0x39a2e884	0.00031072285
34	0x3d3a2ef6	0.04545494
35	0x3c5951b1	0.013264106
36	0xbe3d1ee2	-0.18468812
37	0xbe690e5d	-0.22759385
38	0x3893eb0f	7.053289e-05
39	0xbc09cb07	-0.008410222
40	0x3b555705	0.0032553088
41	0x3c046283	0.008080128
42	0x3cd25994	0.02567748
43	0xbcf86f0f	-0.030326394
44	0xbc21e989	-0.009882339
45	0xbca08604	-0.019595154
46	0x3c95a97f	0.018269299
47	0xbe8ac688	-0.27104592
48	0xb49fe12d	-2.9779895e-07
49	0x3d78a8b5	0.060707767
50	0x3bb2e76e	0.0054597175
51	0x3e55ea54	0.2089017
52	0x3d967fd1	0.07348598
53	0xbbc28113	-0.005935797
54	0x39874a55	0.00025804588
55	0x3e4d7c35	0.20066912
56	0x3c1f4378	0.009720676
57	0xbe56d781	-0.20980646
58	0xbcfd6e50	-0.03093639
59	0x3d3b4428	0.045719296
60	0xbaf69413	-0.001881244
61	0xbdd8078e	-0.10548316
62	0x3e662f8a	0.22479072
63	0xbbb92804	-0.005650522
64	0xba58c7d5	-0.00082695234
65	0x3a278538	0.00063903956
66	0xbe485b58	-0.19566095
67	0xbde8a950	-0.11360419
68	0x3c9f835c	0.019471817
69	0x3cfba472	0.030718062
70	0xb981cbf3	-0.0002475675
71	0xbcd9c66c	-0.026583873
72	0x3ddda0a3	0.10821655
73	0x3e21b8e1	0.15793182
74	0x3c81f529	0.015863972
75	0xba7e2f68	-0.0009696395
76	0x3da010fd	0.0781574
77	0xbc690b02	-0.014223816
78	0xbdab4adc	-0.08363888
79	0x3d659a7f	0.056055542
80	0xbbe06ee9	-0.006849159
81	0xbd2be3ae	-0.04196518
82	0x3b0df564	0.0021661157
83	0x3e295f8b	0.16540353
84	0x3bdd4c89	0.0067535085
85	0xbc5e73c2	-0.0135774035
86	0x3a5143d0	0.0007982822
87	0xbd1e97d2	-0.038719006
88	0xb97a01a0	-0.00023842463
89	0x3c3ccf58	0.011524044
90	0x3d3d109a	0.04615841
91	0xbe125c88	-0.1429311
92	0xbd3fff0c	-0.04687409
93	0xbd6eb091	-0.058273856
94	0x3d66b6b6	0.05632659
95	0xbba38c26	-0.004991072
96	0x3c7090db	0.014682974
97	0xbc212c01	-0.0098371515
98	0xbd2ed2e1	-0.04268158
99	0x3e09fc48	0.13475144
100	0x3e27085d	0.16311784
101	0xba29764d	-0.00064644666
102	0x3d8f696d	0.0700253
103	0xbcbb3513	-0.022852456
104	0x3c8f35d2	0.017481718
105	0xba5bee53	-0.00083897
106	0xbb6f3a17	-0.003650313
107	0x3b73b40b	0.0037186171
108	0xbce4066a	-0.02783509
109	0x3d4fda68	0.050745398
110	0xbd9424b2	-0.072335616
111	0x3cb7310e	0.022362258
112	0xbaa9fbe0	-0.0012968741
113	0x3cd8ac0e	0.02644923
114	0xbe427ca9	-0.18992867
115	0x3d9690e4	0.073518544
116	0x3dad219a	0.084536746
117	0x3d7fc0b3	0.06243963
118	0xbe3f4930	-0.18680263
119	0xbbf4800c	-0.0074615534
120	0xbe46fbb4	-0.19431955
121	0x3bdb6de7	0.006696451
122	0x3e0ed522	0.13948491
123	0xbe0c32f0	-0.13691306
124	0x3cf96dff	0.030447958
125	0xbd568305	-0.052371044
126	0xbca19644	-0.019724973
127	0x3dbc5fa3	0.09197929
128	0xba60aaf4	-0.0008570396
129	0xbd01e11c	-0.03170882
130	0xbc15951b	-0.009129788
131	0xbd1684ff	-0.03674793
132	0xbdcfb07a	-0.10141082
133	0x3de786b4	0.113049895
134	0xb68d58b1	-4.2124525e-06
135	0x3e989f47	0.2980902
136	0xbd4249c4	-0.04743363
137	0xb8e54143	-0.00010931727
138	0xbe56ac23	-0.20964102
139	0xbe176140	-0.14783192
140	0x3b8d74b5	0.004316891
141	0x3d45ed43	0.048321974
142	0xbd02f42d	-0.031971145
143	0x3a5f7500	0.0008524209
144	0xbd156350	-0.036471665
145	0x3e6f9894	0.23398048
146	0x3e9a6444	0.30154622
147	0x3e1c4433	0.15260391
148	0xb99f94e5	-0.00030437778
149	0xbba4075b	-0.0050057597
150	0xbb4bf0e3	-0.0031118921
151	0x3c89be1d	0.016814286
152	0x3bd34788	0.006447736
153	0x3d64a806	0.055824302
154	0xb9afc944	-0.00033528556
155	0x3c5d8466	0.013520336
156	0xbd5c6225	-0.053804535
157	0x3dff7f03	0.124753974
158	0x3ebb7482	0.36612326
159	0xbe174881	-0.14773752
160	0xbb0cfcbd	-0.0021512948
161	0x3ce008f6	0.027348023
162	0xbe2a2c96	-0.1661857
163	0x3e580dd9	0.21099032
164	0x3be3081b	0.0069284565
165	0xbd2f52bd	-0.042803515
166	0xbcc9f86f	-0.024654595
167	0x3d6f0564	0.05835475
168	0x3b97578b	0.00461859
169	0x3c3dfc20	0.011595756
170	0xbb5faa29	-0.0034128523
171	0xbd8b70b1	-0.068086036
172	0x3c635bf1	0.013876901
173	0xbb84e79a	-0.0040559294
174	0xbb15999f	-0.002282716
175	0x3e0eebe1	0.13957168
176	0x389e30ba	7.543103e-05
177	0xbda388af	-0.07985055
178	0xb6b9892c	-5.5293985e-06
179	0x3dc356e2	0.09538056
180	0x3e027f9d	0.12743993
181	0x3b24e47a	0.0025160597
182	0xb9da8ae0	-0.0004168367
183	0x3e010add	0.126018
184	0x38080430	3.2428827e-05
185	0x3dbd7bc0	0.09252119
186	0x3d79070e	0.060797743
187	0xbcc56d05	-0.024099836
188	0x3c8cbab4	0.01717887
189	0x3e4f2163	0.2022758
190	0xbd4f64b0	-0.050633132
191	0x3c5aae3d	0.013347206
192	0xbc65a105	-0.014015441
193	0xbb002d46	-0.0019558235
194	0xbd2b952c	-0.04189031
195	0xbdf43ee2	-0.119260564
196	0x3c463dbf	0.012099682
197	0x3ccc20b6	0.024917942
198	0xbad6b108	-0.0016379664
199	0xbce7bfee	-0.028289761
200	0xbd3ffb34	-0.046870425
201	0xbddf4129	-0.109011
202	0x3c316d9b	0.010829355
203	0xbb4bffe6	-0.003112787
204	0xbe873011	-0.2640386
205	0xbb8f2dab	-0.0043694577
206	0xbd8f6f09	-0.070036
207	0x3a10a81d	0.0005518215
208	0xbcccf514	-0.025019206
209	0x3cc44808	0.023960128
210	0xbad2a1d3	-0.0016069956
211	0xbe5cdca0	-0.21568537
212	0x3caccee4	0.021094747
213	0xb72656a2	-9.914542e-06
214	0xb8a87952	-8.033462e-05
215	0xbdb73bbd	-0.08946941
216	0xbab0092e	-0.001343047
217	0x3cfbb377	0.030725224
218	0xbd0b0dda	-0.033948757
219	0x3d2b1f75	0.041778047
220	0xbca52922	-0.020161215
221	0xbcf6a0a9	-0.030105906
222	0x3ca4bfc4	0.020110972
223	0x3d6d4e2a	0.05793587
224	0x3c879aef	0.01655337
225	0x3c95de89	0.01829459
226	0x3918455d	0.0001452169
227	0xbe349ebf	-0.17638682
228	0xbdf91f9c	-0.12164232
229	0xb71ee8cc	-9.471736e-06
230	0x3e55ef48	0.2089206
231	0xba86f757	-0.0010297102
232	0xbc80bca1	-0.015714945
233	0xb954b433	-0.00020285025
234	0x3c1aa350	0.009438351
235	0xbb24a41a	-0.0025122226
236	0x3ba64f77	0.005075391
237	0xbd49ae6d	-0.04923861
238	0xbd066cc7	-0.032818582
239	0xbbbc0ea5	-0.0057390505
240	0xbcc039b0	-0.023465008
241	0xba67e53e	-0.00088461104
242	0x3e056952	0.13028458
243	0x3c97ad63	0.018515294
244	0xbdfe5d7b	-0.12420174
245	0xbc21ef5e	-0.00988373
246	0xbe67c190	-0.22632432
247	0xbb9993c7	-0.004686806
248	0xbde57c51	-0.11205352
249	0x3c80af5c	0.015708618
250	0xbe315fd9	-0.17321719
251	0x3e15f9af	0.14646028
252	0x3a10a515	0.0005517763
253	0xbd102ef2	-0.03520102
254	0xbd0243c5	-0.03180291
255	0x3e706274	0.23475057

fc2.bias f4 [10]
0	0x3c3dbe2a	0.011580983
1	0x3d82b618	0.06382388
2	0xbc1c6574	-0.009545673
3	0xbcd53f00	-0.026031017
4	0xbbb9875c	-0.005661888
5	0x3bb19183	0.0054189577
6	0xbcc7aac7	-0.024373425
7	0x3cbd8c96	0.023138326
8	0x3c0361b0	0.008018896
9	0xbcd14774	-0.025546767
