models/trained/ConvNet4_5.pt (torch, 441826 bytes, 14 tensors)

conv1.weight f4 [16, 1, 7, 7]
-0.37613907 -0.06930765 -0.24562207 -0.16586637 -0.16358705 -0.072641045 -0.24758686 -0.05716545
-0.07679773 -0.06752863 0.009816122 -0.124006145 -0.12371147 -0.12910257 -0.2292421 -0.14527875
-0.0143180275 -0.065916434 -0.09240767 -0.11394852 -0.49332452 -0.09539311 0.058804702 -0.09260431
0.08247288 -0.06954436 -0.049145482 -0.33615685 0.13171355 -0.078057714 -0.041129272 -0.023242602
0.13620763 0.03389889 0.049984857 -0.044724207 -0.026989924 0.0947396 -0.04649039 -0.044165064
0.020556448 0.21391791 0.10538159 0.1503958 0.10524183 -0.10369868 -0.120441765 -0.17061816
0.106073245 0.32899928 0.17675142 -0.05683418 -0.013336008 0.11700604 0.101243824 -0.07333384
0.262057 -0.09706125 0.10717627 -0.0014334103 -0.032810196 -0.034861367 0.035282027 -0.09987164
-0.17191352 -0.18331428 0.16620049 -0.13199894 0.12816289 0.005413099 0.107629806 -0.4003611
-0.10272076 -0.01952194 0.13728674 0.011975941 0.07400981 0.2503003 -0.23494214 -0.12873177
0.0134115815 -0.000632544 0.0009782476 -0.057745453 0.18191162 0.0043100477 -0.026638746 -0.038823336
-0.009999052 0.11845959 -0.074727595 0.17280471 -0.029593147 0.056412403 -0.078435734 -0.044445403
-0.09465516 -0.25230157 0.24847358 -0.09634823 -0.18599238 -0.016842335 0.09194175 0.17170697
0.28334755 -0.0037839527 -0.17228001 -0.1133629 -0.028433725 0.11272846 -0.095313504 0.029874958
0.15351689 0.19365603 0.18868795 0.16989926 0.05544014 0.07340378 -0.12671052 0.047370188
0.26384857 0.20616642 -0.079174325 -0.013974659 0.005286581 0.1625028 -0.37470856 -0.07755512
-0.19842727 -0.07752269 -0.01501908 -0.017879423 0.023298634 -0.40422085 -0.19732724 -0.14308172
-0.04887018 -0.023000116 0.12829533 -0.10949429 -0.02486611 0.037787706 0.006742292 -0.122950405
-0.091599844 -0.090158015 -0.0807778 0.059133366 -0.23398097 -0.015113953 0.02961129 0.08505391
0.21549706 0.071849436 0.1344432 -0.14515895 -0.09254726 -0.20733963 -0.21136901 -0.10395981
-0.03112887 0.22326101 -0.007842358 0.01060553 -0.1537982 -0.18912181 -0.30935016 0.0046244995
0.073282324 0.005275188 0.08133872 0.055241756 -0.056605447 -0.19309394 0.17821741 0.024724305
0.18701425 0.13945048 0.09032111 0.12854351 0.11155692 0.15972699 -0.10692504 0.14848706
-0.09987775 -0.050075706 0.078988045 0.081723586 0.09437023 -0.094452746 -0.10447705 -0.120761186
0.038342614 0.14806876 0.012128882 0.08987277 0.10053015 -0.0023784277 -0.21829957 -0.22995843
-0.11268502 0.035411127 0.032721296 0.12003721 0.070084624 -0.19677122 -0.05125895 -0.01697303
-0.09223336 0.11184059 0.04817661 0.10631826 -0.031027768 -0.02045511 -0.05567628 0.0028616206
-0.18568519 0.15133451 0.123530634 0.11001318 -0.004417435 -0.20398177 -0.091974065 -0.11755796
0.062337987 -0.09508111 -0.05634414 0.019463785 -0.056957256 -0.030855553 -0.22581762 -0.032200918
-0.0263408 0.06412081 -0.0323398 0.029808013 -0.04771567 -0.2595254 0.056307662 -0.115668096
0.0674031 0.0033486085 -0.040735245 0.07603433 -0.47343388 0.07677158 -0.045383383 -0.031834546
-0.048225366 0.044080503 -0.23352337 -0.3476131 -0.10451146 -0.00479616 0.16301644 0.03508199
00000000: 4d95 c0be 2bf1 8dbd 5a84 7bbe e0d8 29be
00000010: 5d83 27be d4c4 94bd 6987 7dbe 5226 6abd
00000020: 2148 9dbd 734c 8abd cdd3 203c eff6 fdbd
00000030: 705c fdbd 7733 04be 71be 6abe f4c3 14be
00000040: 2996 6abc 32ff 86bd 3c40 bdbd d75d e9bd
00000050: 0895 fcbe 765d c3bd 33dd 703d 54a7 bdbd
00000060: 8be7 a83d 466d 8ebd c64c 49bd c01c acbe
00000070: ebdf 063e b9dc 9fbd 2b77 28bd 4567 bebc
00000080: 037a 0b3e 90d9 0a3d ecbc 4c3d bb30 37bd
00000090: f919 ddbc d606 c23d b56c 3ebd 6de6 34bd
000000a0: ff65 a83c 4c0d 5b3e 4ed2 d73d 5b01 1a3e
000000b0: 0789 d73d f95f d4bd 2caa f6bd 87b6 2ebe
000000c0: ee3c d93d 9872 a83e 53fe 343e f5ca 68bd
000000d0: 467f 5abc dda0 ef3d ec58 cf3d 0d30 96bd
000000e0: 562c 863e 0cc8 c6bd 3b7f db3d 45e1 bbba
000000f0: fc63 06bd cbca 0ebd e383 103d 8189 ccbd
00000100: 190a 30be bdb6 3bbe 7630 2a3e bb2a 07be
00000110: 223d 033e 5e60 b13b 046d dc3d 21fc ccbe
00000120: 435f d2bd 7aec 9fbc e594 0c3e bd36 443c
00000130: 7592 973d 5c27 803e ac94 70be 43d2 03be
00000140: 40bc 5b3c 4fd1 25ba 8b38 803a 7f86 6cbd
00000150: 0a47 3a3e 4d3b 8d3b 8039 dabc 3805 1fbd
00000160: 10d3 23bc f19a f23d c80a 99bd b8f3 303e
00000170: 546d f2bc b110 673d eaa2 a0bd 620c 36bd
00000180: 91da c1bd ac2d 81be dc6f 7e3e 3952 c5bd
00000190: c974 3ebe f0f8 89bc f54b bc3d f4d3 2f3e
000001a0: ee12 913e 31fc 77bb 2c6a 30be cf2a e8bd
000001b0: d8ed e8bc 2ede e63d ba33 c3bd 54bc f43c
000001c0: 8833 1d3e c44d 463e 6a37 413e 12fa 2d3e
000001d0: 3315 633d b954 963d 67c0 01be 3e07 423d
000001e0: 2917 873e 4a1d 533e 2626 a2bd f8f5 64bc
000001f0: 0e3b ad3b 2267 263e cdd9 bfbe 38d5 9ebd
00000200: 8530 4bbe 37c4 9ebd 9612 76bc de77 92bc
00000210: c7dc be3c 09f6 cebe 2710 4abe 0484 12be
00000220: 192c 48bd bd6a bcbc da5f 033e 8b3e e0bd
00000230: 03b4 cbbc 48c7 1a3d 72ee dc3b 6ccd fbbd
00000240: b398 bbbd c4a4 b8bd d56e a5bd d435 723d
00000250: b598 6fbe 83a0 77bc 6093 f23c bf30 ae3d
00000260: 43ab 5c3e cc25 933d 7aab 093e 8ca4 14be
00000270: 6b89 bdbd d750 54be 1e71 58be e2e8 d4bd
00000280: f901 ffbc 899e 643e 3c7d 00bc d1c2 2d3c
00000290: 467d 1dbe 26a9 41be 2563 9ebe 1d89 973b
000002a0: 0b15 963d 7cdb ac3b ea94 a63d 2e45 623d
000002b0: 1ddb 67bd 6bba 45be a07e 363e a08a ca3c
000002c0: aa80 3f3e 1bcc 0e3e 46fa b83d e9a0 033e
000002d0: f477 e43d 798f 233e 84fb dabd fe0c 183e
000002e0: b58c ccbd 2f1c 4dbd 7cc4 a13d b25e a73d
000002f0: 2e45 c13d 7170 c1bd 10f8 d5bd a451 f7bd
00000300: 250d 1d3d 569f 173e 38b8 463c 370f b83d
00000310: c0e2 cd3d 65df 1bbb ec89 5fbe 397a 6bbe
00000320: 67c7 e6bd 420b 113d c406 063d 12d6 f53d
00000330: 8788 8f3d 657e 49be e8f4 51bd 060b 8bbc
00000340: d8e4 bcbd ae0c e53d d654 453d 63bd d93d
00000350: f22d febc 7a91 a7bc d00c 64bd 078a 3b3b
00000360: 4224 3ebe 6ff7 1a3e a1fd fc3d 974e e13d
00000370: 21c0 90bb 99e0 50be e65c bcbd 3ac2 f0bd
00000380: 1e56 7f3d e3b9 c2bd 1dc9 66bd 8472 9f3c
00000390: 034c 69bd c9c4 fcbc bc3c 67be 1ce5 03bd
000003a0: a9c8 d7bc c551 833d bd76 04bd ef2f f43c
000003b0: 8271 43bd 83e0 84be dda2 663d 65e3 ecbd
000003c0: a30a 8a3d 5474 5b3b 00da 26bd e3b7 9b3d
000003d0: ed65 f2be 6b3a 9d3d ede3 39bd f164 02bd
000003e0: f687 45bd c28d 343d c020 6fbe 58fa b1be
000003f0: 1b0a d6bd 1b29 9dbb c8ed 263e 22b2 0f3d

conv1.bias f4 [16]
-0.15837272 -0.48423678 -0.32932174 -0.2715801 -0.068550855 -0.4015996 -0.289995 -0.6609597
-0.7174594 -0.2557882 -0.37215713 -0.31653887 -0.14714639 -0.23662351 -0.13267165 -0.39753452
00000000: 752c 22be e2ed f7be dc9c a8be 8c0c 8bbe
00000010: 6464 8cbd 769e cdbe 3a7a 94be a834 29bf
00000020: 6bab 37bf acf6 82be 618b bebe 6211 a2be
00000030: 8bad 16be 6f4d 72be 14db 07be a589 cbbe

conv2.weight f4 [32, 16, 5, 5]
-0.07718088 -0.14470835 -0.22493654 0.114118375 0.26772964 0.13913904 -0.059099495 -0.20480545
0.19098294 0.08713295 0.07245388 -0.13668422 -0.2526248 -0.12764037 -0.08760414 -0.017846255
-0.2744653 -0.13552009 -0.23766986 -0.11028721 -0.035702914 -0.32948607 -0.20161456 -0.21639451
-0.17153938 -0.29171494 -0.094080165 -0.043754905 0.1786072 0.025615599 -0.48608822 -0.08188207
0.015704433 0.118199006 0.042474955 -0.45266044 -0.1684741 0.0010786027 0.11853459 0.052707754
-0.17259683 -0.108426124 -0.077225626 0.04391001 0.020739434 0.0068896255 -0.085425176 -0.09225614
0.0914983 -0.011995184 -0.09733919 -0.024085365 -0.011790967 -0.09576662 0.06231708 -0.100664936
-0.15135442 0.23860323 -0.22459142 0.07106916 -0.19190793 -0.2667283 -0.3257325 -0.35538393
-0.0006681872 -0.33084896 -0.31682435 -0.6397642 0.0012668556 0.37239626 0.055715058 -0.2415623
-0.29721034 0.18390258 0.0973383 -0.47025475 0.07834558 0.42769054 0.30455083 0.05966962
-0.19878228 -0.1338926 0.31659913 0.16328101 -0.05276596 -0.34142515 -0.5575624 -0.20343918
-0.044695593 -0.10004167 -0.33991984 -0.500086 -0.27194238 -0.09497962 -0.1542956 -0.03036154
-0.31257734 -0.17788976 -0.10860995 -0.2096527 0.0750739 0.20824754 0.12990522 0.12073358
0.026299823 0.048191812 0.07504768 0.014791984 0.12784523 -0.00071041717 -0.003004144 0.011541502
0.06597227 0.10065283 0.10711767 0.03313003 0.063152336 0.04634983 0.090570405 0.10682132
0.02448115 0.056092434 0.036567055 0.052997746 0.0841049 0.32225683 -0.09939091 -0.4128491
0.12491656 -0.12730402 -0.0238041 -0.0510837 -0.35069084 0.123686574 -0.118367195 -0.23963493
-0.06896969 -0.24512498 -0.0148643395 -0.029842988 -0.20006649 -0.105747804 -0.059864927 -0.11306582
0.053307645 -0.15752779 -0.058158394 0.022047574 -0.0697174 0.1362105 -0.12115977 -0.21925177
-0.26535064 -0.087181896 -0.005163613 -0.1526439 -0.0029405153 -0.18264349 -0.41764817 -0.4961586
-0.0864464 -0.072116524 -0.050431862 -0.05390041 -0.3846528 -0.10674916 -0.10288897 0.10915657
0.38600355 0.19947945 -0.02442185 -0.17727351 0.17609744 0.36948153 0.05962824 -0.28028303
0.1620401 0.06357518 -0.008824197 -0.0033789533 0.10205181 -0.00226686 0.079624765 0.0010949019
-0.13815786 0.03011206 0.024188232 -0.037844412 -0.074182294 0.101184584 -0.030456418 -0.08726671
-0.15478843 -0.0799471 0.048039574 -0.02448124 0.05467093 -0.05999394 -0.08392646 -0.19367266
0.1616485 -0.06704809 0.105679676 0.018404773 -0.1572963 -0.08250083 -0.21181647 0.094572216
0.100719735 0.0013396236 -0.4387455 -0.25497848 0.019749535 -0.019532999 0.109033525 -0.39422697
-0.12011336 -0.07357928 0.07492778 0.09842019 0.16507877 0.01581845 -0.009816155 -0.00543769
0.0495104 0.15978155 -0.05646839 -0.025749298 0.09122865 0.061649304 0.11473219 -0.067344956
-0.22341286 -0.02489509 0.004743467 -0.07732905 -0.089705326 0.016205562 0.015085779 -0.16563849
-0.3650459 -0.31758946 -0.026201893 -0.14110202 -0.14381658 -0.28483486 -0.35330662 -0.31923512
-0.18996066 -0.12841953 -0.38140225 -0.16355386 -0.045248963 -0.18108055 -0.18914114 -0.0409266
00000000: 0211 9ebd 6d2e 14be c455 66be e5b6 e93d
00000010: dc13 893e 777a 0e3e 5012 72bd 85b8 51be
00000020: 0891 433e c372 b23d b362 943d f3f6 0bbe
00000030: 0a58 81be 28b4 02be cd69 b3bd 4f32 92bc
00000040: b786 8cbe c7c5 0abe ba5f 73be 43de e1bd
00000050: 383d 12bd 66b2 a8be 0c74 4ebe 8696 5dbe
00000060: 05a8 2fbe a95b 95be 1aad c0bd 5838 33bd
00000070: cee4 363e ced7 d13c 8ee0 f8be c9b1 a7bd
00000080: 95a6 803c 5212 f23d 38fa 2d3d 1cc3 e7be
00000090: 7984 2cbe e75f 8d3a 43c2 f23d 16e4 573d
000000a0: 39bd 30be 840e debd 7828 9ebd fcda 333d
000000b0: bfe5 a93c 5ec2 e13b 65f3 aebd caf0 bcbd
000000c0: 7663 bb3d 7387 44bc c559 c7bd ac4e c5bc
000000d0: e62e 41bc 4a21 c4bd 3240 7f3d 6b29 cebd
000000e0: a7fc 1abe 6854 743e 4bfb 65be b58c 913d
000000f0: 8383 44be 9d90 88be 69c6 a6be e2f4 b5be
00000100: 4929 2fba 0965 a9be cd36 a2be 96c7 23bf
00000110: 9f0c a63a b9aa be3e 7935 643d 1c5c 77be
00000120: f42b 98be f550 3c3e 4d59 c73d 3bc5 f0be
00000130: a673 a03d 41fa da3e 16ee 9b3e 2268 743d
00000140: 958d 4bbe 241b 09be 4819 a23e 2333 273e
00000150: 1f21 58bd 47cf aebe 69bc 0ebf 5c52 50be
00000160: ba12 37bd a6e2 ccbd f909 aebe a305 00bf
00000170: 083c 8bbe ad84 c2bd aaff 1dbe c4b8 f8bc
00000180: 230a a0be bc28 36be e56e debd 33af 56be
00000190: 58c0 993d d83e 553e e005 053e 2b43 f73d
000001a0: ba72 d73c c764 453d 99b2 993d 145a 723c
000001b0: dce9 023e 4a3b 3aba 2ce1 44bb 9118 3d3c
000001c0: 781c 873d 1223 ce3d 8260 db3d 5bb3 073d
000001d0: 0356 813d 52d9 3d3d fa7c b93d 23c5 da3d
000001e0: b18c c83c 2ec1 653d 56c7 153d 2a14 593d
000001f0: 313f ac3d d9fe a43e 768d cbbd f560 d3be
00000200: 41d4 ff3d fc5b 02be d100 c3bc 243d 51bd
00000210: c08d b3be 634f fd3d 806a f2bd dc62 75be
00000220: fb3f 8dbd 0b02 7bbe 8f89 73bc 4879 f4bc
00000230: 3bde 4cbe 4e92 d8bd ed34 75bd 0d8f e7bd
00000240: 1e59 5a3d f74e 21be 7f37 6ebd 1d9d b43c
00000250: ffc7 8ebd c47a 0b3e 9d22 f8bd 8983 60be
00000260: 0adc 87be 6c8c b2bd 8633 a9bb af4e 1cbe
00000270: a9b5 40bb e506 3bbe fbd5 d5be 8008 febe
00000280: cf0a b1bd d4b1 93bd a491 4ebd adc6 5cbd
00000290: 36f1 c4be 4e9f dabd 74b7 d2bd 7b8d df3d
000002a0: 42a2 c53e 5744 4c3e 5510 c8bc 3087 35be
000002b0: e352 343e af2c bd3e be3c 743d 4281 8fbe
000002c0: d7ed 253e b433 823d 5d93 10bc 6e71 5dbb
000002d0: 8a00 d13d 9a8f 14bb 4f12 a33d d082 8f3a
000002e0: 4179 0dbe 91ad f63c 6626 c63c be02 1bbd
000002f0: e3ec 97bd dd39 cf3d bd7f f9bc e4b8 b2bd
00000300: dc80 1ebe 4ebb a3bd 25c5 443d e28c c8bc
00000310: a0ee 5f3d 35bc 75bd a3e1 abbd 2052 46be
00000320: 2f87 253e 8250 89bd 966e d83d 9bc5 963c
00000330: 4812 21be 32f6 a8bd 6be6 58be 14af c13d
00000340: 2646 ce3d 4f96 af3a 40a3 e0be 8a8c 82be
00000350: c7c9 a13c ab03 a0bc f84c df3d 1ed8 c9be
00000360: fefd f5bd bcb0 96bd bc73 993d 8690 c93d
00000370: 690a 293e b295 813c f0d3 20bc a62e b2bb
00000380: 6bcb 4a3d c69d 233e 664b 67bd 31f0 d2bc
00000390: 16d6 ba3d fb83 7c3d b6f8 ea3d 27ec 89bd
000003a0: 57c6 64be caf0 cbbc 166f 9b3b b15e 9ebd
000003b0: 6db7 b7bd 87c1 843c 582a 773c 239d 29be
000003c0: 4ce7 babe 169b a2be 5aa5 d6bc 0c7d 10be
000003d0: a744 13be e0d5 91be 9be4 b4be c972 a3be
000003e0: 0c85 42be 6980 03be 2847 c3be aa7a 27be
000003f0: fa56 39bd 2e6d 39be 37ae 41be a7a2 27bd

conv2.bias f4 [32]
-0.07134145 -0.12612417 -0.031355087 0.03196485 -0.12496075 -0.07328123 -0.14192228 -0.055201456
-0.05722996 0.19568478 -0.14412463 -0.07696407 0.054598104 -0.030515736 -0.19566935 -0.053836398
-0.06914983 -0.014233051 -0.011923674 -0.21419173 -0.05970971 -0.11051485 -0.065668955 0.0062395707
0.12525313 -0.2827893 -0.029438252 -0.05994035 0.004498414 -0.08809437 -0.066726185 -0.059889555
00000000: 771b 92bd b226 01be 316e 00bd 93ed 023d
00000010: 6ceb ffbd 7814 96bd 1354 11be ec1a 62bd
00000020: f669 6abd 9761 483e 6895 13be 579f 9dbd
00000030: 43a2 5f3d 23fc f9bc 8c5d 48be 8e83 5cbd
00000040: 6d9e 8dbd be31 69bc 835b 43bc 1455 5bbe
00000050: 2b92 74bd 9c55 e2bd 727d 86bd 5075 cc3b
00000060: 5b42 003e c2c9 90be 7d28 f1bc 0384 75bd
00000070: 6f67 933b d26a b4bd bda7 88bd c04e 75bd

conv3.weight f4 [64, 32, 4, 4]
-0.060873453 0.010648501 0.0033204146 -0.029996714 -0.057519272 0.001933164 -0.010084847 -0.017840415
-0.0034502957 -0.0163157 -0.009691131 0.009385275 -0.0034048043 -0.02921845 -0.040539373 0.022149354
-0.034848362 -0.03124981 -0.016788904 -0.029552497 -0.076442584 -0.05220981 -0.007900723 -0.0503867
0.00085457496 -0.057273388 -0.021767475 0.0049859225 -0.04573792 -0.072762966 -0.034398526 -0.06362575
-0.017318262 -0.06084977 -0.07065012 -0.0059001516 -0.049687743 -0.0013123476 -0.046902947 -0.014204922
-0.061408184 0.013539541 -0.036141746 -0.070187114 0.048968535 0.011336633 -0.008353938 -0.04453013
-0.0750632 -0.04643971 -0.02010482 -0.02035124 0.0115869725 -0.07151757 -0.00486006 0.030707566
-0.0053992863 -0.07933224 -0.040990807 -0.07906557 -0.016573766 -0.020150166 -0.06003478 -0.067702025
-0.03857593 -0.015322935 -0.06350916 0.0013556005 -0.0037403074 -0.023350788 -0.0537519 -0.04949832
0.0054498524 -0.008651886 -0.05735206 -0.0075691314 -0.010301014 -0.0049645584 0.013680526 -0.06294061
0.006614889 -0.054547958 0.0056528524 0.0012625463 -0.0040699346 -0.026616031 -0.015166847 -0.0071970145
-0.030540254 -0.024545383 -0.04522575 0.00630058 0.009678249 -0.0057254806 -0.04803467 -0.018906519
0.00036451765 0.0032547007 -0.025925398 0.013078757 -0.025555115 -0.06432609 -0.013392095 -0.008364742
-0.020380024 -0.036493734 -0.027673356 0.04684093 -0.048926976 -0.037975907 -0.030036572 -0.016488798
-0.07402183 0.035424218 -0.029025316 -0.013815326 -0.04534333 -0.01828558 -0.01533185 -0.010371229
0.01221558 -0.039839577 -0.017869543 0.004495078 -0.030871375 -0.056678873 0.0010139934 0.04943499
-0.07354635 -0.016637526 0.0023741461 -0.003436106 -0.05477595 -0.0504688 0.011750602 -0.016323801
-0.005755573 -0.015119256 0.065820746 -0.06829775 -0.008196333 -0.04332037 0.03245094 0.012775995
7.89134e-05 -0.014180799 -0.043341327 -0.025198726 0.0063086157 -0.012961511 -0.020193927 -0.0128473155
-0.0028435234 0.025654804 -0.0053000594 -0.054320194 0.0026392352 -0.022641683 -0.04553126 -0.012274093
0.0023912238 0.008534186 -0.03414284 -0.035876576 -0.010949086 -0.06666721 -0.037476193 -0.003444216
0.0032752992 0.002948701 -0.011726405 0.013979367 -0.04575275 -0.053941064 -0.016713833 -0.024736032
-0.08367772 -0.07369429 -0.070126325 -0.014449074 0.0012565297 0.009471122 -0.011014958 0.005047186
-0.07394307 -0.022438055 -0.06107284 0.009627722 -0.06591197 -0.019094255 -0.0170935 -0.021835813
-0.023233674 0.04389086 -0.016787805 -0.03184152 0.004843888 -0.012002519 -0.054178417 0.031034427
-0.037295766 -0.047245122 -0.04005587 -0.043736666 -0.05025116 -0.015182428 -0.041516386 -0.05805295
-0.027183931 -0.049816463 -0.001613748 0.00052174326 -0.025241757 0.0070026563 -0.04650641 0.004033703
0.009736556 -0.03435306 0.0015752772 -0.06070396 0.005381992 0.0063788355 -0.046875406 0.036991
-0.0011120243 -0.04595489 -0.05361352 -0.13495241 -0.02390386 -0.0547436 -0.0901313 -0.047348585
0.0051226746 -0.069121756 -0.064661115 -0.097287074 -0.072209194 -0.04307338 -0.0103856465 -0.011067896
-0.056338307 -0.018400885 -0.051647045 -0.035236742 0.011201245 -0.061982777 -0.054714877 -0.07019346
-0.029275889 0.0073638977 -0.0022120194 -0.066588365 -0.021160832 0.013578761 -0.042578515 -0.03309075
00000000: 7156 79bd 0d77 2e3c 509b 593b abbb f5bc
00000010: 5499 6bbd 3862 fd3a ea3a 25bc 1026 92bc
00000020: 5b1e 62bb 81a8 85bc 8dc7 1ebc b2c4 193c
00000030: 2323 5fbb 885b efbc 9d0c 26bd 9072 b53c
00000040: 28bd 0ebd 9aff ffbc e288 89bc 1418 f2bc
00000050: ee8d 9cbd f4d9 55bd 0972 01bc 4962 4ebd
00000060: 8e05 603a 8097 6abd b451 b2bc f360 a33b
00000070: af57 3bbd c004 95bd 78e5 0cbd 384e 82bd
00000080: 07df 8dbc 9c3d 79bd 03b1 90bd 0f56 c1bb
00000090: 6085 4bbd 1403 acba 4e1d 40bd c3bb 68bc
000000a0: 2687 7bbd f3d4 5d3c 5e09 14bd 43be 8fbd
000000b0: 3b93 483d 49bd 393c f5de 08bc 3a65 36bd
000000c0: bcba 99bd 9137 3ebd ddb2 a4bc a5b7 a6bc
000000d0: 49d7 3d3c ce77 92bd 2341 9fbb 6f8e fb3c
000000e0: 7fec b0bb f178 a2bd fae5 27bd 21ed a1bd
000000f0: b5c5 87bc f611 a5bc 08e7 75bd 5ca7 8abd
00000100: cb01 1ebd 0c0d 7bbc 1711 82bd 68ae b13a
00000110: f21f 75bb 274a bfbc f42a 5cbd c0be 4abd
00000120: ad94 b23b a4c0 0dbc fee9 6abd 7a06 f8bb
00000130: 96c5 28bc bcad a2bb 4924 603c 02e7 80bd
00000140: b6c1 d83b ae6d 5fbd 903b b93b 067c a53a
00000150: 165d 85bb dd09 dabc 5e7e 78bc efd4 ebbb
00000160: 8e2f fabc 6613 c9bc a33e 39bd 1975 ce3b
00000170: 8591 1e3c d09c bbbb 01c0 44bd d8e1 9abc
00000180: bb1c bf39 d14c 553b 8061 d4bc 4848 563c
00000190: f658 d1bc 66bd 83bd 856a 5bbc 450c 09bc
000001a0: 02f4 a6bc 747a 15bd 3cb3 e2bc 46dc 3f3d
000001b0: a767 48bd a08c 1bbd 420f f6bc 8413 87bc
000001c0: c298 97bd fc18 113d 80c6 edbc ad59 62bc
000001d0: edb9 39bd a4cb 95bc 7132 7bbc 16ec 29bc
000001e0: db23 483c d32e 23bd 2663 92bc 734b 933b
000001f0: f7e5 fcbc 1b28 68bd f9e7 843a 587c 4a3d
00000200: 789f 96bd 6c4b 88bc 9097 1b3b 4b30 61bb
00000210: bf5c 60bd 5fb8 4ebd 9985 403c 7eb9 85bc
00000220: 3f99 bcbb c2b6 77bc 07cd 863d b1df 8bbd
00000230: ea49 06bc b370 31bd 47eb 043d 6852 513c
00000240: 4f7e a538 9556 68bc ad86 31bd 8f6d cebc
00000250: 81b8 ce3b 845c 54bc bc6d a5bc 8c7d 52bc
00000260: 685a 3abb 062a d23c 1fac adbb da7e 5ebd
00000270: 05f7 2c3b 0d7b b9bc fd7e 3abd 4719 49bc
00000280: 14b6 1c3b f8d2 0b3c 5dd9 0bbd 51f3 12bd
00000290: cc63 33bc d188 88bd a380 19bd 5bb8 61bb
000002a0: 67a6 563b fe3e 413b 1b20 40bc b709 653c
000002b0: 3c67 3bbd 4ef1 5cbd 73eb 88bc 38a3 cabc
000002c0: 395f abbd 08ed 96bd 649e 8fbd cfbb 6cbc
000002d0: 24b2 a43a c42c 1b3c 1578 34bc dd62 a53b
000002e0: 776f 97bd 03d0 b7bc 8427 7abd 98bd 1d3c
000002f0: dbfc 86bd 8e6b 9cbc ab07 8cbc 05e1 b2bc
00000300: 8c54 bebc e7c6 333d 9486 89bc 416c 02bd
00000310: 7ab9 9e3b 37a6 44bc 30ea 5dbd e93b fe3c
00000320: 72c3 18bd 1a84 41bd a011 24bd 3825 33bd
00000330: 29d4 4dbd b8bf 78bc 160d 2abd eec8 6dbd
00000340: d6b0 debc 590c 4cbd 6684 d3ba 99c5 083a
00000350: cdc7 cebc 8a76 e53b 817d 3ebd 272d 843b
00000360: 1386 1f3c cbb5 0cbd 8879 ce3a b7a4 78bd
00000370: 6c5b b03b 8d05 d13b 6d00 40bd e083 173d
00000380: 58c1 91ba 323b 3cbd da99 5bbd f730 0abe
00000390: 07d2 c3bc d33a 60bd c296 b8bd 97f0 41bd
000003a0: 1cdc a73b b58f 8dbd 0c6d 84bd 723e c7bd
000003b0: 6ae2 93bd b66d 30bd 8f28 2abc 1f56 35bc
000003c0: ffc2 66bd 74bd 96bc da8b 53bd 6754 10bd
000003d0: 6d85 373c a7e1 7dbd b51c 60bd 97c1 8fbd
000003e0: fdd3 efbc da4c f13b 87f7 10bb 7b5f 88bd
000003f0: 7b59 adbc 7479 5e3c cf66 2ebd 2b8a 07bd

conv3.bias f4 [64]
-0.08082729 -0.053114355 -0.103274204 -0.02802277 -0.08541184 -0.07211755 -0.10370402 -0.18862225
-0.30888388 0.10009498 -0.022587555 -0.10746393 -0.08026466 -0.1397713 -0.009621844 -0.1971811
-0.06402544 -0.2126273 -0.054325238 -0.06429051 -0.15479901 -0.14912748 -0.08670972 -0.30428445
-0.107424214 -0.0786649 -0.21820365 -0.22680789 -0.076958865 -0.28005782 -0.109505005 -0.45880812
-0.0849475 -0.19716823 -0.03043082 -0.10590548 -0.16186611 -0.12881091 -0.040871207 0.012753811
-0.109592155 -0.25143668 -0.1593046 -0.12516616 -0.18353961 -0.050665006 -0.057565425 -0.022711443
-0.089649774 -0.16259004 -0.18898113 -0.11114674 -0.14535762 -0.052069135 -0.30926073 -0.18343158
-0.14803039 -0.22648232 -0.17179541 -0.04922283 -0.25988638 -0.10671282 -0.1839295 -0.07637333
00000000: c788 a5bd 708e 59bd 6d81 d3bd 0290 e5bc
00000010: 67ec aebd 5eb2 93bd c662 d4bd 3126 41be
00000020: 0726 9ebe 99fe cc3d 8909 b9bc 0d16 dcbd
00000030: cc61 a4bd 3520 0fbe f0a4 1dbc d8e9 49be
00000040: c51f 83bd f9ba 59be 2484 5ebd beaa 83bd
00000050: a283 1ebe e0b4 18be de94 b1bd 2ccb 9bbe
00000060: 3a01 dcbd 101b a1bd c770 5fbe 5440 68be
00000070: 9c9c 9dbd bd63 8fbe 2944 e0bd e6e8 eabe
00000080: f4f8 adbd 78e6 49be 0e4a f9bc f9e4 d8bd
00000090: 3bc0 25be 02e7 03be 9168 27bd 5cf5 503c
000000a0: da71 e0bd 4fbc 80be bf20 23be 8f2b 00be
000000b0: cff1 3bbe 1c86 4fbd b9c9 6bbd 590d babc
000000c0: 4d9a b7bd 017e 26be 4584 41be e7a0 e3bd
000000d0: a1d8 14be 7246 55bd 6c57 9ebe 7dd5 3bbe
000000e0: 4795 17be fbea 67be 23eb 2fbe e19d 49bd
000000f0: d40f 85be 408c dabd 0458 3cbe 9f69 9cbd

conv4.weight f4 [128, 64, 1, 1]
-0.014024089 -0.06905694 -0.057933345 -0.25724036 0.017431553 0.07236446 -0.12825538 -0.4504596
0.20960669 -0.09804946 0.113525905 -0.24119031 0.09187057 0.08021308 0.065052934 -0.32519293
-0.059531778 -0.1943491 0.059509713 0.053804215 -0.039017852 -0.49917918 0.08336866 -0.00092852727
0.14452767 -0.23838468 0.08752376 -0.13741982 0.013476382 -0.09944007 -0.5027027 0.15067135
-0.089447156 -0.07438323 0.032389164 0.14839815 -0.3540762 -0.14105596 0.013156226 8.742129e-05
0.041558336 0.00993981 -0.44822675 0.19449112 0.10604802 -0.37977695 -0.49110183 0.1389224
-0.16099244 0.113945976 0.082726344 -0.101308115 0.23673628 -0.0067487536 0.13156727 0.08581186
-0.25546744 -0.42901954 0.16370168 -0.14818041 0.072441995 -0.16202311 -0.30555323 0.12329651
0.0877619 -0.010309846 -0.37856776 0.01290047 -0.2551096 -0.087888815 -0.5467708 -0.17200159
-0.3880986 -0.49385202 0.08720548 0.06391474 0.019939644 0.095491886 -0.6078172 -0.2085042
0.030735184 -0.35748407 0.04689683 0.05387671 -0.277827 -0.16433999 0.13140748 -0.4407635
-0.03960942 -0.5479745 -0.014058046 0.066890426 0.09070403 -0.020817092 0.059250973 -0.017988095
0.018972151 -0.21433623 -0.23712985 -0.25965878 -0.65281755 -0.24234669 0.018930918 -0.12681866
0.05154137 -0.2608664 -0.1231764 0.021527069 -0.03620283 -0.300846 -0.3257471 -0.35168055
-0.21423376 -0.08367649 -0.18260345 -0.01284305 0.09920605 -0.09242071 -0.17429623 0.037148967
-0.45340148 -0.39100394 -0.04516383 -0.019802175 -0.28032333 -0.029425204 -0.074570686 -0.1338824
0.03640852 -0.29313 -0.1002481 -0.30817154 -0.05727327 0.08206357 -0.1723199 0.062079888
0.06681962 -0.5209859 -0.17879136 0.22836573 0.027499031 0.13134013 -0.021358024 -0.12652624
-0.02357877 -0.042157426 -0.082097955 -0.08750498 0.03888699 0.078340486 0.17604968 -0.17253774
0.058424108 -0.08477736 -0.08151662 0.0023468712 0.095195174 0.17880383 0.18823276 -0.35343266
-0.16954423 0.093536355 0.15789585 0.075354084 -0.14972909 -0.3274774 -0.08753694 -0.47084928
-0.025350744 -0.07362951 -0.034495573 -0.18131983 -0.12788834 -0.19203578 -0.05808735 0.0018689355
0.08788502 -0.24191882 -0.049387593 -0.2447478 -0.03758343 -0.12467115 0.055419654 -0.33018053
-0.36357516 0.09282894 -0.07828832 -0.085066654 0.0066342694 0.041532565 -0.21682532 -0.13414703
0.023910556 -0.070773065 -0.66520894 -0.08321615 0.07509606 -0.06706959 -0.7358643 -0.110860735
0.002043981 0.018178768 0.07580297 -0.079576716 -0.018475492 -0.056587465 0.12915091 -0.37549648
0.11785419 -0.5936178 0.060657028 -0.07568714 -0.3542495 0.03833838 0.17949869 0.08749015
-0.1365149 -0.82386094 -0.063648246 -0.10143582 0.047177333 -0.1480603 -0.09282212 -0.1852648
0.01199105 -0.43818724 0.14779386 -0.16464482 -0.41647735 0.110979654 0.047446474 -0.32241023
-0.0012226237 -0.13183555 -0.061088085 0.14410207 0.003455903 -0.040231373 0.053623803 -0.46579912
0.051943853 -0.24745625 0.104893565 -0.0035813744 0.033469338 -0.065954976 -0.15764198 -0.070574455
-0.054978833 -0.6851956 -0.107927725 -0.039152384 -0.1763048 -0.16833608 -0.092759885 0.041191913
00000000: 4bc5 65bc ba6d 8dbd 844b 6dbd 02b5 83be
00000010: 9ecc 8e3c d133 943d 6155 03be a4a2 e6be
00000020: 23a3 563e 28ce c8bd 4580 e83d 98fa 76be
00000030: a326 bc3d c146 a43d 793a 853d b07f a6be
00000040: 98d7 73bd 7303 47be 75c0 733d cf61 5c3d
00000050: 2fd1 1fbd 6a94 ffbe 30bd aa3d 6968 73ba
00000060: 10ff 133e 1d1b 74be a83f b33d c8b7 0cbe
00000070: 0bcc 5c3c 3ca7 cbbd 20b1 00bf 9749 1a3e
00000080: 1230 b7bd 3c56 98bd 80aa 043d aff5 173e
00000090: 7a49 b5be f970 10be 368d 573c f355 b738
000000a0: 1339 2a3d 96da 223c fa7d e5be ae28 473e
000000b0: b42f d93d 2072 c2be b371 fbbe ac41 0e3e
000000c0: 34db 24be 825c e93d 6e6c a93d a17a cfbd
000000d0: ff6a 723e a624 ddbb 92b9 063e 21be af3d
000000e0: a1cc 82be 73a8 dbbe 6aa1 273e 9bbc 17be
000000f0: 785c 943d 63e9 25be 7971 9cbe e182 fc3d
00000100: 83bc b33d a1ea 28bc a2d3 c1be 7e5c 533c
00000110: ba9d 82be 0dff b3bd 2cf9 0bbf 2f21 30be
00000120: dcb4 c6be 2cda fcbe c998 b23d bbe5 823d
00000130: 7758 a33c 4091 c33d e899 1bbf 2082 55be
00000140: 5ac8 fb3c 2708 b7be e416 403d d3ad 5c3d
00000150: 573f 8ebe be48 28be af8f 063e c1ab e1be
00000160: 7d3d 22bd 0f48 0cbf b853 66bc d9fd 883d
00000170: 09c3 b93d 9b88 aabc 26b1 723d c55b 93bc
00000180: 7c6b 9b3c f57a 5bbe 2bd2 72be fff1 84be
00000190: 0d1f 27bf bb29 78be 0315 9b3c c0dc 01be
000001a0: 0b1d 533d 4890 85be e943 fcbd 8959 b03c
000001b0: 6b49 14bd 7d08 9abe 53c8 a6be 790f b4be
000001c0: 1860 5bbe 945e abbd 66fc 3abe a86b 52bc
000001d0: 8b2c cb3d 1247 bdbd b67a 32be 8429 183d
000001e0: 3d24 e8be ab31 c8be b5fd 38bd 2c38 a2bc
000001f0: 8a86 8fbe 200d f1bc 84b8 98bd 7818 09be
00000200: 1a21 153d 2315 96be e04e cdbd a9c8 9dbe
00000210: 6097 6abd f210 a83d a174 30be 7b47 7e3d
00000220: bad8 883d 555f 05bf 1515 37be b5d8 693e
00000230: a645 e13c 077e 063e 06f7 aebc 1890 01be
00000240: 4428 c1bc 44ad 2cbd f922 a8bd d035 b3bd
00000250: f747 1f3d fa70 a03d 5e46 343e bcad 30be
00000260: 1e4e 6f3d c19f adbd 30f2 a6bd f7cd 193b
00000270: b0f5 c23d 5a18 373e 17c0 403e 20f5 b4be
00000280: 019d 2dbe fd8f bf3d 73af 213e 3e53 9a3d
00000290: 9552 19be 1eab a7be 9146 b3bd 2813 f1be
000002a0: 5dac cfbc 12cb 96bd 3b4b 0dbd e8ab 39be
000002b0: 29f5 02be 07a5 44be 00ed 6dbd 12f7 f43a
000002c0: 10fd b33d 91b9 77be a54a 4abd 2b9f 7abe
000002d0: 15f1 19bd 9753 ffbd b8ff 623d 6c0d a9be
000002e0: 8626 babe 191d be3d a055 a0bd 6d37 aebd
000002f0: 4964 d93b 0d1e 2a3d 7507 5ebe d75d 09be
00000300: 12e0 c33c 78f1 90bd 224b 2abf 3b6d aabd
00000310: f7cb 993d c85b 89bd 9a61 3cbf f40a e3bd
00000320: 50f4 053b a4eb 943c 963e 9b3d 1ef9 a2bd
00000330: ea59 97bc 42c8 67bd 2340 043e 1341 c0be
00000340: 8a5d f13d 56f7 17bf 8173 783d dc01 9bbd
00000350: 3160 b5be b508 1d3d 81ce 373e 092e b33d
00000360: 90ca 0bbe 8de8 52bf 035a 82bd 95bd cfbd
00000370: 053d 413d 1f9d 17be 8619 bebd 0eb6 3dbe
00000380: 1c76 443c 145a e0be 4657 173e a798 28be
00000390: 853c d5be 4d49 e33d 3c57 423d f412 a5be
000003a0: 7240 a0ba e6ff 06be 8037 7abd 7e8f 133e
000003b0: 6e7c 623b a7c9 24bd a2a4 5b3d 397d eebe
000003c0: 14c3 543d 2c65 7dbe 70d2 d63d 7eb5 6abb
000003d0: 2517 093d 6713 87bd e66c 21be 5789 90bd
000003e0: 7c31 61bd fb68 2fbf 3609 ddbd 405e 20bd
000003f0: 3f89 34be 4b60 2cbe e5f8 bdbd dab8 283d

conv4.bias f4 [128]
0.045057893 -0.021657137 -0.05603591 0.068114676 0.012302691 0.04311437 0.22689565 0.06180317
-0.17967722 -0.42920113 -0.244672 0.18526843 0.23100184 0.0648236 -0.2264166 -0.40729773
-0.28081 -0.357475 -0.18592788 -0.5041656 -0.276388 -0.059252888 -0.2149003 0.19437544
0.08440456 0.13227627 0.12302456 0.21131627 -0.24254097 -0.29866242 0.3265218 -0.266246
0.021013306 0.014390276 -0.16996416 0.085828125 0.11859401 -0.15520369 -0.03198657 -0.04220107
-0.13460238 0.050162528 -0.012292164 0.2770236 -0.1277962 -0.057527125 -0.28028917 -0.10202599
-0.6267401 0.4724969 -0.31798896 -0.1882668 0.043298703 0.05731392 -0.19332048 -0.015302534
-0.28038225 -0.12579899 -0.29826996 -0.06936484 -0.46748227 0.09660178 0.122668274 -0.05661297
0.1489178 0.0043386496 -0.41738242 -0.042536173 -0.15174294 0.19290946 -0.44591784 -0.24754581
-0.17601758 -0.2594594 -0.34705627 0.26461247 0.120437555 0.44376153 -0.3604803 0.12044588
-0.14305058 -0.30386394 -0.22691129 -0.35240868 0.10238215 0.020474294 -0.23674777 -0.3429498
-0.58692026 -0.005926578 0.17014237 -0.5070416 -0.033281654 0.14285077 -0.1335798 0.052199002
-0.07355899 0.11775183 -0.12621033 0.10230944 -0.13923348 -0.27365032 -0.49029127 -0.1778943
-0.19956778 0.106824026 0.19752711 -0.050615333 0.23167142 -0.07724753 -0.40589383 0.12012236
-0.28667697 -0.27163997 0.49753886 -0.15303884 -0.13667196 -0.27550086 -0.27292573 -0.22244078
-0.59896857 -0.005205006 0.275666 0.17758498 0.012909231 -0.09543285 -0.39206427 -0.03226787
00000000: a08e 383d 4f6a b1bc e985 65bd b57f 8b3d
00000010: 3a91 493c b298 303d 5557 683e 5225 7d3d
00000020: 4efd 37be 40c0 dbbe 4c8b 7abe 02b7 3d3e
00000030: bf8b 6c3e 3cc2 843d c1d9 67be 5489 d0be
00000040: 54c6 8fbe f706 b7be e163 3ebe ff10 01bf
00000050: ba82 8dbe 28b3 72bd d30e 5cbe 5b0a 473e
00000060: 4cdc ac3d 6e73 073e 4df4 fb3d 4b63 583e
00000070: a95c 78be 48ea 98be de2d a73e 6551 88be
00000080: 1924 ac3c 31c5 6b3c 160b 2ebe a8c6 af3d
00000090: 6be1 f23d b7ed 1ebe 5a04 03bd 07db 2cbd
000000a0: 35d5 09be 3977 4d3d 1365 49bc 0ad6 8d3e
000000b0: 02dd 02be 90a1 6bbd 1082 8fbe 01f3 d0bd
000000c0: 0a72 20bf 1deb f13e 73cf a2be 03c9 40be
000000d0: fb59 313d 00c2 6a3d cef5 45be 7bb7 7abc
000000e0: 438e 8fbe 73d1 00be d7b6 98be 270f 8ebd
000000f0: d659 efbe 27d7 c53d 8139 fb3d 00e3 67bd
00000100: e87d 183e 3b2b 8e3b 26b3 d5be 693a 2ebd
00000110: 8062 1bbe 0f8a 453e 584f e4be a67c 7dbe
00000120: f43d 34be ddd7 84be 5cb1 b1be 497b 873e
00000130: f7a7 f63d b634 e33e e090 b8be 54ac f63d
00000140: da7b 12be 0e94 9bbe 6f5b 68be e96e b4be
00000150: bcad d13d b5b9 a73c 026e 72be 1e97 afbe
00000160: 6840 16bf bd33 c2bb cd39 2e3e 7acd 01bf
00000170: 5852 08bd 7947 123e 25c9 08be 9fce 553d
00000180: 19a6 96bd df27 f13d 483d 01be 9d87 d13d
00000190: 3993 0ebe e51b 8cbe 7507 fbbe ec29 36be
000001a0: 7f5b 4cbe 8ec6 da3d 8c44 4a3e 0652 4fbd
000001b0: 463b 6d3e f433 9ebd 51d1 cfbe b602 f63d
000001c0: 53c7 92be 6514 8bbe 6abd fe3e 37b6 1cbe
000001d0: bcf3 0bbe 730e 8dbe ecbc 8bbe 84c7 63be
000001e0: 0156 19bf c18e aabb 1824 8d3e d6d8 353e
000001f0: 3d81 533c 4c72 c3bd a6bc c8be 502b 04bd

conv5.weight f4 [256, 128, 1, 1]
-0.03514441 -0.24615118 -0.19279201 -0.2126839 0.15224093 0.008522288 -0.047616456 -0.32847047
0.02953295 -0.074355446 -0.1262514 -0.4474186 0.18082166 0.21156816 -0.0007028706 0.10769103
-0.054933023 -0.27365 -0.121148795 0.1429619 0.13305706 0.22316626 -0.09744343 0.06513922
-0.097735174 -0.15359153 0.034089006 -0.17739274 0.18320158 -0.24692312 -0.3955309 0.2122016
0.014835026 -0.045946974 -0.09651832 0.10100383 -0.18304847 0.03381082 -0.11320198 -0.15334386
0.0018042589 -0.16374533 -0.038470063 8.771263e-05 -0.09240956 0.053820044 -0.1009052 0.033397727
0.09872277 0.024281584 0.043990836 -0.22974709 0.07261454 -0.03748929 -0.011074584 -0.1335179
-0.19607174 0.19801933 0.027360752 -0.10962279 0.3433252 0.21505854 0.16430932 0.025053615
-0.18746863 0.017331963 0.3550912 -0.057213515 -0.024294572 0.07048343 0.034591176 -0.23765448
-0.07108251 0.11049172 0.305845 -0.151298 0.19569202 -0.2633772 -0.23961636 -0.32143155
-0.110439666 -0.15019299 0.073020466 0.27977365 -0.012758895 0.16511787 -0.10481599 0.08399712
0.07169615 -0.049734797 -0.028991345 0.25569615 -0.33001634 0.11370353 0.22744626 0.044147003
-0.09766512 -0.012318651 -0.30334944 -0.11684653 -0.2169072 0.25521645 -0.110539645 0.18771528
-0.036132216 -0.10607273 -0.46809232 -0.09343165 -0.40993804 0.10133004 0.017093148 0.17432898
0.299476 -0.21113797 -0.18701108 -0.19393001 0.14910233 -0.1006827 -0.26215687 -0.06383678
0.14963372 -0.01629986 -0.055400252 -0.18281625 -0.38632593 0.2730971 -0.0017505473 0.16330256
0.019019904 -0.15356398 -0.024107648 -0.13441558 -0.16092552 -0.05335804 -0.21746822 -0.09974696
-0.3769394 0.067262456 -0.24052887 0.16158181 -0.1338109 -0.12337821 0.09524293 -0.33017832
0.16808319 -0.2618527 -0.034904 -0.23363034 0.15365523 0.08370871 -0.058672134 -0.54870236
-0.12604493 -0.114936754 0.1928966 -0.23327868 -0.13772771 -0.12937365 -0.47077277 -0.47649556
-0.27981022 0.06637332 -0.41145015 0.057012938 -0.23973833 0.028781917 -0.052892063 -0.28908327
-0.3335822 0.2623457 -0.18902059 -0.11076183 0.020245805 -0.5017546 -0.2798047 -0.06090853
-0.13677257 -0.078540176 0.04465618 -0.09745681 0.11296288 -0.4782206 0.03471793 -0.24343444
-0.12843525 -0.2911096 -0.17184147 -0.3957725 0.31543663 -0.020979835 -0.34072903 -0.06900132
-0.26031846 -0.4506607 0.15695632 -0.49505445 0.29032424 -0.08089314 -0.36145735 -0.160273
-0.0070515843 -0.15140443 -0.13519634 -0.043478675 -0.28327522 -0.38824663 -0.18270136 0.025774501
0.33378738 0.13804868 -0.17602907 0.06507039 -0.31884256 -0.11208394 -0.02220693 -0.028608985
-0.2504295 0.1339564 0.14475194 0.15307106 -0.038020056 -0.2943821 0.015570215 0.037251323
-0.20690073 -0.120205574 -0.14791718 0.04975104 0.032678902 -0.17889863 -0.25268167 0.07957544
-0.2092795 -0.25239018 0.008057296 -0.20216802 -0.3296936 0.13865815 -0.39654005 -0.2766146
-0.32336912 -0.050647996 -0.5558543 -0.24328066 -0.18106723 -0.059441213 -0.18165143 0.4657864
0.13724956 -0.13428222 -0.31898782 -0.19109167 0.36864343 -0.1879906 -0.1136405 0.3376737
00000000: 96f3 0fbd 0e0f 7cbe 456b 45be cfc9 59be
00000010: 0ce5 1b3e 11a1 0b3c 7909 43bd 482d a8be
00000020: 16ef f13c ab47 98bd 0c48 01be 0d14 e5be
00000030: 5029 393e 53a5 583e d940 38ba 1d8d dc3d
00000040: 7301 61bd da1b 8cbe dc1c f8bd 9b64 123e
00000050: 1c40 083e b285 643e 6c90 c7bd b667 853d
00000060: 6129 c8bd 1947 1dbe eaa0 0b3d 71a6 35be
00000070: 3299 3b3e 6ad9 7cbe 0783 cabe 604b 593e
00000080: 9c0e 733c e532 3cbd 66ab c5bd 19db ce3d
00000090: 0f71 3bbe 377d 0a3d 71d6 e7bd 2c06 1dbe
000000a0: e27c ec3a dbac 27be c992 1dbd 5cf2 b738
000000b0: 3941 bdbd 6872 5c3d 63a7 cebd 0ecc 083d
000000c0: 2a2f ca3d 2cea c63c bc2f 343d d242 6bbe
000000d0: efb6 943d 5f8e 19bd 2c72 35bc ebb8 08be
000000e0: 08c7 48be 94c5 4a3e a823 e03c ea81 e0bd
000000f0: 52c8 af3e 4e38 5c3e b440 283e 3d3d cd3c
00000100: c7f7 3fbe c3fb 8d3c 84ce b53e b858 6abd
00000110: 6905 c7bc 9e59 903d 7aaf 0d3d b25b 73be
00000120: b593 91bd 7c49 e23d b797 9c3e dded 1abe
00000130: 7d63 483e 60d9 86be fe5d 75be ad92 a4be
00000140: 312e e2bd 31cc 19be c18b 953d 7e3e 8f3e
00000150: af0a 51bc a914 293e c4a9 d6bd af06 ac3d
00000160: 6ed5 923d b7b6 4bbd 427f edbc 9bea 823e
00000170: e7f7 a8be 65dd e83d ace7 683e 7dd3 343d
00000180: a704 c8bd 2bd4 49bc 9e50 9bbe 3c4d efbd
00000190: ec1c 5ebe bbab 823e 9c62 e2bd 6f38 403e
000001a0: 60ff 13bd a93c d9bd cca9 efbe 1859 bfbd
000001b0: 66e3 d1be 2086 cf3d ee06 8c3c 4c83 323e
000001c0: eb54 993e 8d34 58be d57f 3fbe 9795 46be
000001d0: 48ae 183e bb32 cebd 6d39 86be dcbc 82bd
000001e0: 9539 193e 4987 85bc 60eb 62bd 2f34 3bbe
000001f0: 83cc c5be 62d3 8b3e 9f72 e5ba c938 273e
00000200: a1cf 9b3c e03f 1dbe 677d c5bc 3da4 09be
00000210: a9c9 24be f68d 5abd fdaf 5ebe 2248 ccbd
00000220: 33fe c0be e6c0 893d 334d 76be b475 253e
00000230: b905 09be b7ad fcbd ba0e c33d 220d a9be
00000240: 001e 2c3e 8f11 86be 7ff7 0ebd cb3c 6fbe
00000250: cc57 1d3e 796f ab3d 3152 70bd c277 0cbf
00000260: ec11 01be f663 ebbd b086 453e 9be0 6ebe
00000270: 7e08 0dbe 877a 04be 2109 f1be 3af7 f3be
00000280: 4943 8fbe bcee 873d 98a9 d2be 6686 693d
00000290: f77d 75be 0ec8 eb3c 59a5 58bd b902 94be
000002a0: 49cb aabe 2d52 863e 9d8e 41be 19d7 e2bd
000002b0: 88da a53c fd72 00bf 9042 8fbe 397b 79bd
000002c0: 1c0e 0cbe acd9 a0bd 66e9 363d 7097 c7bd
000002d0: 1559 e73d 55d9 f4be 6334 0e3d e146 79be
000002e0: 8884 03be 510c 95be 36f7 2fbe b1a2 cabe
000002f0: e980 a13e e7dd abbc 0974 aebe 9050 8dbd
00000300: 7648 85be 00bd e6be 28b9 203e c777 fdbe
00000310: 61a5 943e 4dab a5bd f010 b9be 9b1e 24be
00000320: fa10 e7bb c309 1bbe e970 0abe b216 32bd
00000330: 7309 91be 43c8 c6be 1116 3bbe 0c25 d33c
00000340: 2ee6 aa3e a25c 0d3e f740 34be a043 853d
00000350: 553f a3be 448c e5bd 4feb b5bc 645d eabc
00000360: 4c38 80be de2b 093e da39 143e a9be 1c3e
00000370: ebba 1bbd 40b9 96be 371a 7f3c d894 183d
00000380: c9dd 53be 572e f6bd 9a77 17be bfc7 4b3d
00000390: 50da 053d 3431 37be 7e5f 81be 73f8 a23d
000003a0: 5e4d 56be 4939 81be c002 043c 2205 4fbe
000003b0: 99cd a8be 67fc 0d3e 4c07 cbbe 6ea0 8dbe
000003c0: a390 a5be 4674 4fbd 784c 0ebf 911e 79be
000003d0: b069 39be a178 73bd d502 3abe 8e7b ee3e
000003e0: 268b 0c3e 4781 09be 5f52 a3be 89ad 43be
000003f0: d5be bc3e 9c80 40be 5abc e8bd 91e3 ac3e

conv5.bias f4 [256]
0.1336016 -0.4664207 0.31203985 -0.085394815 -0.20509762 -0.17293009 -0.11625512 -0.21798617
-0.11861646 -0.020906102 0.19295818 0.15432234 0.24986008 0.3196157 -0.053072296 0.08516177
0.023286456 -0.00795234 0.4017392 -0.22812961 -0.06348003 0.34580913 0.066482395 -0.15989637
-0.10995893 -0.34765667 0.03655407 0.1062473 -0.20443307 0.2530472 0.39335737 -0.054664847
-0.093817234 -0.15740098 0.093999915 0.43518472 0.29143932 0.18195985 0.07462371 0.048552837
0.2661155 -0.18787573 0.1546763 0.39542225 8.962431e-06 0.04473083 -0.23445229 -0.26153946
0.31456652 0.22896352 0.07273936 -0.17954177 -0.037294142 -0.06042291 0.27181488 0.020563388
0.094915815 0.049864404 0.02729961 0.43618742 0.39346987 -0.014344852 0.0776341 0.4239088
0.042342823 0.21771374 -0.13557836 0.15215847 -0.054598626 0.05729062 -0.09397793 0.07271441
0.0962741 0.2493859 0.0030846908 -0.07975585 0.418121 -0.04665668 -0.11410049 -0.009219923
0.42386565 0.24811028 0.22839475 0.29101172 0.085845314 0.18768243 0.19110657 0.084747136
0.0043603866 -0.39971393 -0.22505403 -0.3389446 0.24150166 0.41111478 0.27328545 0.112117425
0.09183592 0.14320861 0.15545811 -0.34913632 0.27316186 -0.22715516 0.33734617 0.26705074
0.07714108 0.17065905 -0.08563738 0.25802255 0.102180086 -0.18248385 -0.11910115 -0.046292525
0.17235251 0.24977773 -0.052019373 0.3738784 0.35532945 0.16625804 0.29415295 -0.18540755
-0.12577912 -0.17898124 -0.029123636 0.268718 -0.029727804 0.06919722 0.19400634 -0.06558286
0.10866666 0.39050013 -0.096223556 0.239107 -0.12781323 -0.04896428 0.2735286 0.04130481
0.09551512 0.041220203 0.22931693 0.028017066 -0.094272085 0.33727142 -0.28913638 -0.10780319
-0.036158375 0.4324699 0.014832032 0.18287651 0.1255572 -0.12053223 0.03209758 0.11166049
-0.0371956 0.3859951 0.17990033 0.29391012 0.06296247 -0.30031765 0.115495384 0.20743899
-0.123302504 -0.1384408 0.13947006 -0.17003644 0.063232 -0.0008061262 -0.4466525 0.1291123
-0.22803321 0.42207128 0.20556834 0.6273812 -0.16789219 -0.3407387 0.1905926 -0.19466645
0.14916919 0.21627367 -0.08019811 0.07112105 0.123453744 0.16489968 0.15043478 -0.14100079
-0.17897937 0.03704798 0.3003076 0.04404754 -0.15588336 0.23708639 0.35176808 0.049954683
0.49028876 0.23916148 -0.16065012 0.27930534 -0.016399415 0.42420143 0.4625214 -0.071925886
0.16309732 -0.08859385 -0.104772896 0.3274262 0.010841657 0.092029214 -0.23666605 0.19265303
0.30809608 -0.1127773 0.27367535 -0.24942474 0.32675195 0.25743416 -0.09480535 -0.1295894
-0.080903314 0.6164859 0.16451728 0.28127658 0.041009046 -0.3119084 0.21769957 -0.2113658
0.07890658 0.16588314 -0.09650986 -0.083920226 0.11913211 0.029938797 0.11557109 0.2817685
0.23891121 0.61107576 0.23912926 0.21567643 0.11102881 0.52219015 0.0742881 0.0808349
-0.15432884 -0.15052176 -0.27279466 -0.1483787 -0.14931865 0.61677986 0.13436148 0.23165317
0.17114365 -0.23031187 0.120131195 -0.13144466 -0.03801346 0.27785766 -0.22210455 -0.036756333
00000000: dcce 083e b2ce eebe b0c3 9f3e 7ae3 aebd
00000010: 1c05 52be 9614 31be 2a17 eebd c437 5fbe
00000020: 30ed f2bd 4643 abbc d496 453e ad06 1e3e
00000030: 52db 7f3e aba4 a33e 5662 59bd 4b69 ae3d
00000040: 3dc3 be3c 884a 02bc c3b0 cd3e cf9a 69be
00000050: d101 82bd e50d b13e ec27 883d e0bb 23be
00000060: 2632 e1bd 0e00 b2be b8b9 153d 2f98 d93d
00000070: e756 51be 678f 813e 2366 c93e 3fe8 5fbd
00000080: 4023 c0bd b92d 21be 0783 c03d 88d0 de3e
00000090: 8937 953e af53 3a3e 51d4 983d 57df 463d
000000a0: 4a40 883e 7f62 40be 7763 1e3e c974 ca3e
000000b0: 595d 1637 ad37 373d 4314 70be 80e8 85be
000000c0: dd0e a13e 6a75 6a3e 60f8 943d ccd9 37be
000000d0: bec1 18bd 037e 77bd 522b 8b3e 8d74 a83c
000000e0: 3963 c23d 9e3e 4c3d 6fa3 df3c f553 df3e
000000f0: e274 c93e ac06 6bbc a1fe 9e3d 930a d93e
00000100: ab6f 2d3d 5af0 5e3e 0ed5 0abe 6ecf 1b3e
00000110: cfa2 5fbd 92a9 6a3d 8077 c0bd 4beb 943d
00000120: 5b2b c53d 045f 7f3e 8628 4a3b 0957 a3bd
00000130: f513 d63e 131b 3fbd 85ad e9bd 290f 17bc
00000140: eb04 d93e 9f10 7e3e 50e0 693e 7dff 943e
00000150: abcf af3d d32f 403e 71b1 433e e88f ad3d
00000160: 93e1 8e3b 4ea7 ccbe 9074 66be 268a adbe
00000170: 364c 773e a37d d23e 12ec 8b3e d29d e53d
00000180: 7914 bc3d 47a5 123e 6930 1f3e ffc1 b2be
00000190: dfdb 8b3e 5d9b 68be a3b8 ac3e e0ba 883e
000001a0: 24fc 9d3d 3fc1 2e3e a762 afbd 881b 843e
000001b0: cb43 d13d 0cdd 3abe 4eeb f3bd 3b9d 3dbd
000001c0: 2d7d 303e bcc5 7f3e 4412 55bd fd6c bf3e
000001d0: beed b53e 8c3f 2a3e 379b 963e 7adb 3dbe
000001e0: 3ecc 00be dc46 37be b194 eebc 6895 893e
000001f0: b987 f3bc 46b7 8d3d 99a9 463e 4e50 86bd
00000200: a08c de3d a2ef c73e db10 c5bd 77d8 743e
00000210: 79e1 02be c58e 48bd f10b 8c3e 3c2f 293d
00000220: 6e9d c33d 84d6 283d 0fd2 6a3e 0c84 e53c
00000230: b911 c1bd d7ae ac3e af09 94be ebc7 dcbd
00000240: ce1a 14bd b26c dd3e 0d02 733c fb43 3b3e
00000250: 1192 003e 9ad9 f6bd c178 033d 41ae e43d
00000260: 6a5a 18bd 26a1 c53e cb37 383e 637b 963e
00000270: 78f2 803d 3cc3 99be d888 ec3d e36a 543e
00000280: 0686 fcbd 6dc3 0dbe 3dd1 0e3e 081e 2ebe
00000290: c77f 813d 3752 53ba a3af e4be 0436 043e
000002a0: 8a81 69be ba19 d83e 8280 523e 0e9c 203f
000002b0: eeeb 2bbe 4e75 aebe b52a 433e a456 47be
000002c0: cfbf 183e d876 5d3e e83e a4bd eaa7 913d
000002d0: 51d5 fc3d 76db 283e 930b 1a3e 8362 10be
000002e0: 5e46 37be 9fbf 173d ebc1 993e 316b 343d
000002f0: e39f 1fbe c6c6 723e f21a b43e 489d 4c3d
00000300: 2107 fb3e bfe6 743e 7781 24be 1c01 8f3e
00000310: 1158 86bc ee30 d93e 9bcf ec3e e14d 93bd
00000320: fc02 273e b170 b5bd 2c93 d6bd 68a4 a73e
00000330: 35a1 313c d079 bc3d 9658 72be d646 453e
00000340: c5be 9d3e c9f7 e6bd 2d1f 8c3e 3369 7fbe
00000350: 084c a73e 69ce 833e 4f29 c2bd 15b3 04be
00000360: a3b0 a5bd 05d2 1d3f 3877 283e 7c03 903e
00000370: 1af9 273d 75b2 9fbe a3ec 5e3e 4770 58be
00000380: c699 a13d 45dd 293e f6a6 c5bd 5ede abbd
00000390: 89fb f33d 3542 f53c 89b0 ec3d f643 903e
000003a0: 24a5 743e 766f 1c3f 4dde 743e 48da 5c3e
000003b0: 1363 e33d 41ae 053f 5c24 983d c58c a53d
000003c0: 6108 1ebe 6022 1abe beab 8bbe 96f0 17be
000003d0: fde6 18be 49e5 1d3f 0e96 093e 7d36 6d3e
000003e0: 4840 2f3e e0d6 6bbe 5807 f63d 6e99 06be
000003f0: 00b4 1bbd 5c43 8e3e 606f 63be cf8d 16bd

conv6.weight f4 [80, 256, 1, 1]
-0.07167908 -0.098705575 -0.02687256 -0.3976712 -0.013205582 -0.45709956 -0.07225148 -0.13028981
-0.0060794493 -0.08516301 -0.09910496 -0.009998356 -0.21378481 -0.13772207 -0.04633935 -0.17722823
0.083275706 -0.07995968 -0.11735475 -0.08338669 0.03239151 -0.32407147 0.06797345 0.14757973
0.0032872967 0.06290105 0.10023466 -0.3781861 0.060437717 -0.17793852 -0.27530748 0.08704371
-0.37011257 0.035741057 0.1538107 -0.28999415 -0.40243983 -0.1263947 0.24705856 0.05746126
-0.18830529 0.0038415499 0.10754574 -0.0777558 -0.18166061 -0.3439107 -0.26144433 -0.24731904
-0.04317957 0.14942163 0.07186408 0.041761857 -0.09976587 0.05295238 -0.14651811 -0.11771511
0.118843235 -0.08719405 -0.029089153 -0.16117981 -0.57045037 0.019021504 0.08773275 -0.014190643
0.07428936 0.14353625 0.066401765 -0.019534875 -0.066193104 -0.24921311 0.11161805 0.14935529
-0.02091884 -0.059798375 0.11421314 -0.044106018 -0.3591785 -0.18028809 -0.03445369 0.01485178
0.009298585 -0.028678445 0.11345191 -0.13587733 -0.015938839 -0.084759206 0.034631446 -0.003583179
-0.17975187 0.16826451 0.020740397 -0.11479529 0.08094526 -0.29485434 -0.042624053 0.006309104
-0.027297128 0.0021778778 0.008881241 -0.013400018 0.12233801 -0.014598628 0.03717209 0.025876462
0.00077515416 -0.60081667 -0.14487289 -0.053055115 0.023853257 0.04020422 -0.0053672264 -0.10356049
-0.3375975 -0.13439856 -0.04526665 -0.36516622 -0.4827064 -0.07349756 0.06363237 0.06757352
0.0072662015 0.007401994 0.03374746 -0.19544193 0.080671504 0.048785202 0.014366163 -0.022713339
-0.010595551 -0.20942235 0.008542918 0.13508153 -0.04742446 0.07123367 -0.046897944 -0.2957064
-0.054435275 -0.09875591 -0.11802666 -0.4067931 -0.33047506 -0.39885667 0.20314854 0.024961246
0.096458636 -0.23126662 -0.29798555 0.07622531 -0.64283246 -0.13982582 0.026835648 0.18552619
-0.017337026 -0.1998892 0.10184988 -0.5356601 -0.30056763 -0.00044392672 -0.3363117 0.022743393
-0.11784098 0.12835447 -0.07226633 0.089851156 -0.54729587 -0.47674894 0.08729984 -0.005137397
0.04704151 -0.3488128 0.0745611 -0.224457 -0.17516108 -0.013289398 0.17694984 -0.031824026
0.0570153 0.032345016 0.082263224 -0.17362335 0.09600355 -0.0043129916 0.12097216 0.19280852
-0.028351124 -0.03909995 -0.1815924 -0.119565524 -0.021367764 0.02248075 -0.13240057 -0.1326547
-0.4113464 0.028883832 -0.08498564 -0.1050429 0.06450923 0.14990391 0.06868622 0.042414606
-0.10506917 -0.15145673 -0.27457285 -0.012429411 0.17689936 -0.083495386 -0.09043091 0.07476029
-0.02219815 0.13130105 -0.16337408 -0.122663945 -0.0810037 -0.32890275 -0.0005867046 -0.0035766594
0.13225144 -0.04681198 0.1467193 0.027701048 -0.24688084 -0.35740304 -0.10996301 0.25291157
-0.029837722 -0.2942032 -0.049419288 0.00035744449 -0.18790284 -0.07195985 -0.029863153 -0.49654177
-0.18144347 -0.16771433 0.059581798 -0.105002634 -0.034526277 -0.20379244 -0.11464697 0.09265041
0.022129308 0.0067616445 0.0191864 0.2133486 -0.039822213 -0.1014035 -0.27001622 0.0078064753
0.20708606 0.05527373 0.10448522 -0.2581877 -0.18047555 -0.31413066 -0.077482335 -0.016837692
00000000: 7bcc 92bd 2626 cabd d823 dcbc 8f9b cbbe
00000010: 3a5c 58bc f408 eabe 95f8 93bd b16a 05be
00000020: 1e36 c7bb f269 aebd 8bf7 cabd 25d0 23bc
00000030: 68ea 5abe 0407 0dbe 55ce 3dbd 517b 35be
00000040: 748c aa3d e7c1 a3bd b057 f0bd a4c6 aabd
00000050: f6ac 043d b2ec a5be aa35 8b3d 241f 173e
00000060: b06f 573b 44d2 803d d447 cd3d 9ca1 c1be
00000070: 8a8d 773d 8435 36be 1af5 8cbe f943 b23d
00000080: 657f bdbe 3765 123d 8d80 1d3e 1d7a 94be
00000090: 980c cebe 9d6d 01be ebfc 7c3e 805c 6b3d
000000a0: 1ad3 40be 83c2 7b3b f140 dc3d 6f3e 9fbd
000000b0: 3d05 3abe 1015 b0be 08dc 85be 3441 7dbe
000000c0: 10dd 30bd fc01 193e 7a2d 933d 7b0e 2b3d
000000d0: 0c52 ccbd 98e4 583d d808 16be 9f14 f1bd
000000e0: 1564 f33d cb92 b2bd 604c eebc 520c 25be
000000f0: 0909 12bf fcd2 9b3c 3aad b33d df7f 68bc
00000100: 0525 983d 2bfb 123e a6fd 873d 9a07 a0bc
00000110: 4090 87bd b931 7fbe 0198 e43d 98f0 183e
00000120: fd5d abbc 24ef 74bd 94e8 e93d 83a8 34bd
00000130: 3fe6 b7be 719d 38be 501f 0dbd e154 733c
00000140: 1859 183c 0fef eabc 7a59 e83d 6d23 0bbe
00000150: 2b92 82bc 3c96 adbd b4d9 0d3d c5d3 6abb
00000160: e010 38be 884d 2c3e c4e7 a93c cb19 ebbd
00000170: a1c6 a53d 26f7 96be 8f96 2ebd 9abc ce3b
00000180: 3a9e dfbc baba 0e3b a082 113c c08b 5bbc
00000190: 5a8c fa3d 152f 6fbc c341 183d e0fa d33c
000001a0: b733 4b3a 1fcf 19bf 8f59 14be 5250 59bd
000001b0: e867 c33c 2ead 243d 8fdf afbb 8617 d4bd
000001c0: 94d9 acbe c79f 09be 8669 39bd 11f7 babe
000001d0: 4b25 f7be e485 96bd b051 823d fc63 8a3d
000001e0: 5119 ee3b 6d8c f23b c73a 0a3d ee21 48be
000001f0: 1a37 a53d fed2 473d 0e60 6b3c 5311 babc
00000200: f698 2dbc d072 56be 98f7 0b3c d052 0a3e
00000210: 2740 42bd f5e2 913d 0f18 40bd d466 97be
00000220: 86f7 5ebd 8a40 cabd f6b7 f1bd 2f47 d0be
00000230: 0734 a9be f136 ccbe 2c06 503e 877b cc3c
00000240: 1b8c c53d 28d1 6cbe 9091 98be 041c 9c3d
00000250: ab90 24bf 802e 0fbe 6fd6 db3c 94fa 3d3e
00000260: 6106 8ebc c1af 4cbe ab96 d03d 0521 09bf
00000270: 00e4 99be d6be e8b9 0c31 acbe 5a50 ba3c
00000280: 9d56 f1bd 5b6f 033e 5f00 94bd e203 b83d
00000290: 951b 0cbf 7018 f4be 42ca b23d 9c57 a8bb
000002a0: 99ae 403d 9797 b2be 7db3 983d 0ed8 65be
000002b0: 6d5d 33be c6bb 59bc 5732 353e e959 02bd
000002c0: e088 693d 357c 043d 9f79 a83d 52ca 31be
000002d0: 829d c43d ff53 8dbb 40c0 f73d 996f 453e
000002e0: 9e40 e8bc 4527 20bd 5cf3 39be c5de f4bd
000002f0: 730b afbc 8d29 b83c 0494 07be a2d6 07be
00000300: ff9b d2be c99d ec3c f40c aebd bb20 d7bd
00000310: 6a1d 843d 6980 193e 5cab 8c3d f0ba 2d3d
00000320: 812e d7bd 7917 1bbe d094 8cbe baa4 4bbc
00000330: 1b25 353e a1ff aabd d733 b9bd ec1b 993d
00000340: e5d8 b5bc c873 063e 894b 27be 3c37 fbbd
00000350: 45e5 a5bd f165 a8be 14cd 19ba 6366 6abb
00000360: ec6c 073e ebbd 3fbd 963d 163e 4fed e23c
00000370: 55ce 7cbe 88fd b6be 4934 e1bd a07d 813e
00000380: 3d6e f4bc cda1 96be e16b 4abd 6367 bb39
00000390: 9a69 40be b05f 93bd 92a3 f4bc b93a febe
000003a0: 51cc 39be 4ebd 2bbe 0b0c 743d 9f0b d7bd
000003b0: 6d6b 0dbd f7ae 50be 08cc eabd 80bf bd3d
000003c0: 8648 b53c c990 dd3b cc2c 9d3c 0e78 5a3e
000003d0: 9e1c 23bd a3ac cfbd 913f 8abe 76cd ff3b
000003e0: 5e0e 543e b566 623d 59fc d53d 2e31 84be
000003f0: 95ce 38be bcd5 a0be 0faf 9ebd 33ef 89bc
