models/trained/ConvNet3_1.pt (torch, 437732 bytes, 8 tensors)

conv1.weight f4 [16, 1, 3, 3]
000000 0f b3 8c 3e d8 97 d7 3c 4b 35 8d 3e 0a 30 a9 3e
       0.2748036 0.026317522 0.27579722 0.33044463
000010 02 8a d6 3e 45 69 81 3e 19 4d bf 3e 9d f6 a9 bd
       0.41902167 0.25275627 0.37363508 -0.08298991
000020 e2 28 6a 3e 72 af e3 3e 97 7c 93 bc 26 50 32 3e
       0.22867158 0.44469792 -0.018003745 0.17413387
000030 12 a1 d1 3e a0 1c 22 be 96 f5 99 be 45 e4 e6 3e
       0.409432 -0.15831232 -0.3007018 0.4509603
000040 df b5 81 3e bb fa dc be 79 49 d6 3e 47 16 8e 3e
       0.2533407 -0.43160042 0.4185293 0.2775137
000050 5c f6 be 3e 8c c8 04 be 39 49 cd 3e 76 f4 ac 3e
       0.37297332 -0.12967128 0.40094927 0.3378026
000060 eb 3d b6 be 6c 5b dc 3d 52 e2 12 be 76 f1 f2 3d
       -0.35594115 0.10759625 -0.14344147 0.11862461
000070 85 1a 7c 3e e6 e1 f3 3d 75 df ca be ae 4f 55 be
       0.24619491 0.11908321 -0.3962361 -0.20831177
000080 67 81 e3 3e 48 f1 fb bd 4a 5d 8d 3d 3f 3a dc 3e
       0.44434664 -0.1230188 0.06902559 0.43013188
000090 68 3f d4 3e d9 ff 06 3e c9 f9 b1 3e d4 80 a6 3c
       0.41454625 0.13183536 0.34760883 0.020325102
0000a0 2a 0d 9e 3e 94 9b 93 bb c6 bc b5 bc 41 fe f6 be
       0.30869418 -0.0045046303 -0.02218474 -0.48240855
0000b0 9b c4 ce bd 82 01 0b be d8 62 8d be 08 0d cc 3e
       -0.10096093 -0.13574794 -0.27614474 0.39853692
0000c0 85 c5 ba 3e f7 c9 e4 3e 28 9f ef bd 1f 26 40 bc
       0.3647882 0.44685337 -0.117002785 -0.011727839
0000d0 1e a1 bf 3e bd fb 40 be 59 c9 f3 be 7e be 93 bd
       0.3742761 -0.1884603 -0.47614554 -0.07214068
0000e0 96 55 a9 3e b4 a8 a1 be ee 34 72 3e 0d 09 ba 3e
       0.3307311 -0.31574023 0.23653004 0.3633503
0000f0 45 1d 61 3d 55 25 c6 3d ac 4e 58 3e 7c 1d 29 3d
       0.054959554 0.09675089 0.21123761 0.041287884
000100 2c 45 78 3e cc c9 7e 3e e5 f3 1a be ad 4a 59 be
       0.24245137 0.24881667 -0.15132101 -0.21219893
000110 7a 6e bf 3d 29 19 cd bd 84 8c cf 3d 00 2a 94 3e
       0.093472436 -0.100145645 0.10134223 0.28938293
000120 eb ab ed 3b b7 b2 c5 3e 85 16 ac 3e f5 87 c3 3c
       0.0072531602 0.3861291 0.3361093 0.02386854
000130 37 4d a9 bc dc 2c d7 bd b2 15 2c 3e 88 5f 81 3e
       -0.020666702 -0.10506603 0.16805151 0.25268197
000140 4b 3c f4 3d 2c 81 92 be 33 df 18 3e 4e f1 d3 3e
       0.119255625 -0.28614175 0.14928894 0.41395038
000150 46 eb 8e 3e 7c b8 8a 3e f6 79 ad 3e 91 dc 04 3e
       0.27913874 0.27093875 0.3388211 0.12974764
000160 83 ae bc be d8 2f 95 be 33 4c 0c be 36 85 c6 3d
       -0.36851892 -0.29138064 -0.13700943 0.09693377
000170 a0 3f a3 3e 5c 41 be be 99 02 56 3e 7c e1 3c be
       0.3188448 -0.3715924 0.20899428 -0.1844539
000180 99 86 99 be 20 e4 05 bc 8b 4f d2 3e 1c 1c b4 be
       -0.29985502 -0.008172065 0.4107631 -0.35177696
000190 cb 78 c3 bc a7 f9 fa be 52 ad c4 be 07 c5 da be
       -0.02386131 -0.49018595 -0.38413483 -0.42728445
0001a0 85 a0 0e 3e 7a 51 f2 be 1b 43 ed 3d b9 3e 88 3c
       0.13928421 -0.47327787 0.11585065 0.016631471
0001b0 47 19 32 3e aa ec a5 3e 1f 2b cf be f6 8a 35 be
       0.17392455 0.32407123 -0.40462586 -0.1772879
0001c0 09 66 cf 3e 92 66 93 3e bd c5 a4 3d 50 4c d2 3e
       0.40507534 0.28789192 0.08045528 0.41073847
0001d0 a1 6e 64 3e 60 b7 bc be fa 20 19 be 69 83 bb be
       0.22307827 -0.36858654 -0.14953986 -0.36623695
0001e0 de 71 a8 3e 6a 4a 11 3d 90 92 d6 3e 81 aa 6e 3e
       0.32899374 0.035471357 0.41908693 0.2330723
0001f0 12 33 94 3d 09 86 1e be 50 aa 8a 3e 23 12 9a 3e
       0.072363034 -0.15480818 0.27083063 0.30091962
000200 aa ce 02 3e 80 9a c6 3c 2f 7b 1c 3e fd de 79 3e
       0.12774149 0.024243593 0.15281366 0.2440147
000210 66 d1 4b 3e c4 a7 fa 3d eb f2 89 3e 81 89 6f 3e
       0.19904098 0.1223903 0.26943144 0.23392297
000220 0c a1 a6 3d 9e a3 a5 be 95 a0 5b bc ae 80 cd be
       0.08136186 -0.32351393 -0.013404985 -0.40137237
000230 e7 06 bf be ca 1d 03 bf bc 75 cd bd 56 15 22 3e
       -0.37309954 -0.5121733 -0.10032222 0.15828452

conv1.bias f4 [16]
000000 97 d6 53 bd a6 c7 39 bc 25 df c6 3e 7d 5f d4 3d
       -0.05171832 -0.011339104 0.3884212 0.103697754
000010 bc 8a 8a 3e 30 85 35 3e 37 e4 22 3e bd 0b 31 be
       0.2705897 0.17726588 0.1590737 -0.17289634
000020 37 2e 6b bd 20 2a 4a bd 93 00 8f 3e 84 2d f2 3d
       -0.05741712 -0.04935658 0.27930126 0.11825088
000030 1e 29 9f 3d 60 9a 90 3e f0 75 bd 3e 46 65 ba 3e
       0.07771514 0.2824278 0.37004042 0.3640539

conv2.weight f4 [32, 16, 3, 3]
000000 55 31 8b 3d 36 e3 90 bc 5c 7a 99 bd cd 27 11 3d
       0.06796519 -0.017686468 -0.07494041 0.035438348
000010 a5 70 54 3d 87 4f 21 be f3 d1 92 3d fb 47 6c 3d
       0.05186524 -0.15752994 0.07168951 0.057685833
000020 38 65 a9 39 d0 dc 11 3e 9b 57 31 bd 64 ae 5a 3d
       0.00032309606 0.1424439 -0.043296438 0.053388968
000030 c4 fd c2 bc 2c a3 53 3d bc 90 8d 3c ea db 1d be
       -0.023802646 0.051669285 0.017280929 -0.15415922
000040 1e 48 62 3d f8 dd 52 3d 3c b8 dd bc f4 31 0b 3c
       0.055244558 0.051481217 -0.027065389 0.0084957965
000050 c8 bd 43 bd c2 3b e5 3d b7 d2 63 bc dd 58 fd bd
       -0.04778841 0.111930385 -0.013905219 -0.12370465
000060 de c6 18 3b c2 ea e2 3d 99 2a b1 3d 39 de bf bd
       0.0023311893 0.11079933 0.08650703 -0.093685575
000070 56 d1 ec bc 3a 4c 5c bc 9c ec 52 bc a4 f1 8e bc
       -0.028908413 -0.013445908 -0.012873795 -0.017449208
000080 46 83 9e bd 11 4e 10 3e ce 96 21 3e d2 a3 00 3d
       -0.07739882 0.1409228 0.15780184 0.03140623
000090 66 e7 48 bd ed 37 7d bd c8 13 b8 3c 0d 35 3e 3d
       -0.049048804 -0.061820913 0.02247037 0.046437312
0000a0 b4 7d 4c 3c c1 c8 22 be 4a 44 37 3d de f5 59 bd
       0.012481142 -0.15896894 0.04474286 -0.053212993
0000b0 bc c1 7f bd 01 bd a4 3d 27 20 3e bd 0b 07 d2 bd
       -0.06244062 0.08043862 -0.04641738 -0.102552496
0000c0 4e 5a c5 3d 2b ea 15 3e 0e 4f b7 bd a4 7f 89 bd
       0.09636365 0.14640109 -0.08950625 -0.06713799
0000d0 cb 75 2e 3d 59 5a dd 3d 61 a2 1f be 09 ce 5a 3d
       0.042592805 0.10808248 -0.15589286 0.053419147
0000e0 10 d6 0b 3d c9 b1 46 bc ef 35 e6 bd 0d e7 03 be
       0.034139693 -0.012127348 -0.11240756 -0.12881108
0000f0 17 9b d8 3d f6 11 0b bd e5 d0 39 3b d1 16 a1 bd
       0.10576456 -0.033952676 0.002835327 -0.0786568
000100 36 06 ae bc fe 80 f9 bd 1d 47 8d 3c 8e aa 0b bd
       -0.021243196 -0.121828064 0.017245824 -0.0340982
000110 d1 e5 33 bc 15 e3 f1 3d 7e 5f be 3d 1c 5e 7a bb
       -0.0109800855 0.118108906 0.092955574 -0.0038203066
000120 03 3b aa bc 88 02 a9 3b 46 90 d5 bd 67 4a 43 3d
       -0.020780092 0.0051577725 -0.104279086 0.047678377
000130 9d 27 21 3d e5 c4 39 bd 88 27 80 3b af 83 ad 3d
       0.03934442 -0.04535379 0.0039109625 0.08472382
000140 6e 72 53 bd 7e f9 80 bc ff 4c 91 bd 4c e6 e4 3c
       -0.0516228 -0.015743967 -0.07094764 0.027941845
000150 6f a9 e8 bc 8b 5b 98 bd 1a 31 53 be ac 0d 65 3c
       -0.028401105 -0.074393354 -0.206242 0.01398031
000160 d5 f8 90 3d 99 0d 2c bd 6b 00 11 be 92 69 f7 3d
       0.07078711 -0.042005155 -0.14160316 0.12080683
000170 75 bb 84 bc 29 0d 84 3d 3b d6 38 bd 81 af 14 bd
       -0.016202668 0.064478226 -0.04512618 -0.036300186
000180 b3 9f 01 3d ce c3 00 3e b9 a8 81 3d b1 8c 77 bd
       0.03164644 0.12574694 0.063310094 -0.06043691
000190 09 fb 81 bc 48 13 4e bd b9 ed d2 bc 0a 32 b3 bd
       -0.015866773 -0.050311357 -0.02574812 -0.087497786
0001a0 a3 e7 c1 3b 94 f7 6c 3c fd 96 12 bd 22 97 c9 bd
       0.005917506 0.014463324 -0.035788525 -0.098432794
0001b0 c4 c6 0b bd a5 bb 9f bd 16 38 ac bd 3c df d6 3d
       -0.034125105 -0.07799462 -0.08409135 0.10491797
0001c0 29 29 bf b9 a2 c0 e2 bd 33 73 9b 3d 49 46 d4 3d
       -0.00036461026 -0.11071898 0.07590332 0.10364968
0001d0 44 24 f1 3d 4a 5a 02 3d d5 e6 02 3d 7d 71 57 3c
       0.11774495 0.031824388 0.03195842 0.013149616
0001e0 df 57 80 3d 3d 05 23 3e da 45 fe bc ec 1d 28 be
       0.0626676 0.15919967 -0.031039167 -0.16417664
0001f0 aa a6 7f 3c 20 d6 61 3e c8 e8 47 bd 09 f7 0c be
       0.015603701 0.22054338 -0.048805982 -0.13766111
000200 f3 20 dd bd b9 19 cc 3d 67 51 a8 3d 76 e3 ce bc
       -0.107973 0.09965844 0.08218651 -0.025254946
000210 51 71 1a 3c 27 00 e5 3d 30 50 98 3c a9 dc 90 bd
       0.009426431 0.1118167 0.018592924 -0.070733376
000220 8d 0e e1 3d ba fe 25 3d 3d 6b 4d be b2 21 02 be
       0.109891035 0.04052613 -0.2006044 -0.12708166
000230 42 7d 77 3c ee 72 1f be c4 24 5d be 19 5d 6a be
       0.015105547 -0.15571186 -0.21596056 -0.22887076
000240 0b 4c 4d 3d 63 73 cb 3c c4 e6 cc bd 46 6d bf bd
       0.05012135 0.024835294 -0.100049525 -0.09347014
000250 1f 46 00 be 57 ac 86 bd 4d 66 62 bd 2e c8 62 3d
       -0.12526749 -0.0657584 -0.055273343 0.055366687
000260 90 96 ae 3d c4 14 6c 3d b5 31 19 bd 25 6c 2c bd
       0.08524811 0.05763699 -0.03740092 -0.042095322
000270 a2 23 ab 3d 8d 1e b6 3d f0 58 9d bd 9c 2c 50 bd
       0.08356406 0.08892546 -0.07682979 -0.050823793
000280 2c 2c e3 3c 0d 2d 83 bc 71 ab 5d 3d b0 a8 63 bd
       0.027731024 -0.016012693 0.054118577 -0.055580795
000290 ed 19 c3 3c d8 b5 8c 3d 8d f6 06 be c0 80 8a bd
       0.023816073 0.068706214 -0.13179989 -0.06762838
0002a0 fd ce fa 3c 3a ed 7a 3d 65 95 79 3d 82 c0 37 3c
       0.030616278 0.061261393 0.06093349 0.011215331
0002b0 aa 48 41 3b 00 dd 92 3d 01 8f 49 3c 13 17 94 3d
       0.0029492774 0.07171059 0.012302161 0.072309636
0002c0 33 7f 94 3c f8 46 49 3d 8c 4e 30 3d f5 61 c3 bd
       0.01812706 0.049139947 0.043043658 -0.09540168
0002d0 ea e5 6a bd a9 a8 93 3c 67 88 9f 3d 6d 74 63 bd
       -0.05734817 0.01802476 0.077896886 -0.055530954
0002e0 03 3b dd bc 71 7b 50 bd 84 ba b9 3d 62 93 14 3d
       -0.027005678 -0.050898973 0.09068778 0.036273368
0002f0 18 34 97 3d d9 4b 02 3e ae a1 74 3d 6b 32 3a bc
       0.07382983 0.12724246 0.059724502 -0.01136456
000300 2a 2f a5 3d 09 80 15 3d 3a 82 88 3d 9e 9a fd bc
       0.080656365 0.036499057 0.06665464 -0.030957516
000310 34 bd d5 3d 04 b9 17 3e 06 a0 25 3d ce c0 ee 3d
       0.10436478 0.14816672 0.040435813 0.11657868
000320 7a 7a 0c bc ea 14 2a bd 72 6b c0 bc 8c cd 8c 3c
       -0.008574123 -0.04152385 -0.023488734 0.017187856
000330 2a c4 3e 3d 53 f0 73 3d 53 20 c6 3d 18 fe 95 bd
       0.046573795 0.059555363 0.09674134 -0.07323855
000340 99 61 44 bd 3c e0 2b 3d c8 4c bc 3c f9 7b 44 3c
       -0.04794464 0.041961893 0.02298583 0.011992448
000350 d7 f2 dd bc ad 96 5c 3c 18 87 c6 bc e0 6b 9d bd
       -0.027093334 0.013463658 -0.02423434 -0.07686591
000360 11 f6 8d 3d 8a 53 2a 3d ce 7d 69 bd 26 08 b4 3d
       0.06931699 0.041583575 -0.057004742 0.08790617
000370 89 9b a6 38 37 1e 60 3d 7d 2f 13 bb 15 0a 80 3b
       7.9444675e-05 0.054716315 -0.0022458725 0.003907452
000380 05 77 a7 bc 18 46 6a 3d fd b3 0a 3e 9c 78 d9 bc
       -0.020442495 0.057195753 0.13545223 -0.026546769
000390 00 59 74 3d 78 1e dc bd 6a 5c 12 3e d0 cf 25 3c
       0.05965519 -0.10747999 0.14293066 0.010120347
0003a0 1f c5 03 3e d3 45 e0 3d 48 2d 71 bc 84 32 7f bc
       0.12868164 0.10950818 -0.014720269 -0.015576009
0003b0 44 2b 26 3c 43 d4 20 bd 0e d0 b4 3b 25 e5 6e 3d
       0.010142151 -0.03926493 0.005517966 0.058323998
0003c0 20 49 db 3d 3a 75 91 bd b4 98 7c bd d4 1c b3 bd
       0.10707307 -0.07102437 -0.061669067 -0.08745733
0003d0 45 b3 e7 bd bf 18 4d bc a3 6e 19 bd 0e b0 c2 bc
       -0.1131349 -0.012518107 -0.037459027 -0.02376559
0003e0 69 65 b5 bd 01 5c 58 be 00 4b 3c be c6 d7 e5 bd
       -0.08857233 -0.21128847 -0.18387985 -0.11222796
0003f0 ea 2d 87 bd ca 30 dd bd 2d 4e 2d bc 22 44 77 3d
       -0.06600554 -0.108003214 -0.010577721 0.06036771

conv2.bias f4 [32]
000000 73 3b 30 bd 29 95 30 3d af 2e 6b bd 5e 21 d2 3b
       -0.043025445 0.043111 -0.057417568 0.006412669
000010 4c 6c 8e bd 39 3b 7f bc 76 5a fa bc 03 43 c6 3c
       -0.0695425 -0.015578085 -0.030560713 0.024201876
000020 79 01 a8 3d 07 32 ba bd 0f a4 95 ba 67 67 f1 bc
       0.08203406 -0.09091573 -0.0011416691 -0.029468251
000030 c7 52 ba bd 98 0f 37 3d 9c 16 cb bc 61 6a b3 3d
       -0.0909782 0.044692606 -0.024791054 0.087605245
000040 f0 42 1f bd 2f 95 bb bc f8 25 9f bb 57 df ee bb
       -0.038882196 -0.022898285 -0.004856821 -0.007289808
000050 4f 68 8d bd cd 56 f6 bd 7c 08 f6 39 ef 3b 94 bc
       -0.06904661 -0.12028275 0.00046927098 -0.018094985
000060 53 c9 5d bc 8a 8c 98 bd 11 74 52 3d 52 ae a4 3c
       -0.013536769 -0.07448681 0.05138022 0.020102654
000070 4a 04 4d bd 90 da 81 3d b7 c5 cd bc b4 22 7b 3d
       -0.05005292 0.063405156 -0.025118692 0.061312392

fc1.weight f4 [128, 800]
000000 8d 8d 04 bc 6b 3c 37 3d 5b ab a8 39 f8 6f 29 3b
       -0.008090389 0.044735353 0.00032171127 0.0025854092
000010 e9 b6 c2 ba 60 68 3a 3d 23 bf 11 bd 00 f1 09 3c
       -0.0014855537 0.045509696 -0.035582673 0.008419275
000020 e4 4d 07 3b a5 95 35 3d 68 bb 54 3d af ef 88 bd
       0.0020645792 0.044332165 0.051936537 -0.06686341
000030 37 4e 44 bc 79 b9 98 3c 55 ee 19 3d 14 f7 80 3d
       -0.0119815385 0.018643128 0.037580807 0.062971264
000040 5e a6 8c bd c7 6f b3 bb 3f 9b 27 3d ce a8 3a 3c
       -0.068676695 -0.0054759714 0.04091954 0.011392785
000050 47 8e 4b 3c 9f 11 8e bc bd 99 ed bc cd 9a f1 3c
       0.012424058 -0.017342387 -0.029003972 0.02949276
000060 ef 62 b4 3a 7a 2a 6d 3c c3 35 2c 3c 3e 7e cd 3b
       0.0013762395 0.014475459 0.010510865 0.0062711528
000070 1e fb 80 bd e1 9c dd bc 6a 96 c6 bc 78 ab 3e bd
       -0.06297897 -0.027052345 -0.024241645 -0.046550244
000080 36 56 c8 bc b7 aa 09 3d fe 2c 3a 3c 0f 3d 00 bd
       -0.024455171 0.033610072 0.011363266 -0.03130823
000090 f7 4b a8 bc 73 b3 0a bc 76 ac 23 3d e1 22 dd 3c
       -0.020544035 -0.008465636 0.039959393 0.02699417
0000a0 8b 86 48 3c d6 8f e0 bc 2b f9 aa bc 7d 14 b8 3c
       0.012239109 -0.027412336 -0.020870766 0.022470707
0000b0 3d b1 72 3b 14 92 1a 3d ec 46 fa 3b b2 fd 9a bc
       0.0037031912 0.037736967 0.007637849 -0.0189198
0000c0 86 de 4a 3b 2d 5d 89 bc 46 43 35 3d 67 e6 50 bc
       0.0030955388 -0.016768062 0.04425361 -0.012750245
0000d0 01 48 6c ba 14 73 0e 3d 37 f2 2e 3d 14 17 3f 3d
       -0.0009013415 0.034777716 0.042711463 0.04665287
0000e0 23 f7 30 b9 5b 46 5d 3a a1 f2 1e bd 35 2a 90 bd
       -0.00016876734 0.0008440965 -0.038805608 -0.070393
0000f0 95 d5 10 bc fd 1d ad 3a ab 53 3b bd 1a 49 92 3c
       -0.008839984 0.001320779 -0.04573409 0.017857123
000100 23 7e a6 3c 06 23 5b bd eb 1e f4 3c 88 42 a2 bb
       0.020323819 -0.053500198 0.0297999 -0.004951779
000110 e9 b9 b9 3b 7b 86 9f 3c f6 38 96 3c 2f a7 bd bb
       0.005667914 0.019473305 0.018337708 -0.005787752
000120 c1 63 42 bc ed b1 6e 3c b6 7e 11 bd d4 6f 18 bc
       -0.0118646035 0.014568788 -0.03552123 -0.009304006
000130 2f 8e c7 3a a1 03 8b ba 21 ce 89 bc 82 ae 48 3c
       0.0015224869 -0.001060594 -0.016821923 0.012248637
000140 d8 0f 06 3b aa 59 93 bb c8 9a 6f 3c d9 5b fd 3b
       0.002045622 -0.004496773 0.014624305 0.0077318964
000150 a0 56 83 bc 4d 74 fe bc 43 f1 8a bc 9b 53 9a 3b
       -0.016032517 -0.031061316 -0.016960746 0.0047096736
000160 dc 85 20 bd 5b d4 50 3c a4 36 81 bd 4e dd be bc
       -0.03919016 0.012745942 -0.0630925 -0.023298886
000170 f5 42 7d 3a ae 81 2d bd 8a 48 f3 3c c6 32 65 3c
       0.00096611615 -0.04236 0.029697675 0.013989156
000180 f1 23 15 bc d0 89 ea 3c c5 4d 64 3c b6 c0 d4 3c
       -0.009102807 0.028630167 0.013934557 0.025970798
000190 2d f4 15 3d 5b e7 b1 3c e7 c5 e4 3b aa a1 fe bc
       0.036609817 0.021716764 0.0069815996 -0.031082947
0001a0 76 a0 8f bc 8b 08 97 bc 07 60 30 bd 71 26 1a bc
       -0.017532568 -0.01843669 -0.04306033 -0.009408579
0001b0 fc 0e 83 bc e5 1e ab 3b 62 3b 12 3c ec 9b 4e 3d
       -0.015998356 0.005222189 0.008925291 0.050441667
0001c0 cf fd a7 3c cb e1 8e 3d db cd 19 3d a8 a3 3c 3d
       0.020506768 0.0697666 0.037549835 0.046054512
0001d0 f0 40 cd bc 00 5e bc bc 62 5a 22 bc 9c e5 6b bd
       -0.025055379 -0.022994041 -0.009909244 -0.05759202
0001e0 50 83 83 3c 54 32 06 3c 24 63 45 3d b6 7b 7a 3d
       0.016053826 0.00819071 0.04819025 0.061153136
0001f0 ac 88 9c 3b 97 ab 9c bc 0a 76 50 bd 9a d6 6e 3c
       0.0047770347 -0.01912479 -0.05089382 0.014577532
000200 c9 bb a4 3c 7d 23 41 3c f5 ca d7 bc c9 49 18 3d
       0.020109074 0.011788246 -0.026341895 0.037179742
000210 98 65 28 bd e6 07 b9 bc ba ab 87 3c fe 76 9c 3b
       -0.041112512 -0.022586774 0.016561378 0.004774927
000220 dc 75 b3 3b ed 56 cb bc 52 52 d9 bc ea 16 00 bd
       0.0054766964 -0.024821723 -0.026528511 -0.031271853
000230 fb 84 69 bd 7a 31 95 bd 99 1c a2 b9 68 3f 32 bb
       -0.057011586 -0.072848275 -0.00030920355 -0.0027198438
000240 34 a6 98 3a 91 ca c8 bc 00 ee 6f 39 15 e5 c7 3c
       0.0011646212 -0.024510654 0.00022881478 0.024401227
000250 46 53 04 3d a1 52 8f 3c 7d 37 02 bd 59 52 0f 3d
       0.03230598 0.017495455 -0.0317912 0.034990642
000260 0e bd fe bb c3 95 8e bb e8 65 c7 3c 3a 34 5e 3c
       -0.007774002 -0.004351349 0.024340585 0.0135622565
000270 c8 43 53 bc d3 65 86 3c 9c b1 28 bc aa 12 af bb
       -0.012894578 0.016405975 -0.010296252 -0.005342801
000280 30 73 1b bd c4 3e 6b bd 55 69 6e bd 83 05 7e bc
       -0.03795165 -0.057432905 -0.05820592 -0.015504244
000290 7d 83 64 bb 74 bf 0c 3c eb 84 82 bd c8 7c a1 3b
       -0.0034868412 0.008590568 -0.06373008 0.004928205
0002a0 3c a3 00 3d ed 49 9b 3c a9 0d 1d bc b1 36 c6 3c
       0.031405672 0.018956149 -0.009585776 0.024196
0002b0 de 42 c4 3c 76 45 d4 3c 64 bc 09 bd 7d 28 03 bd
       0.023957666 0.025912028 -0.03362693 -0.032021035
0002c0 02 82 0a bc a5 19 9c 3c 59 aa 97 3c a3 eb 9a 3d
       -0.008453848 0.019055197 0.018513845 0.075644754
0002d0 bb 44 9b bb 18 a7 9c 3b 0a f3 cf bc 7c 2a 26 3d
       -0.004738418 0.0047806613 -0.025384445 0.04056786
0002e0 8d d9 1c 3d 1b e9 a2 bc 44 8e 54 3c 4e 65 78 3b
       0.03829341 -0.019886544 0.012973372 0.003790218
0002f0 4a c9 8c 3c f5 f5 6a bc b4 63 0a bd 1f a1 0c bd
       0.017185826 -0.014340867 -0.03378649 -0.034333345
000300 e0 19 14 3d e2 28 82 bc 40 7c 2d bc 43 e7 e9 3b
       0.03615749 -0.015888635 -0.010588706 0.0071381642
000310 7d 1a 2b bc 7e 97 13 bd 6f 47 53 bc 30 fc fb bc
       -0.010443327 -0.036033146 -0.012895449 -0.0307599
000320 22 85 4e bc ff 11 47 bd 0b 2c 41 bd bf 64 16 bd
       -0.0126049835 -0.048601147 -0.047161143 -0.036717173
000330 97 b3 23 bd 44 34 88 bc fe 53 b3 bc 8e 91 36 3c
       -0.039966192 -0.016626485 -0.021890637 0.011143101
000340 af d1 90 bb 06 cc bd bc 0c ff d8 3c 95 5c fe 3b
       -0.0044195275 -0.023168575 0.026488803 0.0077625015
000350 9f 1a 15 bc 2d cd 2f bd 45 57 3a bd b2 82 19 bd
       -0.009100585 -0.04292028 -0.045493383 -0.037478156
000360 46 62 5a bc 80 68 2d bd cf 41 00 bd 18 11 3f 3d
       -0.013329094 -0.042335987 -0.03131276 0.04664716
000370 fc 30 db 3c ff 7d 83 3c 76 e1 2b bc 52 ab 25 bd
       0.026756756 0.01605129 -0.010490766 -0.040446587
000380 7d 83 1c 3d 73 ba 54 bd 94 6c 26 bc f0 7b 8e 3c
       0.038211334 -0.051935624 -0.010157723 0.017393082
000390 88 9e cd 3c f8 67 4f 3d 49 02 ab 3c f8 f2 f1 3c
       0.025100008 0.05063626 0.020875113 0.029534802
0003a0 29 91 ba bb e5 e8 8b bc 30 42 2c bd 8a 24 14 bd
       -0.005693574 -0.017078826 -0.04205531 -0.03616766
0003b0 dd 9f 8c 3b db f8 d5 3c 8b 9e 3a 3b e7 79 1e 3d
       0.004291518 0.02611964 0.0028475847 0.038690474
0003c0 d0 e7 cf bb fd c4 d1 3c 8f c8 44 3c 4a 4f 2a 3d
       -0.006344773 0.025606627 0.0120107075 0.041579522
0003d0 83 5b e3 bc 4f 4f 09 bd 01 51 34 bd b9 4a 4a 3d
       -0.027753597 -0.0335229 -0.044022564 0.049387667
0003e0 6f 38 44 ba d0 3f f0 bc 71 0a c5 3c cf fd 1b 3d
       -0.0007485216 -0.029327303 0.02405283 0.038083848
0003f0 ed 71 1d 3a 92 ab 13 bd 62 a2 f5 bc d5 97 41 bd
       0.0006006051 -0.036052294 -0.029984657 -0.04726394

fc1.bias f4 [128]
000000 bc 8f ef 3b 8f 41 ec bb a0 64 de 3c 13 59 06 3d
       0.0073108356 -0.0072099636 0.027147591 0.03279979
000010 ff 80 12 bb 14 66 d6 3c 32 8e 16 bd 50 78 f0 3c
       -0.002235472 0.026171722 -0.0367567 0.029354244
000020 5d c7 a9 bc 2e 03 a3 bc c7 3f e5 ba 33 ee 22 3c
       -0.020724947 -0.019898977 -0.0017490321 0.009944486
000030 0f 8a ac bc c3 4f 12 3d a3 4b 22 bd 3e fb 16 bd
       -0.021061925 0.035720598 -0.039622914 -0.036860697
000040 7c 66 37 bc 80 fe c4 bc 07 4f 1f 3c 34 64 83 3c
       -0.011193868 -0.024047136 0.009723431 0.016038992
000050 18 6c 1a 3d 74 a8 00 3d 40 88 56 3c 56 57 ff 3c
       0.037700742 0.03141065 0.013094008 0.031169575
000060 ec c7 9d bc 62 86 6c bb 2e ef b4 3c da 8f bc 3b
       -0.01926037 -0.003609084 0.022086706 0.005754453
000070 e4 2c 4d 3b 29 e9 2a 3c 5a f7 fd 3c 2b 2b 25 3d
       0.0031307274 0.010431566 0.031001735 0.04032437
000080 5d 26 eb 3c d5 d0 3c bc b3 1d 2a bc d1 9a 5d 3c
       0.028704816 -0.011524399 -0.010383057 0.013525681
000090 5c 5a 3f 3d c6 8b 8c 3a 42 10 1d bc d1 b7 97 bc
       0.046717033 0.0010722808 -0.009586396 -0.018520268
0000a0 49 f2 95 3c a6 a4 39 3d 18 d2 05 3d 4d fa f4 bb
       0.018304007 0.045323037 0.032671064 -0.0074761272
0000b0 cd a4 95 bb 2a c1 23 3d fb 0a 54 bc 30 a4 ef bb
       -0.004566765 0.039979137 -0.012942071 -0.007313274
0000c0 16 9d 3f 3b ff fb dc 3b 96 cd f2 bc c3 29 3c bd
       0.0029237918 0.0067439075 -0.029639047 -0.045938265
0000d0 84 33 df bb 4e 86 07 bd 68 f3 ac bb e3 9c 8f bc
       -0.006811561 -0.033087067 -0.0052780397 -0.017530864
0000e0 27 c8 5d 3c 0f b3 c4 bc 9b 4a 76 3c de 31 fe 3c
       0.01353649 -0.024011163 0.015032436 0.031029638
0000f0 5a b1 34 3d e1 45 cb bc 16 f8 0b 3d 7b f9 fa 3c
       0.044114448 -0.024813594 0.03417214 0.03063654
000100 bd a1 4d 3c 35 8d 98 ba 6a 61 0c 3b ea f6 04 3b
       0.012550768 -0.0011638763 0.0021420368 0.0020288774
000110 8e 50 0a bd 06 6d 35 3c 82 e2 78 bc 89 a4 2d 3c
       -0.03376823 0.0110733565 -0.015190722 0.01059831
000120 d0 43 bd 3c f2 3b ac 3c e6 f5 1d bd b3 fe a1 3c
       0.023103625 0.021024678 -0.038564585 0.01977477
000130 f9 64 8f bb 1f 1f 9c bc a6 df 60 3b f6 1a d5 bc
       -0.0043760506 -0.019057808 0.0034312992 -0.026013833
000140 74 6b 27 bb 0f 9d 23 3d 34 32 df bc a5 a3 bf ba
       -0.0025546225 0.039944705 -0.027245618 -0.0014620913
000150 0b c0 74 3d ab d3 9a 3b 1a 68 1a bb 34 d8 8d bc
       0.05975346 0.00472494 -0.0023560585 -0.017315008
000160 dc 3c 1f bc fb 03 26 3c 96 40 ff 3c 8c a6 8d 3c
       -0.0097191 0.010132785 0.031158727 0.01729133
000170 c2 00 e8 3b cf 8a 40 3d cd 4b 03 bd 9c fc 43 3d
       0.0070801685 0.04700738 -0.03205471 0.04784833
000180 46 90 03 bb da ba a1 3c e7 a2 c3 bc 95 ea 47 bc
       -0.0020075007 0.019742418 -0.023881389 -0.012201925
000190 7d 01 97 3c 54 55 81 bc 38 38 d5 3c ea 02 c6 3c
       0.018433327 -0.015787758 0.026027784 0.024171311
0001a0 1b b1 21 bc e3 57 2c bc 66 f2 05 bd 3d c3 db 39
       -0.009868885 -0.010519001 -0.032701872 0.000419164
0001b0 39 d0 28 3c 8c 2a ef bc 1c 94 ca 3c 0c e9 0e 3c
       0.01030355 -0.029195093 0.024728827 0.008722555
0001c0 44 cf 9b 3c 12 db a3 bc d7 60 d5 bc 8f 15 a9 bc
       0.01901973 -0.020001922 -0.026047153 -0.020640163
0001d0 90 16 f3 3c 89 63 ef bb 21 ca a5 3b 95 b4 43 3c
       0.029673845 -0.0073055667 0.005059496 0.01194491
0001e0 db 0c fb 3c 13 db 3f 3c e2 62 95 bc 88 01 25 bb
       0.030645778 0.011709946 -0.018235628 -0.0025177915
0001f0 4a 53 53 3c 73 39 d9 bc 7e 5d d2 bc 57 48 af 3c
       0.012898276 -0.026516652 -0.025679346 0.021396799

fc2.weight f4 [10, 128]
000000 50 96 b8 bd 24 57 57 3d ef da 96 3d 95 69 8e 3d
       -0.09013045 0.05257334 0.07365977 0.06953732
000010 c9 fd bb 3b f5 5b 52 3d 47 7a b2 bd 18 ca 9b bc
       0.0057370407 0.05135723 -0.08714729 -0.019017264
000020 dd 1d bb bd af 32 8e 3d 42 36 99 bd 6f f0 80 bd
       -0.09136555 0.06943261 -0.07481052 -0.06295859
000030 92 dc c8 3d 04 8c 19 3d 23 1d 07 be 2a 81 a3 bd
       0.098076954 0.037487045 -0.13194709 -0.079836205
000040 81 c0 b5 bd bf 10 af 3d 07 6f c4 bd d7 af 2e 3d
       -0.08874608 0.08548116 -0.09591489 0.042648163
000050 5b 79 e1 3d 10 c9 13 be 32 b8 ab bd b4 b7 8b bc
       0.11009475 -0.14432168 -0.08384742 -0.01705537
000060 81 eb 64 3c ba 10 b0 bd cb 8e 3a bd 3c 48 90 3d
       0.013972164 -0.0859694 -0.045546334 0.070450276
000070 25 e6 c7 3d 1b 43 29 3c 6d 5c 73 3d cd 5a ba bd
       0.097606935 0.010330941 0.059414316 -0.0909935
000080 6e 0b ac bc 1c 8f 4b 3d d4 3e 2a bd 5a f8 04 3e
       -0.021001544 0.049697027 -0.041563824 0.12985364
000090 9a df b8 3d bb c1 18 3d cd 72 09 3c a4 47 96 bd
       0.090270236 0.03729413 0.008389187 -0.07337883
0000a0 5e 89 ef 3d d6 db 4d 3c 29 59 b0 bc ed 8f 7c bc
       0.116961226 0.01256462 -0.02152689 -0.015415174
0000b0 2f cb 04 3d 17 eb db bd e7 65 10 be 37 0a 34 bd
       0.032420333 -0.10738199 -0.14101373 -0.043955054
0000c0 fe d1 02 bd 0e e6 35 3d 51 a8 8b bc e1 a8 a9 bc
       -0.031938545 0.04440885 -0.017048033 -0.02071041
0000d0 48 40 34 bd 61 a8 38 bd 5f 73 0b bb ca f1 47 bd
       -0.044006616 -0.045082454 -0.0021278483 -0.048814572
0000e0 a1 2e 2c bd a7 15 a8 3d 5c b9 ab 3d c9 aa 9c 3d
       -0.042036656 0.08207255 0.08384964 0.07649762
0000f0 a6 4f fe 3d 76 ad 0b be 72 47 a2 3d 7d dc b4 3d
       0.124175355 -0.13640389 0.07923783 0.08831117
000100 e1 16 d0 3d 6b ed b0 bd 5a da 5c 3b 45 34 15 3d
       0.10160614 -0.08639034 0.0033699484 0.0364268
000110 d9 08 8b bd b5 63 76 3d b9 47 9e 3d b2 09 7b 3d
       -0.06788797 0.06015368 0.07728524 0.061288543
000120 09 93 dd 3c e0 83 2d be 97 a6 58 bc 7d a6 80 bd
       0.02704765 -0.16944838 -0.013223312 -0.06281755
000130 b6 fe 28 3e 40 92 b2 3c cb d2 e7 bd 2b 95 dd 3a
       0.16503415 0.021798253 -0.113195024 0.0016905417
000140 c5 aa d9 bd a4 ed ab bc 4d e7 e9 3c da fd 58 3d
       -0.10628275 -0.02098734 0.028552676 0.052976467
000150 fb c8 36 bd 8e ce 06 3e b8 08 fd bc 9f ad 03 3e
       -0.044625264 0.13164732 -0.030887946 0.128592
000160 f8 3d a4 bd 97 84 81 3d ee 6d 87 3d 56 9f 76 3c
       -0.08019632 0.06324118 0.06612764 0.015052637
000170 70 5e 71 bd 25 b1 47 bd 71 37 b9 bc 54 29 36 3d
       -0.058927953 -0.048752923 -0.022609444 0.044473007
000180 f6 66 2a bd 87 46 c8 bc 5b 02 80 bd 02 4f 87 3d
       -0.041602097 -0.024447693 -0.06250449 0.066068664
000190 75 65 5d 3d 5d ee 9b 3d be 00 26 3d f2 9a bb 3c
       0.054051835 0.076138236 0.04052805 0.022901032
0001a0 d5 a1 dd bd 25 89 57 bc ad 00 37 bb b4 7a 62 bc
       -0.10821883 -0.013155256 -0.0027923987 -0.0138232
0001b0 5c 9d d5 ba 68 c1 9b 3d 37 84 ce 3d f7 8e 28 3e
       -0.0016297507 0.07605249 0.10083812 0.16460787
0001c0 2a 65 8b bc e0 44 af bd c4 14 39 bd da ad d9 bc
       -0.017016012 -0.08558059 -0.04518582 -0.026572157
0001d0 70 89 94 3d 0a 2c cd 3d 4e d5 f9 bd 6b fe 8e bd
       0.072527766 0.100181654 -0.12198888 -0.0698212
0001e0 1d 00 17 be 20 fd 79 bd 03 ef 9b bd 49 0b db 3d
       -0.14746137 -0.061032414 -0.07613947 0.10695512
0001f0 1e a4 e3 bd aa 25 73 bd de 91 95 bd e5 ad bf 3c
       -0.11115287 -0.05936209 -0.073032126 0.023398349
000200 47 52 a4 bd 9f 9c c1 3d 70 a6 b1 3d 4a 27 90 bd
       -0.08023506 0.09453701 0.086743236 -0.07038744
000210 9d b0 99 3d d6 f6 2b 3c 56 07 81 3d 17 8b 9e 3c
       0.075043894 0.010495862 0.06300227 0.019353433
000220 5e 3f 09 be b3 77 af 3c 21 2e ce bd 52 42 dc bd
       -0.13403079 0.021419382 -0.10067392 -0.10754837
000230 62 33 33 be c2 60 ab 3d 96 d1 cd bd b6 cb 22 bd
       -0.1750007 0.083680645 -0.10049741 -0.039745055
000240 e8 09 8c bc 9e f7 00 be be 23 09 be 3b e2 da bd
       -0.017094567 -0.12594458 -0.13392541 -0.10687681
000250 3c f0 bd 3d 49 65 bf 3d 0d ea 18 3d 0f 95 09 3d
       0.09274337 0.093454905 0.037332583 0.03358942
000260 db c4 e6 bd 30 ed 94 3d 75 ce 51 bd 3f d2 85 3d
       -0.11268016 0.072718024 -0.051222283 0.06534242
000270 58 3c 4a bd 9c c5 4d ba 2a 5d cb 3d 50 eb c7 3d
       -0.049373955 -0.00078495755 0.09929879 0.09761679
000280 fe 82 1d 3d d1 f6 04 3d f2 6e 77 3c 4c 65 ef 3c
       0.038455002 0.032461945 0.015102135 0.029223107
000290 9e 1f 93 3d a6 76 ae bd 56 26 80 bd 44 03 7b bc
       0.07183765 -0.08518724 -0.06257312 -0.015320603
0002a0 dc 55 00 be a7 1f c7 3d dc 22 8d 3d d7 5b ef 3d
       -0.12532753 0.09722834 0.068914145 0.11687439
0002b0 b4 47 3d bd 52 b3 1d 3e e3 1a 7f 3d 72 51 14 bc
       -0.04621096 0.15400437 0.0622815 -0.009052621
0002c0 11 95 de 3c 46 61 c0 bd 21 20 44 3d 4c 1b d1 bd
       0.02717069 -0.093935534 0.047882203 -0.102102846
0002d0 f8 c2 e3 bc 32 97 e4 bd 07 b4 51 bd a0 c9 62 3b
       -0.02780293 -0.11161651 -0.051197078 0.003460504
0002e0 3f c3 94 3d 33 1c 1b bd eb 36 cd 3c c1 64 01 3c
       0.07263803 -0.03786869 0.025050601 0.007897557
0002f0 fa eb 81 bd 59 47 2e 3d bc e7 af bd c9 2f 51 3d
       -0.06343837 0.04254851 -0.08589122 0.051070962
000300 7d 57 c2 3d 5b f4 79 bd 01 a2 cc 3c 93 25 87 3d
       0.09489343 -0.06102405 0.024979593 0.065989636
000310 8b ec 9d bd 6e f9 36 bc 77 35 5e 3d 0b d0 a6 bd
       -0.077111326 -0.011167867 0.054250207 -0.0814515
000320 ba 2b 34 3c 72 cf e2 bc ad 01 b0 bd 6d 53 c0 bb
       0.010996753 -0.027686808 -0.0859407 -0.00586932
000330 77 53 37 3a e9 f8 1a bd 77 04 f9 3d bc d3 3d bc
       0.0006993333 -0.037835035 0.12159055 -0.011586126
000340 92 2e 84 bd 8b af 95 bc b6 c7 35 3d 8d 89 d5 bd
       -0.06454195 -0.018272182 0.044379912 -0.10426626
000350 ec 66 24 3e 00 f8 90 3d 90 83 81 bc 39 a0 df bc
       0.16054887 0.07078552 -0.015809804 -0.02729808
000360 c3 70 e7 bc ed 69 c0 ba e3 f0 1d bd a1 7c 2b bb
       -0.028252011 -0.0014680006 -0.038559806 -0.0026166814
000370 9e bb 1c be 93 4f 85 3d 0c 69 dd bc df 83 be 3d
       -0.15305945 0.06509318 -0.02702763 0.09302496
000380 48 c9 fb bd 51 e6 26 3d a7 09 db b9 7d 24 be 3d
       -0.12294251 0.04074699 -0.00041778127 0.09284303
000390 39 18 22 bd c4 4d c7 bc 94 c9 b0 3d 6b 09 4a 3d
       -0.03957388 -0.024329074 0.08632198 0.049325388
0003a0 f5 9b e6 3b af e5 6f bd 0d 5e 9e bd b6 c1 0b 3e
       0.0070376345 -0.058568653 -0.077327825 0.13648114
0003b0 7d 8f 66 bc 05 bc d6 bc 9d 4c 1a 3d 6e 36 92 3d
       -0.014072296 -0.026212702 0.03767072 0.07139288
0003c0 31 7f b1 3d 11 e9 14 bd e7 ee a2 bd 6c 02 d7 3d
       0.08666838 -0.036355082 -0.07955723 0.10498509
0003d0 8c 5a 35 bd 68 48 7a 3d df c1 62 3b 63 81 97 bd
       -0.044275805 0.06110421 0.003460042 -0.073977254
0003e0 bb b8 0c 3e c9 89 57 bd fb 6c bb 3d cd 2c c3 bc
       0.13742344 -0.052621637 0.09151646 -0.023825074
0003f0 a0 2a 9f 3d de ed d3 bd 51 53 c9 bb 40 c9 9f bc
       0.07771802 -0.10348104 -0.0061439653 -0.019505143

fc2.bias f4 [10]
000000 32 34 5a 3d c4 30 26 bd c0 15 68 bd c8 77 6c 3d
       0.053272434 -0.04057385 -0.056661367 0.05773142
000010 b9 16 57 bd a0 fb 6e bc 9d 3d f3 bc 16 e2 93 bd
       -0.052511904 -0.014586359 -0.029692465 -0.07220857
000020 6f ed 8d bd 76 ff 93 3d
       -0.069300525 0.0722646
