models/trained/ConvNet4_2.pt (torch, 441826 bytes, 14 tensors)

conv1.weight f4 [16, 1, 7, 7]
0.05681138 -0.066931486 -0.039177384 0.08104568 -0.06548533 0.039257888 -0.105049685 0.11338774
0.077338204 0.07121353 -0.10559452 -0.06113067 0.03325568 -0.12511334 0.0061822548 0.063397855
0.14919123 -0.048886105 -0.19571708 -0.2140237 -0.13850416 -0.025368456 0.20458513 0.11311986
0.0312687 -0.11653444 -0.18739647 0.05597707 -0.04811883 0.13109244 0.13026641 -0.013849192
-0.09825321 0.07474574 -0.089737244 0.16393094 0.12689644 0.1519399 -0.02933082 0.02333136
0.10137038 -0.01607839 -0.024358094 0.05629839 -0.021946944 0.06451335 -0.028160354 -0.08463863
-0.048649594 -0.0060213017 0.09936292 0.008231798 0.15788251 0.061074026 0.11617892 0.11798086
-0.024471894 -0.119005024 -0.03680646 0.0893034 0.13396396 -0.0181209 0.07530149 -0.043168146
-0.10992383 -0.13800724 0.06153834 -0.055520542 -0.10702724 -0.13601474 -0.015334406 0.0018938248
-0.11748415 -0.2887798 -0.24687618 -0.03454565 -0.06851065 0.13186629 0.026883703 -0.010681602
-0.238588 -0.2144965 -0.09824921 -0.12721355 0.08585122 -0.019667046 0.16195048 0.099529065
0.09922556 -0.03883725 0.060788862 0.12010635 0.07872918 0.20715457 0.21847646 0.18781802
0.13541844 0.13003539 -0.12095759 -0.08362509 0.0074842954 -0.14847837 -0.1889049 -0.21360098
-0.05797699 0.061388124 0.04861462 0.04273052 -0.16679521 -0.18118215 -0.13409041 0.080470905
0.031105002 0.02395524 -0.105523825 -0.10892891 -0.27272084 -0.027897963 -0.02437559 0.17434986
-0.022204462 -0.06543482 -0.23526816 -0.052165587 -0.0636888 0.15213639 0.008170515 -0.11370097
-0.23015438 -0.16524403 -0.05456532 -0.026914474 0.016070612 0.097986035 0.17039102 0.02541372
0.018985562 0.082288995 0.15279041 -0.0253642 0.21275337 0.13853554 0.140097 0.093971625
-0.022922251 0.14537877 0.13652767 0.30710706 0.12417345 0.1001867 -0.06469675 0.16001603
-0.11814085 -0.1294877 0.1919192 0.08665383 -0.0659326 0.02702905 0.1737181 0.08782515
-0.023076475 0.10306736 -0.09020598 -0.022930205 0.07967199 -0.05424872 0.17482668 0.11247173
0.2094506 -0.047734056 -0.059773788 0.020780511 -0.0067552384 0.049024053 -0.031767305 0.14077698
0.07766623 -0.020218112 -0.07996465 -0.12566501 -0.07244135 0.10063229 0.10929301 -0.08143705
-0.09916819 -0.14463489 -0.044723492 0.17403603 0.13059293 -0.0016402323 -0.0015445097 0.09371066
-0.05747391 0.109419785 0.13049582 -0.08718539 -0.033472747 0.11104276 -0.09249142 -0.09196192
0.14776659 -0.0016264672 0.071111634 0.19130342 0.0413665 -0.0066059497 0.023595205 0.08223484
0.024565669 0.076168954 0.13699134 0.073847376 -0.052710198 0.071891025 0.03217867 0.031805236
0.15763274 -0.008765413 -0.05998288 0.05309549 0.061733454 0.018576453 0.1367976 -0.017981598
0.050056532 0.118859276 -0.048210435 0.016685266 0.16210291 0.059940837 -0.031853646 0.04377843
-0.038388535 0.15624684 0.060884718 0.15030843 0.048978083 -0.16457695 0.06196582 0.09665586
-0.022857381 0.048134893 -0.13082813 0.07229286 -0.1527637 0.14462562 0.17795603 0.14824003
0.063698985 0.126674 0.039119 0.06474758 -0.06897861 0.10531046 -0.1121904 -0.11289114
00000000: 0db3 683d 6013 89bd 7778 20bd 47fb a53d
00000010: 2c1d 86bd e1cc 203d 4a24 d7bd d537 e83d
00000020: 7e63 9e3d 66d8 913d f141 d8bd 2764 7abd
00000030: 1c37 083d b61d 00be 8394 ca3b bcd6 813d
00000040: 96c5 183e cc3c 48bd 0f6a 48be 0729 5bbe
00000050: 09d4 0dbe 82d1 cfbc c47e 513e 63ab e73d
00000060: 9c13 003d 9ca9 eebd dce4 3fbe 3648 653d
00000070: 4018 45bd 193d 063e 8f64 053e b9e7 62bc
00000080: fb38 c9bd 4b14 993d 29c8 b7bd 83dd 273e
00000090: 24f1 013e 2296 1b3e 3047 f0bc 6921 bf3c
000000a0: 469b cf3d d4b6 83bc a08a c7bc 2499 663d
000000b0: 14ca b3bc 931f 843d 8bb0 e6bc 0557 adbd
000000c0: cc44 47bd 574e c5bb c97e cb3d aade 063c
000000d0: f4ab 213e c228 7a3d 37ef ed3d f39f f13d
000000e0: 4879 c8bc e8b8 f3bd 5fc2 16bd b3e4 b63d
000000f0: d92d 093e 4872 94bc ab37 9a3d 15d1 30bd
00000100: bf1f e1bd c551 0dbe a00f 7c3d 8269 63bd
00000110: 1931 dbbd 7347 0bbe 293d 7bbc 373a f83a
00000120: 889b f0bd f2da 93be 1ccd 7cbe bd7f 0dbd
00000130: 504f 8cbd f507 073e 363b dc3c e301 2fbc
00000140: 6a50 74be f8a4 5bbe e236 c9bd 4544 02be
00000150: c4d2 af3d c91c a1bc 59d6 253e e5d5 cb3d
00000160: c536 cb3d cf13 1fbd befd 783d 51fa f53d
00000170: c43c a13d 5420 543e 4bb8 5f3e 5e53 403e
00000180: 22ab 0a3e ff27 053e 9db8 f7bd a243 abbd
00000190: d23e f53b b70a 18be 4970 41be 37ba 5abe
000001a0: 4879 6dbd 1d72 7b3d 2020 473d 3306 2f3d
000001b0: 5dcc 2abe d087 39be ff4e 09be eecd a43d
000001c0: ebcf fe3c c83d c43c e01c d8bd 1f16 dfbd
000001d0: 11a2 8bbe 458a e4bc 51af c7bc c588 323e
000001e0: 22e6 b5bc b102 86bd 23ea 70be 95ab 55bd
000001f0: 466f 82bd a4c9 1b3e a0dd 053c 0edc e8bd
00000200: 97ad 6bbe bb35 29be e37f 5fbd be7b dcbc
00000210: 84a6 833c e7ac c83d fc7a 2e3e 6f30 d03c
00000220: 9c87 9b3c 2287 a83d 1775 1c3e 95c8 cfbc
00000230: 05dc 593e 43dc 0d3e 9775 0f3e 3274 c03d
00000240: 72c7 bbbc 2cde 143e e9cd 0b3e 233d 9d3e
00000250: a64e fe3d af2e cd3d bb7f 84bd 3edb 233e
00000260: d4f3 f1bd 6c98 04be 7786 443e 9077 b13d
00000270: ac07 87bd 076c dd3c 28e3 313e acdd b33d
00000280: e00a bdbc fb14 d33d eabd b8bd 20d8 bbbc
00000290: 112b a33d e833 5ebd c405 333e 9457 e63d
000002a0: 387a 563e c984 43bd 5cd5 74bd e43b aa3c
000002b0: 0c5b ddbb 72cd 483d 6f1e 02bd d727 103e
000002c0: 790f 9f3d 74a0 a5bc 82c4 a3bd 54ae 00be
000002d0: 215c 94bd 4d18 ce3d 03d5 df3d 78c8 a6bd
000002e0: b118 cbbd 2b1b 14be fb2f 37bd 8036 323e
000002f0: 27ba 053e 10fd d6ba 2571 caba 60eb bf3d
00000300: c369 6bbd 7b17 e03d b2a0 053e 418e b2bd
00000310: b81a 09bd 636a e33d 246c bdbd 8856 bcbd
00000320: 2050 173e 2f2f d5ba faa2 913d 0be5 433e
00000330: eb6f 293d b976 d8bb bb4a c13c bd6a a83d
00000340: f13d c93c 78fe 9b3d 7547 0c3e 4b3d 973d
00000350: a6e6 57bd 9a3b 933d c8cd 033d 3546 023d
00000360: 7a6a 213e cf9c 0fbc 9cb0 75bd a87a 593d
00000370: 38dc 7c3d a52d 983c ac14 0c3e 254e 93bc
00000380: 1408 4d3d 7e6c f33d 4e78 45bd 8aaf 883c
00000390: 4efe 253e 8684 753d f878 02bd 0351 333d
000003a0: 4c3d 1dbd 2cff 1f3e 4162 793d 74ea 193e
000003b0: 3e9d 483d dc86 28be dfcf 7d3d 82f3 c53d
000003c0: 673f bbbc 1829 453d cff7 05be 470e 943d
000003d0: 166e 1cbe bd18 143e 1b3a 363e 3ccc 173e
000003e0: 9d74 823d d4b6 013e 3f3b 203d 619a 843d
000003f0: a844 8dbd 03ad d73d 15c4 e5bd 7833 e7bd

conv1.bias f4 [16]
0.042576663 0.119908445 0.18502763 0.08716682 -0.07885065 0.117411256 -0.018418511 0.023365878
-0.052140348 0.12059961 -0.0013710755 0.13676284 0.13185927 0.01286957 -0.10590427 0.0018556931
00000000: de64 2e3d 8f92 f53d e277 3d3e 8584 b23d
00000010: 737c a1bd 5075 f03d 6be2 96bc cc69 bf3c
00000020: 1e91 55bd eefc f63d a9b5 b3ba 8f0b 0c3e
00000030: 1e06 073e e4da 523c 57e4 d8bd ba3a f33a

conv2.weight f4 [32, 16, 5, 5]
0.02212007 -0.018524801 -0.051218327 -0.006692882 0.036852088 0.030070111 -0.016033867 -0.06348718
-0.02997063 0.065625526 0.03653108 -0.013452829 -0.06833745 0.0087559 0.084429264 0.022962507
-0.06897257 -0.03423471 0.0636433 0.078258365 0.014205212 -0.035472576 0.011588412 0.085034676
0.061440486 -0.012189944 -0.028935313 -0.056594506 -0.09045901 -0.0832357 -0.038803365 -0.06729999
-0.063982494 -0.059766825 -0.026552055 -0.09748934 -0.07781174 -0.07154104 -0.048009288 0.012504155
-0.078260124 -0.06153159 -0.0620078 7.565146e-05 0.048051406 -0.05561034 -0.056973502 -0.029306352
0.023007829 0.044137675 0.054343726 0.059186354 0.008606336 -0.048125267 -0.04486365 0.064713955
0.06560248 0.005699815 -0.058988526 -0.008805616 0.0997427 0.085915044 -0.036806647 -0.06416894
-0.00801549 0.04110371 0.031499587 -0.04273148 -0.054528832 0.031479992 0.03880225 0.015966123
0.008441977 -0.008734056 0.04875788 0.012374466 0.046723295 0.044733047 -0.049021557 -0.013656531
0.05545624 0.034125462 0.032733757 -5.3692547e-05 0.009082663 -0.0039532934 -0.0070718178 0.009756224
0.017313026 -0.015431754 0.012566077 -0.009019846 0.020854224 -0.016173624 -0.0003804204 -0.013366757
0.0028285924 0.03356937 -0.013435405 -0.016411616 0.034338035 0.009457569 -0.004630509 0.012851808
0.029524887 -0.0054609748 0.032804932 -0.011387939 0.04096663 -0.021748485 0.029662816 0.053907637
0.030057134 -0.025406172 -0.04586738 0.04090863 0.0057504848 -0.012948049 0.01622754 -0.039989647
0.015106391 0.044561792 -0.007425854 -0.02852507 -0.03327304 0.009550269 -0.012632328 -0.051680803
-0.026690904 -0.02049307 -0.005959447 -0.014099219 -0.02793208 0.0011792425 -0.028522518 -0.02168655
0.008290159 -0.017295247 -0.011591371 0.012214314 -0.019361364 -0.0005287852 -0.0019422175 0.02129293
0.007060248 0.023774331 -0.012739834 0.015482841 -0.011588092 0.025838455 -0.026679927 0.0076276227
0.007040305 0.012426467 -0.02129705 -0.04707655 -0.006491783 0.010832512 0.017620837 -0.0192726
-0.0014131459 -0.018834088 -0.02791504 -0.029044947 -0.009367613 -0.02387041 -0.015172722 -0.042533312
-0.011038446 -0.021978239 -0.007448658 -0.03771494 -0.021727707 -0.015434043 -0.008611547 0.037891198
0.06685805 0.038242538 -0.08333314 -0.07067978 0.045779195 0.09014832 -0.029434696 -0.060566936
-0.040493365 0.08308919 0.028307617 -0.025600538 -0.06901168 -0.032381143 0.060680613 0.019350253
-0.03520525 -0.05838768 -0.006187082 0.007661711 -0.0049592955 -0.04513493 -0.036482636 0.041250825
0.046855416 0.029363252 0.04391774 0.011611914 -0.056717493 0.0034956941 0.050585452 0.06819034
0.034125924 -0.05853954 0.0078005563 0.01573062 0.005761608 0.008972516 -0.02609214 0.021044826
-0.00069580064 0.016096015 0.0014237636 -0.0068024183 -0.015680157 0.01477068 0.045945026 0.059128363
0.0339627 -0.07650415 -0.059833527 -0.018714767 0.027367469 0.03361929 -0.046797402 0.00016014808
-0.028041612 0.0021984864 0.03102062 -0.008969693 0.0014365757 0.022817316 0.0378644 -0.0044568493
-0.0034440893 0.012888555 -0.004723771 0.006593297 -0.023635373 -0.03603275 0.021848312 -0.029770102
-0.0015228539 -0.028853634 -0.023430277 0.0040320796 0.0036837575 -0.012827821 -0.06314556 -0.019187137
00000000: 2635 b53c 53c1 97bc 4fca 51bd f74f dbbb
00000010: 37f2 163d 9855 f63c 7559 83bc 9105 82bd
00000020: f784 f5bc ad66 863d 9da1 153d 4169 5cbc
00000030: 81f4 8bbd e874 0f3c 40e9 ac3d de1b bc3c
00000040: 7e41 8dbd b239 0cbd 6b57 823d ec45 a03d
00000050: fabc 683c b14b 11bd 53dd 3d3c a926 ae3d
00000060: 05a9 7b3d 55b8 47bc c009 edbc a4cf 67bd
00000070: 9342 b9bd 7b77 aabd 47f0 1ebd 94d4 89bd
00000080: 4109 83bd 0fce 74bd b283 d9bc 7ea8 c7bd
00000090: c35b 9fbd 1c84 92bd 63a5 44bd 3ade 4c3c
000000a0: d846 a0bd 8c08 7cbd e4fb 7dbd 11a7 9e38
000000b0: 8dd1 443d abc7 63bd 0c5d 69bd e013 f0bc
000000c0: ea7a bc3c b5c9 343d 8797 5e3d 646d 723d
000000d0: 9701 0d3c 001f 45bd f2c2 37bd c088 843d
000000e0: 985a 863d 84c5 ba3b f49d 71bd 6e45 10bc
000000f0: e745 cc3d 3af4 af3d 91c2 16bd 016b 83bd
00000100: 6753 03bc 5d5c 283d b605 013d 3407 2fbd
00000110: a059 5fbd 2af1 003d 1cef 1e3d 63cb 823c
00000120: 3850 0a3c 4919 0fbc 58b6 473d 46be 4a3c
00000130: ed60 3f3d 003a 373d d4ca 48bd a5bf 5fbc
00000140: 1526 633d 24c7 0b3d d513 063d ef33 61b8
00000150: 73cf 143c a18a 81bb b5ba e7bb 92d8 1f3c
00000160: 0cd4 8d3c 78d5 7cbc f2e1 4d3c fac7 13bc
00000170: 7ad6 aa3c 8c7e 84bc 2973 c7b9 3e00 5bbc
00000180: e85f 393b 0980 093d 2c20 5cbc a771 86bc
00000190: 0aa6 0c3d ebf3 1a3c 86bb 97bb 6490 523c
000001a0: 2dde f13c faf1 b2bb 775e 063d 7a94 3abc
000001b0: a0cc 273d e129 b2bc 6fff f23c 41ce 5c3d
000001c0: 613a f63c 9b20 d0bc 6fdf 3bbd cf8f 273d
000001d0: 906e bc3b 0e24 54bc 9eef 843c 2fcc 23bd
000001e0: cc80 773c 6d86 363d 9454 f3bb 68ad e9bc
000001f0: 5049 08bd bb78 1c3c d3f7 4ebc 40af 53bd
00000200: e2a6 dabc 15e1 a7bc 7747 c3bb 6900 67bc
00000210: d1d1 e4bc d090 9a3a 0ea8 e9bc fea7 b1bc
00000220: 72d3 073c c3ae 8dbc bce9 3dbc 8c1e 483c
00000230: b99b 9ebc 2d9e 0aba 0192 feba 836e ae3c
00000240: a759 e73b 63c2 c23c bdba 50bc beab 7d3c
00000250: fbdb 3dbc 2bab d33c dd8f dabc 23f1 f93b
00000260: 5cb2 e63b 6198 4b3c 2777 aebc 57d3 40bd
00000270: 06b9 d4bb d97a 313c 9359 903c 92e1 9dbc
00000280: 4f39 b9ba f249 9abc 15ae e4bc abef edbc
00000290: 9e7a 19bc e18b c3bc 0297 78bc 6937 2ebd
000002a0: 99da 34bc b50b b4bc df13 f4bb fb7a 1abd
000002b0: 4efe b1bc 11df 7cbc 7217 0dbc cd33 1b3d
000002c0: e0ec 883d 35a4 1c3d 91aa aabd 8fc0 90bd
000002d0: f782 3b3d af9f b83d 0821 f1bc 0915 78bd
000002e0: 5fdc 25bd aa2a aa3d 60e5 e73c 38b8 d1bc
000002f0: ff55 8dbd 17a2 04bd 3c8c 783d 6c84 9e3c
00000300: 6133 10bd ec27 6fbd 01bd cabb 170f fb3b
00000310: 9681 a2bb 68df 38bd d16e 15bd a0f6 283d
00000320: 77eb 3f3d 348b f03c 17e3 333d e63f 3e3c
00000330: 9a50 68bd 0418 653b b132 4f3d 61a7 8b3d
00000340: a0c7 0b3d 28c7 6fbd cf9b ff3b 80dd 803c
00000350: dfcb bc3b 7601 133c 2fbf d5bc 3366 ac3c
00000360: 6466 36ba cadb 833c 949d ba3a d2e6 debb
00000370: ac73 80bc b900 723c da30 3c3d 9530 723d
00000380: 791c 0b3d 35ae 9cbd 0014 75bd b64f 99bc
00000390: be31 e03c 61b4 093d a2ae 3fbd 6ced 2739
000003a0: 86b7 e5bc 7b14 103b f51e fe3c 9ff5 12bc
000003b0: 7b4b bc3a 61eb ba3c b317 1b3d c30a 92bb
000003c0: 3bb6 61bb 852a 533c ddc9 9abb 950c d83b
000003d0: f89e c1bc 1497 13bd 3bfb b23c 6ee0 f3bc
000003e0: 7f9a c7ba 755e ecbc daf0 bfbc 891f 843b
000003f0: 326b 713b c82b 52bc 7652 81bd 582e 9dbc

conv2.bias f4 [32]
-0.0035146785 -0.06046644 -0.005895619 -0.027889458 0.052448258 0.046121616 -0.02208451 -0.01680596
-0.014698931 -0.054403305 0.04476033 -0.014309766 0.031038271 -0.014141593 0.0160099 0.024414536
0.038968228 0.022970697 -0.051640805 -0.0634617 0.007911563 0.019447051 0.04845973 0.09435708
0.023401815 0.053383596 -0.023342213 -0.008313487 0.0347432 0.0332346 -0.077441506 -0.030307814
00000000: 8556 66bb a8ab 77bd 0930 c1bb 6f78 e4bc
00000010: fcd3 563d 05ea 3c3d 93ea b4bc a7ac 89bc
00000020: c9d3 70bc 00d6 5ebd 9c56 373d 8273 6abc
00000030: f943 fe3c 24b2 67bc 3227 833c fe00 c83c
00000040: 269d 1f3d 0b2d bc3c 4f85 53bd 35f8 81bd
00000050: 809f 013c 6c4f 9f3c b67d 463d 493e c13d
00000060: 2ab5 bf3c c2a8 5a3d 2b38 bfbc 4b35 08bc
00000070: e34e 0e3d 0121 083d a799 9ebd 1848 f8bc

conv3.weight f4 [64, 32, 4, 4]
0.0095966365 -0.03384108 0.03626027 -0.006045221 -0.019459527 -0.030301448 0.0023178062 -0.026602475
-0.074749514 -0.041465692 -0.029139075 -0.031926386 -0.07238872 -0.030197864 0.023017162 -0.0013335412
-0.015460909 -0.030253889 -0.031779286 -0.06915664 -0.009853548 0.020460919 0.05997317 0.0167002
0.039237514 0.04623958 0.029237753 -0.033458855 0.14256002 0.092544004 -0.0024798375 -0.09888801
0.0308685 0.021391682 0.03748731 0.09016769 0.02869414 0.0026521916 0.011269418 0.033594206
0.056811765 0.0023589064 0.009430846 0.008674886 0.034644 -0.015828954 -0.009467741 0.018191071
-0.027008442 0.014538718 -0.010233257 0.02675989 -0.01939351 -0.024857176 -0.043113403 -0.059941955
-0.0048186607 -0.01083696 -0.023677677 -0.019533154 -0.021132778 0.02496953 -0.038356118 0.02839859
0.0034426684 0.027293297 0.013063466 0.014459394 -0.04235633 -0.028472234 -0.017921505 0.045423478
-0.06307399 -0.020361803 -0.0098761935 0.028154602 -0.03618782 -0.032221176 -0.023047924 0.0070229634
-0.017358094 -0.024749234 0.031015854 0.013559124 -0.05639804 -0.011330992 -8.2916114e-05 0.015439543
-0.058371883 -0.025542026 0.030315338 0.02134701 -0.08070059 -0.027998688 0.011870849 -0.009795581
-0.013030035 -0.004597181 -0.025116958 0.036707636 0.0062557748 -0.012056933 0.0067645092 -0.0040429165
0.030493325 -0.00014617293 -0.031281974 -0.02234188 0.020344222 -0.0084218895 0.010278719 -0.04568559
-0.008779706 -0.0075842226 -0.0083642835 -0.012960863 -0.01174517 -0.00021078029 0.018900676 0.0091921305
-0.055931054 -0.035689846 0.01066656 -0.024396071 -0.026701063 -0.0006977716 0.027828818 -0.005852586
-0.0488868 -0.02048748 -0.0026208689 0.07074316 -0.025875524 -0.0012834265 0.024234023 0.014293283
-0.020645954 0.014904367 -0.028658004 0.009779576 -0.033892017 0.00014868632 -0.016871283 0.009369216
-0.018043524 -0.0022898733 0.006229862 0.042148612 -0.00014251022 -0.0017237139 -0.013207746 -0.019281043
-0.033194475 0.014001641 0.024049941 -0.0064666234 -0.029039547 -0.00224612 -0.053240877 -0.03394497
-0.0014459601 0.018433422 0.037610974 0.06494541 -0.00053565844 0.011397571 0.0241637 -0.021366516
-0.012815102 0.03183347 0.038205106 0.02879206 -0.011771291 0.0051560774 0.012242784 0.03696371
-0.014035681 0.01858542 -0.037467197 0.010195022 -0.049908753 -0.027120177 -0.05041661 -0.06424072
0.030518342 0.0053157676 0.021239595 -0.021931453 0.039814964 -0.007873486 0.032954328 0.009442188
-0.050998256 -0.011646477 -0.015464545 -0.04990407 -0.063316055 -0.044198114 -0.009330697 -0.008599247
0.026373617 0.026433758 0.012521049 -0.02049708 0.1456774 0.037724618 -0.0335974 -0.07080812
0.017246721 0.0034597027 -0.04867986 -0.018829703 -0.02856638 -0.01214559 -0.04389966 -0.03939056
0.041667424 -0.019441545 0.022826837 0.0014692612 0.029621698 -0.003809367 0.011870765 -0.042889033
-0.049132243 -0.023530368 -0.047913052 -0.040131025 -0.0053431084 -0.0022838283 -0.022231478 -0.023145258
-0.031601995 -0.05602072 -0.03463685 -0.015041082 -0.06836439 -0.049617697 0.041654136 0.011282983
0.043873016 0.015906025 0.007264527 0.014452547 0.00494577 0.030041916 0.036333714 -0.009085881
0.011333063 -0.031624977 -0.02924749 -0.015848683 -0.006980265 -0.026076399 -0.04016929 -0.033119697
00000000: 363b 1d3c f29c 0abd a685 143d fd16 c6bb
00000010: 9669 9fbc be3a f8bc 56e6 173b 6fed d9bc
00000020: 4616 99bd eed7 29bd 12b5 eebc 3ec5 02bd
00000030: 8a40 94bd 8361 f7bc 7d8e bc3c 38ca aeba
00000040: c14f 7dbc 01d7 f7bc ff2a 02bd ffa1 8dbd
00000050: c770 21bc a89d a73c 6da6 753d dcce 883c
00000060: 84b7 203d b765 3d3d 0384 ef3c 270c 09bd
00000070: 41fb 113e b687 bd3d c584 22bb cc85 cabd
00000080: f0df fc3c 9c3d af3c 4b8c 193d d6a9 b83d
00000090: f90f eb3c 64d0 2d3b 5da3 383c 149a 093d
000000a0: 74b3 683d e297 1a3b d683 1a3c 1c21 0e3c
000000b0: dee6 0d3d b9ab 81bc 951e 1bbc 7105 953c
000000c0: cf40 ddbc ce33 6e3c 64a9 27bc 8f37 db3c
000000d0: 23df 9ebc 47a1 cbbc ae97 30bd b285 75bd
000000e0: dbe5 9dbb 818d 31bc b0f7 c1bc fe03 a0bc
000000f0: a61e adbc e68c cc3c 4e1b 1dbd 29a4 e83c
00000100: 649e 613b 3196 df3c 2608 563c 18e7 6c3c
00000110: d57d 2dbd 9a3e e9bc 1fd0 92bc f80d 3a3d
00000120: f02c 81bd cccd a6bc c2cf 21bc 7ba4 e63c
00000130: ae39 14bd 5afa 03bd 00cf bcbc e320 e63b
00000140: 9032 8ebc e8be cabc f614 fe3c 1727 5e3c
00000150: a201 67bd a0a5 39bc 40e3 adb8 23f6 7c3c
00000160: 5b17 6fbd 833d d1bc df57 f83c eddf ae3c
00000170: 5a46 a5bd 815d e5bc f37d 423c a57d 20bc
00000180: ee7b 55bc f3a3 96bb 14c2 cdbc bf5a 163d
00000190: 3efd cc3b 718a 45bc d1a8 dd3b 717a 84bb
000001a0: 23cd f93c ff45 19b9 8721 00bd 5106 b7bc
000001b0: eda8 a63c f7fb 09bc 1268 283c d020 3bbd
000001c0: c2d8 0fbc 1285 f8bb 590a 09bc cd59 54bc
000001d0: d06e 40bc e704 5db9 97d5 9a3c 979a 163c
000001e0: f617 65bd 842f 12bd ccc2 2e3c 45da c7bc
000001f0: 30bc dabc a9ea 36ba 43f9 e33c 0dc7 bfbb
00000200: 863d 48bd 5cd5 a7bc e2c2 2bbb cae1 903d
00000210: e8f8 d3bc a638 a8ba 6e86 c63c 602e 6a3c
00000220: b421 a9bc 7231 743c 31c4 eabc 843a 203c
00000230: 5bd2 0abd aee8 1b39 a535 8abc 5781 193c
00000240: 03d0 93bc b311 16bb df23 cc3b 06a4 2c3d
00000250: cc6e 15b9 3eee e1ba 4d65 58bc 47f3 9dbc
00000260: eef6 07bd 2467 653c 6204 c53c f8e5 d3bb
00000270: 58e4 edbc a433 13bb 1b13 5abd e209 0bbd
00000280: 5f86 bdba b001 973c f70d 1a3d 1902 853d
00000290: 6e6b 0cba e1bc 3a3c f4f2 c53c d508 afbc
000002a0: 6ff6 51bc d063 023d f57c 1c3d 54dd eb3c
000002b0: 5fdc 40bc 50f4 a83b f595 483c 4267 173d
000002c0: eaf5 65bc 7340 983c 3477 19bd 0609 273c
000002d0: 1f6d 4cbd 222b debc a681 4ebd a390 83bd
000002e0: 9a01 fa3c e42f ae3b a9fe ad3c 97a9 b3bc
000002f0: 0415 233d cbff 00bc 1efb 063d 68b3 1a3c
00000300: 8ce3 50bd ddd0 3ebc 015f 7dbc 3668 4cbd
00000310: d9ab 81bd 1509 35bd c8df 18bc dbe3 0cbc
00000320: 7c0d d83c 9c8b d83c 1625 4d3c 7ee9 a7bc
00000330: 752c 153e 2185 1a3d 6d9d 09bd d903 91bd
00000340: ff48 8d3c 2ebc 623b 8864 47bd c040 9abc
00000350: 0a04 eabc 4cfe 46bc 21d0 33bd ff57 21bd
00000360: 76ab 2a3d e043 9fbc 59ff ba3c 3a94 c03a
00000370: 34a9 f23c 93a6 79bb 997d 423c 69ac 2fbd
00000380: e43e 49bd c2c2 c0bc 7a40 44bd 6e60 24bd
00000390: 3e15 afbb 48ac 15bb ca1e b6bc 209b bdbc
000003a0: 1871 01bd fc75 65bd 5fdf 0dbd df6e 76bc
000003b0: a102 8cbd ed3b 4bbd 879d 2a3d 43dc 383c
000003c0: 31b4 333d 5a4d 823c 450b ee3b 60ca 6c3c
000003d0: 2010 a23b 771a f63c a9d2 143d f2dc 14bc
000003e0: 50ae 393c 3189 01bd 6f98 efbc 19d5 81bc
000003f0: b5ba e4bb 2c9e d5bc 8e88 24bd 85a8 07bd

conv3.bias f4 [64]
-0.019588854 0.019493226 -0.00083166186 0.0067478167 0.016792616 0.007653376 0.020061804 -0.0021691667
0.006383045 0.02259408 0.020226603 -0.001998836 -0.021483116 0.018587824 0.03212491 0.012084303
0.001140853 -0.022639854 -0.037668385 -0.027904028 0.007259633 -0.022532022 0.031215522 -0.009858279
0.026487859 0.00017195889 -0.030814474 -0.0018897722 -0.019138897 0.010520258 -0.0073167407 0.00838243
-1.700047e-09 0.020946134 -0.008099673 -0.048941854 0.01683806 -0.046674974 0.002155239 -0.002614222
0.010940563 0.0048010247 -0.00088999694 0.015027172 0.03177888 0.013815043 0.027827818 -0.0063048657
-0.0013268188 0.010990356 0.035536546 0.0104120495 -0.016137304 0.05088488 0.036825996 -0.009921606
-0.004011981 0.011825178 -0.03423217 -0.010905924 -0.033220083 0.014434289 0.021006698 -0.009949326
00000000: ce78 a0bc 42b0 9f3c e203 5aba ca1c dd3b
00000010: ab90 893c 2cc9 fa3b a758 a43c 9428 0ebb
00000020: dd28 d13b 3817 b93c 43b2 a53c e7fe 02bb
00000030: 5cfd afbc 7e45 983c 6995 033d 3efd 453c
00000040: ad88 953a 3777 b9bc 2a4a 1abd fd96 e4bc
00000050: 37e2 ed3b 1395 b8bc b2b7 ff3c 9e84 21bc
00000060: 11fd d83c dd4f 3439 a36e fcbc 3cb2 f7ba
00000070: 2dc9 9cbc 295d 2c3c 45c1 efbb 7656 093c
00000080: 16a7 e9b0 3a97 ab3c 7eb4 04bc 4177 48bd
00000090: f9ef 893c 422e 3fbd e93e 0d3b 5e53 2bbb
000000a0: 0c40 333c ea51 9d3b af4e 69ba 8734 763c
000000b0: 922a 023d 7d58 623c 2af7 e33c 0c99 cebb
000000c0: a7e8 adba e510 343c c58e 113d 4d97 2a3c
000000d0: 6132 84bc aa6c 503d dbd6 163d 3b8e 22bc
000000e0: f076 83bb 64be 413c 0837 0cbd c3ae 32bc
000000f0: c811 08bd cc7d 6c3c 3d16 ac3c 7f02 23bc

conv4.weight f4 [128, 64, 1, 1]
-0.09377416 0.003617339 0.04865735 0.08573698 -0.003890679 0.112270035 -0.048918985 0.021250892
0.006740657 0.06429071 0.083438344 0.12666258 -0.0012947292 -0.002216947 -0.030631786 0.027897809
-0.03644659 -0.044659887 0.042052682 -0.050175205 0.10888321 0.045130607 0.017893722 -0.061363544
0.10890501 0.023196008 -0.086798646 -0.045735583 -0.05364952 -0.016970979 -0.022123657 0.0620125
-1.5780255e-05 -0.025668748 -0.0009175104 -0.06327813 0.027068794 -0.038557246 -0.0027662772 -0.039708745
0.0025402608 -0.037487432 -0.06321535 0.055969585 -0.053112302 -0.0643325 0.005201822 -0.01070647
0.006202021 0.11517637 -0.018823283 0.10009589 0.07202838 -0.046717156 0.004433777 -0.069620445
0.048704628 -0.013187242 -0.06259103 -0.029296324 -0.059940133 0.009395881 0.05344328 -0.0018210532
0.061760444 -0.031938486 -0.018826557 0.054002788 -0.036877 -0.062389124 -0.004801158 0.031199912
-0.008990543 0.065832816 -0.024216712 0.06823165 0.08086274 0.022397606 -0.05972105 -0.021702357
0.008319933 -0.022609496 0.06448852 0.0031948036 0.016977252 0.024151227 0.048043042 -0.046276096
-0.008927154 0.010660531 -0.014597719 0.059886478 0.045863982 0.007867002 -0.009816191 0.04495385
6.276674e-07 -0.027567286 0.08720164 0.103537634 0.062078357 0.0057471623 0.0071546216 -0.09940457
-0.02435403 -0.050722096 -0.11525015 0.07708814 0.030825818 -0.023505209 0.023193935 0.010238821
0.011676488 0.0043926286 -0.0037525308 -0.011538167 -0.004628225 -0.033981975 0.09640342 -0.026702328
-0.02808096 -0.008762741 0.08991699 0.0031099117 0.01330975 -0.030001625 -0.033036746 -0.013724002
0.024978759 0.034115143 -0.032326564 -0.027815225 0.045539908 0.0045342855 0.10019179 0.0052823606
0.011726943 0.0733126 -0.0748518 -0.0037712862 0.07071854 -0.07116835 0.023882166 -0.02399396
-0.009454715 0.006483019 0.083030574 0.123988636 0.015427431 0.032016687 -0.0019201932 0.042638887
-0.006596132 -0.07340608 0.06523621 0.02032942 -0.039182648 -0.057047073 0.006396205 0.017367126
8.738013e-06 0.015436319 0.07640249 0.13097954 0.048057638 0.05117724 -0.062560946 0.090174064
0.059649333 0.016049076 0.10360011 0.01599912 0.02989887 0.0029223314 -0.005763288 0.017098648
-0.00349242 0.031900898 -0.036887594 0.014633226 0.07779876 0.08334657 -0.022267641 0.10743014
-0.015939193 -0.0070479475 0.0064397776 0.06939892 0.055675082 0.03130419 -0.042955723 -0.031127317
-0.0073555675 0.046978436 -0.04437517 0.08494785 -0.028104361 0.0076756882 0.04520572 -0.097403914
-0.08627884 0.003204502 -0.06459745 0.012101552 -0.045865793 0.071108505 -0.0062352754 -0.10375637
-0.04745314 0.09992072 -0.08854402 -0.03254973 0.053856455 0.09552977 0.00871569 0.008716189
-0.002796153 0.09037238 -0.035406046 -0.00030609567 -0.02650892 -0.026757993 -0.101839565 -0.016866554
0.00013180042 -0.030695645 0.10294301 -0.0039557037 0.011779183 0.02767681 -0.0051558637 0.11260857
0.07007048 -0.04469989 0.039153136 0.105487 -0.04676338 -0.030314218 0.053878814 -0.1025341
0.0011536916 -0.049813155 0.073650226 -0.12971458 -0.09467228 0.020158365 0.06846023 -0.0013856083
-0.12695505 -0.06282261 0.011810834 0.08923653 -0.023067197 -0.042788364 -0.053163387 -0.06317344
00000000: ab0c c0bd e110 6d3b ee4c 473d df96 af3d
00000010: c3fa 7ebb d5ed e53d 465f 48bd 5a16 ae3c
00000020: bbe0 dc3b d9aa 833d b9e1 aa3d d6b3 013e
00000030: e7b3 a9ba 334a 11bb 83ef fabc f289 e43c
00000040: 0549 15bd 49ed 36bd 6f3f 2c3d 8484 4dbd
00000050: 29fe de3d dfda 383d db95 923c 5758 7bbd
00000060: 9709 df3d 8e05 be3c 7dc3 b1bd 3c55 3bbd
00000070: 99bf 5bbd b906 8bbc ac3c b5bc d200 7e3d
00000080: d75f 84b7 4447 d2bc 1585 70ba f797 81bd
00000090: 60bf dd3c 34ee 1dbd 6e4a 35bb a3a5 22bd
000000a0: 817a 263b 6c8c 19bd 0d77 81bd 5d40 653d
000000b0: 498c 59bd c2c0 83bd 0c74 aa3b 316a 2fbc
000000c0: 533a cb3b 97e1 eb3d 4933 9abc 13ff cc3d
000000d0: 9e83 933d 7d5a 3fbd 3849 913b 2a95 8ebd
000000e0: 817e 473d 4d0f 58bc ba2f 80bd d8fe efbc
000000f0: c983 75bd 2ef1 193c 57e7 5a3d 68b0 eeba
00000100: 85f8 7c3d eed1 02bd 273a 9abc 0732 5d3d
00000110: 560c 17bd bd8b 7fbd 0853 9dbb f596 ff3c
00000120: 124d 13bc 5bd3 863d 2062 c6bc 09bd 8b3d
00000130: 5d9b a53d 2f7b b73c 0f9e 74bd 24c9 b1bc
00000140: 5450 083c 8d37 b9bc 8f12 843d e95f 513b
00000150: e113 8b3c cbd8 c53c c8c8 443d 018c 3dbd
00000160: 3343 12bc 82a9 2e3c 452b 6fbc 864b 753d
00000170: dfdb 3b3d 99e4 003c 17d4 20bc 8721 383d
00000180: fa7c 2835 cad4 e1bc c696 b23d 8a0b d43d
00000190: e045 7e3d b152 bc3b 5171 ea3b a094 cbbd
000001a0: 1a82 c7bc f9c1 4fbd 4508 ecbd 63e0 9d3d
000001b0: 6d86 fc3c ff8d c0bc 3501 be3c bac0 273c
000001c0: be4e 3f3c 0af0 8f3b 05ed 75bb 940a 3dbc
000001d0: 5ea8 97bb af30 0bbd 286f c53d d7be dabc
000001e0: 0b0a e6bc 9a91 0fbc 6626 b83d a9cf 4b3b
000001f0: 2311 5a3c f8c5 f5bc 8a51 07bd a3da 60bc
00000200: 41a0 cc3c 52bc 0b3d dc68 04bd c1dc e3bc
00000210: 0e88 3a3d 5894 943b 5a31 cd3d a717 ad3b
00000220: 5d22 403c eb24 963d e74b 99bd af27 77bb
00000230: e2d4 903d b6c0 91bd 88a4 c33c fb8e c4bc
00000240: f3e7 1abc 816f d43b ef0b aa3d c1ed fd3d
00000250: 56c3 7c3c ee23 033d feae fbba 1da6 2e3d
00000260: 5e24 d8bb ed55 96bd 909a 853d e289 a63c
00000270: fc7d 20bd 31aa 69bd 4297 d13b 8145 8e3c
00000280: 7b99 1237 9de8 7c3c e978 9c3d 801f 063e
00000290: 16d8 443d 3a9f 513d f41f 80bd 2ead b83d
000002a0: dc52 743d 5a79 833c 4b2c d43d 9610 833c
000002b0: 7aee f43c 9684 3f3b f7d9 bcbb 7712 8c3c
000002c0: 16e1 64bb 84aa 023d 7217 17bd 33c0 6f3c
000002d0: f554 9f3d 9bb1 aa3d a16a b6bc 5504 dc3d
000002e0: e992 82bc 78f2 e6bb c504 d33b 0521 8e3d
000002f0: 8e0b 643d d338 003d 57f2 2fbd b7fe febc
00000300: f906 f1bb 766c 403d bdc2 35bd 23f9 ad3d
00000310: 1e3b e6bc 5784 fb3b a229 393d b47b c7bd
00000320: f6b2 b0bd 9f02 523b ab4b 84bd 9745 463c
00000330: c5dd 3bbd 56a1 913d 4851 ccbb 387e d4bd
00000340: 395e 42bd 3ca3 cc3d 9156 b5bd de52 05bd
00000350: 9698 5c3d 1da5 c33d 41cc 0e3c 59ce 0e3c
00000360: aa3f 37bb 2815 b93d ee05 11bd 777b a0b9
00000370: 3c29 d9bc 9433 dbbc 4391 d0bd ba2b 8abc
00000380: e833 0a39 6f75 fbbc c9d3 d23d d99e 81bb
00000390: 79fd 403c 7aba e23c 85f2 a8bb 529f e63d
000003a0: 1d81 8f3d 3b17 37bd 0a5f 203d 9109 d83d
000003b0: f58a 3fbd 8655 f8bc 08b0 5c3d 66fd d1bd
000003c0: 7737 973a e108 4cbd eed5 963d e6d3 04be
000003d0: 8ae3 c1bd 2823 a53c e134 8c3d 4d9d b5ba
000003e0: 8100 02be 24a9 80bd 3a82 413c a4c1 b63d
000003f0: 6bf7 bcbc da42 2fbd dac1 59bd 1461 81bd

conv4.bias f4 [128]
0.1546338 0.1259499 -0.044086345 0.21961926 0.22988741 0.041510988 0.06940459 0.22061089
0.022934655 -0.008085379 0.09790428 0.086166136 0.04468045 0.09946856 0.050000492 0.1592894
0.10223578 0.0533827 0.11151549 0.13641974 0.17001805 0.15527111 -0.053877722 0.14671195
0.06753113 0.05705354 0.027412442 0.20256105 0.029807381 0.08738146 0.06294971 -0.052334264
0.19668807 0.065660186 0.028994098 0.073755704 0.0523517 0.021210797 -0.0045016725 0.12822907
0.24787742 0.0188457 -0.052649207 0.047485232 0.071773924 0.06257918 0.13482882 0.043831274
0.027099732 0.06474796 0.21623178 0.27069852 0.025216615 0.062052112 0.0141687775 -0.07783007
0.09046076 0.15854158 0.056068093 -0.015468566 0.065065935 -0.011359049 -0.011864742 0.18632889
0.11375289 -0.012342555 0.012110168 -0.010396744 -0.075909585 0.18116274 0.10378559 0.021826418
0.0536181 0.13759877 -0.06087462 0.12081774 -0.01565693 0.064322665 0.18727781 0.1102198
0.15305771 0.0033714704 0.006192651 -0.1233171 0.02985353 0.16926092 0.20907776 0.027645957
0.20127803 0.03713386 0.08348275 0.0029243259 0.057371583 -0.07760722 0.051895272 0.036107052
0.14658245 -0.06894045 0.0707742 -0.007844275 0.034486476 0.12787645 0.120337196 -0.008219067
0.08059084 0.09455435 0.006372857 -0.0007697746 -0.06662282 0.097730964 0.01917062 0.13916627
-0.09428181 0.13817261 0.11089655 0.104145534 -0.027882822 0.016844422 0.1701854 -0.038775038
-0.026111927 0.062693186 -0.03254672 0.043990493 0.06657616 -0.10028684 -0.03613001 -0.09014841
00000000: 5358 1e3e 03f9 003e e293 34bd dfe3 603e
00000010: 9b67 6b3e 6d07 2a3d fe23 8e3d d2e7 613e
00000020: 75e1 bb3c 8a78 04bc 0a82 c83d df77 b03d
00000030: d902 373d 2cb6 cb3d 51cd 4c3d c31c 233e
00000040: fe60 d13d d1a7 5a3d 3c62 e43d 9eb1 0b3e
00000050: 3619 2e3e 64ff 1e3e e3ae 5cbd a83b 163e
00000060: c34d 8a3d f9b0 693d 0f90 e03c 2a6c 4f3e
00000070: 9c2e f43c 0df5 b23d c7eb 803d 745c 56bd
00000080: 9968 493e d978 863d 0885 ed3c 3b0d 973d
00000090: bc6e 563d 44c2 ad3c c482 93bb 7b4e 033e
000000a0: 94d3 7d3e 4c62 9a3c b2a6 57bd e07f 423d
000000b0: 35fe 923d 8329 803d 9110 0a3e 6c88 333d
000000c0: 4200 de3c 949a 843d dd6b 5d3e ff98 8a3e
000000d0: 1393 ce3c 5b2a 7e3d 2924 683c 5f65 9fbd
000000e0: 7e43 b93d b958 223e a8a7 653d de6f 7dbc
000000f0: 4a41 853d 4e1b 3abc 5664 42bc 00cd 3e3e
00000100: 46f7 e83d 6e38 4abc ba69 463c 1b57 2abc
00000110: 7c76 9bbd ba82 393e 8a8d d43d 51cd b23c
00000120: a79e 5b3d b1e6 0c3e aa57 79bd 4b6f f73d
00000130: f642 80bc 9abb 833d c1c5 3f3e ebba e13d
00000140: 29bb 1c3e e3f3 5c3b b9eb ca3b ad8d fcbd
00000150: 648f f43c bc52 2d3e 7b18 563e c679 e23c
00000160: d41b 4e3e ad19 183d 01f9 aa3d 0ca6 3f3b
00000170: 77fe 6a3d 89f0 9ebd 2390 543d fde4 133d
00000180: b619 163e a730 8dbd 10f2 903d 4685 00bc
00000190: b141 0d3d 0bf2 023e 5973 f63d 44a9 06bc
000001a0: cf0c a53d b6a5 c13d 66d3 d03b b3ca 49ba
000001b0: 8c71 88bd 2c27 c83d b40b 9d3c 9a81 0e3e
000001c0: d216 c1bd 1f7d 0d3e bb1d e33d 414a d53d
000001d0: 846a e4bc 50fd 893c 1545 2e3e 93d2 1ebd
000001e0: aee8 d5bc 4965 803d b64f 05bd 602f 343d
000001f0: 1559 883d 3063 cdbd 10fd 13bd bb9f b8bd

conv5.weight f4 [256, 128, 1, 1]
0.037602972 0.0052235764 0.023599599 -0.036559433 -0.011075237 0.024898274 -0.0020429231 -0.016896997
-0.009134273 0.017365428 -0.012879476 0.020206273 -0.025973389 0.0049691307 0.07247632 -0.0014188285
0.03463357 0.09047872 -0.028170343 -0.054149877 -0.026604583 0.0017422241 0.019835487 -0.016299289
0.037546564 -0.008862781 0.024231894 -0.0040211612 0.017218444 0.032120757 0.027812 -0.005222525
-0.06829542 -0.011103439 0.0036286672 -0.019920057 0.0013908861 -0.008302721 0.008901227 0.010987956
0.005784122 -0.00024882393 0.013483192 -0.00028545767 0.018423725 0.0067106117 -0.036770023 0.039891254
0.027201043 -0.009102691 -0.0066103176 -0.06649607 0.0021419926 0.00985184 0.012929227 0.032626342
-0.040456362 -0.017111272 0.009484059 0.019179454 0.004897159 0.049567353 0.0023760626 0.011565203
0.007975662 0.03923343 0.022876209 0.056057952 0.0062163444 -0.00192033 -0.023348818 0.010414965
0.011491957 0.009667991 0.060908113 -0.021624062 0.028999524 -0.02904989 -0.04341361 0.0065619475
-0.056100115 0.02615088 -0.007254641 -0.022623273 0.00745824 -0.02769264 -0.059493586 -0.011925262
-0.024966285 0.013810518 0.0057239 -0.00012202834 -0.010336674 0.014814113 0.01972617 0.00843489
0.0037848765 0.0123607535 0.02109886 0.002022512 0.030649127 -0.025490468 -0.017693168 -0.0055429447
-0.0037009753 0.011155219 0.0119025335 0.025913874 -0.011471471 0.032307964 0.040213946 -0.03309037
-0.013941527 0.026069192 0.03295614 0.04778516 0.008267968 0.012941772 -0.016818468 -0.016869783
0.02440255 -0.00347115 -0.0048653902 -0.0075631114 0.037378732 -0.02555218 0.010125046 -0.013504808
-0.005437896 -0.003922403 0.0051842453 -0.0334721 0.0046526417 0.002796728 -0.00800937 -0.020238878
-0.027678013 0.040643718 -0.014458025 0.016327573 -0.017607128 0.017226243 0.02822597 -0.011017176
0.0378723 0.009151317 -0.027401151 -0.002432883 -0.011075485 -0.013370699 0.0052333237 -0.011855906
0.01032312 0.002986252 -0.00796002 -0.017725572 0.026791062 0.013836715 0.021489626 0.0155160995
-0.040998157 0.011465732 0.023116374 0.006154546 0.015973408 0.01278525 0.024123488 -0.0053771734
0.023311349 0.024657674 0.01089004 -0.0020465918 0.009477809 0.014799017 -0.028820267 0.010137507
0.0030322438 -0.00069909357 -0.016386608 -0.05397282 -0.012070629 -0.023653485 0.0084494855 0.062259663
-0.024524463 -0.027835926 0.0016448573 0.04331916 -0.0017032576 0.03218051 0.022352662 0.014218104
0.0040396326 0.03808924 0.043097127 0.012360315 0.017121047 0.013573395 -0.014885364 0.021557776
0.014984833 0.00464841 0.008288813 -0.009974186 0.03593864 -0.037424706 -0.021965956 -0.013276469
-0.032086886 -0.009478024 -0.014882326 0.010645351 0.0037487012 -0.029362602 -0.06015055 -0.012505145
-0.020868743 0.024300532 -0.016065368 -0.013727025 0.0215813 0.03717569 0.026085105 0.018404724
-0.0006785787 0.073029384 -0.019418998 0.013743034 -0.015633566 -0.013489654 -0.033158302 0.002084329
-0.034366656 0.001509267 0.0013417718 0.03813282 -4.4237313e-05 0.043583903 0.046692614 -0.028006965
0.03541866 0.0035836212 0.004151661 0.033199083 0.014151642 -0.0052643516 -0.011262443 -0.013037207
0.02129735 0.0017425895 -0.008371957 0.0006754332 0.013761454 0.008800571 0.015392772 -0.00440206
00000000: 9305 1a3d 892a ab3b f253 c13c 58bf 15bd
00000010: e974 35bc 77f7 cb3c 90e2 05bb 926b 8abc
00000020: eba7 15bc f141 8e3c 7004 53bc a087 a53c
00000030: 25c6 d4bc 17d4 a23b 776e 943d fcf7 b9ba
00000040: eedb 0d3d e84c b93d 7ec5 e6bc 43cc 5dbd
00000050: dbf1 d9bc 575b e43a 087e a23c 1686 85bc
00000060: 6dca 193d 3335 11bc f781 c63c f2c3 83bb
00000070: b20d 8d3c 0e91 033d fed5 e33c b721 abbb
00000080: 78de 8bbd 33eb 35bc efce 6d3b 632f a3bc
00000090: 654e b63a 2308 08bc 74d6 113c d406 343c
000000a0: bb88 bd3b 9574 82b9 9be8 5c3c 7ba9 95b9
000000b0: 5aed 963c b1e4 db3b 2a9c 16bd 0365 233d
000000c0: b9d4 de3c 7423 15bc 5d9b d8bb 172f 88bd
000000d0: ac60 0c3b 9d69 213c 1cd5 533c 33a3 053d
000000e0: 92b5 25bd f02c 8cbc 0763 1b3c 3b1e 9d3c
000000f0: 5978 a03b 2307 4b3d b7b7 1b3b fa7b 3d3c
00000100: 5aac 023c 3cb3 203d e366 bb3c 069d 653d
00000110: 7ab2 cb3b 95b3 fbba 0546 bfbc 88a3 2a3c
00000120: c348 3c3c 7e66 1e3c c97a 793d f224 b1bc
00000130: 6990 ed3c 09fa edbc 78d2 31bd 9b05 d73b
00000140: 3cc9 65bd 5f3a d63c 57b8 edbb 7154 b9bc
00000150: 4064 f43b addb e2bc 8caf 73bd 2d62 43bc
00000160: 1886 ccbc 8345 623c 8e8f bb3b 77e9 ffb8
00000170: 275b 29bc e5b6 723c c798 a13c 7e32 0a3c
00000180: b10b 783b c284 4a3c 84d7 ac3c 1f8c 043b
00000190: e113 fb3c 63d1 d0bc 43f1 90bc 97a1 b5bb
000001a0: 108c 72bb 61c4 363c d802 433c 5549 d43c
000001b0: d6f2 3bbc 5b55 043d 61b7 243d c589 07bd
000001c0: 016b 64bc 0f8f d53c 04fd 063d 5fba 433d
000001d0: 5f76 073c ba09 543c e2c6 89bc 8032 8abc
000001e0: dbe7 c73c 3c7c 63bb da6d 9fbb fad3 f7bb
000001f0: 711a 193d ce52 d1bc 85e3 253c 4543 5dbc
00000200: 6130 b2bb 8087 80bb 9ae0 a93b 0a1a 09bd
00000210: 3075 983b 4f49 373b bc39 03bc 01cc a5bc
00000220: 00bd e2bc 077a 263d 5ae1 6cbc 67c1 853c
00000230: d33c 90bc 0d1e 8d3c 263a e73c 6381 34bc
00000240: fc1f 1b3d 68ef 153c 6178 e0bc 0171 1fbb
00000250: f375 35bc c710 5bbc 4d7c ab3b 463f 42bc
00000260: 4e22 293c ffb4 433b be6a 02bc 3835 91bc
00000270: ee78 db3c 64b3 623c 030b b03c 3d37 7e3c
00000280: afed 27bd c4da 3b3c 8d5e bd3c 13ac c93b
00000290: aada 823c 3a79 513c 9f9e c53c 0033 b0bb
000002a0: 71f7 be3c e4fe c93c 236c 323c 1d20 06bb
000002b0: d048 1b3c 9477 723c 7b18 ecbc c917 263c
000002c0: 9cb8 463b 6043 37ba 353d 86bc 9b12 5dbd
000002d0: e3c3 45bc f4c4 c1bc b66f 0a3c fd03 7f3d
000002e0: 87e7 c8bc 2b08 e4bc 4198 d73a 6e6f 313d
000002f0: d73f dfba b6cf 033d ee1c b73c 0df3 683c
00000300: e55e 843b 7703 1c3d 9d86 303d eb82 4a3c
00000310: 7041 8c3c f262 5e3c bee1 73bc ef99 b03c
00000320: f282 753c b051 983b cdcd 073c c56a 23bc
00000330: 6534 133d a64a 19bd f3f1 b3bc 8c85 59bc
00000340: 8a6d 03bd b749 1bbc 00d5 73bc d769 2e3c
00000350: c5ac 753b d789 f0bc 6c60 76bd 61e2 4cbc
00000360: edf4 aabc e911 c73c 859b 83bc 51e7 60bc
00000370: 44cb b03c 8945 183d 6eb0 d53c 81c5 963c
00000380: a5e2 31ba 6e90 953d 9714 9fbc 762a 613c
00000390: f711 80bc b603 5dbc 00d1 07bd 3d99 083b
000003a0: 0dc4 0cbd 99d2 c53a 64de af3a 2931 1c3d
000003b0: 748b 39b8 0985 323d c140 3f3d dd6e e5bc
000003c0: 2813 113d 30db 6a3b a80a 883b c3fb 073d
000003d0: 4adc 673c 9580 acbb 1c86 38bc 029a 55bc
000003e0: c877 ae3c 9a67 e43a 882a 09bc 8e0f 313a
000003f0: b977 613c 4530 103c f731 7c3c 283f 90bb

conv5.bias f4 [256]
0.03138434 0.0013411968 0.06627827 0.0029924037 -0.04426452 0.041645978 0.021882927 -0.038781732
0.0501428 0.018242205 -0.019074732 0.024360776 0.023896731 0.01910435 0.05390779 -0.022866936
0.09633493 0.0471775 0.025972882 -0.036735058 0.07785827 0.018169986 -0.048949353 0.004098893
0.11530351 -0.0106115565 -0.00998648 0.01370597 0.096448496 0.0077276835 0.0060595744 0.004140563
-0.029484078 0.023082884 0.00090987154 0.05480136 0.11888073 -0.0047869994 0.02739023 -0.0071271826
0.0028142603 0.035242546 -0.0057215877 -0.019381924 -0.0153404 -0.019606529 -0.005857797 -0.010434382
0.033202432 0.0007249653 0.015414415 0.11141214 0.02192042 0.07464436 -3.316164e-20 0.033744674
0.019453216 -0.006234356 -0.00240125 -0.03430888 0.0034834605 0.014877361 -0.02369622 -0.031862065
-0.015663149 -0.00950626 0.08244431 0.06721052 0.101562396 0.01891371 -0.028468892 -0.029014062
-0.004032117 0.0017104233 0.004165469 -0.028347548 -0.0430892 -0.01009206 0.0034788742 -0.005229301
0.028034544 0.092820644 -0.006548948 0.12093524 0.014639253 -0.0023841758 0.0015380434 0.047878742
0.04037354 0.031266667 -0.0075782235 0.0061305976 0.03238462 0.060081773 0.0558319 0.062552154
0.021882303 -0.019022616 -0.013107487 0.027755113 0.0007280209 -0.004124172 0.016905716 0.037241865
0.01984222 -0.01026477 0.0451923 -0.014694172 0.1039999 0.027099047 0.087305516 0.071369626
0.01850428 -0.029667908 0.014466074 0.022200564 0.018058056 0.010471337 0.084062204 0.104799636
0.09267726 -0.0076715117 0.051097028 0.01364234 -0.014874663 -0.0016859379 -0.0029609266 -0.015645307
0.026975697 -0.017331263 0.05136362 0.08233877 -0.028624091 0.07686352 0.10947884 0.01414278
0.0040276735 0.02137948 0.007349572 0.07721684 -0.0042454056 0.03633073 0.062406443 -0.024843913
0.07483341 0.016546847 -0.03617432 -0.004871512 0.0085284 0.094134696 0.0037214595 -0.046124414
-0.017379634 0.10676902 -0.056383833 0.0060197515 0.052206986 -0.02290746 0.07049437 -0.027863353
0.01998322 0.029536793 0.01528242 -0.03753843 0.038426258 0.008287029 0.036757533 0.089172564
0.014616351 0.0013322583 -0.038034793 -0.0022756152 -0.003965243 0.051308013 -0.02019 -0.03891172
0.07647784 0.002114581 -0.023604482 -0.012151195 0.0708369 0.004635612 0.097682655 0.07962963
0.056478452 -0.037531454 0.08798899 0.03192299 0.013593887 0.041608408 0.07689017 0.008212682
0.010644812 0.031926624 0.06085768 -0.009217221 0.090955235 0.0047623245 0.033782836 -0.0046103224
-0.025419908 -0.01686523 0.041053157 -0.000194116 0.05223856 -0.021538317 0.088820726 0.070564754
-0.025063498 -0.006680285 -0.011628877 0.055193286 0.04502194 0.004265421 0.07510306 0.031218987
-0.034943447 -0.011723908 0.0030939963 -0.008493637 0.019155053 -0.04977105 0.00029256623 0.022279149
-0.003291466 -0.024029845 -0.03251114 0.08480505 0.108180225 0.02135224 -0.010877858 0.09700251
0.04288729 -0.024883587 0.0023491622 0.09059794 0.0068079215 -0.039600205 0.0034144262 0.015714347
-0.02968508 -0.01583501 0.007220276 0.042544 0.03160796 0.017155796 0.007792424 0.0005958946
0.061086748 -0.0020674334 -0.002770126 -0.01048656 0.089640416 -0.023154164 0.02894549 0.002074687
00000000: de8c 003d 19cb af3a e7bc 873d 341c 443b
00000010: b74e 35bd f994 2a3d d343 b33c 98d9 1ebd
00000020: 8962 4d3d ad70 953c 9d42 9cbc 4090 c73c
00000030: 14c3 c33c ba80 9c3c 6ace 5c3d 7153 bbbc
00000040: 3f4b c53d 323d 413d 15c5 d43c 8077 16bd
00000050: 2874 9f3d 39d9 943c 1e7f 48bd 0250 863b
00000060: 3f24 ec3d 18dc 2dbc 559e 23bc 018f 603c
00000070: ca86 c53d 8238 fd3b 658f c63b 8fad 873b
00000080: 9888 f1bc 5118 bd3c 7284 6e3a 6477 603d
00000090: bd77 f33d 43dc 9cbb 7a61 e03c 248b e9bb
000000a0: 746f 383b 7d5a 103d 287c bbbb d7c6 9ebc
000000b0: 4d56 7bbc df9d a0bc c3f2 bfbb f8f4 2abc
000000c0: 46ff 073d 990b 3e3a be8c 7c3c 0c2c e43d
000000d0: 7492 b33c 24df 983d f699 1c9f db37 0a3d
000000e0: 5a5c 9f3c 9249 ccbb 4a5e 1dbb 7887 0cbd
000000f0: c54a 643b 2dc0 733c 931e c2bc cc81 02bd
00000100: 0150 80bc 25c0 1bbc 90d8 a83d aba5 893d
00000110: f2ff cf3d edf0 9a3c 9837 e9bc e6ae edbc
00000120: d91f 84bb 4830 e03a 7d7e 883b 1e39 e8bc
00000130: 4d7e 30bd 2b59 25bc d3fd 633b 8e5a abbb
00000140: b3a8 e53c c018 be3d 8f98 d6bb e5ac f73d
00000150: 7ad9 6f3c d53f 1cbb 2c98 c93a 801c 443d
00000160: ba5e 253d 7a11 003d bf52 f8bb 2ee3 c83b
00000170: bca5 043d 4e18 763d feaf 643d 581b 803d
00000180: 8442 b33c 51d5 9bbc c9c0 56bc b15e e33c
00000190: a8d8 3e3a 1024 87bb db7d 8a3c ed8a 183d
000001a0: 278c a23c 912d 28bc 901b 393d d3bf 70bc
000001b0: e6fd d43d d2fe dd3c 3ccd b23d 3d2a 923d
000001c0: 4a96 973c 1d0a f3bc 1d03 6d3c f5dd b53c
000001d0: 7dee 933c f88f 2b3c ce28 ac3d 31a1 d63d
000001e0: 93cd bd3d 4e61 fbbb 1e4b 513d 1f84 5f3c
000001f0: dcb4 73bc b0fa dcba 1b0c 42bb 962a 80bc
00000200: 23fc dc3c 4bfa 8dbc a962 523d 3ba1 a83d
00000210: 127d eabc 9f6a 9d3d 7136 e03d 1eb7 673c
00000220: 93fa 833b 0524 af3c aed4 f03b dd23 9e3d
00000230: 0b1d 8bbb 88cf 143d e69d 7f3d 7685 cbbc
00000240: 4242 993d 418d 873c 862b 14bd 34a1 9fbb
00000250: b4ba 0b3c b1c9 c03d bbe3 733b f4ec 3cbd
00000260: bc5f 8ebc b7a9 da3d bcf2 66bd 5641 c53b
00000270: fed6 553d 6da8 bbbc 5a5f 903d b041 e4bc
00000280: dab3 a33c 25f7 f13c 1e63 7a3c e6c1 19bd
00000290: da64 1d3d 52c6 073c 118f 163d 1ba0 b63d
000002a0: 6b79 6f3c 2c9f ae3a 5fca 1bbd 7d22 15bb
000002b0: dfee 81bb 5a28 523d 8065 a5bc e561 1fbd
000002c0: 6aa0 9c3d c894 0a3b 305e c1bc ce15 47bc
000002d0: f012 913d 55e6 973b d80d c83d dc14 a33d
000002e0: f355 673d 95ba 19bd 9233 b43d aec1 023d
000002f0: e5b8 5e3c 946d 2a3d 9878 9d3d 7c8e 063c
00000300: 9467 2e3c 7ec5 023d e745 793d d403 17bc
00000310: bd46 ba3d 460d 9c3b df5f 0a3d 3012 97bb
00000320: 693d d0bc f328 8abc 5b27 283d 9e8b 4bb9
00000330: 1af8 553d 2071 b0bc a4e7 b53d 4184 903d
00000340: f751 cdbc 4be6 dabb 0c87 3ebc 5b12 623d
00000350: ed68 383d f2c4 8b3b a2cf 993d f6be ff3c
00000360: dc20 0fbd a215 40bc a5c4 4a3b e528 0bbc
00000370: 0feb 9c3c bbdc 4bbd 9363 9939 c382 b63c
00000380: a3b5 57bb 3dda c4bc 672a 05bd 45ae ad3d
00000390: 988d dd3d e5ea ae3c 0b39 32bc 41a9 c63d
000003a0: 95aa 2f3d aad8 cbbc 67f4 193b 6a8b b93d
000003b0: fc14 df3b d333 22bd 91c4 5f3b 60bb 803c
000003c0: 202e f3bc 6cb8 81bc 1198 ec3b 9e42 2e3d
000003d0: 5977 013d 508a 8c3c 9757 ff3b cf35 1c3a
000003e0: 1936 7a3d c77d 07bb 018b 35bb d2cf 2bbc
000003f0: 6595 b73d cdad bdbc 181f ed3c 79f7 073b
