models/trained/ConvNet1_5.pt (torch, 442274 bytes, 14 tensors)

conv1.weight f4 [4, 1, 5, 5]
000000 15 6d fd bd b8 e4 89 3d 53 8d 96 be 9c ef 22 be
       -0.12374321 0.06733078 -0.29404697 -0.15911716
000010 a1 45 8e bd b1 22 c4 bc 70 97 30 3d 50 07 56 be
       -0.069468744 -0.023942323 0.043113172 -0.20901227
000020 0f bc 44 3e 4e fa fe bc 1c 57 a2 3e 81 55 c9 3e
       0.19212364 -0.031125214 0.31707084 0.39323047
000030 18 c7 06 3e d0 07 c2 3d 06 10 1c be 09 b2 62 3e
       0.13161886 0.09474146 -0.15240487 0.22138228
000040 63 65 84 3e cd 22 b2 bd 7a 3b 99 bd ce 4c 03 3e
       0.25858602 -0.08698044 -0.074820474 0.12822267
000050 dc 1c 20 bd 70 4b ca bd 68 70 ea bd 24 86 03 be
       -0.039090022 -0.0987767 -0.11447221 -0.1284414
000060 29 c2 17 bd ad 9c ba 3b 62 26 b2 3d 16 1f d0 3d
       -0.0370504 0.0056949467 0.08698727 0.10162179
000070 7d b9 f7 3d 47 e3 c0 3d 65 6d b7 3d 09 85 b8 3b
       0.12095926 0.0941835 0.08956412 0.0056310934
000080 02 65 72 bc 89 a6 6f 3e bf 9a 72 3e 22 35 1f be
       -0.01479459 0.23403372 0.23691843 -0.15547612
000090 2b 4c 55 be dc e1 95 be 23 11 63 3e e4 b6 08 3e
       -0.20829837 -0.2927388 0.22174506 0.13351017
0000a0 61 3e 79 be 5a 01 31 be 1e 1d 63 be f0 18 0f 3e
       -0.24340202 -0.17285672 -0.22179076 0.13974357
0000b0 aa 09 0b 3e b0 c7 43 3d 1d 8e 19 be 7b 87 38 3e
       0.13577905 0.04779786 -0.14995618 0.18020432
0000c0 be a0 36 be 98 aa d6 3d 1d be 81 be 32 80 16 be
       -0.17834756 0.10481757 -0.25340357 -0.1469734
0000d0 40 34 16 3e af 90 17 3e 29 00 ba be aa 7c b9 bd
       0.1466837 0.14801286 -0.36328247 -0.09056981
0000e0 42 a2 13 be e7 4b 66 bb ea 4d 8b 3d 96 26 0f 3d
       -0.14417365 -0.0035140456 0.0680197 0.034948908
0000f0 58 64 ef bd b9 02 94 be f5 83 9d bd 58 d2 8e 3e
       -0.11689061 -0.28908327 -0.076911844 0.27894855
000100 d0 e6 56 3d 30 ad 12 be 0c 85 a1 bd 97 14 2a 3d
       0.052466214 -0.14323878 -0.07886705 0.041523542
000110 cc b1 62 bd 04 05 f8 3d e7 f4 68 be 2f d4 c1 bb
       -0.05534534 0.12110332 -0.22749673 -0.005915187
000120 03 95 d2 3d d4 88 60 bd ed 9d 97 bd 45 60 97 bb
       0.10282328 -0.05481799 -0.07403169 -0.0046196305
000130 d5 b3 b1 3e d9 87 b1 3d 43 52 02 bc c9 33 8b 3d
       0.34707513 0.08668489 -0.007954183 0.067969866
000140 7c cd 79 be b3 4e f2 be e3 73 04 bf c6 7d e2 be
       -0.24394792 -0.47325668 -0.5173933 -0.44236583
000150 b7 d3 03 3d fb 54 d2 bd 00 e6 68 be 72 96 0b be
       0.03218433 -0.10270115 -0.22743988 -0.13631609
000160 4c bc de bc 21 6b 58 3d 39 21 2f 3e 5b 7b 5c 3e
       -0.027189396 0.05283654 0.17102517 0.21531431
000170 c5 fe b7 3c 51 c8 69 3d f1 3a af bd 73 8c 88 3b
       0.02246035 0.057075802 -0.08556164 0.0041671335
000180 43 40 2f 3d 0a 4a 26 3e ff 41 61 3e d4 97 0a 3d
       0.042785894 0.16239181 0.21997832 0.0338362

conv1.bias f4 [4]
000000 46 06 10 3e 41 62 51 3d 0f 98 8b be a8 c8 fb 3d
       0.14064893 0.051119093 -0.2726445 0.122941315

conv2.weight f4 [8, 4, 5, 5]
000000 a1 fe 1f 3e ac cf 88 bd 6e 5b 42 be f0 67 07 3e
       0.15624477 -0.06680235 -0.1898019 0.13223243
000010 6d 85 55 3d bc 89 dc 3d a3 0e 20 be 90 2a 34 be
       0.052129198 0.10768458 -0.15630583 -0.17594361
000020 d3 a7 2b 3d 5e 71 21 3e 82 32 7a be 80 8e 8d be
       0.041908097 0.15765902 -0.2443333 -0.2764778
000030 72 f9 df bd 7f 25 15 3e eb c0 39 3e cb f6 2e bc
       -0.1093625 0.14565085 0.18139999 -0.010678957
000040 29 7f e7 3c 3c 73 39 3e 9d f7 2c 3e e9 74 8b b8
       0.028258877 0.18110365 0.16891332 -6.649813e-05
000050 26 ac 0a 3e 83 d2 27 3e 48 73 1a 3e 45 69 eb 3c
       0.13542232 0.16388898 0.15083039 0.02873672
000060 10 11 b1 3d 7d 0f 94 3d 7c 05 27 3e 01 e2 46 3e
       0.086458325 0.07229517 0.16310686 0.19422151
000070 5f f6 da 3d d0 63 15 be 85 e0 fe 3d 67 f4 82 3e
       0.10691523 -0.14588857 0.124451675 0.2557709
000080 2e 21 2f 3e f8 dc 52 3c 9c 02 88 be 36 f6 89 3d
       0.17102501 0.012870066 -0.2656449 0.06736414
000090 d1 c4 22 3e 7f 62 be 3b 2b 2b db bd db 18 7e be
       0.15895392 0.0058100815 -0.10701593 -0.24814169
0000a0 17 47 0c 3e b0 13 78 bd ec 77 2b be 2a 81 33 be
       0.13698994 -0.06056565 -0.16744965 -0.17529741
0000b0 ab 9d 0c be 05 5b 67 bd 0d ef 51 bc 91 1a fb bd
       -0.1373202 -0.056483287 -0.012813342 -0.122609265
0000c0 36 90 19 be 28 a9 f6 bd d6 6b d9 3b 0c b2 4b be
       -0.14996418 -0.12043983 0.0066351695 -0.19892138
0000d0 d9 db 19 be ca 3d 22 be c3 8d 11 be 10 0b 01 be
       -0.15025271 -0.15843883 -0.14214234 -0.12601876
0000e0 7e 9f 46 bd 8a 8d bf bd e9 36 35 3c aa 55 2a 3d
       -0.048491947 -0.09353168 0.011060455 0.041585602
0000f0 ea 5e e1 3b ec 77 a4 bd 06 d9 7a bd 55 89 78 3e
       0.0068777697 -0.08030686 -0.061242126 0.24271138
000100 a1 11 4f 3e 8b a4 f8 3a b6 3e a4 bd 31 74 11 bd
       0.20221569 0.0018969936 -0.08019774 -0.0355112
000110 98 46 64 bd b9 84 d2 bb 33 3e cc bc dc 90 1b be
       -0.055731386 -0.006424513 -0.024932003 -0.15191978
000120 bf 78 b0 bd 31 42 b7 bd bc ba bd bd ca 27 44 bb
       -0.086167805 -0.08948172 -0.092641324 -0.0029930943
000130 18 05 b7 bd fa fc 0b bd ee 63 f9 bd ba d8 a4 bd
       -0.089365184 -0.034176804 -0.12177263 -0.0804915
000140 16 2c 15 be 08 d5 d5 3c 3e 06 5f bd 59 50 4d 3d
       -0.14567599 0.026102558 -0.054449312 0.050125454
000150 ce 60 fc bd e4 23 f0 3c d3 2a 3f 3d 67 a3 a5 bd
       -0.123231515 0.029313989 0.0466717 -0.08087807
000160 7e d7 6c be 8b 9a 29 be 64 71 1c 3e cb 78 6e be
       -0.23129079 -0.1656286 0.1527763 -0.23288266
000170 7f fa ef be 69 d7 2b bf 12 5f 0b bf 13 8e 1f 3d
       -0.468708 -0.67125565 -0.5444194 0.038953852
000180 28 7a 75 be 20 f9 ea be 26 f6 26 be 71 22 5d bd
       -0.2397238 -0.45893192 -0.16304836 -0.053987924
000190 79 4d 26 3c e9 ab 09 bd 3d 26 03 be c1 2c 6d be
       0.010150307 -0.033611212 -0.12807555 -0.23161604
0001a0 85 53 65 be 97 ea 92 3d d6 9d 01 3d f5 77 91 3d
       -0.22395141 0.07173651 0.031644665 0.07102958
0001b0 32 fc 48 3e d4 6e 30 3e a8 8a b4 3d 34 8d 33 3c
       0.19627455 0.17229778 0.08815509 0.010958958
0001c0 b7 fd 88 3e 85 63 21 3e 02 89 75 3e 5e 0d f4 3d
       0.2675607 0.1576062 0.23978046 0.11916612
0001d0 01 58 05 3e af 24 c1 3d 69 85 92 3e ea 31 02 3e
       0.13021852 0.09430825 0.2861741 0.12714353
0001e0 a7 6a 01 3d 1d f8 dd 3c 0f 9f 34 bc 79 7b f1 3d
       0.031595852 0.027095849 -0.011024251 0.11791129
0001f0 ad b8 94 3e 82 da 92 be be 4b 6f bd 59 e3 c2 ba
       0.29047146 -0.28682333 -0.058421843 -0.001486878
000200 9c b4 0c 3d 53 0e 0d bd 43 b1 98 be 2c ed 3b be
       0.03435193 -0.03443749 -0.2982274 -0.18352193
000210 96 21 93 be 5c 29 7d be 1d 09 65 be 09 b9 2e be
       -0.28736562 -0.24722809 -0.22366758 -0.17062773
000220 16 21 dc bd d8 3f c3 bd 9a 65 11 be fb 6b 3e 3e
       -0.10748498 -0.095336616 -0.14198914 0.18595879
000230 07 42 96 bd ee b4 ba bc 54 17 11 3e 95 06 d0 3d
       -0.073368125 -0.022791352 0.14169055 0.101575054
000240 92 85 6f 3e ed ed e3 3c a0 ef 30 3e 2d 87 6c 3e
       0.23390797 0.027823413 0.1727891 0.2309844
000250 e0 8f 24 3e 91 e5 41 3d 70 a9 88 be 52 b8 58 3e
       0.16070509 0.047338072 -0.2669177 0.21164063
000260 17 37 f5 bd a2 cd a9 bd f1 55 e5 3d 1a 98 91 bd
       -0.11973398 -0.082911745 0.11198033 -0.07109089
000270 53 eb 70 bc 4c 27 02 bf df 65 94 be 9e 3b ec bd
       -0.014704543 -0.5084121 -0.2898397 -0.115348086
000280 74 d4 0c bd aa b9 5f 3d 80 15 2d be 31 06 e4 bd
       -0.0343823 0.054620422 -0.16902733 -0.111339934
000290 8f e2 1f be c9 4f 09 be 6b d3 00 bd 5f b9 9c 3d
       -0.15613769 -0.13409342 -0.031451624 0.07652544
0002a0 6a 2a 9e bd e9 89 03 be 5b da 8d be 82 81 8a bd
       -0.077229336 -0.12845577 -0.27705655 -0.06762983
0002b0 b3 13 9f bd ba 6c bb be 7d f3 eb be a1 55 a5 bd
       -0.07767429 -0.3660639 -0.46084204 -0.08072973
0002c0 07 42 0c be 6a 45 81 bc fd 70 09 3d 04 15 80 bd
       -0.13697062 -0.01578017 0.03355502 -0.062540084
0002d0 d7 bd 7c bd 68 30 7a bd cc df ee 3d 7a 28 2d 3d
       -0.061704483 -0.06108132 0.116637796 0.04227493
0002e0 6f 0c 5e bc f4 5c 36 3e 89 49 25 3d 46 9f 11 3e
       -0.013552769 0.17808896 0.04035333 0.14220914
0002f0 da 63 e4 3d ea b1 b4 3d ca 17 1f 3d d8 db 0e bc
       0.11151858 0.08822997 0.038841046 -0.008719407
000300 36 32 0d 3e cc 16 f9 3a dd 92 d8 bd ee c5 13 3d
       0.13788685 0.0019003986 -0.10574887 0.036077432
000310 62 06 53 3d 36 f1 91 3d f8 6f 41 be 06 9a c4 be
       0.05151976 0.071260855 -0.18890369 -0.3839876
000320 7d 24 9f 3d cf 2e 1f 3d c0 a3 d8 3d 5d 27 57 3e
       0.077706315 0.038863 0.10578108 0.2101111
000330 a6 73 80 3d fe 83 3e 3c fe 30 77 3d 89 45 c6 3d
       0.06272058 0.011628149 0.060349457 0.096812315
000340 19 17 93 3d a0 16 50 3e b5 e7 b9 be f8 f9 84 be
       0.0718214 0.20321131 -0.3630959 -0.2597196
000350 0f 01 a6 be 74 42 01 be 3d 42 92 3c 6a d8 88 be
       -0.32422683 -0.12623006 0.01785385 -0.2672761
000360 5b 91 83 be fd 54 06 bf 02 32 e4 be d1 72 9d be
       -0.25696835 -0.5247343 -0.44569403 -0.3075166
000370 c5 da 65 3d 80 ab a9 be ba 56 05 bf e0 54 3f be
       0.056116838 -0.33138657 -0.5208546 -0.18684721
000380 30 e5 08 be d9 75 07 3e a9 61 55 3e 15 ab 22 3e
       -0.13368678 0.13228549 0.20838036 0.15885575
000390 c1 a0 15 be 19 9a 50 be 91 c4 86 3c 72 c0 30 3e
       -0.14612104 -0.20371284 0.016451152 0.17260912
0003a0 93 19 91 3e e3 d0 c6 3d cc aa 12 bd 86 91 d9 bc
       0.28339824 0.09707811 -0.035807416 -0.026558649
0003b0 a5 2f ae 3d 77 72 8d 3e 57 e8 02 3e 21 54 18 3e
       0.08505181 0.27626392 0.12783943 0.14875843
0003c0 2c 04 84 bd ec 6b e5 bd 65 95 09 3e 4f 9e 03 3e
       -0.06446108 -0.11202225 0.13435896 0.12853359
0003d0 a0 45 3d 3d 0a b0 11 be 31 ac 2c be d2 2c 65 be
       0.046208978 -0.1422731 -0.16862561 -0.22380379
0003e0 a9 8f 70 bd 55 19 2b bd 45 27 d8 3d 29 9c 1c bc
       -0.058730755 -0.041772205 0.10554365 -0.009558716
0003f0 0d cd 15 be 9d 7c 0e be 10 33 ae bd 56 62 00 3d
       -0.14629002 -0.13914724 -0.08505833 0.03134378

conv2.bias f4 [8]
000000 68 7b dc 3c 96 00 a4 3d 70 93 cd 3d 6d 71 1a 3d
       0.026914313 0.08007924 0.10037887 0.037705828
000010 81 ea 10 bd ee 6c 7c 3d 2c 08 23 3e 09 14 dc 3d
       -0.03537989 0.06162732 0.15921086 0.10746009

conv3.weight f4 [16, 8, 3, 3]
000000 89 5f 44 3d ba d5 50 be 4b ba 51 be 97 89 1e be
       0.047942672 -0.2039403 -0.20481221 -0.15482174
000010 57 54 c3 bd a2 a6 97 3d 24 4b 01 be 0a 3c 0c 3e
       -0.09537571 0.074048296 -0.1262632 0.13694778
000020 22 6f a6 3e 3e be 15 be fb 5d f7 3c ba ef 2e 3d
       0.32506663 -0.14623353 0.03019618 0.04270909
000030 13 0d 04 3e 3c 53 d3 3d df c2 51 3e 7e ba b6 3d
       0.12895612 0.1031861 0.20484494 0.08922289
000040 c3 43 9c 3d 7b a1 1a 3e d1 e6 d0 3c f9 b3 2f 3e
       0.07630112 0.15100662 0.025500687 0.17158498
000050 1f c6 cf bc 50 64 99 bd af 7d 75 3e c2 af c2 3c
       -0.025363026 -0.07489836 0.23973726 0.023765448
000060 6f 69 62 be 3d d5 63 be c9 5d 0a be 2a 52 e8 bd
       -0.22110532 -0.22249313 -0.13512339 -0.113437966
000070 6c c5 9c 3d c2 c3 55 3e 34 17 1a 3d 18 69 c0 bd
       0.07654843 0.20875457 0.037619784 -0.09395045
000080 c1 67 d6 3d b6 3d 9e be 28 0e b9 be 04 58 4f bd
       0.10469008 -0.30906457 -0.36143613 -0.050621048
000090 3c 91 76 3e 03 cd 5c be e1 ff b1 be f4 09 8f bb
       0.2407884 -0.21562581 -0.34765533 -0.0043652
0000a0 34 ee 5a be a2 fa 97 be 4f d6 b5 be fb 52 c6 bd
       -0.2137993 -0.29683405 -0.35515067 -0.09683796
0000b0 69 d5 07 3e dd da 70 3d 06 c8 e5 3d b2 90 e2 3b
       0.13265003 0.058802474 0.11219792 0.0069142217
0000c0 fd 44 81 3e 2b b9 89 3e 1a b2 40 3e ca ee fb bd
       0.25247946 0.26899084 0.1881794 -0.12301405
0000d0 af 2e 1f 3d 43 4f a1 3e 99 b2 34 3e 31 c7 9d 3d
       0.03886288 0.31505784 0.17646255 0.07704008
0000e0 8c cc 5b bd 28 76 b4 bd a5 81 20 3e 99 50 df bd
       -0.053661868 -0.08811599 0.15674455 -0.10904045
0000f0 13 60 57 be 5e ac 08 be 7a 5e 25 3e dc 8c 88 3d
       -0.21032743 -0.13347003 0.16149321 0.06667492
000100 84 59 d6 bd c3 24 9c be 06 84 0c be fc ef f0 bd
       -0.104662925 -0.30496797 -0.13722238 -0.117645234
000110 74 3d 1b 3e 04 66 4e be 98 d5 87 3d dd 61 b8 3e
       0.15160161 -0.20156103 0.06632537 0.36012164
000120 88 77 f8 3b 28 77 27 3e 6b 3a d3 3e 90 4a 37 3e
       0.0075826086 0.16354048 0.41255507 0.17899537
000130 38 4c d1 3d f6 35 87 be 7e 86 61 be 2a db da be
       0.10219616 -0.26408356 -0.22023961 -0.42745334
000140 9b a1 1f be 5f 93 5a be 30 e6 8c be c4 34 98 be
       -0.15588991 -0.2134528 -0.2751937 -0.29727757
000150 31 ee 30 3e e6 52 57 be 0f c4 f0 be f0 e7 55 3e
       0.17278363 -0.21027717 -0.4702458 0.20889258
000160 fe 38 1c 3e b5 91 68 3e c6 18 5b 3e d8 de 37 3d
       0.15256116 0.22711833 0.21396169 0.044890255
000170 a2 8b 99 3e 45 81 af be 61 e5 da bd 12 3f 8a bd
       0.29989344 -0.34278312 -0.10688282 -0.06750311
000180 ab 40 85 be de ce 15 be 39 8b ae be 13 04 8f be
       -0.260259 -0.14629695 -0.34090593 -0.27932796
000190 e3 f6 0a be 67 5d 20 3e e7 24 50 be ed 8f f7 bd
       -0.13570742 0.1566063 -0.20326577 -0.120879985
0001a0 df 4a 0c 3d e0 c9 82 3e 64 33 d6 3d ff 6f 9a 3d
       0.03425109 0.25544643 0.10459021 0.07540893
0001b0 82 77 33 3e 04 79 c6 3e ba ef 2a 3e 20 34 6a 3e
       0.17526057 0.38764203 0.16693011 0.22871447
0001c0 2f 2b 07 3c a4 47 e0 bd ae c5 be bd 8e 54 1b bd
       0.008250042 -0.10951164 -0.09315048 -0.037922435
0001d0 d0 a3 07 bc 60 a6 1e 3e 15 a8 4b 3d 4c fd 8a bd
       -0.008278802 0.15493155 0.049720842 -0.06786594
0001e0 7a 5e 8f be e3 c6 7c be 59 71 83 be 67 ed 73 bd
       -0.28001767 -0.24685244 -0.25672415 -0.059552576
0001f0 c4 64 ba bd 7a 53 7b be 5a ee 05 3e 99 15 07 3e
       -0.09101251 -0.24543563 0.13079205 0.13191833
000200 0b 81 c5 3c 99 3d 6f bd 63 b6 c9 bd 3d 14 c7 bd
       0.024109384 -0.058408353 -0.09849241 -0.09720657
000210 15 85 33 bd 96 a7 a7 bd bb 96 a6 be bf ba 18 3e
       -0.04382809 -0.08186261 -0.32536873 0.14914988
000220 29 1c a3 3e a0 d1 92 3e 50 8c 0f 3e e8 21 72 3d
       0.31857422 0.28675556 0.14018369 0.059114367
000230 14 46 44 be 13 45 34 3e 02 22 8b be 75 20 93 be
       -0.19167358 0.17604475 -0.27174383 -0.287357
000240 09 85 21 3e e4 d1 c9 bd 47 f4 2f bd 22 08 0e 3d
       0.15773405 -0.098544866 -0.04295757 0.034675725
000250 17 b1 11 3d cf c3 fc 3d 94 a9 28 be e9 71 5e 3e
       0.035569277 0.12342035 -0.16470939 0.21723141
000260 34 47 f4 3d df cd 97 be c5 e5 cd be 25 69 83 bd
       0.119276434 -0.29649255 -0.40214363 -0.06416539
000270 3f b9 1d 3e c7 33 f8 bd 17 d3 31 3e 88 ff dd 3d
       0.15402697 -0.12119251 0.1736568 0.10839754
000280 e0 bc c4 3d dd f6 79 bd 32 ac c9 3d 9b 12 84 3d
       0.096063375 -0.061026443 0.09847297 0.06448861
000290 f5 6c 15 bf 5b 80 bd be 1c 33 d3 be 66 f4 75 be
       -0.5836938 -0.3701199 -0.4124993 -0.24019012
0002a0 47 9b 88 be c4 a5 5f be dc 84 4f be 86 c9 8b 3d
       -0.26680967 -0.21840578 -0.20265526 0.06825547
0002b0 9d 38 f6 bd 77 79 a0 3c 72 83 ba 3e 1d 0c 6f 3c
       -0.12022517 0.019589169 0.3642841 0.01459029
0002c0 a0 1a cd bd b6 9b 0b 3f a8 9b 51 3e 57 fe 4d 3d
       -0.10014844 0.5453447 0.20469534 0.050291386
0002d0 e9 a6 da b8 10 09 37 be 14 ac 8f 3e d8 9f c3 be
       -0.000104261395 -0.17874551 0.28060973 -0.3820789
0002e0 86 22 96 3c 84 f9 ae 3e c0 be 0f be 49 46 86 bc
       0.018327009 0.3417474 -0.14037609 -0.016390936
0002f0 4e 7c a0 bc 5f 32 95 bc 00 9c 4a bd b5 0a 83 be
       -0.019590523 -0.018212495 -0.04946518 -0.25594106
000300 17 12 7f be 2d da f5 3a 15 98 4b bd 42 7a 24 be
       -0.24909244 0.0018757038 -0.049705584 -0.16062263
000310 ef 0c c7 bc 61 97 87 3d d4 5b 29 be b6 a5 b2 bd
       -0.02429816 0.0662067 -0.16538936 -0.08723013
000320 42 36 47 be ac 36 c9 3b 4d 0e 12 be f0 bb 17 3c
       -0.19454291 0.0061405506 -0.14263268 0.009261116
000330 47 d5 b6 3d 52 d4 1d 3e 88 a9 59 3e e9 3b c0 3d
       0.08927398 0.15413025 0.21256077 0.09386427
000340 ff 1d a4 bd 42 dc 2d bd c3 97 9e be 93 f8 d3 3d
       -0.08013534 -0.042446382 -0.3097516 0.10350146
000350 28 a8 e3 3d 6e 12 b3 3b f1 49 74 3e 09 fe 91 3e
       0.11116058 0.0054648435 0.23856331 0.28514126
000360 f8 7c 35 3e ab dd 7c 3e 36 5e bd 3d c5 9b 2a 3e
       0.17723453 0.24693935 0.09246485 0.16660984
000370 02 4c 52 bc 27 98 e3 be 74 58 de be ef aa 67 be
       -0.0128355045 -0.4445202 -0.4342686 -0.226238
000380 de 48 77 be cf 94 60 3d a8 c7 a1 bc 16 67 d4 3d
       -0.2414889 0.054829415 -0.019748524 0.103712246
000390 ae 33 81 be 5d 23 82 bd 17 78 44 be 34 4f 95 3c
       -0.2523474 -0.06354401 -0.19186436 0.018226244
0003a0 ef 11 e5 be 2c ee 27 bf 23 ca b3 3d c1 eb df 3d
       -0.44740245 -0.65597796 0.08778789 0.10933638
0003b0 15 db 9b 3e 2c 7d 81 3d a2 e3 60 3e 6b 8e 5e 3e
       0.30440584 0.06322703 0.21961835 0.21734016
0003c0 33 bc 42 bd 0f d7 51 be 73 42 7b 3d 08 71 00 3e
       -0.047542762 -0.20492195 0.061342668 0.12543118
0003d0 4d 5e 6c 3e 80 7f f3 bb 6a 7d 69 3d 66 d8 10 bc
       0.23082848 -0.0074309707 0.05700437 -0.008840656
0003e0 f1 47 07 be 7c 41 1b bd 98 48 28 3b 3b 92 c1 be
       -0.13211037 -0.037904248 0.0025678035 -0.37806877
0003f0 c2 a4 75 3e a9 f5 79 3e 67 af a9 bd 27 d8 75 3e
       0.23988631 0.24410118 -0.082854085 0.24008237

conv3.bias f4 [16]
000000 13 fc d1 3d e5 d4 32 3e 0b f0 97 bd 7f 17 e5 3e
       0.102531575 0.17464025 -0.074188314 0.4474449
000010 b9 c7 a0 3c 79 be 05 be 86 38 37 be ff 0c 80 be
       0.019626485 -0.13060941 -0.17892656 -0.25009915
000020 77 bb d6 bb 2b 4c f9 ba 16 e1 7b bd 56 b7 8b 3e
       -0.0065531093 -0.0019019892 -0.061493956 0.27288312
000030 a5 00 f5 bd f7 3f da bd cf 68 8a 3d e5 f0 2e 3e
       -0.119630136 -0.106567316 0.06758272 0.17084081

conv4.weight f4 [64, 16, 3, 3]
000000 46 50 7f be 43 a1 23 be eb e6 92 3a 4a ad 79 be
       -0.24932966 -0.15979485 0.0011207735 -0.24382511
000010 bc b2 ea bc aa 2c c8 ba 7f 8d ce bc c3 bc 3c be
       -0.02864968 -0.00152721 -0.025213955 -0.18431382
000020 d5 85 b2 3a c9 bc bb be 80 60 3a bd a7 f3 9f 3d
       0.0013620207 -0.3666747 -0.045502186 0.07810145
000030 81 84 35 3d c4 8b 27 be 89 fd b8 be df 81 65 3d
       0.04431582 -0.1636191 -0.36130932 0.056032058
000040 fe 2a 22 bf 2f c1 05 bf aa 10 03 3e 64 34 89 3e
       -0.6334685 -0.522479 0.12799326 0.26797783
000050 6d ff d7 bd 3b 34 21 be c0 ad be be c9 fd 89 be
       -0.105467655 -0.1574258 -0.37241936 -0.26951435
000060 29 e9 ed be 04 8d 18 be 59 4f 35 be ab 62 aa be
       -0.4646695 -0.14897543 -0.1770605 -0.33278403
000070 29 34 92 3d 10 d3 04 3e eb 10 13 3e 2d ef c4 3d
       0.07138855 0.12971139 0.14361922 0.09615932
000080 57 3c 05 be ad 54 6f 3e a4 54 c9 3d 94 f5 d5 bd
       -0.13011299 0.23372145 0.09830597 -0.10447231
000090 6c 20 21 be 54 ed d5 bd 80 da 1f be 63 a7 a9 3d
       -0.15735024 -0.10445657 -0.15610695 0.082838796
0000a0 50 67 e0 bd 14 b6 39 be 7c 9b d0 3d d0 98 02 be
       -0.10957205 -0.18135864 0.10185906 -0.12753606
0000b0 90 9f 10 be 84 41 d8 bd 5a 73 80 bd 71 bc b4 3d
       -0.14123368 -0.10559371 -0.062720016 0.08825005
0000c0 de 7f 3e be 32 71 06 3d 19 34 b5 3d 05 f5 bc be
       -0.18603465 0.032822795 0.088478275 -0.36905685
0000d0 92 1a 36 be 49 4b 63 3e 6e a8 ce be 3a d5 02 bf
       -0.17783573 0.22196688 -0.40362877 -0.5110661
0000e0 6b 99 0a be 8e 1d af be d6 4c 4c 3d a9 5b c9 3d
       -0.13535087 -0.34202236 0.049877964 0.09831936
0000f0 b9 3d 1e bf f0 89 02 bd fa 39 2c 3e 40 9f 02 be
       -0.6181293 -0.03186983 0.16818991 -0.12756062
000100 49 89 21 be 8a 55 9b bd 6b b4 46 3d 18 2a 2a 3e
       -0.15775026 -0.07584675 0.048511904 0.1661762
000110 bd 85 74 3e 92 9e 0e 3e 44 23 a9 3e 49 f1 96 3e
       0.23879142 0.13927677 0.33034718 0.2948096
000120 d9 25 ce bc 88 6e 71 3e 82 ef 1e 3e 16 81 38 be
       -0.025164532 0.2357732 0.15521052 -0.18017992
000130 14 4a 67 bd 5c 8b 63 3d 75 53 ef be 6f 20 97 be
       -0.05646713 0.055552825 -0.4674336 -0.29516932
000140 01 70 70 b9 a8 7e 69 3c 69 10 56 be 86 63 03 be
       -0.00022929908 0.014251389 -0.20904697 -0.12830934
000150 0d 06 32 be 2f 35 de bd 1e c4 06 3d 40 8b 68 bd
       -0.1738512 -0.10849988 0.032901876 -0.056773424
000160 35 e2 18 bc c6 7b 79 3e 25 80 5c 3e 41 a9 49 3e
       -0.009331276 0.24363622 0.21533258 0.19693471
000170 2a ad f2 bd b5 01 9d 3d 76 d3 6c be ed c2 93 be
       -0.11849435 0.07666341 -0.23127541 -0.28859654
000180 8e 6d 63 bd b5 37 76 be a2 2e 6e bd 1d 66 91 3d
       -0.0555244 -0.24044688 -0.05814994 0.07099555
000190 49 2c ea bc 40 c5 47 3c 4a bb 31 3e f5 85 71 3e
       -0.02858557 0.012193024 0.17356601 0.23586257
0001a0 e3 04 1b bd 8d f6 62 3e 34 e3 23 3d 5f 99 e2 be
       -0.037846457 0.22164364 0.0400116 -0.44257638
0001b0 05 3f cb bd 2a 4e 90 be 85 10 a2 bd 2b 33 46 be
       -0.099241294 -0.28184634 -0.07913307 -0.19355457
0001c0 50 6b 9f be d6 43 d6 3c 34 90 3d bd 49 66 bd be
       -0.3113656 0.026155394 -0.0462801 -0.369921
0001d0 71 db de bc 35 44 d8 3d e1 6f 3d bd 14 20 a8 bd
       -0.027204247 0.105598845 -0.046249274 -0.082092434
0001e0 a5 b8 46 3d 1d ef 67 be 61 62 a5 3d cf f3 c1 3d
       0.048515934 -0.22649808 0.08075405 0.09470331
0001f0 db 3b a1 bc 81 02 1d 3d c7 95 01 3e 18 2b ca 3d
       -0.019681862 0.038332466 0.12654792 0.09871501
000200 98 8b 80 3d 60 62 c7 3d 24 3c 91 be 83 36 b0 be
       0.062766254 0.097355604 -0.28366196 -0.3441659
000210 6b c9 32 bd 64 56 58 be 28 25 dc 3d a5 20 c1 3b
       -0.04364912 -0.21126705 0.107492745 0.005893784
000220 4f b4 ff 3d 70 89 9b be 3b 48 a1 bd 0f 38 d6 bd
       0.12485563 -0.30378294 -0.07875105 -0.10459911
000230 25 ca bc be df 2f 84 be ae 7a c8 bd c9 13 8f be
       -0.36872974 -0.25817773 -0.09789024 -0.27944782
000240 db 26 33 bd 50 2e 5c be aa cd b1 bd db a1 38 3e
       -0.043738227 -0.21502042 -0.086818054 0.18030493
000250 69 71 54 3e cb 8d 08 be 21 cc 41 3e 7c e5 86 3e
       0.20746388 -0.1333534 0.18925525 0.26346958
000260 de f0 06 3e eb c4 0a be 43 2d 65 3d 8b ba 46 be
       0.13177821 -0.1355168 0.055951368 -0.19407098
000270 15 5b fa bd fd 7f cc bc 25 06 d9 bc 47 60 5e bd
       -0.12224404 -0.024963373 -0.026492188 -0.054291036
000280 40 cc 0f bf 60 b3 cd be 2d 3d ed be 6a 7b b1 3d
       -0.56171036 -0.40175915 -0.46335736 0.086661175
000290 d8 fd dc 3d e4 58 6c bd e4 b5 44 be c9 ec bd 3d
       0.10790604 -0.05770196 -0.19210011 0.09273679
0002a0 2a 71 da bd d1 67 87 3c c6 dd 3e be b2 60 b3 bd
       -0.106661156 0.016528996 -0.18639287 -0.087586775
0002b0 ad 2f c7 be 4f 41 31 be 3e b4 55 3c d9 eb 1b be
       -0.3890356 -0.1731007 0.013043461 -0.15226687
0002c0 81 28 50 be b1 e3 5b be 75 8e 86 bd c7 b0 ba be
       -0.20327951 -0.21473576 -0.0657014 -0.36462995
0002d0 99 84 a9 3d e5 33 59 be 7c 79 4e be 47 c4 66 be
       0.08277244 -0.21211202 -0.2016353 -0.22535811
0002e0 71 2b 94 be 4f 12 f8 be 07 4c 59 3d 33 09 ee ba
       -0.28939393 -0.48451468 0.05305102 -0.00181607
0002f0 74 e8 b4 bd df 34 f0 3c 1a 04 fd bd 0b b3 40 be
       -0.088333994 0.029322086 -0.12354298 -0.188183
000300 e0 09 80 3d f7 f3 63 bd 6e 8d f2 be 86 f6 24 3e
       0.062518835 -0.055652585 -0.47373527 0.16109666
000310 13 ea 23 3e 33 f8 72 3a ef 72 81 be 3b 97 9d be
       0.16007261 0.0009268552 -0.25283 -0.30779442
000320 fc 05 ce 3d 3d dc 0c be 90 ce 82 be 4c 32 b5 3d
       0.10059735 -0.13755889 -0.2554822 0.08847484
000330 8c 3d 37 bc 54 3b c4 bd e2 85 c5 be 05 22 1b bd
       -0.0111841075 -0.095816284 -0.38578707 -0.03787424
000340 4f 82 5b 3e f7 4b 7d 3e 0a 03 97 be 7c e6 3e 3e
       0.21436428 0.2473601 -0.29494506 0.1864261
000350 41 b9 4e 3e 01 13 d8 bc 62 88 60 3d 9e fd fc bd
       0.20187856 -0.02637625 0.054817565 -0.12353061
000360 75 20 05 3f 6b 78 4d 3e 20 9f 28 be 8c f1 74 3e
       0.5200265 0.20065467 -0.16466951 0.23920268
000370 39 9b db bc 03 36 b4 be 40 a4 38 be c8 6f e5 bd
       -0.026807414 -0.35197458 -0.18031406 -0.11202961
000380 07 39 37 be a5 0e ac bd 0c 5b 96 bb 4b 01 c0 3d
       -0.17892848 -0.08401231 -0.0045884904 0.093752466
000390 bf e4 f1 3d 8c 65 1f be cc cd 80 bd fd 11 04 3e
       0.11811208 -0.15566081 -0.06289253 0.12897487
0003a0 83 18 8a bc 8a df 17 bc 81 a0 31 be 5f 28 81 be
       -0.016857391 -0.009269604 -0.17346384 -0.25226113
0003b0 af 52 32 be 5a 54 8c bd 77 20 b2 bd 51 71 78 ba
       -0.17414354 -0.06852026 -0.086975984 -0.00094773347
0003c0 30 b2 47 bd a9 c5 46 bd ea c5 28 bc 94 df c6 3e
       -0.048753917 -0.048528347 -0.010301093 0.38842452
0003d0 50 86 55 3e 99 f7 78 be cf bf 64 3d ee 0b ac bd
       0.20852017 -0.24313201 0.055846985 -0.08400713
0003e0 1e da 78 be e5 27 47 be 44 c1 b6 3c 53 32 50 be
       -0.24301955 -0.19448812 0.022308953 -0.20331697
0003f0 26 8b 06 be 28 90 65 be 74 1e a6 be 03 87 0a be
       -0.13139018 -0.22418272 -0.3244511 -0.13528065

conv4.bias f4 [64]
000000 f5 6c 61 3c b9 a0 1a be 01 10 99 bc f9 85 63 be
       0.013758888 -0.15100373 -0.01868439 -0.22219075
000010 ff 3d 6c 3d 21 3c d4 bd ee 8d 35 3d 86 7b 09 bd
       0.05767631 -0.10363031 0.044324808 -0.033565067
000020 a3 24 4c bc 8e 4c 53 3d dc 27 1c bd 7a fd 08 be
       -0.012459907 0.05158668 -0.03812395 -0.13377944
000030 9d f7 53 bc 65 7a 11 3d 57 a6 e0 bd ac 07 fc bc
       -0.012937454 0.035517115 -0.10969227 -0.030765377
000040 86 a4 45 be 14 66 98 bd 20 4e cb 3c ca 02 47 3b
       -0.19301042 -0.07441345 0.024817526 0.0030366653
000050 85 c9 93 bd b6 fe f4 3d 63 ca d3 3d fd c5 aa 3c
       -0.07216171 0.11962645 0.103413366 0.020846361
000060 51 7a 16 be c8 cb 04 be 52 4f 6c be 1b ac 64 be
       -0.14695098 -0.12968361 -0.23077133 -0.22331278
000070 e7 87 60 bd 62 ba 2a bd cc 4d 5b be 78 47 1a 3d
       -0.054817107 -0.041681655 -0.21416396 0.037665814
000080 9c ee a9 3c 8d 8f bb be 91 54 db bb df 00 8e bd
       0.02074366 -0.36632958 -0.0066934307 -0.0693376
000090 5c b5 ad bd 30 81 81 be 3c 63 8a bd c7 3c 6b bc
       -0.08481857 -0.25293875 -0.06757209 -0.014357752
0000a0 b1 55 85 b9 32 1b a3 3c bc 25 fc 3c b7 fd 34 bd
       -0.00025431582 0.019910429 0.030779712 -0.044187274
0000b0 47 ff 8f bd a3 d5 47 bd dc f1 6c be e9 ba 17 be
       -0.07031112 -0.048787724 -0.23139137 -0.14817394
0000c0 88 4c 1c bd b9 28 d7 bd 29 40 9b bd 61 36 d0 bd
       -0.038158923 -0.10505814 -0.07580597 -0.10166622
0000d0 94 b4 fa bc c0 ab ce bd e9 33 8b 3d 70 8f de bd
       -0.030603684 -0.100913525 0.067970105 -0.10867202
0000e0 2f 25 21 bd 3e c2 88 bd 74 27 f1 bd a3 b2 e0 bd
       -0.0393421 -0.06677674 -0.11775103 -0.10971572
0000f0 4c 7c 3a 3d 11 cf e7 bd 54 33 f9 3c f0 6e 9a 3d
       0.045528695 -0.11318792 0.030419983 0.07540691

fc1.weight f4 [144, 576]
000000 3f 34 bc bc 39 5c 46 bd 8f ac 0c bd dc 1e d8 bc
       -0.022974132 -0.048427794 -0.034344252 -0.026381902
000010 fe e6 93 bc ce ec b3 3c 8f ff 1a 3b e0 9a a5 bc
       -0.018054482 0.021963503 0.002365086 -0.020215452
000020 16 b5 37 bd 03 f5 fc bb 44 e5 bd 3b 9c 98 45 3c
       -0.04485043 -0.0077196374 0.005795153 0.012060311
000030 14 2b a9 3c 3e 3a 5b bd 12 8d 3e bc f7 6a 0e bd
       0.020650424 -0.05352234 -0.0116303135 -0.03476998
000040 82 39 fe 3c b0 59 fa bc 9b 6a 86 bd 5f f9 b3 bd
       0.031033281 -0.030560344 -0.06563302 -0.08787798
000050 cf e0 a6 bd e9 fe ee bc dd 41 ad bb 5c 53 74 3c
       -0.081483476 -0.029174285 -0.0052873925 0.014912453
000060 b5 b8 0b 3c 1a d2 f0 bc a4 97 99 bc 46 c0 d1 bc
       0.008527924 -0.02939706 -0.018749066 -0.025604378
000070 35 22 7c bc 63 db 43 bc f5 8d 35 bc af fe fb bc
       -0.015389015 -0.011954161 -0.0110812085 -0.030761091
000080 a7 cc 3f bc 74 1a 1e bd 25 81 85 bd b3 80 8a bd
       -0.011706508 -0.038599446 -0.06518773 -0.06762829
000090 e3 e5 d8 38 f9 8e 60 bc 4c 9d 0b bd 73 f7 0f bd
       0.00010342502 -0.013705962 -0.034085557 -0.035148095
0000a0 53 28 c5 bc 2f 0e d4 bc 0d 7c 9e 3c 8c 80 93 bc
       -0.02406708 -0.02588567 0.019346261 -0.018005632
0000b0 85 c2 41 3d 58 9b db bc e6 8f 78 3c 00 1f 65 3b
       0.04730465 -0.026807472 0.015171027 0.0034961104
0000c0 7f dd 1f 3d 1e c2 c0 3c 80 e6 70 3b db ad 9f 3c
       0.039029595 0.023530062 0.0036758482 0.01949208
0000d0 30 57 6b bc 0b 67 09 3d 6d 2c 82 bd f0 16 71 bd
       -0.014364049 0.033545535 -0.0635613 -0.058859766
0000e0 e6 8d 9e bd 4d 17 c1 bc 0c 0f 39 3d 75 7c 2a bc
       -0.07741909 -0.023570681 0.045180365 -0.010405649
0000f0 9b 30 b6 bc fe 80 44 bc 72 f5 fa ba 2a d9 06 3d
       -0.022239974 -0.011993645 -0.0019146635 0.032921948
000100 66 0e a3 bc b5 c4 bc 3b 56 d0 ea bc c5 71 c8 bb
       -0.019904327 0.005760754 -0.028663795 -0.006117078
000110 b4 4e 55 3d 93 b8 52 bb 30 b4 41 3c ba 93 08 bd
       0.05207701 -0.0032153472 0.011822745 -0.033344008
000120 dc 55 fc bc b3 51 e1 bb 6a 62 cc 3c 5a 44 8b bd
       -0.03080266 -0.0068761944 0.024949271 -0.068001464
000130 bf 85 4a bd 28 be 98 3c 3b d8 a8 bd e0 91 2d bd
       -0.049443956 0.018645361 -0.08244368 -0.042375445
000140 38 fe c3 3b 47 f6 76 bd c2 ed 8a bd b4 9e a3 bd
       0.005981233 -0.060293462 -0.0678363 -0.079892546
000150 93 f4 ad bb e6 bf 2d bd d9 ac c2 bc 8b 4d 6c bc
       -0.0053086965 -0.042419337 -0.02376406 -0.014422785
000160 be f8 2d bd cf 07 87 bb 73 74 0d bb 71 16 5d bc
       -0.042473547 -0.004120804 -0.0021584302 -0.01349412
000170 cc 4a 60 bb 5f ad d6 3c e7 94 17 3b a8 5c 33 3c
       -0.003422427 0.026205717 0.0023129524 0.010947384
000180 a2 dd f0 3c 28 22 fb bc 07 cc 4a bd 98 14 8a 3b
       0.029402558 -0.030655935 -0.049510982 0.0042138807
000190 57 55 a4 bd 7a d2 86 3a b9 db 3d 3c f4 8f 95 bd
       -0.0802409 0.0010286116 0.0115880305 -0.073028475
0001a0 39 fa 86 bc e8 0e 41 bc 54 84 10 3c df b6 63 bd
       -0.016476737 -0.011783339 0.008820612 -0.05559432
0001b0 a6 b4 fb 3c e1 7e ea bb f2 80 97 bd 55 ca 59 3b
       0.030725788 -0.0071562384 -0.07397641 0.0033232172
0001c0 ac e8 88 bd da 30 10 3d a0 15 1e bd aa 7e c6 3c
       -0.06685004 0.03520284 -0.038594842 0.02423032
0001d0 d8 50 e7 3c c4 95 15 bc ea 67 20 bc 72 b5 4c bc
       0.028236791 -0.009129945 -0.0097904 -0.012494432
0001e0 53 53 ad bc 5f 53 0b bd 11 e6 38 bd 04 d6 21 bc
       -0.021157896 -0.034015056 -0.045141283 -0.009877685
0001f0 dc e7 a1 bc 7e 5f 83 bb 5b eb 91 bd 45 ca 7a bd
       -0.01976388 -0.0040091863 -0.071249686 -0.061228056
000200 95 8b 0c bd cf c0 48 3a b9 8b 50 bd 4b ef 24 3c
       -0.034312803 0.0007658125 -0.0509145 0.0100668175
000210 73 4d 9f 3c 2e a7 ad bc 71 59 6c bd eb 4b 81 bb
       0.01944611 -0.021197882 -0.057702485 -0.0039458177
000220 d0 79 c9 3b 5f ce e7 bc 80 5e 16 bd 97 1b db 3b
       0.0061485544 -0.028296648 -0.036711216 0.0066866386
000230 82 a1 a1 3a fc d2 c4 bc 20 ef 44 bc 2e df 1d bd
       0.0012331458 -0.024026386 -0.0120199025 -0.03854292
000240 b6 5b a2 bc eb 76 26 3c 2f 25 32 3d 4b 9f 02 3d
       -0.019819122 0.010160188 0.043492492 0.031890195
000250 30 92 de bc e1 09 3d 3c 10 74 a3 3c b7 55 be bb
       -0.027169317 0.011538 0.019952804 -0.005808558
000260 26 d1 90 b9 4f 48 06 3c f4 73 8e bd ae 4d a1 3b
       -0.00027621648 0.008195951 -0.0695571 0.00492259
000270 be 95 cd 3c 40 e6 f3 bc 6c 24 27 3d ed 86 ea bb
       0.025095817 -0.029772878 0.04080622 -0.0071571977
000280 6d 3d a8 bd 07 56 6e bd 91 f2 70 bd ce bb 3b bd
       -0.08214841 -0.05818751 -0.05882508 -0.0458334
000290 a5 2a db bc 0d 8a ea 3a 6a 7e 83 bd 1b d4 a1 3b
       -0.026753733 0.0017893926 -0.06420596 0.004938615
0002a0 5b 10 bc bb fe 6e 78 3b b7 a8 2f bc a9 bd f6 bc
       -0.0057392544 0.0037907953 -0.010721377 -0.030119734
0002b0 f1 18 d7 bb b0 2d 35 3d 9e 4d 85 bd bd df 44 bc
       -0.0065642525 0.044233024 -0.06508945 -0.012016234
0002c0 8d 58 8d bc af 79 da 3b 34 56 87 3c a9 08 44 bd
       -0.017254138 0.006667338 0.016520597 -0.04785982
0002d0 b6 78 d2 3c 86 98 14 3d 16 f6 b4 3b 2c d2 13 bd
       0.025692325 0.03627827 0.0055225 -0.036089107
0002e0 db bc 7a bc dd 71 81 3b 68 6f 27 3d 3b 27 d2 3c
       -0.015303816 0.003950341 0.04087773 0.025653472
0002f0 73 89 8b 3c d4 8c 06 bd 93 85 f0 bc a3 ef 62 bd
       0.017033314 -0.032849148 -0.029360568 -0.055404317
000300 30 93 9b bd 93 66 dc bc c8 b8 fa 3a 54 03 8d bc
       -0.07596433 -0.02690438 0.0019128555 -0.017213501
000310 97 f8 76 bd e1 78 36 bb 64 64 82 3b 08 22 1f bd
       -0.060295667 -0.0027843046 0.0039792527 -0.038850814
000320 aa 39 5d bd d6 d8 d3 bc da 01 a8 bb d2 c3 bb bb
       -0.05401007 -0.025860231 -0.005127174 -0.0057301307
000330 25 01 e6 3c 57 be df bb b4 1d 84 bd ce e0 f1 bc
       0.028076718 -0.00682811 -0.06450978 -0.02952614
000340 ca 1f 23 bd 3e e5 52 bc 32 29 2f 3c df 0b f2 bc
       -0.03982524 -0.012872038 0.010690974 -0.029546676
000350 b0 6b 00 bd bb f2 4b bd 0c fa fc bc 40 4f 6f bc
       -0.0313527 -0.049792033 -0.03088095 -0.014606297
000360 64 9a 8c 3d 0c 9e 04 3b e4 72 83 3d da fc 07 bc
       0.06865385 0.0020235805 0.06418398 -0.008300031
000370 23 af 0f bd 94 28 3b 3d e2 d9 85 3c fa fd 90 3d
       -0.035079133 0.045692995 0.016339246 0.07079692
000380 66 c7 1b b8 80 86 3e 3b ad 60 03 bd ae 9b fd bc
       -3.7140584e-05 0.0029071867 -0.03207462 -0.030958023
000390 76 90 b7 3c c0 7e 07 3b 00 02 14 bd ab 9f a1 bc
       0.022407752 0.0020674914 -0.03613472 -0.019729456
0003a0 d6 41 f0 3a 42 6a 27 bd 96 b0 46 bb 00 0d 47 3c
       0.0018330168 -0.04087282 -0.0030317656 0.012149096
0003b0 f0 f4 88 bc 73 e7 04 bd 8f d1 23 3c 62 5b 53 3d
       -0.016718358 -0.03244729 0.009998693 0.05160082
0003c0 b0 e2 d9 bc e3 a6 01 3d 6d 75 f3 bb 6b a5 20 3b
       -0.02659735 0.031653296 -0.0074297697 0.002451266
0003d0 3b 00 5c 3c 76 93 7a 3c 48 ff 07 bd 40 0e 13 3b
       0.013427789 0.0152939465 -0.03320244 0.0022438914
0003e0 5e b4 b3 bc 2b b7 66 3b 90 6b ce bc 00 11 fb 3c
       -0.021936592 0.0035204391 -0.025197774 0.030647755
0003f0 5e 92 38 bc 11 49 ac bd cb 42 1e 3d db 41 ad 3c
       -0.011265365 -0.08412374 0.038637917 0.021149566

fc1.bias f4 [144]
000000 51 f9 00 bd 92 db 5c bd 53 13 28 3d fb 1f 88 bc
       -0.031487767 -0.053920336 0.041034054 -0.016616812
000010 ee 56 80 bd af b9 c6 bc 04 f1 15 bd 1f 5b a4 3c
       -0.062665805 -0.024258463 -0.036606804 0.020062981
000020 38 f6 c4 3b f8 ee 3c bd ab 62 cb bd 1f fa 8f bc
       0.006010797 -0.046126336 -0.09930929 -0.017575322
000030 ba b1 c3 bc 68 a4 88 bd 0b c2 4a 3d 20 ab d5 bb
       -0.023888458 -0.06671983 0.04950146 -0.006520644
000040 0a a4 8e 3d 02 8e d8 bc 95 37 82 bb 92 fd 43 bd
       0.06964882 -0.026434902 -0.003973911 -0.047849245
000050 e5 0d 15 be ec 6d ff bb 23 6b 1e 3c 7a 43 83 bd
       -0.14556082 -0.007795086 0.009669098 -0.064093545
000060 f1 e7 8e bc 53 1a 80 bd 01 b5 84 bd 8d ac 8c bd
       -0.017444583 -0.06255021 -0.06479836 -0.06868849
000070 45 9d 1e bd c2 c9 aa 3d e3 c0 59 3d 3a b5 4c bd
       -0.038724203 0.083392635 0.053162467 -0.04997752
000080 e7 76 b6 3d 0e f1 09 bd 10 65 ed 3d 72 ee a8 bd
       0.089093976 -0.033677153 0.11591542 -0.08248605
000090 da 69 21 bd 66 26 99 bb 2a bc 91 bc e6 8a fe bc
       -0.03940759 -0.004673767 -0.017789919 -0.031072091
0000a0 b8 21 89 bb 25 5c 13 3d e4 e8 9e 3d 04 2f 8b bd
       -0.004184928 0.035976548 0.07759264 -0.06796077
0000b0 5c 86 ba bc d3 42 b8 b8 b4 e5 85 bd 5f d1 4a 3c
       -0.022769146 -8.786251e-05 -0.06537953 0.0123790195
0000c0 b0 64 c1 bc 31 65 2c bc 70 94 bb bd b0 58 34 bd
       -0.023607582 -0.010522173 -0.091591716 -0.04402989
0000d0 fa b2 dd bd ed c6 d8 bc 86 cb c8 3d 36 45 54 3b
       -0.10825153 -0.026462043 0.09804444 0.0032389886
0000e0 2e 79 06 3e d4 ef b9 bc 05 cd 3b bd 70 f7 a8 3c
       0.13132164 -0.022697367 -0.04584982 0.0206258
0000f0 24 78 16 bc e9 55 aa bd 0c 38 4f bd 94 de 5a bd
       -0.009183917 -0.08317167 -0.05059056 -0.053434923
000100 07 4c 8d bd 41 b5 05 3d 2b 9b de bc 5a da 03 3a
       -0.06899267 0.03264356 -0.0271736 0.00050297903
000110 fb 4f 44 3d e5 8f bb 3d 49 cb 28 3d 8d a4 53 bb
       0.047927838 0.09158305 0.041209493 -0.0032294125
000120 1e fe 0c 3d f9 04 87 bd a1 7e 63 bd 48 a0 c9 3c
       0.034422033 -0.06592745 -0.055540685 0.02461256
000130 57 d1 92 3d 5a b5 41 bd 9b 4b 4e bd f6 09 07 bd
       0.07168835 -0.04729209 -0.05036507 -0.032968484
000140 16 af 56 bd 34 bb 45 bd 19 35 b7 3d ab b0 28 3b
       -0.05241307 -0.048274234 0.089456744 0.0025740068
000150 2b 5a 00 3d 3c 2a 26 bc 60 a9 0e bd 7d 1b 83 be
       0.03133599 -0.010141905 -0.034829497 -0.2560691
000160 e1 8e 8b 3c 7e 47 02 bd 7e 5a 08 b8 d0 e4 2f 3d
       0.017035903 -0.03180646 -3.2509204e-05 0.042942822
000170 02 73 5d bc 2e 32 d9 bd 42 d9 b8 bc d8 ec bd 3c
       -0.0135161895 -0.10605274 -0.022564534 0.023184225
000180 2a 49 7a bd fa 0c bc bd b9 26 57 be 80 ca fd 3b
       -0.06110493 -0.091821626 -0.21010865 0.007745087
000190 67 63 20 3d 6b 3b 33 3d ee cf 32 bd 60 8d 9d 3d
       0.039157297 0.043757837 -0.04365533 0.07692981
0001a0 f7 9f 87 bd f8 6c 27 bd 8b 95 31 3c c9 2b b9 bd
       -0.06622308 -0.040875405 0.0108388765 -0.090415545
0001b0 4f 3b 83 bd 4b fd 5f bd 10 a7 29 bd d2 63 91 bc
       -0.064077966 -0.05468492 -0.04141909 -0.017747793
0001c0 cd bc cb bc fb 65 53 bd 29 d9 22 bd 04 c8 8b bd
       -0.0248703 -0.051610928 -0.03975788 -0.06825259
0001d0 78 b4 6b 3d 5f b2 4a bd fb 1d d9 3c 57 83 e7 bc
       0.057545155 -0.049486514 0.026503554 -0.02826087
0001e0 be 53 2c 3d 5d df 9d 3c 78 c0 a6 bd 80 a4 59 bc
       0.04207205 0.019271547 -0.08142179 -0.013283849
0001f0 93 05 71 bd 36 97 67 bd 2a d8 11 3c cd 99 6f bd
       -0.058843207 -0.05654069 0.008901635 -0.058496285
000200 ea 23 4e 3d dc e4 8b bd 9f b7 99 bc 6e 1d 08 bd
       0.05032722 -0.06830761 -0.018764315 -0.03323119
000210 31 d2 ca 3d 43 82 64 bd 70 35 e4 3d 9e b9 d3 3d
       0.09903372 -0.05578829 0.11143005 0.10338138
000220 da 91 46 bd e3 67 cf 3d 01 35 b4 bd 9e 9c 51 bd
       -0.04847894 0.10127237 -0.08799172 -0.051174752
000230 eb 45 dd 3d 1e 85 84 bd 72 3d 9f 3a 1c be 3f bc
       0.108043514 -0.064707026 0.001214905 -0.01170304

fc2.weight f4 [96, 144]
000000 c2 fa 07 3d 46 88 01 bd 4a 1f 7c bd 4c 5a 65 bd
       0.033198126 -0.0316241 -0.061553277 -0.055994317
000010 2c 98 b2 bd a3 df fb bd cb 96 cf be a5 fa d9 bd
       -0.08720431 -0.12298515 -0.40544733 -0.1064351
000020 79 6a 6c be e6 77 20 3c b2 95 58 be 2a d0 f1 bd
       -0.23087491 0.009794211 -0.21150854 -0.11807282
000030 41 ee b5 3d b4 10 ad bd 40 3f a1 bc bd 1d d4 3c
       0.08883334 -0.084504515 -0.01968348 0.025893087
000040 00 a9 ab 3d 54 ef 0a be 7f 9e dc 3d d6 4d 38 bd
       0.083818436 -0.13567859 0.10772418 -0.044996105
000050 7b 56 b2 3c a5 49 a8 3d 26 c8 ca bc 88 f9 11 bd
       0.021769753 0.082171716 -0.024753641 -0.035638362
000060 31 ad 07 3d f9 bd 49 3d 2b 0a d2 3c 3b ef d5 bc
       0.033124153 0.049253438 0.025639614 -0.02611505
000070 b7 0c b3 bd 49 c0 76 be bf cd 77 be 83 fe a3 bd
       -0.087426595 -0.24096788 -0.2419958 -0.08007529
000080 a6 fd 8b 3d ef a7 42 bd 94 83 1d be 0b cc e4 bb
       0.06835489 -0.047523435 -0.15382224 -0.0069823316
000090 f2 c5 83 bd bf f6 04 bc e4 3f 5a bd b6 b6 5d 3d
       -0.064342394 -0.0081154695 -0.053283587 0.054129325
0000a0 62 c2 1a be 43 fd 08 bd 99 30 cb bc 1f e7 45 bd
       -0.15113214 -0.033444654 -0.024803447 -0.048316117
0000b0 df 61 b2 3c 25 ce c7 bd 90 c3 60 bd 8e 18 34 be
       0.021775184 -0.09756116 -0.054874003 -0.17587492
0000c0 e0 16 b4 bd 1d 41 9c bb 73 a5 43 be b7 ae 0d 3e
       -0.087934256 -0.0047685043 -0.19106083 0.1383618
0000d0 ba a1 06 be 1b 98 9b be cd ee 16 be 23 cc 7c 3c
       -0.13147631 -0.30389485 -0.14739533 0.015429529
0000e0 25 48 ae bd 66 1e e2 3c b6 c2 6b bd d2 f3 0e be
       -0.08509854 0.027602386 -0.057558738 -0.13960198
0000f0 b8 6b 69 bc d7 b7 1e 3d e4 47 24 be e7 d9 4c be
       -0.014246874 0.038749542 -0.16043049 -0.20004998
000100 16 17 14 be 92 9d d3 be e0 ec c9 3c 6a fe ad bc
       -0.14461932 -0.41331154 0.024649084 -0.021239478
000110 e0 84 f6 bd 6e ee bb bd fe 8a 88 3d 26 54 14 bd
       -0.12037063 -0.09176336 0.06667136 -0.036213063
000120 a3 34 9e bd de f7 22 3d 26 88 2f be d5 78 1b bd
       -0.077248834 0.039787166 -0.1714178 -0.03795703
000130 88 c1 a4 bc 38 5f 85 3d 32 9f db bd 21 ad c0 bc
       -0.020111814 0.06512302 -0.107237235 -0.023520054
000140 56 99 0c 3d e2 02 a6 bc 45 f6 26 bd 03 f5 16 bd
       0.03432592 -0.020265047 -0.040762205 -0.036854755
000150 a4 ed 89 be 30 b5 07 3d 2f 3f ba 3c 73 d6 d6 3d
       -0.26939118 0.03313178 0.022735206 0.10490122
000160 97 ac 82 be 09 e2 14 bd d7 d5 e5 3d 07 15 50 be
       -0.255223 -0.036348376 0.11222427 -0.20320521
000170 f6 c2 5e be 00 aa 11 bc 2a 7d 00 3d 97 4b 65 be
       -0.21754059 -0.008890629 0.031369366 -0.22392116
000180 db 23 7c bd b9 3c 8f be 43 95 10 3d a2 de 56 be
       -0.061557632 -0.27976015 0.035298597 -0.20983365
000190 76 04 46 be c6 8d 82 be 7e b0 51 3c 03 e1 6a 3d
       -0.19337639 -0.2549879 0.012798427 0.057343494
0001a0 be 1d f5 bd d2 34 3f be dc da 05 be e1 26 ac 3d
       -0.119685635 -0.18672493 -0.1307177 0.08405853
0001b0 82 65 3a bc a3 76 4b bd 6b c0 af bc 31 57 85 3c
       -0.01137674 -0.049673688 -0.021454057 0.016276928
0001c0 39 d6 ef bc de ac 6d bd 52 71 29 bd af c2 62 3e
       -0.029276954 -0.058026187 -0.041367836 0.22144578
0001d0 b1 ab 2e be c8 ff 99 3d 2d f0 98 be bc 1d 50 bd
       -0.17057683 0.075194895 -0.2987074 -0.050809607
0001e0 97 a5 e7 3d 78 e8 80 be 3f b1 2a be df 03 31 3d
       0.11310881 -0.2517736 -0.16669177 0.043216582
0001f0 fe 3b 5e 3d 0d 45 33 3d 33 df c9 bd d4 bb 46 bd
       0.05425643 0.043767024 -0.09857025 -0.04851897
000200 4e 9c 4d be 1f cd bd bd 6e cd 13 bd d6 4e 91 3b
       -0.20079157 -0.09267639 -0.036084585 0.004434447
000210 fc c8 1c bc 20 15 f4 3c e9 d8 15 bd 73 61 a0 bd
       -0.009569403 0.02979523 -0.036583815 -0.07831087
000220 f8 b3 76 be 35 cb db bd 6d 7d 93 be 48 4b 33 3d
       -0.2409209 -0.10732118 -0.2880663 0.043772966
000230 73 0a a0 bd a7 7d ba bd b3 fd 6c be 31 fe 00 be
       -0.07814493 -0.091059975 -0.23143654 -0.12596966
000240 36 66 3a 3c 56 4f dc 3c 29 3b ac 3c 9f f4 c9 bd
       0.011376908 0.0268933 0.021024304 -0.09861111
000250 58 5d eb bc 7b 4a 42 bd 96 aa 17 be 19 63 e4 bc
       -0.028731033 -0.04743431 -0.14811167 -0.027879285
000260 90 0c 92 bd cb 8c bd bd 29 c5 8f bd c4 b2 4f b9
       -0.07131302 -0.0925537 -0.07020027 -0.00019807654
000270 f3 21 01 3d e0 dc ec 3c 00 c4 4d bd 04 56 13 bc
       0.031526517 0.028913915 -0.05023575 -0.008992676
000280 af c5 6a bc a7 e3 1d bd a7 4d 9f bd e0 77 f8 bc
       -0.014329358 -0.038547184 -0.07778483 -0.030330598
000290 80 b2 8c 3d 58 4c 2c bd 92 c2 88 bd 6b b6 0f 3d
       0.06869984 -0.042064995 -0.06677736 0.035086077
0002a0 d8 cb 43 3c a6 75 08 bd 8e 94 92 bb 02 94 82 3d
       0.011950456 -0.033315323 -0.0044732755 0.063758865
0002b0 4e 52 0b 3d 26 54 e7 bd 3e b5 3d 3d e6 57 f0 bc
       0.03401404 -0.11295347 0.046315424 -0.029338788
0002c0 2e 58 e0 bd 00 d4 b7 bc 59 a6 d5 bc fe ab 45 bd
       -0.10954319 -0.022439957 -0.026080297 -0.048259728
0002d0 1b ef 2c bd 40 b9 8e 3b e7 5a a9 bd 2b 8b 9a bd
       -0.042220216 0.0043555796 -0.08269291 -0.075460754
0002e0 f2 2c 8d bd a6 a4 02 be 28 51 24 be e8 13 6b 3d
       -0.06893338 -0.12758121 -0.16046584 0.05739203
0002f0 2e 75 22 bd b4 b5 97 bc 20 06 52 3d 71 22 c5 3c
       -0.039662533 -0.01851926 0.051275373 0.024064275
000300 c0 a1 79 3c fd eb 0a bd 59 e1 7f bd 6a 73 09 bd
       0.015236318 -0.033916462 -0.062470768 -0.033557333
000310 1a a6 35 3d 21 22 95 bd 2d 95 4f bc 3a 04 9c bd
       0.04434786 -0.072819 -0.012669844 -0.07617994
000320 85 16 af bd 26 70 05 bd ba 9a 66 bc ff a6 13 bc
       -0.08549217 -0.032577656 -0.014074976 -0.009011983
000330 c6 54 0c 3d 8a 32 08 3e fa ce 91 bd c4 51 25 be
       0.034260534 0.13300529 -0.07119556 -0.16144472
000340 0c f6 ff bd 19 0b 90 bd 4b 32 6b bc db 11 41 3d
       -0.124981016 -0.07033367 -0.0143552525 0.04713617
000350 56 b6 21 bd fb d6 96 bc 79 76 44 3d 9a 21 c0 bd
       -0.03948053 -0.018413058 0.047964547 -0.09381409
000360 2c 9b dd bc 76 8f a2 3c 1e f3 0c be 5a 42 9d bd
       -0.02705153 0.019843798 -0.13764617 -0.07678671
000370 cb d1 c1 bb eb ab 8a bb b8 1c 34 bd 6e 0a 46 3d
       -0.005914902 -0.00423192 -0.0439727 0.04834979
000380 23 4f 19 3d bb b0 97 bc 7b fb c0 bd 8b 62 75 3c
       0.037428986 -0.018516889 -0.09422966 0.014977108
000390 a3 8f 0f bc a8 56 43 3d e6 d7 64 3d e0 15 8b 3d
       -0.008762273 0.047690064 0.05586996 0.06791282
0003a0 6f 7b a0 bd b0 c1 45 3d 6b d5 96 3c f0 39 0b bd
       -0.07836043 0.048280418 0.018412312 -0.0339908
0003b0 c0 cb aa bc 16 e6 6e bd 00 fe 94 3c 5e e4 98 3c
       -0.020849109 -0.058324896 0.018187523 0.018663581
0003c0 9e 40 0c 3d 6c a1 bb bd 40 4e 2c bd 19 6a a4 bc
       0.03424131 -0.09161648 -0.042066813 -0.020070123
0003d0 55 fa 94 bd 84 3c e7 3c f8 53 5f bd 29 19 bb bc
       -0.072743095 0.028227098 -0.05452344 -0.022839146
0003e0 8f cf ea bd b9 21 da 3c db 18 aa bc cb c7 ba bc
       -0.1146537 0.026627408 -0.020763805 -0.022800347
0003f0 1e 13 1d 3d 36 cd 34 3d 3b 88 a1 bd cb ed 7a bc
       0.03834831 0.044141017 -0.07887312 -0.015315483

fc2.bias f4 [96]
000000 71 25 42 bb 85 b7 77 bd 10 94 5f bd 6f f0 d3 bb
       -0.0029624368 -0.060477752 -0.054584563 -0.006467871
000010 e3 00 e2 3c 43 26 2a 3d 56 08 a4 bd 30 fb 26 3c
       0.027588313 0.041540395 -0.080094025 0.010191724
000020 84 40 41 bb 53 38 12 bc 5a ed 12 bd e8 4f 13 3d
       -0.0029487917 -0.008924562 -0.035870887 0.035964876
000030 42 4e cd bd 89 c7 0e bd 2b 48 88 bc 4f 25 94 3d
       -0.10024692 -0.03485826 -0.016635975 0.072336785
000040 fd d6 22 3d 4f 2e 30 b9 15 1d a5 bd 30 72 07 3e
       0.03975581 -0.00016801919 -0.080621876 0.13227153
000050 45 64 2e bd a0 75 93 bb 1f 63 bf 3c a6 36 2a bd
       -0.042576093 -0.004500106 0.023362694 -0.041556023
000060 ae 98 a5 bc 10 9b c1 ba 67 e0 c6 b6 70 43 bd bd
       -0.020214405 -0.0014770944 -5.9269837e-06 -0.09241378
000070 88 b4 b6 3d fb 41 f6 bd 01 1d ac bd 65 69 ca be
       0.08921152 -0.120243035 -0.084039696 -0.39533535
000080 5d fb 37 3b 9e 72 1a 3d 01 5b 2a 3e cc 80 96 be
       0.0028073408 0.037706964 0.16636278 -0.2939514
000090 25 43 a6 bc 6b 4b ad 3c 79 41 91 3d 44 b0 00 be
       -0.020295689 0.021154126 0.07092566 -0.1256724
0000a0 29 15 3e 3d a2 14 c5 3c c2 6a 04 bd 81 e4 27 bd
       0.0464069 0.02405769 -0.032328375 -0.040989403
0000b0 eb c9 0e bb d4 9c bc bd 23 a8 03 be fc ff 4f be
       -0.0021787833 -0.092096 -0.12857108 -0.20312494
0000c0 0a db e0 3d 36 0d 74 3d f9 a8 d5 bd bd ab c9 3d
       0.109792784 0.05958291 -0.104326196 0.098472096
0000d0 0a be af bd 34 56 53 3d c4 fe 3e bd 5b d1 f4 3d
       -0.08581169 0.05159588 -0.046629682 0.11953994
0000e0 1a d5 53 be 00 b9 c3 bd 10 aa 2e bd 56 b0 af bc
       -0.2068676 -0.0955677 -0.042642653 -0.021446388
0000f0 42 a0 bd bd 42 f0 63 3d f4 10 76 3d 94 20 54 3d
       -0.092590824 0.05564905 0.06007476 0.05178888
000100 6a 7d bb bc 51 10 70 3e 0c 76 14 3d 7e d0 0d 3d
       -0.02288695 0.23443724 0.03624539 0.03462266
000110 0d 8a 74 bc fd ee 06 bd 0b 70 aa bd 08 ce 90 bd
       -0.014925492 -0.03294276 -0.08322152 -0.07070547
000120 45 73 e0 bc a0 21 ea 3a 5b bf d5 bd 4b 25 f7 bd
       -0.027398715 0.0017862804 -0.10436889 -0.1206766
000130 1f 84 10 bd 31 f9 84 3d b1 14 e6 bd 06 08 aa 3d
       -0.03528225 0.06492842 -0.11234415 0.083023116
000140 60 1a 2a be 19 bd 19 be db 44 1d be c1 0b b2 bc
       -0.16611624 -0.15013541 -0.15358298 -0.02173412
000150 37 a8 86 3d c3 23 97 3b 9c 38 77 bd df a9 f0 bb
       0.06575053 0.0046124174 -0.06035672 -0.007344469
000160 c0 e4 6d bd b1 96 ee 3d 0f 4c 9d 3c 13 0d ce bc
       -0.05807948 0.11649836 0.019201307 -0.025152719
000170 16 d4 08 3d aa a9 3b be ed 3c 97 bd 2f 4f 1c be
       0.033405386 -0.1832644 -0.073846675 -0.15264581
