models/trained/ConvNet2_3.pt (torch, 442402 bytes, 12 tensors)

conv1.weight f4 [8, 1, 3, 3]
0.27428105 0.07754784 0.34706515 -0.15756378 -0.12646672 0.14472419 -0.16336136 0.3179904
0.4409813 -0.40926707 -0.14731617 0.3954164 0.46982366 0.14483169 0.33918646 -0.11772328
0.18143424 0.18342432 -0.2068903 -0.26487777 0.17991948 -0.6197613 0.37513098 0.28969398
-0.270995 0.10958964 0.1942103 -0.14940608 -0.158202 0.12840179 -0.3380963 -0.20966138
0.39626312 -0.43839675 -0.21539058 0.38165388 0.29703766 -0.23161148 -0.35934508 -0.4447647
-0.34443995 0.030032305 0.018750416 0.45642906 0.4603588 -0.18862203 -0.3051688 -0.34046954
-0.23445398 -0.019046105 -0.12143323 -0.3265721 -0.2007788 -0.4331726 0.280533 0.36265165
0.15270023 0.3292735 -0.03639945 0.3080971 -0.023716705 0.345764 -0.12641165 0.15474708
-0.30445698 -0.49319226 0.43616167 -0.07502379 -0.26801965 0.17097588 0.47593942 -0.23888138
00000000: 916e 8c3e 67d1 9e3d 86b2 b13e 6658 21be
00000010: 7e80 01be 9432 143e 3348 27be a3cf a23e
00000020: 4dc8 e13e 748b d1be 0dda 16be 0574 ca3e
00000030: ba8c f03e c24e 143e d9a9 ad3e e718 f1bd
00000040: e6c9 393e 96d3 3b3e 0ddb 53be 0f9e 87be
00000050: d03c 383e ada8 1ebf 2b11 c03e c552 943e
00000060: dbbf 8abe 8870 e03d 11df 463e e8fd 18be
00000070: b5ff 21be c27b 033e f51a adbe 79b1 56be
00000080: 00e3 ca3e 8a75 e0be 598f 5cbe 2368 c33e
00000090: 5215 983e 8f2b 6dbe 14fc b7be 33b8 e3be
000000a0: 6f5a b0be 4f06 f63c 799a 993c 12b1 e93e
000000b0: 26b4 eb3e 2226 41be 163f 9cbe 0652 aebe
000000c0: b414 70be 9406 9cbc fcb1 f8bd 7534 a7be
000000d0: f598 4dbe cdc8 ddbe 05a2 8f3e 7aad b93e
000000e0: 735d 1c3e 8996 a83e 9717 15bd e7be 9d3e
000000f0: 8949 c2bc fb07 b13e 0e72 01be 0576 1e3e
00000100: c9e1 9bbe b283 fcbe 9550 df3e 13a6 99bd
00000110: df39 89be 4d14 2f3e 55ae f33e 529d 74be

conv1.bias f4 [8]
-0.11578185 0.2835042 -0.10392604 0.16212578 -0.11640391 0.41067836 0.28291023 0.2862506
00000000: 091f edbd 7627 913e 2dd7 d4bd 4d04 263e
00000010: 2c65 eebd 6f44 d23e 9cd9 903e 708f 923e

conv2.weight f4 [32, 8, 3, 3]
0.057727523 0.06746993 0.028716192 -0.018674793 0.10482888 0.09421016 0.11532235 -0.13149124
0.0025494872 -0.06596289 0.08030723 0.08747383 -0.048697386 -0.0024057974 0.12974529 -0.118425906
-0.06297353 -0.10192521 0.09113061 -0.050134733 -0.069490254 -0.053565618 0.06911054 -0.19625893
-0.13504758 0.06195762 -0.10658242 -0.036757052 0.02445085 -0.1575876 -0.038643166 -0.020089403
-0.13938473 0.109969445 0.097239 -0.12507449 0.12707698 0.06451353 0.2007217 0.12331989
0.033374898 0.04033407 0.0354884 0.04311215 0.1091255 -0.107458055 -0.011151372 -0.068761066
0.034389917 -0.017305205 -0.027270831 0.097166345 0.15788335 0.0046406365 0.06866984 0.05420523
0.0022232095 -0.0035583088 0.083634295 0.024981922 -0.07964675 0.09251576 0.071699604 0.055597655
0.033647843 -0.11039363 -0.11469558 -0.18098715 -0.029874455 0.1894403 0.09586311 0.050008517
0.0013596796 -0.06220024 0.05454285 0.039158586 0.06298542 0.007193095 0.0986398 0.119697265
-0.08776278 -0.17240795 -0.09496142 -0.032382824 -0.021322997 0.029629748 0.15864876 0.122801505
0.047068514 0.05192059 -0.16135134 -0.1543904 0.02845544 -0.07084247 -0.049977113 -0.07070009
-0.055120613 0.09163619 -0.23568897 -0.10023335 -0.014055368 0.09027475 0.031856008 0.022126907
-0.06723708 0.034687944 0.01264597 -0.13170455 0.02894608 -0.044569723 0.14645244 0.19858709
0.32327414 0.3115554 -0.094328254 0.054925103 -0.020463381 0.018784402 0.1702361 0.065255016
0.07159614 -0.12240727 0.05623417 0.06376024 -0.20992362 0.054480474 -0.17551737 -0.1556982
0.034757975 0.1043972 0.054621823 0.035164837 0.17645265 0.057918936 0.14659682 0.06380346
0.070384584 -0.06949824 -0.043953836 0.002004538 -0.09502882 -0.033647865 -0.00045083347 -0.11960028
-0.06165853 0.12412338 -0.028179636 -0.067933545 0.15968728 0.009992645 -0.067592025 -0.016193787
-0.0028585412 0.08325669 0.14727771 0.04332263 -0.099921346 -0.04830036 0.104637235 0.07822395
0.13885847 -0.07354629 0.061547115 0.15018979 -0.1755032 -0.018553425 0.030577062 0.14780328
0.02470531 -0.03791259 -0.0264018 0.06376379 0.037122846 -0.016840084 0.015115063 0.15246052
0.14248638 -0.03265095 -0.003395612 0.15018561 -0.1652435 -0.24514796 -0.12143542 0.029320484
-0.2523667 -0.07498566 0.046483684 -0.18957068 -0.090279154 0.09073527 -0.048192054 -0.01882
0.109024614 0.11719363 -0.17679955 -0.017237695 0.10477914 -0.12900059 -0.069585375 0.14716122
0.12607896 -0.10782727 0.13855894 0.021073386 -0.12536213 -0.10761803 0.12440237 -0.14147444
-0.18183047 0.13958946 -0.08786754 -0.21829541 -0.0044155 -0.11298 0.04702866 0.064991154
0.0657788 -0.00028390286 -0.046189547 0.013873545 -0.06832269 -0.09121575 0.12163811 0.09146198
-0.017728277 -0.0631021 0.029869527 -0.054721378 -0.031252783 -0.027658079 -0.05801686 0.047037594
0.13578457 -0.043543797 -0.011869178 0.10236571 0.11698917 0.15543303 0.016814295 0.029263513
0.08584964 0.13626413 0.0066981004 0.026714247 0.11374395 0.1373034 0.10681597 0.045523502
0.14252673 0.11711914 0.13858595 0.060609777 -0.093789265 -0.018642658 0.051941186 -0.020549884
00000000: b273 6c3d ad2d 8a3d 383e eb3c e1fb 98bc
00000010: 86b0 d63d 42f1 c03d 202e ec3d a4a5 06be
00000020: 4c15 273b 8d17 87bd 1e78 a43d 7b25 b33d
00000030: e976 47bd 95aa 1dbb f3db 043e 4889 f2bd
00000040: 44f8 80bd 2abe d0bd afa2 ba3d 145a 4dbd
00000050: e850 8ebd 9f67 5bbd d489 8d3d 1af8 48be
00000060: ea49 0abe 46c7 7d3d e247 dabd 908e 16bd
00000070: 264d c83c a55e 21be 4c48 1ebd 8892 a4bc
00000080: dfba 0ebe a937 e13d 3e25 c73d 8713 00be
00000090: 7820 023e ab1f 843d fd89 4d3e 238f fc3d
000000a0: 1eb4 083d 5635 253d 495c 113d 5e96 303d
000000b0: 317d df3d f812 dcbd 3fb4 36bc 9ad2 8cbd
000000c0: 71dc 0c3d a5c3 8dbc 1467 dfbc 26ff c63d
000000d0: 2cac 213e 7b10 983b c6a2 8c3d 4e06 5e3d
000000e0: 44b3 113b 8432 69bb 7548 ab3d e3a6 cc3c
000000f0: d61d a3bd e778 bd3d 3ed7 923d 5eba 633d
00000100: 52d2 093d 0e16 e2bd 84e5 eabd b254 39be
00000110: 46bb f4bc a3fc 413e e153 c43d bbd5 4c3d
00000120: 4737 b23a aec5 7ebd 5368 5f3d c164 203d
00000130: 80fe 803d 0eb4 eb3b aa03 ca3d d723 f53d
00000140: f9bc b3bd b68b 30be 227b c2bd daa3 04bd
00000150: 91ad aebc 16ba f23c d274 223e 5b7f fb3d
00000160: eaca 403d afaa 543d 4939 25be 8418 1ebe
00000170: 621b e93c db15 91bd cdb4 4cbd 35cb 90bd
00000180: 27c6 61bd c1ab bb3d 7358 71be 2547 cdbd
00000190: 7c48 66bc f8e1 b83d 727b 023d 7d43 b53c
000001a0: 98b3 89bd f214 0e3d 0b31 4f3c 8fdd 06be
000001b0: 5420 ed3c be8e 36bd a1f7 153e 6a5a 4b3e
000001c0: 3084 a53e 3084 9f3e 2c2f c1bd 25f9 603d
000001d0: d2a2 a7bc bfe1 993c 5f52 2e3e 6ca4 853d
000001e0: ffa0 923d aab0 fabd cd55 663d bb94 823d
000001f0: 38f6 56be eb26 5f3d d3ba 33be 596f 1fbe
00000200: 615e 0e3d 33ce d53d 22bb 5f3d 0109 103d
00000210: 01b0 343e 683c 6d3d 7a1d 163e 63ab 823d
00000220: cb25 903d 1855 8ebd f008 34bd 915e 033b
00000230: 789e c2bd 58d2 09bd d85d ecb9 fef0 f4bd
00000240: a88d 7cbd 6634 fe3d fbd8 e6bc be20 8bbd
00000250: 1085 233e 31b8 233c b06d 8abd d5a8 84bc
00000260: 5d56 3bbb 7c82 aa3d f8cf 163e 1273 313d
00000270: 90a3 ccbd 99d6 45bd 0c4c d63d e133 a03d
00000280: ea30 0e3e 709f 96bd d418 7c3d 5acb 193e
00000290: 1cb7 33be 5afd 97bc bf7c fa3c be59 173e
000002a0: ca62 ca3c 3b4a 1bbd 9648 d8bc 9796 823d
000002b0: 200e 183d 37f4 89bc 2ba5 773c 9c1e 1c3e
000002c0: f3e7 113e 01bd 05bd ea88 5ebb 42ca 193e
000002d0: 9835 29be 1108 7bbe 22b3 f8bd 8331 f03c
000002e0: 3536 81be 1592 99bd ad65 3e3d d11e 42be
000002f0: 47e4 b8bd 6ad3 b93d 0865 45bd 672c 9abc
00000300: 4c48 df3d 3703 f03d f10a 35be 1136 8dbc
00000310: 7296 d63d bb18 04be c782 8ebd 6eb1 163e
00000320: d81a 013e 8bd4 dcbd 65e2 0d3e 18a2 ac3c
00000330: ee5e 00be d766 dcbd abc6 fe3d adde 10be
00000340: c431 3abe 8af0 0e3e e6f3 b3bd d588 5fbe
00000350: e6af 90bb 0f62 e7bd 20a1 403d 151a 853d
00000360: 09b7 863d ccd8 94b9 4031 3dbd de4d 633c
00000370: c4ec 8bbd 53cf babd 671d f93d 6b50 bb3d
00000380: e43a 91bc ac3b 81bd f0b0 f43c 8623 60bd
00000390: eb02 00bd 3293 e2bc 16a3 6dbd 7eaa 403d
000003a0: 1c0b 0b3e fb5a 32bd f176 42bc 1da5 d13d
000003b0: 0598 ef3d d629 1f3e 22be 893c 09ba ef3c
000003c0: f0d1 af3d d388 0b3e bd7b db3b d6d7 da3c
000003d0: 97f2 e83d 4399 0c3e 55c2 da3d da76 3a3d
000003e0: 87f2 113e 29dc ef3d 7ae9 0d3e f541 783d
000003f0: 9614 c0bd 7db8 98bc 48c0 543d 3b58 a8bc

conv2.bias f4 [32]
-0.077306576 0.057695437 -0.044107597 -0.10591214 0.14359488 0.106603906 0.115502715 0.035455205
0.16135065 -0.056142084 -0.02910919 -0.001383016 -0.063316494 0.08091023 -0.011237157 -0.059797425
-0.03679953 -0.057485417 0.111784056 0.08179475 0.009113559 -0.019746471 0.12542087 -0.01426061
0.015646677 0.049769737 0.08141559 -0.0070210034 0.07055636 -0.020785375 -0.028386729 0.106589064
00000000: e952 9ebd 0d52 6c3d 2baa 34bd 77e8 d8bd
00000010: 890a 133e 2653 da3d b08c ec3d 7a39 113d
00000020: 1b39 253e 3ef5 65bd 6576 eebc 5146 b5ba
00000030: 14ac 81bd 43b4 a53d 0d1c 38bc 25ee 74bd
00000040: 1bbb 16bd d475 6bbd 0aef e43d 0284 a73d
00000050: 0951 153c 5ac3 a1bc 546e 003e 55a5 69bc
00000060: 762d 803c 5adb 4b3d 38bd a63d 7210 e6bb
00000070: da7f 903d 1746 aabc 498b e8bc 5e4b da3d

conv3.weight f4 [64, 32, 5, 5]
-0.02499334 0.025995977 -0.026643923 0.016274227 0.0015712513 0.0040600365 0.025763148 -0.018760126
-0.035577487 0.03220472 0.021842184 -0.029213289 -0.02602784 -0.03505368 0.0025159647 -0.0100728525
0.022632863 0.0109388195 0.024402427 -0.023236241 -0.04205523 0.0012175393 0.020298697 0.025973016
-0.007222252 -0.026121644 0.012803894 -0.004464808 -0.0077866614 -0.04027715 -0.01344773 0.0015781035
0.0065038204 -0.020284073 -0.010979168 -0.01289012 -0.0022387109 -0.008867679 0.012835175 -0.01597027
0.021843161 -0.038397428 -0.003999889 -0.028854359 -0.011793322 -0.016136086 0.015625957 -0.01727067
-0.027221095 0.02753328 0.018965961 0.012926289 0.01031722 -0.03654674 0.025183732 0.01445863
-0.03742285 -0.023167146 0.021767464 0.0028480089 -0.041831184 -0.034098282 -0.032587312 -0.006882195
-0.020821903 -0.0028193686 0.022626495 0.021585355 -0.0046925107 0.0036180639 0.025084438 -0.0164053
-0.0063434355 -0.02912095 0.030908471 0.0008032031 -0.02004846 0.012710972 7.157251e-05 0.021368852
0.015539164 -0.0062922454 0.02169266 -0.00033281377 -0.032298047 -0.03738958 -0.01743401 0.024813417
-0.04188191 -0.03577861 0.021038614 -0.02930522 0.025918934 0.010630049 0.017578406 -0.036935933
-0.016531635 0.018681156 0.013933768 -0.01815183 -0.0010304207 -0.03997544 0.01942555 0.027887503
0.02023256 -0.027090963 -0.030139785 0.026901348 0.0015980207 -0.014263528 -0.0061282893 0.010668797
0.010289324 -0.002878579 0.0037100797 -0.03182732 -0.004576286 -0.0033196216 -0.0035688723 -0.01984694
-0.018605947 -0.033091027 -0.015603714 0.024522487 -0.031801213 -0.0063939304 -0.006517509 0.01686983
-0.018206183 -0.019612195 -0.030213496 -0.03367002 0.018345939 0.013762593 0.006157753 -0.027803324
-0.010268998 -0.025842033 -0.019079959 0.036805287 -0.016274853 -0.0088949 -0.010687019 -0.021461252
-0.021190658 0.02426519 -0.015379625 -0.032645196 0.021168618 0.02741515 0.018479912 0.0032320565
0.00069181505 -0.043055 0.005615886 0.009949355 -0.00414778 -0.0076224157 -0.010817539 -0.010455305
0.008323116 -0.021681575 0.00046050377 -0.0010116664 -0.03339262 -0.0092110075 -0.032106113 -0.024674712
-0.033201113 -0.024977367 -0.019482113 -0.007386426 -0.01935161 0.031831905 0.027560364 -0.017155653
0.032685053 -0.0070694867 -0.03923696 -0.012912032 -0.011818256 0.016606696 0.017837768 0.0037504847
0.0199203 0.022685487 -0.016096698 -0.019290714 -0.014245414 0.004100159 -0.008149712 -0.032059036
0.008230176 -0.025111193 0.015979664 0.012608848 0.034819525 0.0045145885 -0.024532327 0.0006857056
-0.0213581 0.015667042 -0.0054990784 -0.030209104 -0.020088386 0.01714519 0.02670317 0.026998835
0.03140268 -0.02045387 -0.01109594 0.023072857 -0.021147942 -0.03532555 0.002414664 0.021867637
0.034186658 -0.0026234146 -0.03073262 0.021192996 -0.01489058 -0.025076449 0.014221929 -0.011961419
0.027536487 -0.038301572 -0.029095968 -0.03375522 -0.0032768873 -0.02444994 -0.04127859 0.023957945
-0.031215014 0.024576074 -0.020895716 -0.02228558 -0.02331959 -0.005139896 0.010133364 -0.020719124
-0.025281621 0.011596743 0.023117581 -0.037204195 -0.016546 -0.02713575 -0.03334063 -0.009309147
-0.006374632 0.033719756 -0.02250963 0.017321223 0.0061278553 0.007981305 0.0026784479 -0.015133641
00000000: d5be ccbc 84f5 d43c 5b44 dabc 8751 853c
00000010: 72f2 cd3a 0e0a 853b 3d0d d33c d6ae 99bc
00000020: b3b9 11bd 19e9 033d 61ee b23c b550 efbc
00000030: 5638 d5bc 7394 0fbd e2e2 243b 9b08 25bc
00000040: 8e68 b93c bc38 333c 99e7 c73c ee59 bebc
00000050: 1b42 2cbd d795 9f3a 7449 a63c 5dc5 d43c
00000060: a4a8 ecbb 0ffd d5bc 6cc7 513c 864d 92bb
00000070: 4027 ffbb a7f9 24bd de53 5cbc 5ed8 ce3a
00000080: 001e d53b c92a a6bc f8e1 33bc 1531 53bc
00000090: 56b7 12bb be49 11bc a04a 523c 15d4 82bc
000000a0: 6ef0 b23c 9f46 1dbd 8011 83bb fa5f ecbc
000000b0: c738 41bc d32f 84bc 0202 803c 387b 8dbc
000000c0: c6fe debc 798d e13c 815e 9b3c c9c8 533c
000000d0: 8f09 293c 09b2 15bd 1d4e ce3c e4e3 6c3c
000000e0: b448 19bd 07c9 bdbc ae51 b23c a9a5 3a3b
000000f0: 2d57 2bbd a4aa 0bbd 467a 05bd 0984 e1bb
00000100: b292 aabc 28c5 38bb 335b b93c c5d3 b03c
00000110: a2c3 99bb 0a1d 6d3b e17d cd3c 6864 86bc
00000120: 98dc cfbb 0f8f eebc c333 fd3c 0c8e 523a
00000130: ab3c a4bc ae41 503c 3319 9638 bb0d af3c
00000140: fa97 7e3c 2e2f cebb ceb4 b13c 827d aeb9
00000150: f54a 04bd d125 19bd c5d1 8ebc 8245 cb3c
00000160: 5e8c 2bbd 978c 12bd 2c59 ac3c 8011 f0bc
00000170: f253 d43c a829 2e3c 9700 903c 224a 17bd
00000180: 5a6d 87bc 3909 993c 754a 643c 26b3 94bc
00000190: 2e0f 87ba 49bd 23bd 5522 9f3c 5574 e43c
000001a0: c1be a53c deed ddbc b6e7 f6bc 3760 dc3c
000001b0: ad74 d13a 93b1 69bc d1cf c8bb 2ecc 2e3c
000001c0: 8e94 283c 8ba6 3cbb cf24 733b 5d5d 02bd
000001d0: abf4 95bb 028e 59bb bee3 69bb 0d96 a2bc
000001e0: 806b 98bc 758a 07bd b8a6 7fbc 62e3 c83c
000001f0: fd41 02bd 2d84 d1bb d490 d5bb 9932 8a3c
00000200: 2225 95bc c1a9 a0bc 4b82 f7bc 93e9 09bd
00000210: 394a 963c 807c 613c fac6 c93b ccc3 e3bc
00000220: 4d3f 28bc acb2 d3bc 934d 9cbc 24c1 163d
00000230: d752 85bc eabb 11bc 9b18 2fbc 82cf afbc
00000240: 0898 adbc cbc7 c63c d3fa 7bbc f8b6 05bd
00000250: cf69 ad3c bd95 e03c 2f63 973c e9d0 533b
00000260: ec5a 353a 715a 30bd 7705 b83b 9f02 233c
00000270: 1aea 87bb 75c5 f9bb 0c3c 31bc ba4c 2bbc
00000280: ae5d 083c 8f9d b1bc c56f f139 e499 84ba
00000290: b3c6 08bd c4e9 16bc b381 03bd 9f22 cabc
000002a0: e4fd 07bd 569d ccbc f498 9fbc d509 f2bb
000002b0: 4587 9ebc 2c62 023d 46c6 e13c 038a 8cbc
000002c0: c3e0 053d 27a7 e7bb efb6 20bd fd8c 53bc
000002d0: 5ca1 41bc c40a 883c 8320 923c b1ca 753b
000002e0: e62f a33c ead6 b93c 39dd 83bc 8f07 9ebc
000002f0: 9965 69bc a05a 863b 5f86 05bc 5650 03bd
00000300: dcd7 063c fdb5 cdbc c9e7 823c 5795 4e3c
00000310: eb9e 0e3d 1def 933b 05f8 c8bc edc0 333a
00000320: 2ff7 aebc 2b58 803c 9d31 b4bb 1579 f7bc
00000330: 6690 a4bc 1274 8c3c 9bc0 da3c a92c dd3c
00000340: 19a0 003d e08e a7bc bfcb 35bc 4a03 bd3c
00000350: 733e adbc 86b1 10bd 573f 1e3b c223 b33c
00000360: 4f07 0c3d 98ed 2bbb fac2 fbbc ef9c ad3c
00000370: 9ff7 73bc 206d cdbc 1803 693c d4f9 43bc
00000380: 3394 e13c 1ce2 1cbd ab5a eebc ea42 0abd
00000390: 0cc1 56bb 3e4b c8bc bd13 29bd 7443 c43c
000003a0: a1b6 ffbc c353 c93c 7e2d abbc 4090 b6bc
000003b0: ba08 bfbc 936c a8bb 6906 263c 27bb a9bc
000003c0: 671b cfbc 4400 3e3c 1561 bd3c 6d63 18bd
000003d0: 7a8b 87bc cb4b debc 2f90 08bd 6485 18bc
000003e0: 4ae2 d0bb ba1d 0a3d 1e66 b8bc 3de5 8d3c
000003f0: 2dcc c83b 05c4 023c e688 2f3b 17f3 77bc

conv3.bias f4 [64]
-0.008962966 0.008314054 0.006742279 -0.016908387 -0.026995828 0.012419931 0.035886947 -0.030453004
0.006321352 0.051804744 -0.018703597 -0.039187595 -0.019190127 0.028746745 -0.023971818 -0.014374621
0.04328951 -0.022904167 -0.014179165 0.022007428 0.0016396486 -0.012569154 -0.014030111 -0.010517237
-0.0055129305 -0.025950328 0.013532099 -0.011860842 -0.026012994 0.029846875 -0.017158238 -0.002656918
-0.058075793 -0.03942214 0.033987027 0.022125594 0.013321329 -0.0014368923 0.023567138 -0.0006162512
0.021608759 -0.037086822 0.011506838 0.0141616445 -0.00064669136 0.005122493 0.017139273 0.013203044
0.020281466 -0.027650474 0.017370937 0.0019136223 -0.005207735 0.021873346 0.0390535 -0.0142675415
0.042458415 0.002728586 0.0005355919 -0.02312753 -0.041217394 -0.00286865 0.012042027 -0.033721007
00000000: 67d9 12bc ac37 083c 56ee dc3b 7583 8abc
00000010: 5b26 ddbc f77c 4b3c 31fe 123d 9478 f9bc
00000020: 5823 cf3b 3631 543d 4938 99bc 2c83 20bd
00000030: 9d34 9dbc 4b7e eb3c 8c60 c4bc 8883 6bbc
00000040: 5750 313d 85a1 bbbc ba4f 68bc ec48 b43c
00000050: 7ae9 d63a daee 4dbc 8dde 65bc 7d50 2cbc
00000060: d0a5 b4bb c895 d4bc bdb5 5d3c fa53 42bc
00000070: 3419 d5bc 6f81 f43c 6f8f 8cbc b01f 2ebb
00000080: e2e0 6dbd 1c79 21bd fb35 0b3d bc40 b53c
00000090: b441 5a3c 1b56 bcba df0f c13c eb8b 21ba
000000a0: da04 b13c 5ae8 17bd 2d87 3c3c 3e06 683c
000000b0: b986 29ba 96da a73b a967 8c3c 9551 583c
000000c0: 5125 a63c 3f83 e2bc 7f4d 8e3c 82d2 fa3a
000000d0: a6a5 aabb bb2f b33c 90f6 1f3d 68c2 69bc
000000e0: e0e8 2d3d 14d2 323b f766 0c3a f275 bdbc
000000f0: 92d3 28bd f6ff 3bbb ec4b 453c 0a1f 0abd

fc1.weight f4 [86, 576]
0.031560406 0.009821917 0.033810854 -0.030123627 0.036470853 -0.025568 0.040547356 0.028167263
0.0070092133 0.03161147 -0.018801715 -0.0035276322 -0.027253848 -0.013623835 -0.00012086728 0.020862311
0.029248314 -0.020027768 -0.0028337375 0.0024818731 -0.035007194 -0.023429472 -0.037721813 0.034558617
0.019104522 -0.027892843 -0.04680492 -0.04611005 -0.039386936 -0.030518815 -0.007198387 0.03457949
0.02198771 -0.03991314 0.019186266 0.011893284 -0.007265279 -0.02459292 -0.018502042 0.0035895386
-0.020802664 0.032407768 0.034352977 0.013580404 0.0030020569 0.031119943 0.010072182 -0.02770113
0.013116367 -0.044490904 0.012641294 -0.020815518 0.008588569 0.030706925 -0.019335572 -0.039615814
-0.038361073 -0.024348853 -0.038187947 0.021230035 0.013180571 -0.03374469 0.024749035 0.017627914
-0.044772055 0.0067253127 0.022119472 -0.015189927 -0.009737563 -0.044011973 -0.035521433 -0.039684016
-0.044882547 0.016705295 -0.022269836 -0.014944581 -0.026592303 2.43925e-05 0.018413173 -0.019303732
-0.0076436037 0.004034982 -0.045648888 -0.0030076648 0.028865514 -0.019459631 -0.04495932 -0.020901274
-0.039780986 0.019541813 -0.024286993 -0.010062522 -0.0240519 -0.009045276 0.001617005 -0.006322121
-0.046503168 -0.0054381494 -0.012474287 -0.036536045 -0.008259739 -0.03433216 -0.030932447 -0.022076828
-0.020901663 0.017623844 -0.0049113994 -0.027282624 -0.04344989 -0.014483955 0.004222611 0.0072696796
-0.004277229 -0.031648103 -0.03902401 -0.03849 -0.034973375 0.0025985509 0.015535046 0.02933794
-0.02148022 0.004195727 -0.042998377 0.00057371333 -0.024942871 -0.041650638 -0.0045064692 -0.036075957
0.024434038 0.01769381 0.009716404 -0.022952883 -0.010528326 -0.04451303 0.018802907 -0.0033816248
-0.013458908 -0.02417479 0.026818793 -0.028795373 -0.016987707 -0.020032104 -0.02084223 0.010327931
-0.030369608 0.013522512 0.0016943212 -0.008929907 0.021239085 0.037331775 -0.039738566 0.0016329503
-0.0011806211 -0.038032673 -0.038955815 0.012974377 -0.0033036307 0.010089706 -0.024098145 -0.03815584
-0.033514407 -0.03856055 -0.035169773 -0.021573331 0.010804236 0.034792714 -0.043384455 -0.023088323
-0.027788125 0.025029628 -0.0054539093 0.023863554 -0.01735069 -0.044408992 -0.040921934 -0.014724024
-0.03381206 -0.044073135 -0.022348706 -0.017325312 0.02535707 0.016131116 0.031505693 -0.0069482136
0.007754885 -0.024226459 0.00941207 0.009766405 0.035856154 0.011242341 0.011975757 -0.029074261
0.031035107 -0.020011542 -0.021189699 -0.00359291 0.026491465 -0.018803872 -0.0016228532 -0.015881076
0.033585586 -0.025159644 -0.0021112375 0.01780868 0.011304734 -0.020205367 0.02033995 -0.007006304
0.029847078 0.0032438019 0.02460725 -0.02887543 0.03230298 -0.038580693 0.030415872 -0.012598816
-0.025365349 -0.042317033 0.0303805 0.009673192 -0.010610369 0.029332109 -0.009953138 0.017550873
0.0073200967 -0.037034288 -0.004743591 -0.029742694 -0.03218616 -0.030014327 0.03736539 0.0171281
0.020207971 0.014694994 -0.009191593 -0.041335847 0.018888038 -0.03140922 0.002796173 0.002095158
0.0017768642 0.038598444 -0.008173521 -0.0042665796 -0.033367265 -0.043032665 0.0026187045 -0.022480624
-0.00323907 -0.043060392 -0.039649487 -0.025427368 0.024150442 0.011923408 -0.006557291 -0.0045714825
00000000: 7c45 013d 1bec 203c 407d 0a3d d3c5 f6bc
00000010: 7662 153d fb73 d1bc fc14 263d 08bf e63c
00000020: 8bad e53b 077b 013d 0e06 9abc d92f 67bb
00000030: 7643 dfbc 8136 5fbc 207a fdb8 70e7 aa3c
00000040: 299a ef3c 4611 a4bc 3ab6 39bb eca6 223b
00000050: b463 0fbd 2aef bfbc 3082 1abd 568d 0d3d
00000060: 1681 9c3c 887f e4bc 84b6 3fbd e4dd 3cbd
00000070: 3254 21bd 9802 fabc 72e0 ebbb 39a3 0d3d
00000080: 921f b43c f67b 23bd 842c 9d3c 0cdc 423c
00000090: 9411 eebb 1777 c9bc 9891 97bc 773e 6b3b
000000a0: 596a aabc 02be 043d b5b5 0c3d 5880 5e3c
000000b0: 28be 443b 40ef fe3c cb05 253c 7bed e2bc
000000c0: 08e6 563c 183c 36bd 6e1d 4f3c 4e85 aabc
000000d0: 12b7 0c3c 178d fb3c a265 9ebc 3144 22bd
000000e0: 8020 1dbd 3f77 c7bc f76a 1cbd 9cea ad3c
000000f0: 52f3 573c df37 0abd 7dbe ca3c 6a68 903c
00000100: e762 37bd 0360 dc3b e533 b53c 2cdf 78bc
00000110: 4d8a 1fbc e645 34bd ec7e 11bd b58b 22bd
00000120: c3d6 37bd 8bd9 883c 3b6f b6bc 1eda 74bc
00000130: 1ad8 d9bc 7f9e cc37 39d7 963c dc22 9ebc
00000140: 3277 fabb e237 843b 54fa 3abd 3e1c 45bb
00000150: 5f77 ec3c ce69 9fbc 4427 38bd 2639 abbc
00000160: 63f1 22bd 2716 a03c 84f5 c6bc 47dd 24bc
00000170: 7d08 c5bc a332 14bc aff1 d33a cb29 cfbb
00000180: 1b7a 3ebd 8132 b2bb f460 4cbc d2a6 15bd
00000190: db53 07bc e19f 0cbd 0b66 fdbc 77da b4bc
000001a0: f739 abbc e15f 903c ceef a0bb cf7f dfbc
000001b0: 83f8 31bd 1c4e 6dbc d45d 8a3b 7e36 ee3b
000001c0: ff27 8cbb 71a1 01bd a4d7 1fbd b1a7 1dbd
000001d0: 3e40 0fbd 734c 2a3b b586 7e3c 1f56 f03c
000001e0: 49f7 afbc 4f7c 893b 111f 30bd 4065 163a
000001f0: fe54 ccbc dc99 2abd 01ab 93bb 62c4 13bd
00000200: e429 c83c 9cf2 903c 8d31 1f3c af07 bcbc
00000210: 007f 2cbc 4c53 36bd 8e08 9a3c 409e 5dbb
00000220: c082 5cbc 360a c6bc 16b3 db3c 46e4 ebbc
00000230: ce29 8bbc 5e1a a4bc 53bd aabc 7b36 293c
00000240: afc9 f8bc 878d 5d3c fc13 de3a bf4e 12bc
00000250: 97fd ad3c 34e9 183d e8c4 22bd b808 d63a
00000260: 12bf 9aba 26c8 1bbd 2290 1fbd 7b92 543c
00000270: ba81 58bb 4b4f 253c 7969 c5bc 4c49 1cbd
00000280: 6746 09bd abf1 1dbd 2e0e 10bd 8eba b0bc
00000290: 4004 313c ce82 0e3d e6b3 31bd b923 bdbc
000002a0: eca3 e3bc ef0a cd3c b5b6 b2bb 807d c33c
000002b0: 0923 8ebc 34e6 35bd c29d 27bd 083d 71bc
000002c0: 847e 0abd 0886 34bd a214 b7bc d0ed 8dbc
000002d0: a1b9 cf3c 6725 843c 1d0c 013d d7ad e3bb
000002e0: b11c fe3b 9176 c6bc 1535 1a3c 4603 203c
000002f0: e7dd 123d cc31 383c f735 443c 252d eebc
00000300: 563d fe3c 3fef a3bc 0596 adbc 0777 6bbb
00000310: a104 d93c 940a 9abc ebb5 d4ba 0819 82bc
00000320: 0a91 093d 991b cebc b05c 0abb 82e3 913c
00000330: 7e37 393c ba85 a5bc f89f a63c 2395 e5bb
00000340: dc81 f43c f795 543b 2595 c93c 2a8c ecbc
00000350: 2150 043d ca06 1ebd b52a f93c 446b 4ebc
00000360: feca cfbc a054 2dbd 87e0 f83c 4f7c 1e3c
00000370: 1dd7 2dbc e449 f03c 7d12 23bc d9c6 8f3c
00000380: 6cdd ef3b 44b1 17bd 2070 9bbb f3a6 f3bc
00000390: a3d5 03bd 9be0 f5bc 740c 193d 3b50 8c3c
000003a0: 308b a53c 46c3 703c 5698 16bc c74f 29bd
000003b0: 16bb 9a3c f4a6 00bd 0040 373b eb4e 093b
000003c0: abe5 e83a 6719 1e3d 3bea 05bc aace 8bbb
000003d0: 1dac 08bd 0543 30bd 929e 2b3b 4929 b8bc
000003e0: 9446 54bb 1860 30bd 8067 22bd 0e4d d0bc
000003f0: 26d7 c53c 665a 433c 8bde d6bb 60cc 95bb

fc1.bias f4 [86]
0.006261139 0.038527705 -0.022987105 0.052903343 -0.004341436 0.009932934 -0.015815435 -0.010026774
-0.053906664 0.0068547707 0.015909705 -0.02628903 -0.0046128617 -0.014521255 0.04495041 -0.041272957
-0.015129596 0.026206866 0.007209616 0.039098114 0.014293764 0.014183506 -0.042814568 0.024513405
0.03623163 0.028338023 0.027974416 0.018396728 -0.018452842 0.026000157 0.015802821 -0.023451954
-0.022307506 0.0050726784 0.018502789 -0.028060833 0.010034942 -0.021980418 -0.03745002 -0.0013533378
-0.02512789 0.025510022 0.029559921 0.05096183 0.028293 -0.021802666 -0.017664626 0.017409207
-0.010937177 0.017559892 0.013802504 -0.02320436 -0.010528458 -0.056441408 -0.034381475 0.026318671
0.045778323 0.003326733 -0.0003754517 0.036687765 0.011152958 -0.016395792 -0.024412148 -0.032693125
-0.030937523 -0.0029422322 -0.021336228 -0.026079519 -0.011545631 0.029244952 0.022706727 0.043949317
0.0004986687 0.024189454 0.014917438 -0.005995943 0.019316165 0.02533898 -0.0263313 0.027243031
0.015574576 0.009380489 0.02124923 0.012684717 -0.001434034 0.026489383
00000000: 3e2a cd3b 3acf 1d3d 744f bcbc 2db1 583d
00000010: 9b42 8ebb bfbd 223c 5f8f 81bc 5747 24bc
00000020: 3ccd 5cbd fc9d e03b 1255 823c 185c d7bc
00000030: 7d27 97bb 8fea 6dbc ec1d 383d d50d 29bd
00000040: 20e2 77bc c8af d63c a43e ec3b 5825 203d
00000050: 6430 6a3c f061 683c 545e 2fbd 56d0 c83c
00000060: 9e67 143d 2425 e83c 9a2a e53c bcb4 963c
00000070: 6a2a 97bc 48fe d43c eb74 813c 501e c0bc
00000080: 3bbe b6bc b638 a63b 2993 973c d5df e5bc
00000090: 9969 243c 4710 b4bc 3165 19bd 7b62 b1ba
000000a0: 01d9 cdbc 65fa d03c a627 f23c 5abd 503d
000000b0: b9c6 e73c 819b b2bc 68b5 90bc c19d 8e3c
000000c0: d831 33bc c3d9 8f3c e623 623c 1217 bebc
000000d0: 8e7f 2cbc 1b2f 67bd 97d3 0cbd 419a d73c
000000e0: 0d82 3b3d 5105 5a3b 46d8 c4b9 e945 163d
000000f0: e5ba 363c 7850 86bc fcfb c7bc 3ae9 05bd
00000100: b070 fdbc 77d2 40bb 50c9 aebc b7a4 d5bc
00000110: e329 3dbc 1c93 ef3c 7503 ba3c 3304 343d
00000120: 17b9 023a f628 c63c 4568 743c 9e79 c4bb
00000130: ef3c 9e3c b193 cf3c bdb4 d7bc c72c df3c
00000140: 822c 7f3c 9fb0 193c dd12 ae3c 8fd3 4f3c
00000150: 32f6 bbba 4300 d93c

fc2.weight f4 [64, 86]
-0.08642823 -0.0825569 0.040368237 0.017517895 -0.06947288 -0.015495403 0.01754045 -0.03675819
0.013264392 0.0044347323 0.105769694 -0.05043674 -0.07206313 -0.02431938 -0.057349257 0.054950174
0.080999635 0.070446976 -0.045740273 -0.002416843 -0.0023226365 -0.023072759 0.08635061 -0.016099328
0.07210215 0.0471012 0.083612986 -0.08613191 -0.019012144 0.073993154 0.08089315 -0.013188656
0.104345426 0.063966736 0.10207097 -0.049187966 -0.038978923 -0.016358083 0.050856926 0.015904658
-0.100457445 -0.08327698 -0.04278201 -0.11688196 -0.018787513 -0.11593988 -0.008492347 0.039685853
0.10023493 -0.08302707 0.017089913 -0.03872891 -0.09378326 -0.054097112 -0.05542905 0.05471777
-0.098129205 0.054172438 -0.03990458 0.0331475 -0.097788006 -0.04801681 -0.03515063 0.05300283
-0.093219236 -0.025154643 0.10240242 0.0029283518 -0.068888694 -0.00089915365 0.061973155 0.10159594
0.09761198 0.01779464 -0.074382834 -0.09757587 0.0037317765 0.09064506 0.08696993 0.0045608906
0.027257005 -0.07772212 0.08888436 -0.09094818 0.039630987 0.095008686 0.048172873 0.04519174
0.03270211 0.0588234 -0.07724398 0.01444995 -0.090604566 0.1294516 -0.077973306 0.08466277
-0.093016356 -0.09011091 0.04387976 0.10286565 -0.072881855 0.048732024 -0.08394321 -0.09386918
-0.015171456 -0.02979317 0.047649857 0.13470453 0.11389128 0.024225341 -0.0873877 0.041937616
-0.053475548 -0.05573783 0.07279415 -0.06310316 -0.06806084 0.018796764 -0.024028732 -0.07276374
0.033535637 0.09537493 0.017196082 -0.028466737 0.055931162 -0.097865805 -0.008777382 -0.07754752
-0.040044855 0.07913954 0.10986143 0.024006687 -0.043952156 -0.13467515 -0.09304198 0.023961475
0.1060042 0.072920956 0.005445658 0.034821622 0.038017154 0.07739014 -0.0077151316 0.029302873
-0.09150651 0.012305408 -0.024022227 -0.063568756 -0.05886244 -0.039150797 0.11192582 -0.029618546
0.089808635 -0.09442426 0.044269513 -0.009595573 -0.13845679 -0.061462507 -0.005780616 0.13074669
-0.022497661 0.13199311 0.17318748 0.057510123 -0.06569164 -0.028397875 -0.07090638 0.018793069
-0.060417265 0.088619575 0.088503964 -0.092684925 0.017468557 0.0878228 -0.029164543 -0.09505724
0.06057148 0.072861776 0.03409063 0.084631436 -0.013084112 0.09155492 0.057146482 -0.059777986
-0.10399798 0.046935465 -0.021138487 0.048325405 -0.019246113 -0.013084008 -0.055544637 -0.06681539
0.10292876 0.07038665 0.029444853 0.04056293 -0.094052404 -0.03426422 -0.052611947 -0.040080585
0.007937912 0.027974227 -0.009885305 -0.050875023 -0.106753446 -0.09696938 -0.087303214 -0.019842967
0.10254699 -0.041823473 -0.061863646 -0.09567087 0.098067276 0.041213226 0.0661751 0.06278093
0.05319803 -0.084783316 0.091195874 0.027048124 0.039489876 -0.004278548 -0.07990105 -0.086319745
-0.068829656 0.063932344 0.05987724 -0.042293735 -0.06369884 0.076204084 -0.05451139 0.0012530859
0.0092049325 -0.014802678 -0.088640615 0.08261506 -0.059648115 -0.072671376 0.0789743 -0.076817274
0.067977995 -0.04888466 -0.012817737 -0.016729914 -0.0364844 0.009812457 0.06314856 -0.07521475
-0.08665437 0.037696548 -0.09377604 0.031049782 -0.047480363 -0.056384344 0.039857235 -0.100279205
00000000: 4901 b1bd 9813 a9bd 2a59 253d b081 8f3c
00000010: cc47 8ebd 6ee0 7dbc fdb0 8f3c c18f 16bd
00000020: e452 593c 3b51 913b c89d d83d c196 4ebd
00000030: d695 93bd 7039 c7bc 0ee7 6abd 6f13 613d
00000040: 23e3 a53d 8146 903d 275a 3bbd e663 1ebb
00000050: 6037 18bb 1503 bdbc 97d8 b03d bde2 83bc
00000060: 4baa 933d 30ed 403d 493d ab3d ed65 b0bd
00000070: 5bbf 9bbc b989 973d 4fab a53d 3c15 58bc
00000080: 0eb3 d53d fe00 833d 960a d13d 5279 49bd
00000090: 5da8 1fbd 6301 86bc 5a4f 503d 7c4a 823c
000000a0: a2bc cdbd 1f8d aabd 303c 2fbd cf5f efbd
000000b0: 45e8 99bc e371 edbd 7c23 0bbc a28d 223d
000000c0: f947 cd3d 190a aabd 2500 8c3c 35a2 1ebd
000000d0: 7011 c0bd ef94 5dbd 9209 63bd be1f 603d
000000e0: f7f7 c8bd ebe3 5d3d fc72 23bd acc5 073d
000000f0: 1445 c8bd 46ad 44bd 1bfa 0fbd 7f19 593d
00000100: bae9 bebd 1c11 cebc 5cb8 d13d 97e9 3f3b
00000110: 8415 8dbd 2eb5 6bba 90d7 7d3d 8811 d03d
00000120: cae8 c73d 11c6 913c 0756 98bd dcd5 c7bd
00000130: d290 743b 1ea4 b93d 4a1d b23d 8673 953b
00000140: 154a df3c c62c 9fbd 0109 b63d 0a43 babd
00000150: 1a54 223d ea93 c23d eb50 453d f91a 393d
00000160: a6f2 053d cef0 703d 1732 9ebd 7cbf 6c3c
00000170: e38e b9bd f68e 043e 78b0 9fbd ad63 ad3d
00000180: 5c7f bebd 128c b8bd 43bb 333d 3aab d23d
00000190: 1543 95bd 3b9b 473d 6bea abbd 7c3e c0bd
000001a0: b391 78bc ce10 f4bc 7f2c 433d fcef 093e
000001b0: d53f e93d 3974 c63c 53f8 b2bd c7c6 2b3d
000001c0: 2d09 5bbd 5a4d 64bd 1915 953d 3b3c 81bd
000001d0: 7b63 8bbd acfb 993c e7d7 c4bc 2805 95bd
000001e0: aa5c 093d ee53 c33d ccde 8c3c 1333 e9bc
000001f0: 1318 653d de6d c8bd 02cf 0fbc 3cd1 9ebd
00000200: 1306 24bd e913 a23d 08ff e03d aca9 c43c
00000210: 2d07 34bd 48e8 09be cb8c bebd db4a c43c
00000220: bb18 d93d 9557 953d 7e71 b23b 1ea1 0e3d
00000230: e0b7 1b3d b97e 9e3d 37cf fcbb 940c f03c
00000240: c467 bbbd 9f9c 493c 43ca c4bc 5630 82bd
00000250: be19 71bd 965c 20bd 5d39 e53d 98a2 f2bc
00000260: 97ed b73d 8261 c1bd f353 353d c036 1dbc
00000270: 9ec7 0dbe 1cc0 7bbd 526b bdbb 76e2 053e
00000280: 044d b8bc 3429 073e 0f58 313e bc8f 6b3d
00000290: 5789 86bd a9a2 e8bc 5d37 91bd ecf3 993c
000002a0: 1878 77bd 2e7e b53d 9141 b53d 98d1 bdbd
000002b0: 381a 8f3c 71dc b33d 7bea eebc 5fad c2bd
000002c0: cd19 783d 8e38 953d 9ea2 0b3d 3f53 ad3d
000002d0: be5e 56bc 2581 bb3d 6e12 6a3d c3d9 74bd
000002e0: e5fc d4bd 673f 403d 9f2a adbc dcf0 453d
000002f0: 06aa 9dbc 4f5e 56bc c682 63bd 82d6 88bd
00000300: 50cc d23d e026 903d 5536 f13c 5125 263d
00000310: 8c9e c0bd a458 0cbd a07f 57bd 8a2b 24bd
00000320: 040e 023c 352a e53c f9f5 21bc 5462 50bd
00000330: 8da1 dabd e297 c6bd 07cc b2bd b88d a2bc
00000340: 2804 d23d 174f 2bbd bc64 7dbd 17ef c3bd
00000350: 7fd7 c83d 33cf 283d d086 873d 4a93 803d
00000360: 2de6 593d e0a2 adbd e7c4 ba3d 0794 dd3c
00000370: 23c0 213d 1033 8cbb 29a3 a3bd 68c8 b0bd
00000380: 90f6 8cbd f6ee 823d d641 753d 323c 2dbd
00000390: 8a74 82bd e310 9c3d 5647 5fbd 963e a43a
000003a0: 49d0 163c ee86 72bc 3689 b5bd 1632 a93d
000003b0: 9551 74bd bbd4 94bd 47bd a13d 6052 9dbd
000003c0: 0c38 8b3d 483b 48bd 7c01 52bc 2c0d 89bc
000003d0: ab70 15bd 6dc4 203c 0854 813d 310a 9abd
000003e0: d977 b1bd b267 1a3d a70d c0bd 1d5c fe3c
000003f0: c57a 42bd 45f3 66bd 5741 233d 2f5f cdbd

fc2.bias f4 [64]
-0.059802145 0.085368484 -0.06648651 0.09388697 0.0012723622 0.06808789 0.10988901 -0.07577696
0.025545297 -0.05960441 0.056469887 0.104877606 0.049456984 0.11286248 -0.02995153 -0.03233367
-0.07546674 0.0018903186 -0.09365767 0.016914723 0.059774514 -0.067090265 -0.096458755 -0.06565059
-0.11635566 -0.0067575974 0.0043055927 -0.032199737 -0.005193289 0.07305778 -0.015943905 0.089316204
0.049355086 0.038632993 -0.08096565 0.12977837 0.11235734 -0.07846624 0.1271414 0.007652024
0.06365753 -0.003532572 -0.040474858 0.014230033 0.08786868 -0.052898083 -0.062493168 -0.009425943
0.03748195 0.009972382 0.07862768 -0.043760538 -0.07288248 -0.042414363 0.13139693 -0.06998324
0.078251116 0.02534491 0.059851546 0.008813837 -0.02040561 0.12549606 -0.040449735 0.054630317
00000000: 18f3 74bd acd5 ae3d 142a 88bd d047 c03d
00000010: 64c5 a63a aa71 8b3d 7d0d e13d f330 9bbd
00000020: 5f44 d13c c123 74bd f84c 673d 12ca d63d
00000030: 6893 4a3d 7224 e73d e95c f5bc 4f70 04bd
00000040: 4e8e 9abd 91c4 f73a 98cf bfbd bf90 8a3c
00000050: 1fd6 743d 9f66 89bd 2b8c c5bd d173 86bd
00000060: e04b eebd d66e ddbb ee15 8d3b dfe3 03bd
00000070: 772c aabb 519f 953d cb9c 82bc 6aeb b63d
00000080: 8f28 4a3d a13d 1e3d 52d1 a5bd 9fe4 043e
00000090: 9b1b e63d e8b2 a0bd 5b31 023e d4bd fa3b
000000a0: e15e 823d b982 67bb f7c8 25bd 1625 693c
000000b0: 7ff4 b33d a9ab 58bd d6f8 7fbd 456f 1abc
000000c0: ac86 193d 3463 233c 8d07 a13d 403e 33bd
000000d0: 6943 95bd afba 2dbd eb8c 063e 5f53 8fbd
000000e0: 1f42 a03d 21a0 cf3c e526 753d e967 103c
000000f0: aa29 a7bc 0a82 003e 9fae 25bd 0ac4 5f3d

fc3.weight f4 [10, 64]
-0.08976751 -0.054545056 -0.0058291554 0.001179374 -0.011633946 -0.12707566 -0.17821853 -0.119290605
0.13347599 -0.2605145 -0.14813833 -0.06535754 0.109542996 0.031689323 -0.125104 -0.099657215
-0.030095903 0.0350412 0.06737259 -0.025121976 0.09795164 -0.099454746 -0.12003221 0.026949972
0.07535287 0.14000694 0.03205137 -0.129552 -0.18786697 -0.11699787 0.0036283897 -0.17418091
0.040089093 0.021858744 0.10388665 -0.14699553 -0.05375872 -0.032982454 -0.046497494 -0.03725923
0.09451229 -0.19149786 0.05501424 -0.07561539 -0.075046025 -0.05952935 0.12998116 -0.048001412
0.009033543 0.014945837 -0.0020985354 -0.07354527 -0.093272105 -0.0794832 0.115183756 0.0454989
-0.16511396 0.14599584 0.01704938 -0.046014097 0.1019619 0.07968867 0.026502537 0.008382436
-0.091097765 0.0768847 0.067506194 0.1347869 0.06618638 -0.04051574 0.08676532 0.023014534
0.08559982 0.017588807 -0.09993882 0.09935383 0.0153299095 0.06225204 -0.13493212 0.16857307
0.06315738 -0.15656874 0.006851249 -0.08634044 -0.21044825 0.053273313 -0.06272462 -0.09294264
0.04771188 0.02701398 0.11011243 0.0027292306 0.1541857 0.033845175 0.037706275 0.05774774
-0.17179446 0.097410165 -0.08397386 0.13771898 0.10724938 -0.046112593 0.0955188 0.009710576
-0.07132352 -0.13800614 0.020877961 -0.013415965 -0.03052988 -0.09545886 -0.062433973 0.021966098
-0.07752835 0.17708714 0.1384956 0.08752717 0.010584495 -0.060852733 -0.1346406 0.07258824
-0.16860741 -0.13819009 -0.04547272 -0.043016523 -0.008497828 -0.082780756 0.137769 -0.09606789
0.1197388 -0.008859465 0.017763153 0.16521344 0.09978082 0.10784965 -0.11940627 -0.0730108
0.055200838 -0.086589016 0.013020748 -0.05120803 0.026836678 -0.172679 0.0097211385 0.03460333
-0.015051794 -0.029700246 0.17114356 0.012683869 -0.14314055 0.024069956 -0.096040346 0.118527874
-0.06767912 0.078736365 0.094936416 0.075901635 -0.03736506 -0.06885083 -0.090753034 -0.09536482
-0.17328952 0.020824919 -0.04225291 -0.19194876 0.10538632 -0.031576358 0.016207466 0.03326738
-0.0036252006 -0.14301306 -0.033415698 -0.10461915 -0.00970524 -0.12083314 -0.07462611 -0.14968076
-0.16792428 -0.37833068 -0.035904035 -0.13837342 0.14854139 0.084200665 -0.017776767 0.0815064
0.07730288 0.089448325 -0.11253206 0.14977421 0.020406129 0.15908101 -0.13116229 0.09035143
0.010601066 -0.0110907825 -0.04775183 -0.083752245 -0.1752585 -0.067552105 0.07932401 0.06393793
-0.05224906 -0.020402534 -0.03516187 0.078558855 0.12887175 0.050762065 0.035486743 0.12989709
0.03786909 -0.15528896 -0.19177863 0.14889687 0.0921958 -0.12961128 -0.051268235 0.07872303
-0.12657864 -0.16538195 -0.042840257 0.114482075 0.18528491 0.10035612 -0.161798 0.10262525
0.018201437 -0.005910971 0.020097515 0.0022014254 0.03023155 -0.025177427 -0.07069823 -0.104812995
0.07175505 0.10083099 -0.019169617 -0.11656022 -0.082838245 -0.047455378 -0.16052869 0.13298358
-0.12334854 -0.03216264 0.11022603 -0.12054811 -0.20158367 0.04560435 0.0019262548 -0.16581668
-0.06865634 0.07112129 0.06713803 0.027678711 -0.119860165 0.020082913 -0.16003583 -0.034656905
00000000: 07d8 b7bd a36a 5fbd 8002 bfbb 3a95 9a3a
00000010: 4e9c 3ebc 1f20 02be eb7e 36be a24e f4bd
00000020: eead 083e 2862 85be 93b1 17be 2dda 85bd
00000030: 1458 e03d aacc 013d 431b 00be 1519 ccbd
00000040: af8b f6bc 5d87 0f3d a4fa 893d 9acc cdbc
00000050: df9a c83d eeae cbbd 73d3 f5bd 30c6 dc3c
00000060: 9b52 9a3d fb5d 0f3e 4c48 033d 48a9 04be
00000070: 3360 40be 949c efbd 47ca 6d3b 7b5c 32be
00000080: 7634 243d 1c11 b33c 86c2 d43d ff85 16be
00000090: 1b32 5cbd 9c18 07bd 2874 3ebd 229d 18bd
000000a0: a98f c13d 0418 44be 9d56 613d 3edc 9abd
000000b0: bbb1 99bd 0cd5 73bd c819 053e 219d 44bd
000000c0: 6d01 143c 62df 743c 9587 09bb e79e 96bd
000000d0: 7205 bfbd 17c8 a2bd 76e5 eb3d 0e5d 3a3d
000000e0: a213 29be ef7f 153e 24ab 8b3c 4779 3cbd
000000f0: 67d1 d03d d033 a33d d91b d93c 7c56 093c
00000100: 7791 babd ba75 9d3d b040 8a3d 9405 0a3e
00000110: ba8c 873d d5f3 25bd 04b2 b13d fa88 bc3c
00000120: f54e af3d 6716 903c b9ac ccbd 057a cb3d
00000130: 4d2a 7b3c fffb 7e3d a52b 0abe 6b9e 2c3e
00000140: a858 813d 8e53 20be 7180 e03b 42d3 b0bd
00000150: bf7f 57be 1e35 5a3d c475 80bd b658 bebd
00000160: 886d 433d 6c4c dd3c a082 e13d e4dc 323b
00000170: dbe2 1d3e 3da1 0a3d e571 1a3d e588 6c3d
00000180: e3ea 2fbe fb7e c73d 7dfa abbd 3406 0d3e
00000190: 90a5 db3d 8fe0 3cbd 5c9f c33d 1c19 1f3c
000001a0: 1112 92bd 7b51 0dbe 4208 ab3c a3ce 5bbc
000001b0: cd19 fabc ef7f c3bd c4ba 7fbd 3ff2 b33c
000001c0: 2fc7 9ebd 5556 353e cad1 0d3e 7241 b33d
000001d0: 976a 2d3c b740 79bd 3adf 09be 25a9 943d
000001e0: 6ca7 2cbe b481 0dbe 9a41 3abd 1832 30bd
000001f0: 793a 0bbc f588 a9bd 5113 0d3e 3ebf c4bd
00000200: 9e39 f53d 4a27 11bc 0884 913c b62d 293e
00000210: e359 cc3d 47e0 dc3d 468b f4bd b086 95bd
00000220: 461a 623d 9555 b1bd fa54 553c 83bf 51bd
00000230: 98d8 db3c c4d2 30be 6945 1f3c 39bc 0d3d
00000240: cd9b 76bc ee4d f3bc 4240 2f3e 01d0 4f3c
00000250: 7093 12be 5b2e c53c cdb0 c4bd bebe f23d
00000260: 5a9b 8abd 8840 a13d 066e c23d 5172 9b3d
00000270: 1b0c 19bd aa01 8dbd badc b9bd a14e c3bd
00000280: cf72 31be 0599 aa3c 6311 2dbd 378e 44be
00000290: c8d4 d73d 3656 01bd 85c5 843c 6043 083d
000002a0: c694 6dbb 0472 12be e6de 08bd 9142 d6bd
000002b0: ba02 1fbc 5e77 f7bd 93d5 98bd ea45 19be
000002c0: 58f4 2bbe 8fb4 c1be 1c10 13bd c3b1 0dbe
000002d0: 3c1b 183e 6671 ac3d 95a0 91bc d4ec a63d
000002e0: f950 9e3d af30 b73d 3577 e6bd 695e 193e
000002f0: c12a a73c 22e6 223e 684f 06be 2c0a b93d
00000300: 18b0 2d3c 1db6 35bc 6c97 43bd 4c86 abbd
00000310: f776 33be c258 8abd a074 a23d e4f1 823d
00000320: 1c03 56bd 3723 a7bc e505 10bd 77e3 a03d
00000330: f5f6 033e e2eb 4f3d 8c5a 113d be03 053e
00000340: 9e1c 1b3d 1204 1fbe 9e61 44be 6c78 183e
00000350: 27d1 bc3d d2b8 04be a4fe 51bd 8a39 a13d
00000360: d59d 01be e359 29be 4479 2fbd 9475 ea3d
00000370: 54bb 3d3e 8287 cd3d 60ae 25be 302d d23d
00000380: 2e1b 953c d2b0 c1bb 8ba3 a43c ca45 103b
00000390: 28a8 f73c e440 cebc 3cca 90bd 32a8 d6bd
000003a0: 50f4 923d 7a80 ce3d 9a09 9dbc 20b7 eebd
000003b0: 19a7 a9bd 9260 42bd a261 24be d92c 083e
000003c0: 299e fcbd f9bc 03bd 2fbe e13d ede1 f6bd
000003d0: f36b 4ebe a0cb 3a3d 637a fc3a d9cb 29be
000003e0: b29b 8cbd 0aa8 913d aa7f 893d 77be e23c
000003f0: 3f79 f5bd ec84 a43c 6fe0 23be 66f4 0dbd

fc3.bias f4 [10]
0.04140327 0.03523138 0.06758545 -0.0005404916 -0.09702368 0.00091525546 0.004088827 -0.018585188
0.012359195 -0.043863986
00000000: 7a96 293d c84e 103d 3e6a 8a3d c7af 0dba
00000010: 5ab4 c6bd c1ed 6f3a 91fb 853b f73f 98bc
00000020: 397e 4a3c b9aa 33bd
