models/trained/ConvNet3_4.pt (torch, 437732 bytes, 8 tensors)

conv1.weight f4 [16, 1, 3, 3]
000000 57 48 b5 be 79 47 a5 3c a4 26 b2 3e a1 74 88 be
       -0.35406753 0.020175682 0.34795105 -0.2665148
000010 1f bd bc be 7d bb 84 bd f5 cf 33 be ed 2d 81 be
       -0.36863038 -0.06481073 -0.17559798 -0.2523035
000020 4b d9 d3 be 52 9e dd 3d 2f 8a 05 be 03 a6 48 bd
       -0.4137672 0.10821213 -0.13040994 -0.048986446
000030 a8 6e 9b 3e ca 38 98 3e 48 f0 ad 3e 63 ab 63 be
       0.30357862 0.29730827 0.33972383 -0.22233348
000040 40 e5 9f 3e a8 1a 84 3e a6 fd 8b 3e 05 fb c1 3e
       0.3122959 0.25801587 0.27341956 0.37886825
000050 00 5a 0d be 3e 12 96 be 35 b8 b3 3d 14 0b 51 3d
       -0.13803864 -0.29310793 0.08775369 0.051035956
000060 e3 7f 85 be a5 f1 82 3d 1e e4 0c 3e 80 62 fc bd
       -0.26074132 0.06393746 0.13758895 -0.12323475
000070 65 85 4f bd 27 0b 63 3e 71 db 3f 3e 03 a1 a2 3e
       -0.050664324 0.22172223 0.18736054 0.31763467
000080 34 ce b0 3e 8b 09 76 3e 97 1b b7 3e b2 5b a3 bd
       0.3453232 0.24027078 0.35763237 -0.07976474
000090 41 38 8d be 2f d4 6b be c6 f8 53 3e d5 2b 6b 3e
       -0.2758198 -0.2303016 0.20700368 0.2296594
0000a0 5a 14 23 3e 46 0a 11 3e 2b c0 ae 3e f9 d0 e2 3e
       0.15925732 0.14164075 0.34130988 0.44300058
0000b0 d3 f1 a1 3e 1c 4d eb 3e ad 8a a2 3e 1c d9 41 bd
       0.3162981 0.45957267 0.31746426 -0.047326192
0000c0 62 53 c5 3d 88 65 3a bd 80 c2 cd be a3 a8 a7 be
       0.09635045 -0.045506984 -0.40187454 -0.32745847
0000d0 81 03 e5 be 41 83 c7 be b7 d7 e6 bc d8 b5 63 bd
       -0.44729236 -0.38967326 -0.028179033 -0.05559334
0000e0 46 2a a1 bc 5c dc d2 3c 6d 14 54 bd e7 98 67 3d
       -0.019673478 0.025739841 -0.051777292 0.056542303
0000f0 e1 ac 98 be 10 b2 90 3e 30 e4 97 3e 18 d3 ae 3d
       -0.29819396 0.2826085 0.2966628 0.08536357
000100 54 12 9b 3e 1b 51 d4 3e 4a 43 43 3e 0d bf d9 3e
       0.3028742 0.4146813 0.19068637 0.42528573
000110 20 44 1e be 73 77 38 3e d9 75 26 be 0e 19 88 be
       -0.15455675 0.18014316 -0.16255893 -0.26581615
000120 b3 03 b6 3e 83 6d e2 3e bf 63 e0 3e 7e 16 4a be
       0.35549697 0.44224176 0.438261 -0.19735143
000130 04 1c c1 bd 7b 59 18 bc 0c d4 e0 be e1 9e d4 be
       -0.09429172 -0.009298678 -0.4391178 -0.41527465
000140 8d 7b bd bd e8 bf a4 3e 17 1c a5 3e 80 18 d5 be
       -0.09252081 0.32177663 0.32247993 -0.41620255
000150 d9 2a 26 3e 80 81 c2 bd 73 9a a1 be 7d 40 ed 3e
       0.16227283 -0.094973564 -0.31563148 0.46338263
000160 de 4f 98 bc ca 51 88 be 61 a8 aa 3e 42 9f 4a 3d
       -0.018592771 -0.266249 0.33331588 0.049468286
000170 e9 8f dc be 6c a1 98 3e fe 18 6a 3e 53 0e 8c 3e
       -0.43078545 0.29810655 0.22861096 0.2735468
000180 e3 d7 48 3e 3a 54 4a 3e 50 ac 0f 3e 20 47 c0 bd
       0.19613604 0.19758692 0.14030576 -0.09388566
000190 80 2c 6c 3e 9f 66 1a be e7 bb b4 3c 71 33 ac 3e
       0.2306385 -0.1507821 0.022062255 0.33632997
0001a0 ef a6 bb 3e e2 6c d0 bd c3 6b 4a bd 0a c8 be 3e
       0.36650798 -0.10177018 -0.049419176 0.37261993
0001b0 14 fe ce 3e 2d a7 11 3e 84 b8 81 be c5 80 ac 3e
       0.4042822 0.14223929 -0.25336087 0.33691993
0001c0 48 f3 b7 bc c2 e0 7d 3e 04 04 b9 3e 92 7a 0f 3d
       -0.022454873 0.2479277 0.36135876 0.035029
0001d0 c6 74 b3 3e 72 64 c0 be 23 60 c1 be 91 c0 88 be
       0.3505003 -0.37576634 -0.3776866 -0.26709417
0001e0 c9 2e 50 bd a1 49 f8 3d 01 5f 8f bd 4c ff c4 3e
       -0.050825868 0.121234186 -0.070005424 0.38476026
0001f0 b5 c9 ac 3e e1 64 db 3d 70 0a a0 be c2 91 80 be
       0.3374764 0.107126005 -0.31257963 -0.25111204
000200 d3 8b fc 3d c0 04 bf be bf cc f8 3d 47 8d 67 3e
       0.12331357 -0.3730831 0.12148427 0.22612487
000210 52 0d bb bd e4 51 81 3d d5 96 e4 3e 7c 6c 67 3e
       -0.091334 0.063144475 0.44646326 0.22599977
000220 ba 16 89 be 5f 39 d8 be 99 de 2a 3e 62 99 92 3d
       -0.26775151 -0.4223127 0.16686477 0.07158162
000230 25 d0 2d be 45 ba 5b 3e be b1 bc 3e e3 3f aa 3e
       -0.16973932 0.21457775 0.36854357 0.33251867

conv1.bias f4 [16]
000000 a2 16 c3 3e 44 39 d0 3d f5 79 11 3d dc 30 c1 3d
       0.38103205 0.101671726 0.035516698 0.09433147
000010 f1 f2 60 3e 6b 4b ac 3e 40 21 af 3d 2a b9 ae 3d
       0.21967675 0.3365129 0.08551264 0.08531411
000020 da 3e 0e 3d 22 99 bd bd 10 e2 1a bc 5e 48 4f 3e
       0.03472791 -0.092577234 -0.009453312 0.2024245
000030 05 21 4c 3c 98 e0 ea 3d ac e4 02 3e bc d0 1d 3e
       0.012459044 0.11468619 0.12782544 0.15411657

conv2.weight f4 [32, 16, 3, 3]
000000 9c 68 30 bd a6 ef b1 bc 61 48 03 bd 36 d9 3d bd
       -0.043068513 -0.021720719 -0.032051448 -0.046349727
000010 84 ca 1f bd d8 0f 5e bd 6a 67 3a bd af f6 2c bd
       -0.039011493 -0.05421433 -0.04550878 -0.042227443
000020 67 4f fb bc f3 41 d8 bb 83 c3 1c bd e5 79 46 ba
       -0.03067751 -0.0065996586 -0.038272392 -0.0007571264
000030 25 34 c4 bb 03 ee d4 3c 6a bd 07 3d 1d 48 3b 3d
       -0.0059876614 0.0259924 0.033139624 0.04572307
000040 83 74 99 3c 88 74 43 ba 7e fb 8f ba f8 96 c0 bc
       0.018732315 -0.0007456024 -0.0010984985 -0.023509488
000050 6a d3 41 3c ed ca 94 bc 0f 28 b8 bb e9 72 f9 bb
       0.01183019 -0.018163169 -0.0056200097 -0.0076125753
000060 81 8b 34 bc 27 2e 75 bc 42 6c 7e 3c 12 d1 94 bc
       -0.011019588 -0.014964617 0.01552874 -0.018166099
000070 b2 6d 9d bc a4 cd c2 bb 86 68 00 3d 97 07 a0 3b
       -0.019217346 -0.0059449244 0.03134968 0.0048837173
000080 87 dd 7e 3d 52 d9 0c 3d b4 c8 23 bc ec 93 96 ba
       0.062222984 0.03438694 -0.009996582 -0.0011488176
000090 ce 52 d3 bc f3 21 00 bd 19 f2 6e 3c 88 da 0b 3d
       -0.02579632 -0.031282376 0.014584088 0.034143955
0000a0 5b d9 0c bd c1 b9 f4 3b 8a 65 df bb c6 b4 fa 3a
       -0.034386974 0.0074684327 -0.0068175243 0.0019127361
0000b0 0e 10 44 3b 1c 05 07 bd 05 c1 b9 bc 58 05 97 bc
       0.0029916796 -0.032963857 -0.022675047 -0.018435165
0000c0 c8 46 2a bd 9c a6 2f bd 9c 28 5c bd 0c 4c e2 bc
       -0.04157141 -0.0428835 -0.053749666 -0.027624153
0000d0 04 1e 00 3d cb 0e 5a 3d 5c 0a 85 3c dd 71 d2 bc
       0.031278625 0.053236764 0.016240291 -0.02568906
0000e0 8c 08 c4 3b a1 71 b7 b9 cf 8c 9b 3b 22 0b 74 3c
       0.005982464 -0.0003498914 0.0047470103 0.014895232
0000f0 b3 ae 6b bc 7e 95 26 bd 68 53 df bc e1 3e df bb
       -0.014384913 -0.04066991 -0.02726145 -0.0068129157
000100 43 3e 19 bc b2 20 a8 bb 7e e5 0f 3c 76 00 9f bc
       -0.009353223 -0.0051308507 0.008782743 -0.0194094
000110 28 a7 0a 3c 54 26 b9 3c 7a 92 bc 3c a6 61 db 3c
       0.008462705 0.022601284 0.023019064 0.02677996
000120 3f bf d2 bc 04 e3 a1 3b ed f5 7e 3c 46 62 2f bd
       -0.025725959 0.0049403924 0.015561563 -0.04281833
000130 a5 38 22 bd 6e 7f 62 bd 11 de c7 bc 15 13 35 3d
       -0.0396048 -0.055297308 -0.024397882 0.04420765
000140 a0 a8 c4 3d b3 b9 0e bd 3f 4d db bb c4 1d 39 bc
       0.09602475 -0.034845065 -0.006692558 -0.011298601
000150 f1 de 06 bd 45 4c 30 bd 27 28 b0 bc f4 45 e6 bc
       -0.032927457 -0.043041486 -0.021503521 -0.028109528
000160 fd 52 34 bd 1b ea 9c bc 07 39 cb bc ba 99 de bb
       -0.044024456 -0.019154599 -0.024807466 -0.006793228
000170 b7 1d 1a bd 53 ba 82 bc 09 bc a8 3c 32 42 a0 3c
       -0.037625995 -0.015957987 0.020597475 0.019562814
000180 b4 27 7b 3d 61 1a 1d 3c d4 75 a9 bc e5 42 f0 ba
       0.06131716 0.009588809 -0.020686068 -0.0018330483
000190 20 05 53 bd 12 97 ae bc 26 e2 d5 bc 86 7c 08 3c
       -0.05151856 -0.02131227 -0.026108813 0.00833047
0001a0 07 bd a7 3c 1d b2 09 3d 75 85 b9 ba ba 5d 6e 3b
       0.020475877 0.033617128 -0.0014154153 0.0036371783
0001b0 8a 96 41 bc 37 3e 23 3b b1 f7 b6 bc 53 c7 38 3d
       -0.011815676 0.002490891 -0.022334905 0.045111965
0001c0 a6 54 56 3d bf 82 44 bb a7 83 2d 3d 42 26 05 3d
       0.05232682 -0.0029985157 0.04236188 0.03250719
0001d0 5f e4 9d bc 6b a1 9f bc 03 fd 0f bc 18 88 68 bc
       -0.019273935 -0.01948615 -0.00878835 -0.0141926035
0001e0 4a 2c 55 bc e9 ae 11 3d da 7a 02 3d 31 07 0a 3c
       -0.013011048 0.035567198 0.03185544 0.008424566
0001f0 d4 d6 92 bb 8e 66 4c bd 42 cb d5 3c 24 ad 40 bd
       -0.004481176 -0.04990249 0.026097897 -0.04704012
000200 0e f1 6b 39 da 64 9f 3b b0 99 34 bc 28 99 73 3c
       0.00022501146 0.0048643174 -0.01102297 0.014868058
000210 c7 d3 44 bd 34 0c 92 bd 46 00 23 bd 90 74 c0 bc
       -0.04805353 -0.07131234 -0.039795183 -0.023493081
000220 ec 85 93 bc fe d9 2b 3b 6d 3c 66 ba 63 15 fb 3c
       -0.018008195 0.0026222463 -0.0008782808 0.030649846
000230 e9 94 47 3d 71 68 e2 3c b4 da 33 3b 61 c3 0b bd
       0.048725996 0.027637692 0.002744359 -0.034121875
000240 d3 bc 28 bd 07 54 53 bd 19 8b 9e bd d7 83 c6 bd
       -0.0411957 -0.051593807 -0.077413745 -0.09693115
000250 ad 16 10 be ef a4 d4 bd f3 20 ed bd 6c 1a cb bd
       -0.1407115 -0.10383021 -0.1157855 -0.09917149
000260 12 55 98 bc 66 b3 8b bd db 00 59 3b 63 4d 85 bc
       -0.018595252 -0.06821327 0.0033112082 -0.016272252
000270 47 78 a8 bc bb 25 0d 3c ae 89 22 bd 4d ec 59 3d
       -0.020565165 0.008614953 -0.039682083 0.05320387
000280 04 3e af bd cd 6b 33 bd 4a 7c f5 3c 15 11 f9 3c
       -0.085567504 -0.04380398 0.029966492 0.030403653
000290 a0 04 cb bc a7 9e 4b 3d 9f d5 90 bd 9e ae e6 3c
       -0.024782479 0.04971185 -0.07071995 0.028159436
0002a0 4a dc 33 bd 2f 62 67 3c 79 75 a3 ba 41 01 c7 bd
       -0.043911256 0.01412253 -0.0012470923 -0.09717036
0002b0 3a 42 ef bc ed 76 4e 3d f5 fe 96 3d f6 2f b0 3d
       -0.029206384 0.050406385 0.07372848 0.08602898
0002c0 52 8f 01 bd 28 7c ca 3d 1c 69 86 bd 2c d8 2e bd
       -0.03163082 0.09886962 -0.06563017 -0.042686626
0002d0 4e 71 a4 bc 05 79 04 3d a7 ae bd 3d a7 cb 76 3d
       -0.02007356 0.032341976 0.09261828 0.06025281
0002e0 23 d9 c4 3d 98 6c 96 bd 95 d7 d9 3d de f5 79 bd
       0.09611728 -0.07344931 0.10636822 -0.061025493
0002f0 3a f3 37 bd 91 c2 1b bd a8 1c 85 bd 2e 25 44 bd
       -0.044909693 -0.03802735 -0.06499606 -0.04788702
000300 56 db b1 bd 49 74 e9 3c a0 52 0a 3e f1 6d 92 bc
       -0.08684413 0.028497832 0.13508081 -0.01787469
000310 63 7d fc 3d cb b7 77 3c d6 7e 10 ba e0 9b 53 3d
       0.12328603 0.015119503 -0.0005512064 0.051662326
000320 ee d6 8f 3c 8f 15 65 3d 0d e9 a1 3b c0 cb 10 bd
       0.017558541 0.055928763 0.004941112 -0.03535056
000330 d3 04 08 bc 2e e3 c3 bc a8 33 28 bd a6 ff 6f 3b
       -0.008301931 -0.023912039 -0.04106489 0.0036620884
000340 7f 4c c3 bd 73 6c cf 3d 0a 82 79 ba e7 c8 11 3e
       -0.09536075 0.10128107 -0.00095179735 0.14236794
000350 91 52 4c 3d f9 f3 ec 3d 46 56 7e 3d f1 08 9b bd
       0.04988343 0.115699716 0.062093996 -0.07570065
000360 e0 52 91 3c 8f 63 d6 bc fa 0f 83 bd d8 49 f2 bd
       0.017739713 -0.02617052 -0.06399532 -0.11830491
000370 32 dc 80 bd 19 b2 93 3d f5 47 c7 bd d1 1c 3d 3d
       -0.06291999 0.07211704 -0.097305216 0.04617006
000380 ed 25 ec bb cc cf 92 bc 94 70 cd bd c5 8b 38 3c
       -0.0072066695 -0.01792135 -0.10031238 0.011263792
000390 21 59 8c bd 40 33 f9 3c da 29 de 3d fa 53 84 3d
       -0.068529375 0.030419946 0.10847826 0.0646133
0003a0 0b e4 c9 3d 69 56 1f 3c 07 06 a5 bc cb bc 8c 3c
       0.09857949 0.009725192 -0.020144476 0.017179867
0003b0 89 e3 1c 3d 37 22 49 3c 02 9e 9d bd ae a6 55 bd
       0.038302932 0.012276224 -0.07696153 -0.05216091
0003c0 23 5c 5c bc 75 c2 00 bd c4 c9 46 bd ee bd 28 bd
       -0.0134497015 -0.03143545 -0.048532262 -0.041196756
0003d0 aa 4f 44 3c 75 58 b5 3c 70 a5 55 3c 10 3d 90 3c
       0.011981884 0.022136906 0.013039932 0.017607242
0003e0 56 74 75 bd 5c fd f5 bc c7 27 6e bd dd ac ad bd
       -0.0599254 -0.030028038 -0.058143403 -0.08480237
0003f0 df b8 2f bd 3a 1f 09 bd f2 3a fe 3c b6 0a e8 bc
       -0.042900916 -0.033477046 0.031033967 -0.02832542

conv2.bias f4 [32]
000000 9e c5 14 bd c7 dd 04 bd 04 0e b1 bc f7 33 e6 bb
       -0.036321275 -0.032438066 -0.021613128 -0.0070252377
000010 56 d4 b0 bc ed 5b 34 39 47 c4 11 bd 28 2d 22 3d
       -0.021585625 0.00017200383 -0.035587575 0.039593846
000020 7d 16 c5 bc d2 b0 b8 bd 10 4e ce bc 2d 8f 07 bc
       -0.024058575 -0.09018101 -0.025183707 -0.008273882
000030 79 b0 c7 bc 56 21 0f 3b 75 9a af 3b f6 ce 7a 3b
       -0.02437614 0.0021839938 0.005358989 0.003827033
000040 88 95 8f bd f0 60 00 3d a0 f4 e4 bc c1 19 01 bd
       -0.07010943 0.031342447 -0.027948678 -0.0315187
000050 a7 92 1b bc b2 47 e9 bc e5 4f 74 bc a8 7a 7e bd
       -0.009495414 -0.02847657 -0.014911626 -0.062128693
000060 9d 1d 77 bd 28 95 15 3d 1c 04 83 bc 69 58 03 bd
       -0.060330976 0.0365192 -0.01599317 -0.032066736
000070 d0 0f 28 bd b9 8f 31 bd 64 fe 53 bd 70 b3 c6 bc
       -0.041030705 -0.043349955 -0.051756278 -0.024255484

fc1.weight f4 [128, 800]
000000 bd 0f 14 ba 7a 8e 8e 3c dc 6a 74 3c 30 1e e6 3c
       -0.0005648097 0.017401922 0.014918055 0.028090566
000010 76 d2 03 3c 0c 47 e3 bb aa ae d3 bc 8b 22 25 3c
       0.008045783 -0.0069359597 -0.025840122 0.0100790365
000020 02 10 2a 3c 08 eb 32 3b 98 f1 15 bc 3e bc 88 bc
       0.010379793 0.0027300734 -0.009151839 -0.016691323
000030 97 8c c5 3b 5b 92 ff 3b 5d 4a 34 bc cd 97 88 3b
       0.0060287225 0.0077994294 -0.011004058 0.0041684867
000040 e1 8a 30 3b c1 a9 05 3c 9d 91 56 bc 26 0d ff bc
       0.0026938247 0.008158148 -0.01309624 -0.0311342
000050 28 b5 03 bb a6 02 7f 3c f8 de 5b 3b 7d 3f ee 3b
       -0.0020096991 0.015564596 0.0033549648 0.007270752
000060 fb 0a bf ba f0 cb 00 ba 1c 10 0a 3d 8a 31 ea 3c
       -0.0014575416 -0.00049132016 0.03370677 0.028588075
000070 5b 48 03 bb 99 04 06 bd 0d a4 ce 3b 7c 17 dc 3c
       -0.002003214 -0.03271923 0.0063061775 0.026866667
000080 bf 60 b9 bc b5 7b c2 3c 5e e7 bc 3b 6e 57 c2 bc
       -0.02262914 0.023740629 0.005764886 -0.02372333
000090 b9 71 3d 3b 0c a0 6f bb 7d ae 7b 3d de af fd 3c
       0.0028906895 -0.0036563901 0.061445702 0.03096765
0000a0 e1 18 89 bc e4 d0 ca 3c 25 75 eb 3c 71 2f 71 bc
       -0.016735496 0.02475781 0.028742382 -0.014720784
0000b0 ac 88 e6 bc c5 98 8e bc 9e 7d 23 bc fc 4c 3b bc
       -0.028141342 -0.01740683 -0.00997868 -0.011431929
0000c0 78 02 82 bc 81 8d 83 3c ee 74 c3 bb c7 b6 fc 39
       -0.015870318 0.016058685 -0.005964867 0.00048201365
0000d0 ad 32 55 ba f2 7f da bb cb e7 69 39 6f 52 12 bc
       -0.00081328565 -0.0066680843 0.00022306961 -0.0089307865
0000e0 8c 3a cf 3c c0 7e 2a 3d 28 60 07 3b d6 e6 55 3a
       0.025296472 0.041624784 0.0020656679 0.00081597024
0000f0 af 70 8f 3b b0 df 2e 3c 80 8e 84 bb e4 f3 5d bb
       0.0043774466 0.010673448 -0.0040453076 -0.0033867294
000100 50 c9 e1 bb 75 5d a3 3a 3e dc 88 3b 77 74 86 bc
       -0.0068904534 0.0012463765 0.0041766455 -0.016412957
000110 42 ad c4 bc db 17 02 bc 6a 34 82 3c 1c 49 f4 3b
       -0.024008397 -0.007940258 0.015894134 0.0074550044
000120 60 f3 0e 3c 57 9a 3e bc 17 de 81 bb 1f c5 28 3b
       0.008725017 -0.011633477 -0.0039632428 0.002575226
000130 4d b7 1f 3d 7f ed 66 3d ef 5e 18 3d 83 f1 2b 3c
       0.03899317 0.056378838 0.03719991 0.010494593
000140 4b d5 a4 bc ed 7d 69 3c ff 24 8c bc 17 28 f5 bc
       -0.020121237 0.014251214 -0.017107485 -0.029926343
000150 02 02 89 bb 94 57 21 3b 80 5a 24 bc 3a c6 bb bc
       -0.0041811476 0.002461885 -0.0100313425 -0.02292167
000160 9d 62 d3 bc 88 c3 95 bc fd 75 79 3c a7 14 3b 3c
       -0.025803858 -0.018281713 0.0152258845 0.011418498
000170 12 46 13 bd 8e 7a f0 bc ab 57 5a bb 12 d4 31 3c
       -0.035955496 -0.029355314 -0.0033316414 0.010853784
000180 75 a1 c1 3c ec ad 25 bc 45 b5 57 3c 32 01 84 3c
       0.023636559 -0.010112267 0.013165777 0.016113851
000190 20 b7 6b bb 59 f6 9b 3c 6a cf ea 3c ba c4 8d 3c
       -0.0035967305 0.019038366 0.028663356 0.01730572
0001a0 5b 93 2a 3c 15 79 39 bb 29 49 68 bc c1 1e f9 3c
       0.010411109 -0.002830093 -0.014177599 0.030410172
0001b0 ea 06 94 3c e4 1f 03 bc 9b 1b 96 3a a4 90 38 bc
       0.018069703 -0.008003209 0.0011452319 -0.011264954
0001c0 49 d4 28 bc 9e dc 43 3c 19 db 40 3b 6a e0 5a bb
       -0.010304519 0.011954455 0.0029427467 -0.0033397921
0001d0 47 2d 65 bc 76 4d 29 3b fc 9e ea bc b6 62 65 bc
       -0.013987846 0.0025833524 -0.028640263 -0.014000585
0001e0 d5 be 4f 3b 12 99 d1 ba c9 e1 a1 3b 3a 74 97 bc
       0.0031699438 -0.0015991053 0.0049402458 -0.018488038
0001f0 aa 0e 79 3c 7f 02 80 ba a6 44 d2 3c 70 d8 1f bb
       0.01520125 -0.0009766369 0.0256675 -0.0024390481
000200 7e ab 9a bc 53 da 46 ba 5e 3c fe 3a 7a de c9 bc
       -0.018880602 -0.00075856334 0.0019396653 -0.024642218
000210 2f cf 90 3b 42 53 b2 ba 43 6f a9 3c 2e 1a 0e 3c
       0.0044192295 -0.0013605135 0.020682937 0.008673234
000220 99 05 8d bd 01 e2 0d 3c 1a e8 ed 3c d3 41 69 3c
       -0.06885833 0.008659841 0.029041339 0.014236885
000230 c6 53 44 3c 17 84 fd bc 46 d1 d9 3c 33 c8 d7 bb
       0.011982864 -0.030946774 0.026589047 -0.006585145
000240 25 ce dd bb 8b cb 1c 3c 68 e7 82 3c 1a ee 20 bc
       -0.006768959 0.009570013 0.015979484 -0.009822393
000250 0c 99 27 bd a9 c1 16 3d 4c 77 06 bc 9f 47 3e bc
       -0.04091744 0.036805782 -0.0082071535 -0.0116137555
000260 b2 56 16 bc 0b 99 9c 3b 3d 4f 35 3b 28 2a 61 bc
       -0.009175943 0.0047789863 0.0027665638 -0.013742961
000270 86 13 23 3b 37 7c 2f bb 19 a3 9e 3c bb 8c 0e 3d
       0.0024883463 -0.0026776919 0.01936488 0.03480218
000280 62 16 c9 bc c5 bd 6f 3b f4 95 1e 3c ef 94 99 bb
       -0.024546806 0.0036581617 0.009679306 -0.0046869437
000290 34 a5 72 3c 15 21 86 bb 34 b0 80 3c c2 4a d7 bb
       0.014809895 -0.004093299 0.01570902 -0.006570191
0002a0 48 8a 7e 3a b9 41 b1 3c 88 4b 42 3a c8 7a 23 3c
       0.00097099366 0.021637784 0.0007411768 0.009978004
0002b0 79 ff 00 3c d0 cf ef bc e4 9b 8f bc ad f0 cb 3a
       0.007873409 -0.029273897 -0.01753039 0.0015559398
0002c0 9f c2 eb bc 67 40 1a bd fd b4 13 bd e6 fd d9 bc
       -0.028779326 -0.037659075 -0.036061276 -0.026610326
0002d0 99 09 59 bc 56 da d7 bc d2 53 21 bd 5b d5 c7 bc
       -0.013246917 -0.026349228 -0.039386578 -0.024393728
0002e0 62 a6 c4 bb fc d8 b1 bb aa 80 f4 3c b5 49 5e 3a
       -0.0060012797 -0.005427478 0.029846508 0.0008479611
0002f0 dc aa 07 bd 05 de 58 bc 23 3d c0 3b 7a 47 73 bc
       -0.03312193 -0.013236527 0.005866663 -0.014848584
000300 18 3e d6 bc 77 d2 62 bc d0 f2 61 3a ec 29 b0 3b
       -0.026152655 -0.013844124 0.0008619251 0.005376091
000310 6e 2f d9 39 00 0c cb bb ae 11 30 3d 21 39 85 3c
       0.00041424803 -0.006196499 0.04298561 0.016262593
000320 23 89 de 3b aa 12 50 3c 2c bc aa 3c 79 2b a8 bc
       0.0067912503 0.012699762 0.02084168 -0.020528542
000330 f0 61 3b bd 42 43 70 3b 47 ef 38 bc 19 37 19 bb
       -0.045747697 0.0036661183 -0.011287517 -0.0023378788
000340 e4 7b 70 bc 1b 62 5c bc c3 ed fd bc c8 62 0f bd
       -0.014677975 -0.013451125 -0.030997163 -0.035006315
000350 b2 75 12 bc cc d3 25 3d 63 c6 9b 3c 64 14 43 3c
       -0.008939194 0.04048519 0.019015497 0.011906717
000360 93 2e 7f 3c 3c b7 27 3d 11 d9 3f 3c 80 a0 2f 3c
       0.015575069 0.04094623 0.0117094675 0.0107194185
000370 92 3f 4c bc a7 24 d5 3c 5a 0b 1e bc 77 f4 81 3c
       -0.012466328 0.026018454 -0.009646261 0.01586364
000380 58 4a f3 3a 37 01 e6 3a 25 1a 19 3c 44 67 0e 3c
       0.0018561585 0.001754797 0.009344612 0.008691613
000390 09 25 84 b9 08 78 9e bc 96 81 61 3c 5c da 2b 3d
       -0.00025204595 -0.019344345 0.013763806 0.04195629
0003a0 c9 57 0d 3d 75 60 fa 3c e9 ba 92 bc 77 a9 16 3c
       0.034507547 0.030563572 -0.017911391 0.009195677
0003b0 d4 23 29 bc d1 3a 6d bc 8b df 66 bb 50 64 b3 3a
       -0.0103234835 -0.014479355 -0.0035228457 0.0013686512
0003c0 a8 60 10 3b f9 7f 4a 3c 12 b6 79 3b 40 60 cc 3c
       0.0022030268 0.012359613 0.0038102907 0.02494824
0003d0 fd 0e 89 bc 68 6b ed 3c 69 60 47 3d 10 24 d8 3c
       -0.01673078 0.02898188 0.04867593 0.026384383
0003e0 ab 5c ae bc 99 84 42 bc 14 93 93 bb 37 1b 3e 3c
       -0.021284422 -0.011872434 -0.004503617 0.011603168
0003f0 a8 28 02 3d 9e 22 13 3d 52 31 4e 3b bd 39 22 bc
       0.031777054 0.035921685 0.0031462503 -0.009901461

fc1.bias f4 [128]
000000 12 71 0d 3b 47 19 3c af 33 18 81 b7 da b3 6b ae
       0.0021582288 -1.7107481e-10 -1.5389267e-05 -5.3592554e-11
000010 0b ff 2d 2c 6a 4e 12 3b 60 ce 46 bb db af f5 38
       2.4726356e-12 0.002232457 -0.0030335411 0.00011715266
000020 f9 eb d9 ba 07 4d d6 b9 f7 ad 3e 3c 8a e7 e9 3b
       -0.0016626111 -0.0004087465 0.011638156 0.0071381973
000030 23 e7 8a 3b 4a f0 46 37 1a 28 65 3b 92 1f 9b 3b
       0.0042389794 1.1857666e-05 0.003496653 0.004733988
000040 25 d1 0b 3c bf 2f 57 b3 f9 51 bf b5 ba 83 cd 3b
       0.008533751 -5.0102013e-08 -1.4254466e-06 0.0062718065
000050 8c 97 7b b7 e9 df 9b 3b 65 45 22 3b 6c 32 00 3a
       -1.4996051e-05 0.004756917 0.00247606 0.0004890326
000060 1e 80 80 b0 f1 ad 81 b4 9b 48 b5 b5 e0 c9 9e ac
       -9.349639e-10 -2.4154681e-07 -1.3506682e-06 -4.5130427e-12
000070 ad 28 31 3c 9a d2 ba 3b 2d 82 94 bb 89 ba ab b9
       0.0108129205 0.005701375 -0.0045321197 -0.0003275464
000080 dd 0c 0e 3a fe 53 c7 3b ce 50 fb 36 42 46 92 3a
       0.0005418787 0.0060830107 7.48979e-06 0.0011159854
000090 b4 ff 64 b4 fa a2 99 bb bf 5f 69 ba f5 df df 3b
       -2.1327179e-07 -0.004688618 -0.0008902512 0.0068321177
0000a0 85 63 94 3b db 61 4f bb 51 07 25 3c 42 00 0e bb
       0.004528465 -0.003164402 0.010072545 -0.0021667634
0000b0 77 63 52 3a e0 0d c4 3a 82 c2 39 3a 74 4c 76 3b
       0.00080256857 0.0014957748 0.0007086174 0.003758219
0000c0 9a 06 15 3b a4 eb 75 3b 09 76 30 3a cc b1 ee 3b
       0.002273953 0.0037524486 0.0006731456 0.0072843786
0000d0 fc 26 19 3c 8f d3 fb bb ed 84 ff 32 29 2e 20 3c
       0.0093476735 -0.007685132 2.9746355e-08 0.00977663
0000e0 a4 6d ed 37 41 84 2d b9 d7 02 fc 3a f8 6b cc 3b
       2.8303657e-05 -0.00016547834 0.001922692 0.006238457
0000f0 a1 66 a1 3b fa 5c a4 3a b3 82 4a 2f 31 09 18 3c
       0.0049255644 0.0012539916 1.8418227e-10 0.009279535
000100 ba 56 55 ac 7f 81 51 28 38 e9 cc 3b 91 94 0d 3c
       -3.0317263e-12 1.1629911e-14 0.006253388 0.008641378
000110 3b 10 8e a3 cd e9 29 bb 92 47 b4 ba f3 a0 fe bb
       -1.5402545e-17 -0.002592671 -0.001375424 -0.0077706515
000120 d0 c7 bb 3a f8 23 19 18 30 72 e4 3a b2 89 65 bb
       0.0014326517 1.9792946e-24 0.001742905 -0.00350247
000130 65 96 99 b3 e2 59 53 29 76 45 33 bb 4b 1f e3 3b
       -7.151974e-08 4.6929373e-14 -0.0027354634 0.0069312206
000140 f6 ca 99 b1 b0 05 a2 a8 1e f2 92 3b f8 6f 50 2d
       -4.47596e-09 -1.798808e-14 0.004484429 1.1848293e-11
000150 d6 e6 81 3c d0 e1 47 bb 18 87 51 af 75 5b 9d 3b
       0.015857141 -0.0030499585 -1.9056434e-10 0.0048021623
000160 e4 4b f1 9c 57 94 97 ba a1 5d 01 3c 2a a6 b4 39
       -1.5967659e-21 -0.0011564594 0.007895858 0.00034456077
000170 b9 74 93 bb 8c c9 e4 3a 7c a3 a6 3b 43 94 c0 3b
       -0.0044999984 0.0017455085 0.005085407 0.005877049
000180 49 16 2a bb 34 43 37 ba c2 b4 86 3b 5b eb f2 bb
       -0.0025953224 -0.000699091 0.0041109035 -0.0074133105
000190 d3 52 7c 3a 2f e8 a8 ba 9e 21 dd 39 7f cb 0d 3b
       0.0009625379 -0.0012886579 0.00042177452 0.0021636186
0001a0 c3 dc 18 3b 64 d1 4c b6 f7 1c 70 bb 84 b8 1a 3b
       0.0023324944 -3.052025e-06 -0.0036638358 0.0023608515
0001b0 d7 ff 3d 3a c9 45 f1 39 29 a5 67 3a 15 7d 42 bb
       0.0007247901 0.00046019096 0.00088365615 -0.0029676605
0001c0 57 9e ff ae 77 d1 6a 23 a2 7c 16 3b 9a 3c 06 3c
       -1.1624184e-10 1.2729521e-17 0.002296247 0.0081931595
0001d0 ba 90 a3 12 4d 99 08 bb f5 6e af ad 8b 6d 87 bb
       1.0322424e-27 -0.0020843328 -1.9944471e-11 -0.0041329316
0001e0 03 06 4e 3b 0b 51 1e bb 16 33 9a 3a bd 90 18 bb
       0.0031436689 -0.0024157192 0.0011764492 -0.002327963
0001f0 6f 17 70 9a 2e 3c 5d 3b ed 80 05 b4 52 e1 db 3b
       -4.9649766e-23 0.0033757794 -1.2433493e-07 0.00671021

fc2.weight f4 [10, 128]
000000 4c 80 7c bd 44 9f c4 39 d0 23 12 be 84 63 49 b5
       -0.06164579 0.00037502695 -0.14271474 -7.502315e-07
000010 89 94 d5 2e 41 be 85 3d 6f 81 c9 bc 72 57 6f bb
       9.712504e-11 0.06530429 -0.024597852 -0.0036520627
000020 24 89 d7 3a 5b 43 00 3e cc 34 14 3e cc 65 db bd
       0.0016444069 0.12525694 0.14473265 -0.107127756
000030 71 d5 73 bd 24 18 02 bc 77 6f d9 3d ec 61 8b 3c
       -0.059529725 -0.007940326 0.10616963 0.017014466
000040 f7 79 b7 3d b8 28 ae 38 43 0b 4d 37 19 7b 05 be
       0.0895881 8.304551e-05 1.2221574e-05 -0.1303524
000050 ef 16 fc 3a 91 e8 33 bd c9 db b9 3c e7 0e c4 3d
       0.0019232909 -0.043922964 0.02268781 0.09573155
000060 69 28 5d 2c 56 0e 0d bd 3d 02 14 bb fb e1 a5 2b
       3.142842e-12 -0.0344375 -0.0022584342 1.1786677e-12
000070 46 e8 b6 3d 0d 99 b6 bc d9 91 d2 bd 9f 51 89 3c
       0.089310214 -0.022289777 -0.102817245 0.016762553
000080 ad 9e 88 3d 09 a3 0b 3c 72 6c 13 bd 93 38 dc bd
       0.0667089 0.008522757 -0.035992093 -0.10752978
000090 30 3b b2 b5 76 8d c6 bd a2 6f 0e be 9b c0 71 bb
       -1.3279259e-06 -0.0969495 -0.13909772 -0.0036888483
0000a0 4b 45 4d 3b a1 b4 26 bd 8a 7b 3c 3c 70 23 8d 3b
       0.003132182 -0.040699605 0.011504063 0.004307203
0000b0 76 c1 3f be 3a b7 0b be 65 16 1f 3d 3d e7 bc 3d
       -0.18726143 -0.13644114 0.038839716 0.09223793
0000c0 9f 90 70 bb 2c bf b3 3d b8 1c ce 3d b7 f4 19 be
       -0.0036707295 0.087766975 0.100640714 -0.15034758
0000d0 3a 6f de bd c4 3c 2b bc 4c b4 6b 3b 0e cc f8 3d
       -0.108610585 -0.010451499 0.003596562 0.12148295
0000e0 c8 54 03 39 82 f1 d0 3c 45 80 87 3b 4a c3 fd 3c
       0.00012524717 0.025505785 0.004135164 0.03097691
0000f0 f2 0e 04 3d 2f 71 14 3d de 05 f0 3c 89 85 7d 3e
       0.032240815 0.036240753 0.029299673 0.24757971
000100 82 48 1b a4 fe 93 1d 2a 4a 55 90 3d 99 9c d8 bc
       -3.3671684e-17 1.3995746e-13 0.070475176 -0.02644186
000110 aa 43 07 bc b5 56 94 3d ee 6e cf 3c 68 68 82 3b
       -0.008255878 0.072431006 0.02532145 0.0039797314
000120 6d 2f 0f be 61 24 29 b7 41 a2 d1 3d 64 14 01 be
       -0.13982935 -1.0081655e-05 0.102360256 -0.12605435
000130 f6 af b7 b4 cf 9d 10 3c 18 f2 67 bd ff b5 a6 bd
       -3.4214435e-07 0.008826687 -0.056627363 -0.08140182
000140 7b d1 ae 3c 82 69 29 27 0b fd c4 bd 7e b0 17 2d
       0.021340122 2.3510657e-15 -0.096185766 8.622545e-12
000150 a5 4e 2c 3d 26 f3 0d 3c 53 43 07 3b 7f e7 ce 3d
       0.04206719 0.008663928 0.0020639494 0.10102748
000160 90 ad 2d bb ed cd 8d bd a3 12 d6 bc 2f 3d 96 3d
       -0.0026501156 -0.06924043 -0.026131934 0.073358886
000170 2b f6 2e 3d 09 b3 65 3d 95 02 d5 3c d4 25 04 be
       0.042715233 0.056078944 0.026002208 -0.12905055
000180 b8 96 a4 3d 40 98 9d 3d 24 4a 0e 3d f7 d2 9b bd
       0.0803656 0.07695055 0.034738675 -0.07608598
000190 80 f5 81 3d d3 48 12 3d 53 71 03 3e e2 ef 05 be
       0.063456535 0.03571398 0.12836199 -0.1307979
0001a0 10 9a 91 3d de b6 5a 3b 89 96 6d bc 02 11 4d be
       0.07109463 0.0033373157 -0.014501222 -0.20026019
0001b0 a8 8e 3e be 49 7c 38 bd 97 d2 9c 3c a3 99 35 be
       -0.18609107 -0.045040403 0.019143386 -0.17734389
0001c0 5f 95 b5 b8 68 51 19 26 70 52 2a bd 1a 79 c7 bd
       -8.658575e-05 5.3192864e-16 -0.041582525 -0.09739895
0001d0 0b a2 d0 2b 12 ab bb bc 23 b0 cd bb 78 cd 7c bb
       1.4824265e-12 -0.022908721 -0.0062771006 -0.0038574617
0001e0 ea 61 d7 bd 67 51 cc bb dd 0f 94 3d cb f2 9a 3c
       -0.105167225 -0.00623529 0.07229588 0.0189146
0001f0 f4 22 1a bc d8 a4 0d 3e ca 2e 31 b6 d1 e0 90 3d
       -0.009407748 0.13832414 -2.640229e-06 0.0707413
000200 39 4f c3 39 e6 4f 7d b8 5b 34 cd bd f5 69 2a b1
       0.00037252324 -6.039431e-05 -0.10019752 -2.4798485e-09
000210 8d 95 63 30 2b 03 9a bd fa b0 a6 bc 28 a0 d2 bb
       8.2794643e-10 -0.075201355 -0.02034806 -0.0064277835
000220 5c 52 3e bb 87 fe 8a bd f4 03 33 3e c1 39 1a 3d
       -0.002904079 -0.067868285 0.17481977 0.037652735
000230 ea 76 81 3d af d6 85 bb bb 89 91 bd a3 3c c7 3d
       0.06321509 -0.00408443 -0.07106348 0.097283624
000240 0b c3 8d 3d ff 68 e3 b5 d3 81 94 37 dc 62 8a 3d
       0.06921967 -1.6943376e-06 1.7703429e-05 0.06757137
000250 c2 00 e9 39 88 4c de 3d af 46 52 3d 6e d8 38 be
       0.00044441788 0.10854441 0.05133694 -0.18051311
000260 6a 3e ba 2e 33 40 27 bd 34 e4 c3 b7 78 31 e0 a5
       8.469388e-11 -0.04083271 -2.3352077e-05 -3.8891327e-16
000270 89 c2 b8 3d 2d cc bb 3d 58 5c e6 bd 9f bd 9f 3b
       0.0902148 0.09169803 -0.11248082 0.0048748995
000280 08 7c 8b bd 88 dd 9d 3c ad 98 54 bc 24 73 1b 3d
       -0.068107665 0.019270673 -0.012975854 0.037951604
000290 3d eb 7f b6 78 13 da bd 18 d0 23 3b 29 a4 8d 3d
       -3.8134888e-06 -0.106482446 0.002499586 0.06916077
0002a0 5c a2 8b 3c 9a 18 ae 3d 83 cb ff 3d 8d 24 92 bd
       0.017045192 0.08500786 0.12489989 -0.07135878
0002b0 5b c0 8c 3d d5 ae 59 bc 96 ab a5 bd f5 10 bf 3d
       0.068726264 -0.013286312 -0.08089368 0.09329406
0002c0 b0 2f bd bc e7 a0 ba 3d 3e cc a8 bd 91 ba c0 3d
       -0.023094028 0.09112721 -0.08242081 0.09410585
0002d0 bb 01 d0 3d 9a 58 1d be c6 07 c7 3a 76 65 25 3e
       0.1015658 -0.1536583 0.0015184812 0.16151986
0002e0 68 ce 73 39 11 65 c6 3c bc 2f a0 bd 6c c3 bb 3b
       0.00023251178 0.024218114 -0.078216046 0.005730083
0002f0 4a 16 99 3d ea 2f b1 bd 57 78 0d bc f8 d1 7c 3e
       0.074749544 -0.08651717 -0.008634648 0.24689472
000300 eb 33 66 b0 a8 dc 29 2d 72 23 ae 3d c1 9d b6 3d
       -8.374729e-10 9.655533e-12 0.085028544 0.08916808
000310 87 e5 bb bb 61 1d 07 be 80 a0 ec bd b2 20 41 be
       -0.005734149 -0.13194801 -0.115540504 -0.18860129
000320 64 5a 45 38 9a b6 9a ba a5 0e b7 3b b9 64 87 bd
       4.7052643e-05 -0.0011803687 0.0055864626 -0.06611008
000330 ff e5 d2 b4 35 be 91 bb 3e 10 e4 bd c1 94 3c 3d
       -3.9282892e-07 -0.0044477233 -0.111359105 0.0460403
000340 4e ea a5 bb de c2 23 25 64 17 b9 3d cf 99 15 b6
       -0.0050633317 1.420402e-16 0.090376645 -2.2292259e-06
000350 6f 35 12 3e b3 75 07 be 79 4c 33 39 50 10 30 bd
       0.14278196 -0.13228492 0.00017099259 -0.042984307
000360 84 b8 78 3b 5e 5d 51 bd 74 59 a6 3d 5d bd 4e bc
       0.0037951777 -0.051114433 0.081225306 -0.01261839
000370 e2 9d 0f be b2 68 65 bc 51 6d cc 3d 54 72 c6 3d
       -0.14025071 -0.014002012 0.09981788 0.09689775
000380 dd ca 9c bd 96 27 f3 bd 20 60 94 3d 41 2b 07 be
       -0.076558806 -0.11872785 0.07244897 -0.13200094
000390 2a ac 4f bd a1 33 2c bc c1 29 7f bd f1 4e ee 3c
       -0.050701298 -0.010510356 -0.06229568 0.029090377
0003a0 60 a3 20 bd 75 7a 05 3b ad e5 e2 bd 11 15 4b bd
       -0.039218307 0.002036718 -0.110789634 -0.049580637
0003b0 d5 41 17 bd c1 ae 3b 3d 52 ca ab 3d 8e f2 90 bd
       -0.036928017 0.045820955 0.08388199 -0.07077514
0003c0 ad c2 89 b6 55 c0 bf 25 00 32 78 3d 9c 84 da 3d
       -4.1055814e-06 3.3263548e-16 0.06059456 0.106698245
0003d0 bf 00 db 95 42 6d 21 be 88 3a 2d 38 9c 1c 90 bd
       -8.845457e-26 -0.15764335 4.1300926e-05 -0.07036707
0003e0 72 c0 26 3d 04 c6 17 3c 70 4b cd 3d 79 3a 54 be
       0.040710874 0.009263519 0.10024154 -0.2072543
0003f0 e3 f6 87 3c aa 98 60 3e db ee cf 32 dd 49 ca 3d
       0.016597217 0.21933237 2.420659e-08 0.098773696

fc2.bias f4 [10]
000000 de 54 dd 3b 9d 3d 52 3d 0b d4 84 3c fc e2 e8 bc
       0.0067545017 0.05132829 0.016214391 -0.028428547
000010 50 b1 7c 3b d2 fc 3c bd 2c 91 33 3c 9b 07 e3 ba
       0.0038557835 -0.046139546 0.010959905 -0.0017320992
000020 8b 6b c8 3b a0 6c cc bc
       0.0061163357 -0.02495414
