models/trained/ConvNet3_3.pt (torch, 437732 bytes, 8 tensors)

conv1.weight f4 [16, 1, 3, 3]
00000000: 3e59 b23e 5c38 583d 78c5 de3a f4e5 bd3e
00000010: e0e8 153c 5611 00bf 6d95 b73e 749b adbd
00000020: a8e0 3bbe a4c0 df3e e3d4 583e 05cc 6c3c
00000030: cc0e 63be 25b4 0d3e 55a3 b73e 639a a0be
00000040: bb0d bdbe 4866 71be bdfd 05be 4cab 5cbe
00000050: 7887 e8be 0a69 cabe cb64 dbbe 8e9c 75be
00000060: 4ee0 71bd 51da 003d a18f 283f cad9 793e
00000070: 77e2 47be 4b5d f3bc 95b5 d53c 150a 3abe
00000080: 5c1e a1be af70 e43e ad8a a23e 6a54 973e
00000090: 5144 ed3e 17e4 dd3e 0f81 073e 3a69 94bd
000000a0: 80d5 10be 528a fbbe 6629 adbe d9ab abbe
000000b0: 5a5c 333d fe32 c63e 3431 603e e824 243e
000000c0: fdf3 75be 7433 29bd c446 403c cb83 35be
000000d0: fede 93be d285 ebbd b3bc abbe 1f78 14bf
000000e0: 5900 253e 63cb dd3d cd65 173e fec6 2c3e
000000f0: 0dc6 c23d 3987 d33e 9bce 83bd 9584 56be
00000100: 0809 78be d18f 713c a902 a1be 0afd d53d
00000110: 1bc8 febe b287 aebe 78b9 f6be f4b8 c7be
00000120: 8f47 a23e d450 d43e 4253 563e 9f1c 6bbc
00000130: 9e06 503e c0c3 873d ba9c 6e3e 37b9 8cbd
00000140: beed f1bb d0d1 f33c e085 723d ec13 773e
00000150: 2edc 67bd 916b c93e f8d0 cc3e 168f 5abe
00000160: c576 10be efe4 c23e dbbf 8dbe a62e d13e
00000170: 8d5f 5b3e e318 a63e 326d 3ebe ecaa 373e
00000180: 805f 773e 3892 5cbe ba4d b63d e5a3 453d
00000190: de96 5fbe 762c 9b3e a783 a93e 0b00 d03e
000001a0: db58 44be aca5 463e 1b00 b83e e60b 4ebb
000001b0: a76e 973d 401f b73e c1a8 04bf 505e 00bd
000001c0: da61 b33e 024c a3be 16a2 a7be 0c5c 6f3e
000001d0: 6d77 193e a9b6 c53e 3ab1 a3be 82a8 4fbe
000001e0: 59cd dd3d 1733 b9be e400 debd 8e01 15bf
000001f0: e463 d5be d309 1d3e 3249 b13d 9b3b 0bbc
00000200: cea3 b13e a6db 8bbd 9430 3d3c 65e7 5e3e
00000210: 54e1 873e 3cbf f1be e0dc ccbe 2393 0abf
00000220: 52c3 a6be 48b4 6ebe 6803 963a 2787 74be
00000230: a4c3 1bbf bfd2 123f e290 f7bd 2b7d 7c3e
0.3483371 0.052788123 0.0016996106 0.37089503 0.00914976 -0.5002645 0.3585619 -0.08476916
-0.18347418 0.4370166 0.2117496 0.014452939 -0.22173613 0.13838251 0.358668 -0.31367788
-0.36924538 -0.23574173 -0.13085075 -0.2154972 -0.45415854 -0.39533263 -0.42850336 -0.23985502
-0.059051804 0.031458203 0.6584416 0.24399486 -0.19519983 -0.029707571 0.026087562 -0.18167908
-0.31468475 0.4461722 0.31746426 0.2955659 0.46341184 0.4333808 0.13232826 -0.07246633
-0.14143944 -0.49128968 -0.33820647 -0.33529547 0.043789245 0.3871078 0.2189377 0.16029704
-0.24018855 -0.041308835 0.011735622 -0.17726056 -0.28881067 -0.115001336 -0.33542404 -0.5799579
0.16113414 0.108298086 0.14784928 0.16872784 0.095104314 0.41314104 -0.06435891 -0.20949014
-0.24222195 0.014743761 -0.31447342 0.10448654 -0.49762043 -0.34087902 -0.48188376 -0.39008296
0.3169522 0.41467917 0.20930198 -0.0143500855 0.20315024 0.06629133 0.23301974 -0.068712644
-0.0073830774 0.029763132 0.059209704 0.24128693 -0.056606464 0.3933988 0.4000318 -0.21343645
-0.14107807 0.38065287 -0.27685437 0.40855902 0.21423168 0.32440862 -0.18596342 0.17936295
0.24157524 -0.21540153 0.08901544 0.048252005 -0.21834895 0.30307359 0.33108255 0.40625033
-0.1917452 0.19399136 0.3593758 -0.0031440197 0.07394152 0.3576603 -0.5182 -0.031339943
0.35035592 -0.31893927 -0.3274085 0.23374957 0.14986964 0.3861592 -0.3197115 -0.20279124
0.108301826 -0.3617179 -0.108400136 -0.582055 -0.41677773 0.15335779 0.08656539 -0.008498098
0.34695286 -0.06829004 0.011547226 0.21767958 0.265391 -0.47216213 -0.40012264 -0.5413076
-0.32570893 -0.2331096 0.0011445107 -0.23879682 -0.608454 0.57352823 -0.12088181 0.24657123

conv1.bias f4 [16]
00000000: 8355 1e3e 45e9 98bb 0a8d 22be f052 33be
00000010: 6ce4 b7bd febb 403e 577f cfbc 3620 cf3d
00000020: 382d 753c 9b77 8c3e 0c48 823e 4bb4 143c
00000030: 3c75 8c3e e4e2 643d 8941 9c3d 9768 cf3e
0.15462308 -0.00466648 -0.15874115 -0.17512107 -0.08979115 0.18821713 -0.025329275 0.101135656
0.014964394 0.27435002 0.25445592 0.009076188 0.27433193 0.055880442 0.07629687 0.40509483

conv2.weight f4 [32, 16, 3, 3]
00000000: 677c bd3d a541 9dbd ca37 5fbc f78e b3bb
00000010: c28d f5bc 9705 93bd 88cf 04be 7421 2dbd
00000020: 8744 89bd 9d46 0bbc 03ab e0bc 164f 40be
00000030: 797d 4a3e eed9 2f3e dfa9 bb3d dab8 713d
00000040: 6c59 483d e60c 133e 1b94 c3bd f7df 0dbe
00000050: 09d2 193e 455a 83bd 2011 b4bd 74f1 54bc
00000060: 1007 acba 3ba9 3f3d 9a93 a9bc 5793 a53d
00000070: f32b de3b 1686 f03d 0db5 293d 6e9b 673c
00000080: 5495 913c 93f6 50bd 7879 1ebe 9395 92be
00000090: fd92 22bd 4f58 bcbd aaba e93c eae5 3d3c
000000a0: cf7e 0cbd 81e8 b33d f05d 003e 8637 df3d
000000b0: c302 ff3d 28bf 1cbe de55 b7bd 43d2 66bd
000000c0: 0b0c dc3d d7d1 123d 3ccf e5bc 902f 473e
000000d0: 341d 0a3e b57e 0d3e be94 683d 2274 203d
000000e0: 3d46 68bc 3fe1 59be 0145 f3bc b487 7fbc
000000f0: 8b83 56be d31f 2abe 0de5 25be 8d18 17be
00000100: cb78 1dbd c757 40be 2f19 7cbd 5897 bbbd
00000110: 1f9c 07be e581 343e ebe6 69bd a238 e3bd
00000120: 525e 013e fae9 a5bd b352 75bc 9cfe c93c
00000130: 003b 523d ce5f 9e3d 8388 2b3d c3c3 98bc
00000140: 2c96 013d eb19 8eb9 ffb9 e5bd 12c6 4ebc
00000150: 57e5 c73d 8b6a 7e3d ad1d 283d b855 0fbe
00000160: 94fd bdbd 910f 6a3d 55cc 8b3c 0f18 4e3d
00000170: a83e ef3c 2c13 bd3d ff84 c63d d208 d83d
00000180: d729 19bd 8c56 f6bd d9ec 693d 4319 053e
00000190: 4714 cbbc 6a62 5abc 9a59 063d c02c 143c
000001a0: 1ff0 143d a43a 1ebe 18c7 bfbd f6aa a3bc
000001b0: 4ee0 533d 66a3 b03d 941b 953d 7734 393e
000001c0: 995d 393d f928 0cbe ae25 3abe 4d3c 31be
000001d0: db0b 35bd 0fc6 12be db48 11be 00a8 0abe
000001e0: e696 5abe 74ff 94be b043 d0bd 7e6f d0bb
000001f0: 40ec 06be 721d 61bd d6a8 f33c 0cbb 01be
00000200: eb3b acbd 9f24 0b3e c446 953b 3a42 5cbd
00000210: b915 3f3d 3a2f a23d 55d4 cc3d bee4 193d
00000220: 3963 953c 7cfc 1ebb 4b60 06be e8b4 913c
00000230: 15b1 cbbc 2f60 3ebd 3ee4 44bd dd01 86bd
00000240: 9655 363b fbfc 7bbd f029 313d 6a69 00be
00000250: 015d 143e 11a3 e63d 3ecb b9bb e6e0 1d3e
00000260: 02e8 ad3d 92ab 01be 2903 72be 238e dabd
00000270: 44c1 cabd 0276 09be 6ba9 523d b1ce 42be
00000280: d86a 8ebd f1b3 303d 0b1d c73d 756b 2d3e
00000290: 949b 993c 3aac de3d 0a8f b93d 40eb 63bd
000002a0: 83d5 44bc f92b 6cbe bf5a fcbd 3925 09be
000002b0: 3ff1 bf3c 053a 9e3d e11e 2cbe 53e2 8ebd
000002c0: ffd5 9ebd 4388 aebd e0cc 943d e536 d73d
000002d0: 1a33 85bd 0888 0ebe e40c 6d3e e498 533c
000002e0: 8f02 65bd 71b2 cd3d ae15 81be 1f90 c3bd
000002f0: 96c1 95bd 8b81 423d f38e 1abe 80ee 753d
00000300: b4d3 ff3d 0dfc 66be ec0d 123d ce6a 0dbe
00000310: 4931 f9bd 5201 22bd 4272 cabd 5d66 f93b
00000320: 42e4 513c 7ad8 a43d 8356 373c f8ef 94bd
00000330: eeec 183e 6e96 abbd 6265 2fbd ae65 4a3c
00000340: fe20 07bd d763 d2bd a8da 9c3d f26a 0cbe
00000350: 9386 06be 437d 75bd 7295 2dbe f474 e3bc
00000360: aeeb c3bd d92c 92bc 6d70 983d 5186 3bbe
00000370: 57f1 97bc 323a 06bc e476 f03c 9b1c afbc
00000380: a546 b1bd 0a7d 4b3c 0bf6 8c3d c01b efba
00000390: 0a87 b6bb 4660 893d 4dd6 7bbd 7d72 e23d
000003a0: 5474 36bd b2fc 8fbc 77d2 bbbd bd0b 313d
000003b0: 5081 093e 5706 523b 5ceb 113d 2822 b03d
000003c0: 0369 763b 0f76 a13c a9de a8bd ceca 1cbe
000003d0: 70e2 4a3c 4bac 0e3e b511 2abe 48e1 c53d
000003e0: 6a9d d63c dd76 d1ba b26d 3f3d 809a b13c
000003f0: 9285 c3bd 5aa3 cbbd 52fc 693d 4e28 febc
0.092522435 -0.07678536 -0.013624141 -0.005479689 -0.029974822 -0.071788006 -0.12969792 -0.04226823
-0.06702524 -0.008500722 -0.027425295 -0.18780169 0.19774427 0.17172977 0.0916326 0.05901418
0.048913404 0.14360389 -0.09549733 -0.13854967 0.15021528 -0.06413702 -0.08792329 -0.01299702
-0.0013124663 0.04679225 -0.020700265 0.080847435 0.0067801415 0.11744325 0.04143243 0.014136178
0.0177714 -0.0510164 -0.15476024 -0.2862974 -0.03969096 -0.09196531 0.028531391 0.01159046
-0.03430062 0.08784581 0.12535834 0.10899262 0.12451699 -0.15307295 -0.08951925 -0.056352865
0.107444845 0.03584465 -0.028052919 0.19451737 0.13487703 0.13817866 0.056782477 0.039173253
-0.014176902 -0.21277331 -0.02969599 -0.015596319 -0.20948617 -0.16613702 -0.16200657 -0.14755459
-0.038445275 -0.18783484 -0.061547454 -0.09159726 -0.13243149 0.17627676 -0.057104986 -0.11094786
0.12633637 -0.08101268 -0.01497333 0.02465754 0.051325798 0.07733117 0.041878235 -0.018648034
0.031637356 -0.0002710366 -0.112171166 -0.012620466 0.0976054 0.062113326 0.041043926 -0.13997543
-0.09276882 0.05714375 0.017065207 0.050315913 0.029204682 0.09232172 0.09693336 0.10548557
-0.037393417 -0.12028226 0.05711064 0.12997918 -0.024789942 -0.013329128 0.032800294 0.009043872
0.03636181 -0.15452057 -0.09364146 -0.019978981 0.051727585 0.08624916 0.07280651 0.1808642
0.045255277 -0.13687505 -0.18178436 -0.17308159 -0.04420076 -0.14333366 -0.14187948 -0.1354065
-0.21346626 -0.29101145 -0.1016916 -0.006360947 -0.1317606 -0.054959722 0.029743593 -0.12669009
-0.08409866 0.13588189 0.004555555 -0.053774096 0.046651576 0.07919164 0.100014366 0.03757166
0.01823579 -0.002425938 -0.1312267 0.017786458 -0.024864713 -0.046478447 -0.04806923 -0.06543324
0.002782201 -0.061520558 0.043252885 -0.12540212 0.14488603 0.11261571 -0.0056699803 0.15417823
0.084915176 -0.12663105 -0.23634018 -0.10671642 -0.09900144 -0.13423923 0.0514311 -0.19024159
-0.069539726 0.043140355 0.097223364 0.16935523 0.018750943 0.10872693 0.09060486 -0.055644274
-0.012013796 -0.23063649 -0.12321996 -0.13393106 0.023430465 0.0772591 -0.16808654 -0.06976762
-0.0775566 -0.085220836 0.07265639 0.10508517 -0.065038875 -0.1391908 0.23149449 0.01291487
-0.055910643 0.100438006 -0.25211853 -0.09548973 -0.07312314 0.047486823 -0.15093593 0.060041904
0.12491551 -0.22557087 0.03565781 -0.13810274 -0.121676035 -0.03955204 -0.09885074 0.0076110796
0.012810769 0.08049102 0.01119006 -0.07272333 0.14934132 -0.083783016 -0.042821296 0.012353344
-0.03299045 -0.10272949 0.07658893 -0.13712671 -0.13137273 -0.059933912 -0.1695154 -0.027765729
-0.09566437 -0.01784365 0.074433185 -0.18312956 -0.018547697 -0.008192586 0.029353566 -0.021375945
-0.086560525 0.012419948 0.068828665 -0.0018242523 -0.005570297 0.06707816 -0.06148367 0.11056993
-0.044544533 -0.01757655 -0.09171002 0.043224085 0.13428235 0.0032047236 0.035624847 0.08600265
0.0037599213 0.019709615 -0.08245594 -0.15311739 0.0123830885 0.13932912 -0.16608317 0.096621096
0.026198108 -0.0015980859 0.046735473 0.021680117 -0.09546961 -0.09943266 0.057125397 -0.031025078

conv2.bias f4 [32]
00000000: 87c9 833c 44e3 763d 1ee5 b43b ecad 8bbd
00000010: 3e5a 63bd e7bc 893d 0e7e ddbc e758 843d
00000020: 81a1 883d 92c3 30bc 6b2c 663d 2f3c 00bc
00000030: f9ed 81bb d0ba 233c cb01 febc ac0a 973d
00000040: 4cd3 47bd b685 8c3d 1b1c a2bc e8f9 483d
00000050: 318d 0ebc 79ff 15bd f404 b23d 8263 80bd
00000060: 3e03 12bb 9ceb 85bc 921e eeba 77d6 c0bd
00000070: f297 6abc 647d d6bb e31c e03c 5e1f 3cbc
0.016087307 0.06027533 0.005520477 -0.06820282 -0.055505984 0.067254834 -0.027037647 0.06462269
0.066714294 -0.010788815 0.056194704 -0.007826849 -0.003965136 0.00999327 -0.031006714 0.073750824
-0.048785493 0.06861441 -0.019788792 0.049066454 -0.008700655 -0.03662059 0.08692351 -0.062689796
-0.0022279765 -0.016347699 -0.001816707 -0.09415906 -0.014318453 -0.0065457094 0.027357524 -0.011482088

fc1.weight f4 [128, 800]
00000000: 4b11 be3c 0348 9e3c 0bfc d6ba b8e8 3ebc
00000010: 4e03 afbc 28d7 c03c 8eb4 0cbb 85fa 19bd
00000020: 5273 7e3c e536 cb3b f0a7 5e3c bf81 c43c
00000030: a2ba d33c 170b 60bc 12f1 5e39 3806 d13a
00000040: e1b7 01bd b91e 1abd 0279 18bd 565e 7cbc
00000050: 2814 d1bc 1baa 04bd 1c50 15bd e62e 36bc
00000060: 023f 09bd ee4e 9dbc 1d38 993c c1c0 f5bb
00000070: 8eec f5bb 8d10 acbc 0799 ab3c c947 04bc
00000080: 35a8 bdbc a75d c7bc b9c5 e0bc 640a 5dbc
00000090: d9ff e33c 8bd3 3c3c f537 dd3c aa48 21bc
000000a0: ee96 67bc 9ccb f4bc 3a7e 3c3a df06 d13c
000000b0: 59b3 f73b 92bd d9bb 97f5 d6bb 1ed3 1bbd
000000c0: 2018 c03c 1e17 dcbc 24ea 213d d339 a2bc
000000d0: 100f f93c 415e 2b3c 0d0c 54ba 5fce debb
000000e0: af80 76bb c49f efbc 8d6c 053a b53f d23b
000000f0: 8f7f 163d 0965 df3c 0099 03ba 459e ab3c
00000100: d894 ae3c febd 18bc 914a 16bd feb7 f43c
00000110: cdaf d53c cc65 1ebb 0889 dc3c 5628 8ebc
00000120: 4498 56bc c963 213c d1bb e93c e68e e43b
00000130: 6412 0d3c f488 10bd 15ce 273c 8ae5 1bbd
00000140: f4c6 573c 8f25 6bbb c667 9cbb 37ad d1bc
00000150: 0ad6 1fbd db7a 7abb ef66 233c 51c3 18bd
00000160: 0c0d dfbc 7edd 8ebc 0dca 1abb 07d5 d2bc
00000170: ba95 463c 0703 f73c bad6 e1bc 457b ce3c
00000180: fdbc a9bc 1d4b 9b3b 37a9 b13b acaa 0cbd
00000190: 160f a93b ce21 15bd 8d5a fdbc c95b 25bd
000001a0: fadb c7ba 445a 4bbd 1dde 24bd e362 43bc
000001b0: 268f b43c 2e37 80bb cdfb e43c b3d6 1abd
000001c0: 4738 6ebc d496 7e3c 4786 c33b 87a2 57bc
000001d0: 7f0e 18bd 641b 4abc 2006 64ba 3742 9b3b
000001e0: 9284 87bc ecc7 1abd 739d 99bc 3eda cdbc
000001f0: d097 21bd 9e98 5e3c a41c 983c dc50 74bc
00000200: 09b9 a8bb 8af6 ce3c 58e9 4dba 551a 783c
00000210: b07d 3c3c baed deba 0438 24bd bedd 85bc
00000220: 02ec a3bc be48 c3bc 710a e2bc c40f 74bc
00000230: 79d5 6ebc c3df c6bc 9564 0dbb dc6d afbb
00000240: c6ec fb3c 9617 d53c 2467 bebb 509f 98bc
00000250: 6591 c53c e5a7 69bb f5ad 18bd f9e8 39bc
00000260: 1401 693c 430b a63c 50ee e5bc e3cf 903c
00000270: 94fe 123d 6402 0fbd bfd4 ee3a ed2d 79ba
00000280: 5391 f0bc 3251 1dbc 7ad8 cabc c1bb e5bb
00000290: f0ac fbbb 853b e33c d5c1 d0bc c9c7 10bd
000002a0: 1a85 8cba b24f 0dba d33c aa3c 921f 17bd
000002b0: 9e22 973b 7028 5c3b c78e bdbc efc0 80bc
000002c0: a74c 363c 7baa 21bd d33a 0dbd 6efc b23c
000002d0: a61d 263c 33a5 cfbc 791c 19bc 89d8 da3b
000002e0: de79 813c 6637 0cbd 65cc 8a3c 983d 17bd
000002f0: 2f14 23bd 1036 2039 0488 18bd e2dd d8bb
00000300: b877 6ebc 952b b63a 253c 6f3c 23cf f83c
00000310: 3934 0fbd 6da1 1b3c 83a2 61bc e3db 0fbd
00000320: 3613 a7bc 1f5d 47bc eb51 35bc 53be a3bb
00000330: 56f6 e3bc c27c 993c 67f8 79bb ba70 ad3b
00000340: 1cda db3c 48ab c4bc 17c9 e53c 9214 17bd
00000350: 0f8e 02bb 8482 e83c a9f7 02bd da56 6dbc
00000360: d881 8abb 6061 c53c 221f bbbc 4634 fabc
00000370: 002a 01bd e015 a93c 3f4f a5bb 2abe 083d
00000380: df50 b0bb e9a0 0b3d e2e9 3dbc 30b0 b4ba
00000390: 3e1d d6bc 4f5f d6bc 2065 d5bb 3d46 5e3c
000003a0: bd74 03bd 11a7 3abc e54a ca3c d4ac ce3c
000003b0: 1343 22bd 8a44 843c cce2 843b 274f 413a
000003c0: fdf3 0d3d 834e e33c fcc5 95bc dcd3 debb
000003d0: 665d e13c c186 23bd c2e7 cc3c 62e0 f2bc
000003e0: bdf1 4e3c 29d3 5c3b f764 063d 90df af3c
000003f0: 8980 b2bb 33a3 51bb e897 bebc 9d55 f5ba
0.023201605 0.019321447 -0.0016402019 -0.011652164 -0.02136388 0.023540094 -0.0021469924 -0.03759243
0.015530424 0.0062016123 0.013589844 0.023987649 0.02584583 -0.013674519 0.00021261376 0.0015947288
-0.0316695 -0.037626956 -0.037224777 -0.015403351 -0.025522307 -0.032388788 -0.03645335 -0.01111958
-0.033507355 -0.019202676 0.018703515 -0.0074997847 -0.007505006 -0.021003986 0.020946993 -0.008073756
-0.023151496 -0.02433665 -0.027438032 -0.013491247 0.027831959 0.011525045 0.027004221 -0.009843985
-0.014135106 -0.029882245 0.000719044 0.025515972 0.0075592217 -0.006644913 -0.0065600383 -0.038043134
0.023449004 -0.026866492 0.039529935 -0.019802963 0.03040269 0.010459484 -0.0008088954 -0.0067995037
-0.0037613322 -0.029250987 0.00050897227 0.006416286 0.036742743 0.027269857 -0.0005020052 0.020949492
0.021311209 -0.009322641 -0.036692206 0.02987289 0.026084805 -0.0024169562 0.02692081 -0.017353218
-0.013097826 0.009850451 0.02853194 0.0069750426 0.008610342 -0.03528686 0.010242005 -0.038060702
0.013169993 -0.003588054 -0.004773113 -0.02559529 -0.039022483 -0.00382202 0.009973272 -0.037295643
-0.0272279 -0.0174396 -0.0023618967 -0.025736345 0.0121206585 0.03015281 -0.02756821 0.025205264
-0.02072 0.004739179 0.0054217833 -0.034342453 0.005159269 -0.03640919 -0.030926967 -0.040370736
-0.0015248053 -0.04964663 -0.040250886 -0.011925432 0.022040915 -0.003912828 0.0279521 -0.03780241
-0.014539785 0.01553889 0.005966935 -0.013161308 -0.0371232 -0.012335632 -0.00086984225 0.004738118
-0.016542707 -0.037788317 -0.018751835 -0.02512848 -0.03945142 0.013586191 0.018568344 -0.0149118565
-0.005149011 0.025264043 -0.00078549003 0.015142997 0.011504576 -0.0017008104 -0.040092483 -0.016341086
-0.020009998 -0.023838397 -0.02759287 -0.014896337 -0.014577263 -0.02427662 -0.0021574844 -0.0053536724
0.03075255 0.026012223 -0.005810635 -0.018630654 0.024117181 -0.0035653051 -0.037275273 -0.011347049
0.014221448 0.020269042 -0.028067738 0.017677253 0.035887316 -0.03491439 0.0018221362 -0.00095054397
-0.029366171 -0.009601878 -0.024761427 -0.0070109074 -0.007680528 0.027738342 -0.025483051 -0.03534678
-0.001072082 -0.00053905987 0.020780956 -0.036895342 0.004612281 0.0033593439 -0.02313937 -0.015716998
0.011126674 -0.039469223 -0.034479927 0.021848883 0.010138905 -0.025347328 -0.009345167 0.006678645
0.015805181 -0.03423252 0.016943166 -0.036923975 -0.03981417 0.00015278929 -0.03723909 -0.0066182474
-0.01455491 0.0013898487 0.014601742 0.030372208 -0.034961913 0.009498936 -0.013771656 -0.03512181
-0.020394903 -0.012168198 -0.011066894 -0.0049970536 -0.027827423 0.018736247 -0.0038142444 0.005292979
0.026837401 -0.024007455 0.028049989 -0.03688485 -0.00199211 0.028382547 -0.03197447 -0.014486039
-0.0042269044 0.024094284 -0.022841994 -0.030542504 -0.031534195 0.020640314 -0.0050448473 0.03338448
-0.0053807343 0.034089003 -0.011591407 -0.0013785418 -0.02613699 -0.026168494 -0.006512299 0.013566551
-0.032093752 -0.011392371 0.024693916 0.025228895 -0.03961475 0.016145963 0.0040553566 0.00073741603
0.034656513 0.027747398 -0.018282883 -0.006800158 0.027510356 -0.039923433 0.025012854 -0.02964801
0.012630877 0.0033695197 0.03281113 0.021468908 -0.0054474515 -0.0031988143 -0.023265794 -0.0018717531

fc1.bias f4 [128]
00000000: 8df3 553c 4cee 073c d422 6f3d 899e 9dbc
00000010: a92f 683c 177f 1bbc e72d fe3c 4840 923c
00000020: 52a2 fabc 6a87 53bc b71d 543d cae3 023d
00000030: 01c8 47bc e2a8 923d 58a9 fbbc f2b3 eb39
00000040: b034 9e3c 0c50 18bd f7ae e63c f25c 773c
00000050: 919d ebbc 610b aabc 6abd 9a3c d54e a0bb
00000060: 61ca e83b 0254 95bc 1f65 aabc ad60 313b
00000070: d7c5 753c 76ec ce3c 629c fb3c 8696 10bc
00000080: a1e8 2ebd f01e 5d3d 5a7e c0bc 5419 b73c
00000090: fc59 03bd 9bb2 7a3b bca9 81bc 3a19 debb
000000a0: aca0 173d 752b 253d 28af ac3c 018e b63c
000000b0: 0a5a d33a e760 08bd fc0d 20bd 697a 653c
000000c0: 4cf2 893c c22c 913c 2ff1 bd3c 2d06 c6bc
000000d0: a092 103c dbf8 093c 7516 e43c 9b42 de3b
000000e0: 5786 b8bc 7f1a 5e3c 6b95 963c b71b 1e3b
000000f0: ce03 743d 658f 443d 74a5 1ebd f4d7 8f3c
00000100: 39bc efbb 09fd b23c 4b47 633d 4446 7fbc
00000110: a3eb 103c 811b 273d b32e f3bc 4caf 043a
00000120: 16ef fbbc 963a e13c e631 c3bc b9cf b7bc
00000130: 2bb8 d13b 862c 533d 64f5 853c 9af3 a43c
00000140: 76cb a2bc e949 bf3c 8afa da3c 2c93 9fbc
00000150: a85c 06bd b8ee d43c 4820 b03c cbf5 7abc
00000160: 0054 77bd cd3a 7c3c 2bd1 be3c e6f8 bb3c
00000170: 7028 1b3c be70 a83c 2ce2 ee3c 336f bbbb
00000180: 73d9 13bd b3b6 373d 389b 173d 08c1 a13b
00000190: 526a 27bc 5c16 193d e7be 68bd 94e6 873c
000001a0: 9e74 fbbb 6857 313d e350 e1bc 5522 783c
000001b0: fbca 703c 7f31 94bc 1fb4 8b3c 32fc 633c
000001c0: e99a d83b 2998 7bbc bd98 a4bc 7a17 a5bb
000001d0: 9517 10bd b96e 38bc e77c 68bb 77c2 44bc
000001e0: 95f2 dc3c b889 93ba 8b4d 893b 84db 09bd
000001f0: 091c b03c af65 b9bb b145 dc3c 2244 97b9
0.013058555 0.0082965605 0.058382824 -0.019240635 0.014171519 -0.00949075 0.031027747 0.017852917
-0.030594978 -0.012910703 0.05178615 0.031955518 -0.012193681 0.07161118 -0.030720398 0.00044956763
0.019312233 -0.037185714 0.028159602 0.0150978435 -0.028761657 -0.020757379 0.018889148 -0.00489221
0.0071042036 -0.018228535 -0.020800171 0.002706568 0.015000782 0.025259238 0.030714218 -0.00882495
-0.04270232 0.053984582 -0.02349775 0.022350945 -0.032068238 0.003825343 -0.015828006 -0.0067779096
0.037018463 0.040324647 0.021079615 0.02228451 0.0016124856 -0.03329554 -0.039075837 0.014006236
0.016839169 0.017721538 0.023186294 -0.024172867 0.008824021 0.008421148 0.02784274 0.0067828423
-0.022524996 0.013556122 0.018381795 0.0024125406 0.05957394 0.047988314 -0.038732007 0.01755903
-0.007316139 0.021849172 0.055487912 -0.0155807175 0.008845243 0.040797714 -0.029685354 0.00050615217
-0.030753653 0.027493756 -0.023827504 -0.022437917 0.0064001284 0.051556133 0.016352363 0.02013569
-0.019872408 0.023350673 0.026730794 -0.019479357 -0.032803208 0.025992736 0.021499768 -0.015317391
-0.060382843 0.015394879 0.023293098 0.022945832 0.00947009 0.020561572 0.029160582 -0.005720043
-0.036096048 0.04485197 0.037013263 0.004936341 -0.01021822 0.03737484 -0.056822684 0.01658944
-0.007673814 0.043296248 -0.02750439 0.015144904 0.014696832 -0.018090008 0.017053662 0.0139151085
0.0066102636 -0.015356102 -0.020092363 -0.005038199 -0.03517874 -0.011256867 -0.0035474838 -0.012009255
0.02697114 -0.0011256253 0.004190152 -0.033656612 0.021497743 -0.0056578736 0.0268887 -0.00028851727

fc2.weight f4 [10, 128]
00000000: a3cf 173d e2d0 61bc e625 27be a9b2 c53d
00000010: a0fd b8bc 1806 1dbe 5a76 20be a49b a83d
00000020: 8311 10bc d829 303d 1ed1 3ebd 109e d4bd
00000030: fd8f c1bc bd5c 993d bf53 05be 7d4f f93c
00000040: 1819 a83c 05df bc3c 71e9 0a3e 5301 833d
00000050: 0a63 adbc dc97 a6bc f17d 86bd 3571 a7bd
00000060: 4c48 f53d 07e2 6a3d 62d8 a5bd d57c b43d
00000070: 2195 89bc 1d94 f63c 4f07 04be 9c9c dabd
00000080: adfa edbb bd62 8d3d 9e7f b33c fcaf b03d
00000090: 9c32 0ebd 4494 013e bcfb a2bb 24ad 54bd
000000a0: c42e 16be c56d 19bd 0671 96bc 2f07 b03d
000000b0: 074d ea3d 817c d0bd 5f9e 873d 82c9 933d
000000c0: df33 7b3d 0dbe a6bd 147a dfbd d460 d53c
000000d0: 72a3 c93c a6b2 85bd 6e9e d7bd c57c aabc
000000e0: 1da2 aeba 8068 4f3d 4e3d c9bd 2f9e c1bc
000000f0: e7cd e73c f566 4e3d 1883 663d c29d 0ebd
00000100: 7bfb 7bbd 8c66 e2bd a259 13be f9f0 22be
00000110: 5901 df3c 23a9 dd3b 7af6 cdbd e209 163e
00000120: 2d0a 973d e98f 9b3d ce70 ef3b 7bce 86be
00000130: 303c 12bd 3bba a5bd 99b4 4e3c 39a1 babd
00000140: e5fa 3ebc b3bb 12be dadb ccbd 7d9c 0f3c
00000150: 635f df3c 4d9a fd3c f17b 28bd b2c4 563d
00000160: ead2 b9bd ae02 9dbc 8828 e93d 4361 2f3e
00000170: 21cb 113c 5f14 af3d 40eb 873c 7bba e4bd
00000180: 0bcf b23d 0c13 803c ed52 223c 54bc c93d
00000190: 85e9 9b3d 1568 13be 4853 513d 43c1 a93d
000001a0: 35bb 3d3d 76dc 1f3d ebdf bb3d 075a fc3c
000001b0: 509a cfbd 0da1 cfbc bee4 2e3c 0168 0d3e
000001c0: 0d7c ce3d 0f7e 36bb 3f50 61bc ef50 9a3d
000001d0: 278c 3b3d 4d1c 3fbd 2cbe 6a3d 6762 eebd
000001e0: da1d af3d c66b b0bc 0c3f d73d e289 6f3d
000001f0: 8fca 7b3d ecde ce3b 9cc0 96bd 51e8 1d3d
00000200: b71f 0c3d c81e 5c3d 30b9 073e 662e 0dbe
00000210: 8f08 123d 6efe ddbd 1d49 4e3d f5d1 5a3e
00000220: e693 a5bd 3a45 9c3d 35a9 9b3d c511 143e
00000230: 0539 133d daf0 853d 3e79 87bd f1b8 dc3d
00000240: 8861 f33d deec 9dbd 011e e33c 45fb 0f3d
00000250: 0af6 90bd a177 97bd dc65 2dbd 0e3d bebd
00000260: 067a 113e fc79 373d dce7 e3bd 323a 10be
00000270: 11e1 453d c91a 9bbd dbb8 043d c361 1abc
00000280: 0325 15bc bd96 393d b6b2 213c 7aac 813d
00000290: b9ef b6bc d972 b53d e7f8 ad3c d447 65bd
000002a0: aa5d 8a3d d1b0 8e3d 54a9 b03c d416 16bd
000002b0: 261d 15be 4238 a6bd fa03 8bbc e1e9 efbd
000002c0: 019b 7fbd a79b dd3c 93be a73c d236 0ebc
000002d0: fc57 c43d 0aa9 a5bd cde7 c73d 18a2 ba3c
000002e0: 9216 043d 3dd3 0a3e 1d0f 803c 165a 30bd
000002f0: 0b6d 193e 6440 f73b 5794 243d 6afb 843d
00000300: 0d33 2cbd 7e11 323d fa16 f83d f446 983c
00000310: 015e df3d c046 70bd b352 18be a859 83bd
00000320: 86d2 10bd bafa c4bd 3286 883d baf1 97bb
00000330: 95d9 923c dba3 d83d 94b0 bd3c 24cf 5e3d
00000340: 83a2 80bd 0630 843d 1faf 983c e88d 45be
00000350: a087 50bd cee0 02be b58e 2dbe 9ea1 3fbe
00000360: 32d4 0abe f00c 153e 39f4 eebc dba5 563d
00000370: b85d 963c db27 e7bc 14af e8bd 25bd 50bd
00000380: 9212 413d 2e0f c83d 16bd 023e 61d2 453d
00000390: 1930 4c3d 8012 9a3d 8017 02be 5ba0 05bc
000003a0: 2154 2bbe cfc7 8e3d 8a4e 27be 1bcf 29be
000003b0: 4fbb cfbc 5ed2 da3d 51f6 5c3d e75f abbd
000003c0: 0179 a73d 6182 373d b466 953d 7d36 52bd
000003d0: 7420 92bd c0d2 3b3d ee21 d5bd 79aa c7bc
000003e0: 87f3 9f3c 8601 143e ee84 943d d619 58bb
000003f0: 29d1 0b3d a2e6 6a3d 8df4 223d dd2e 173d
0.037063252 -0.013782712 -0.16323051 0.09653217 -0.022581875 -0.15334356 -0.15670148 0.08232811
-0.008793238 0.043008655 -0.04658615 -0.103817105 -0.02362823 0.074883915 -0.13020228 0.03043341
0.020519778 0.023055563 0.13565613 0.06396737 -0.02116539 -0.020336084 -0.0656699 -0.081758894
0.1197668 0.057344463 -0.08097912 0.08812872 -0.016794743 0.030099923 -0.12893413 -0.10674402
-0.007262549 0.069035985 0.021911439 0.08627316 -0.034716234 0.12654215 -0.0049738567 -0.051922932
-0.14666277 -0.0374582 -0.01836444 0.0859512 0.11440473 -0.10179997 0.06622004 0.07216169
0.061328765 -0.08141718 -0.109119564 0.026047148 0.02461407 -0.06528215 -0.10528265 -0.020811448
-0.001332346 0.05063677 -0.09826146 -0.023634998 0.028296424 0.050391156 0.056277364 -0.03481842
-0.061519127 -0.110547155 -0.14389661 -0.15912236 0.027222322 0.0067645474 -0.10056777 0.14652207
0.07374988 0.07595808 0.0073071485 -0.26329407 -0.03570193 -0.08092161 0.0126163 -0.09112782
-0.011656498 -0.14329414 -0.10002871 0.008765337 0.027267164 0.030957365 -0.041133825 0.052433677
-0.09073432 -0.019166317 0.11384684 0.17126946 0.008898527 0.08548807 0.016591668 -0.11168381
0.087308966 0.015634082 0.009907466 0.09850374 0.076129 -0.14395173 0.051104814 0.08288815
0.046321113 0.039028607 0.09173568 0.030804647 -0.10136855 -0.02534535 0.010674654 0.13809206
0.100822546 -0.0027846133 -0.013752042 0.07534968 0.045787957 -0.04665785 0.05731027 -0.116398625
0.085506156 -0.021535765 0.10510072 0.058481105 0.06147247 0.0063131955 -0.07360956 0.038551632
0.034209933 0.053740293 0.13254237 -0.13787231 0.035652693 -0.10839544 0.050362695 0.21369155
-0.0808485 0.076303914 0.07600633 0.14459904 0.03594305 0.065400794 -0.06614922 0.10777462
0.11883837 -0.077111945 0.027724268 0.03515174 -0.07078178 -0.07395864 -0.04233347 -0.09288989
0.14206704 0.044794068 -0.11128208 -0.140847 0.048310343 -0.07573468 0.032402854 -0.009422722
-0.009103063 0.04530977 0.009869268 0.063317254 -0.022331106 0.08859796 0.02123685 -0.055976704
0.06756146 0.06967319 0.021565117 -0.036642864 -0.145619 -0.08116199 -0.01696967 -0.11714531
-0.062403683 0.02705176 0.020476615 -0.008680062 0.09587094 -0.08088882 0.09761009 0.02278237
0.032248087 0.13557144 0.015632207 -0.043054663 0.14983003 0.0075455178 0.04018053 0.06493266
-0.042040873 0.043473713 0.121137574 0.01858852 0.10906602 -0.058661222 -0.14875297 -0.06413585
-0.03535702 -0.09618135 0.06666221 -0.0046369703 0.017926017 0.10578128 0.023155488 0.054396763
-0.06280997 0.06454472 0.018638192 -0.19292414 -0.050910592 -0.12781069 -0.1694897 -0.18713996
-0.13557509 0.14555717 -0.029169189 0.052404266 0.018355235 -0.028217247 -0.113615185 -0.050961632
0.04713685 0.0976852 0.12767443 0.048296336 0.049850557 0.0752306 -0.12704277 -0.0081559075
-0.16731311 0.06971704 -0.16338554 -0.1658291 -0.02535787 0.106846556 0.053945843 -0.08367901
0.081773765 0.044802073 0.0729498 -0.051321495 -0.07135096 0.045855284 -0.10406862 -0.02437328
0.019525303 0.14453706 0.07251917 -0.0032974384 0.034135018 0.057348855 0.039784003 0.036909927

fc2.bias f4 [10]
00000000: d4a9 9d3c 9f43 bebc 045f 9cbd 7ead 55bd
00000010: 570b ba3c 8753 a23d 61fb 583d 1e4d e9bc
00000020: c977 fbbc 3846 84bd
0.01924602 -0.023225604 -0.0763531 -0.05216741 0.022710485 0.07926088 0.05297411 -0.028479155
-0.030696766 -0.06458706
