models/trained/ConvNet4_3.pt (torch, 441826 bytes, 14 tensors)

conv1.weight f4 [16, 1, 7, 7]
000000 8d d2 9d bd 02 e3 36 be ea 27 26 be 88 78 7a 3d
       -0.07706175 -0.17860034 -0.16226164 0.061150104
000010 3e 9f 42 3d 48 31 10 3d 8e 4d 85 bd 06 37 6f 3d
       0.047515146 0.03520325 -0.06508933 0.058402084
000020 7f 7d de 3d b1 a5 08 3e 5e 2f 89 3d 22 a0 e1 3d
       0.1086378 0.13344456 0.06698488 0.11016871
000030 c9 bb 21 3d d5 2a f7 3d 91 69 7e bd 9d 37 13 3e
       0.039485727 0.120687164 -0.062112395 0.14376684
000040 9b 90 ff 3d 6c 33 9e bd f2 76 bb bd 69 a2 46 bd
       0.12478753 -0.07724652 -0.091535464 -0.04849473
000050 ca 91 54 bb 9c 50 ed 3d 13 8c c7 3d 68 08 1f 3e
       -0.003243553 0.11587641 0.09743514 0.1553055
000060 b7 f3 3e 3e c4 25 8c 3d 13 fd b7 3b 69 d2 7c bd
       0.18647657 0.06843141 0.0056148856 -0.0617241
000070 1a 54 1f 3d 82 1d e4 bc 32 67 36 be 20 53 8f bd
       0.038898565 -0.027846102 -0.17812803 -0.06998277
000080 e1 4c e0 bd eb d6 c8 3d 4b f3 a8 3d 6a 98 c9 bd
       -0.109521635 0.09806617 0.082495295 -0.09843524
000090 c6 fc 65 be 47 50 53 bd e8 d8 a2 bd 75 ef 4e bd
       -0.22459707 -0.05159023 -0.07951528 -0.050521333
0000a0 7d 15 f8 bb 34 94 e4 3d 37 76 0e be 45 cb 1f 3d
       -0.007570921 0.1116108 -0.13912283 0.039012212
0000b0 4b 09 a7 3d ae 26 9d bc 54 11 9f 3d 7c 5f 72 bc
       0.08156069 -0.019183483 0.07766977 -0.014793273
0000c0 a1 60 11 be 3b ce aa bd 3d ac cb bd 80 eb 3c bc
       -0.14197017 -0.083401166 -0.09944961 -0.011530757
0000d0 5c 8a 03 be 98 d6 7a be c1 6d 27 be a2 73 8f be
       -0.12845749 -0.24495924 -0.16350462 -0.28017908
0000e0 f6 62 05 be 00 4f 0d be ef 9f 2b be ca 67 2f be
       -0.13026032 -0.13799667 -0.16760229 -0.17129436
0000f0 10 7a 9a bd be b8 b8 bd a9 98 89 be 71 9d 53 be
       -0.07542813 -0.09019612 -0.26874283 -0.20665528
000100 1e 8a 73 bd ac d4 bb bc 99 d9 a7 bd 11 2c c1 3b
       -0.05945789 -0.022928558 -0.081958 0.0058951457
000110 ee fc 21 be 1f e0 78 be 7a 2e 33 be 19 61 6c bc
       -0.15819141 -0.24304245 -0.17498198 -0.014427447
000120 cb 7a 87 bd 9d 5b d2 bd 00 03 8a be 05 a6 05 bd
       -0.06615218 -0.1027138 -0.26955414 -0.03262903
000130 70 a1 02 be 1e e9 07 be b5 2d 19 be fd 7e 74 be
       -0.12756896 -0.13272521 -0.14958842 -0.23876567
000140 bd 6b d1 bd 30 e1 fd bd 16 cb 19 be 60 55 d3 bd
       -0.102256276 -0.12396467 -0.15018877 -0.10319018
000150 f4 d2 9a be ab 80 4b be 65 3a 45 be 12 a6 17 bc
       -0.3023907 -0.19873302 -0.19260557 -0.009255903
000160 5a 5d e0 bb 27 af 74 bd 2e bf e5 3d f9 25 aa bd
       -0.006847066 -0.05973735 0.11218105 -0.08308024
000170 8d d5 f8 bd fa 0a 3d bc 0d b4 82 3c f3 ea 39 3e
       -0.121501066 -0.011538262 0.015954996 0.18156032
000180 ac ec 91 3d fc cb 35 bc 97 08 0e 3e 1b 62 f4 3c
       0.0712522 -0.011095997 0.13870464 0.029831937
000190 ba 06 6d 3e 0d e4 c6 3d 7e fa 46 3e 77 8a 25 3e
       0.23147097 0.09711466 0.19431493 0.16166101
0001a0 26 38 26 3d b4 33 d8 3c e9 20 19 bc 96 0f 15 3e
       0.04058089 0.026391841 -0.009346225 0.14556727
0001b0 52 1d 74 bc 64 64 2f be 59 a6 a0 bd 9f 38 de bd
       -0.014899569 -0.1712814 -0.07844228 -0.10850643
0001c0 e1 d3 b8 3d 0d 32 82 3d 08 9b 1c 3d 1c f9 e0 bd
       0.09024788 0.06357203 0.038233787 -0.10985014
0001d0 2f 44 5c be 4f c5 e2 bd 2e 10 23 be 04 21 01 3d
       -0.21510385 -0.1107279 -0.15924141 0.031525627
0001e0 70 c2 51 3d 92 15 44 be 8b 0d fc bd 0b bc 88 be
       0.05121082 -0.19148853 -0.123072706 -0.26705965
0001f0 34 11 6b bb 40 33 82 bd b2 a9 bf 3d 88 86 be bd
       -0.0035868408 -0.063574314 0.09358539 -0.093030035
000200 9b 6a e9 bd 82 f0 dc bd e3 40 ae bd 86 aa 6d 3d
       -0.113972865 -0.10788061 -0.0850847 0.058023952
000210 71 a4 a2 3b 29 4e 29 bd be e1 65 be 20 a3 18 be
       0.0049634506 -0.041334305 -0.22449395 -0.14905977
000220 bd b8 52 be 72 39 1c bd 85 90 6d bd 62 01 83 3d
       -0.20578285 -0.03814072 -0.057999153 0.06396748
000230 71 4e eb bd a6 5c ab be 97 98 66 be 9e 17 35 be
       -0.11489571 -0.33469123 -0.22519146 -0.1768479
000240 16 1c a6 bd b7 dc 30 be ec e9 38 bd f3 29 86 3d
       -0.08110826 -0.17271696 -0.04514496 0.0655097
000250 06 a1 ee 3d a6 f0 ca bc a9 22 bb bd d5 cb 9d 3d
       0.116518065 -0.024772953 -0.0913747 0.077048935
000260 2b 5e bf 3c c0 7f 33 bd c1 11 ff 3c 72 2f 67 bd
       0.023360332 -0.043823004 0.031136395 -0.05644173
000270 8c 16 8d 3c 5e 23 5e 3d b8 80 51 3d e1 09 0d 3d
       0.017222665 0.054232948 0.051148146 0.03443325
000280 86 18 3b 3d 69 64 32 3d f8 46 08 be b5 45 05 3e
       0.045677684 0.04355279 -0.13308322 0.13014872
000290 d9 52 1a bc f5 52 ae 3c 98 26 2a bd b6 81 3d be
       -0.0094191665 0.021279791 -0.041540712 -0.18506512
0002a0 f1 9d d4 3d 91 da fe bd 47 08 0c be 0d 89 c8 3d
       0.103816874 -0.12444032 -0.13675033 0.09791765
0002b0 db bf 97 3d d8 c4 4a 3d a1 aa d2 3d ab 2f 7d 3d
       0.074096404 0.04950413 0.10286451 0.061813038
0002c0 d7 ec 2b 3d fb 31 c0 bc 46 40 16 be 90 7a dc bd
       0.041973915 -0.023461333 -0.14672956 -0.107655644
0002d0 bd 1e cb 3d 0f d3 d3 3d 96 5a 44 bd ba f4 dc 3d
       0.09917972 0.103429906 -0.047937952 0.107888654
0002e0 e9 96 9c 3d 81 68 28 3c 19 10 74 bb 25 22 22 3d
       0.07645971 0.010278822 -0.003724104 0.039583344
0002f0 88 85 55 bc ff e0 9c 3e b3 7f 36 3e e8 1a 15 3e
       -0.013032325 0.30640408 0.17822151 0.14561045
000300 80 42 49 3c 1d 04 8e bc 3c c2 25 3d 3d 34 01 bd
       0.012283921 -0.017335946 0.04046844 -0.03154396
000310 12 f4 59 3d d4 a0 26 be d9 59 59 bd c7 fc cc bd
       0.05321128 -0.16272289 -0.0530642 -0.10009151
000320 fd ff 26 be 1b b5 7e bd a9 11 64 bd 63 d6 33 be
       -0.1630859 -0.062184434 -0.055680905 -0.17562251
000330 f0 4e 35 3c 73 0a f1 bc f7 c1 bb 3d 11 ca d9 3b
       0.011066183 -0.029423928 0.09167855 0.0066464026
000340 b9 f2 e6 3d 54 bc aa 3d 13 94 46 be 6f 25 82 bb
       0.112767644 0.08336702 -0.19392423 -0.0039717476
000350 31 24 40 bd 1d d1 11 bd db 4d 10 3d 72 61 9b 3d
       -0.046909515 -0.035599817 0.0352305 0.075869456
000360 c9 32 6b bd d0 7c f3 3d 18 87 a1 bc d1 e7 ec 3d
       -0.05742148 0.118890405 -0.019717738 0.11567653
000370 4e 25 eb bd 26 25 3c bc 42 41 0a 3d c9 0e 5e bd
       -0.11481725 -0.011483466 0.03375364 -0.05421332
000380 8e a2 a1 3e 6e 62 56 3e 6b c5 f6 3c 21 43 1c 3d
       0.31569332 0.20935985 0.030123433 0.038149957
000390 29 ec 47 3b d1 67 03 3b 94 17 c6 bc 05 69 83 3e
       0.0030505753 0.0020050893 -0.024181165 0.2566606
0003a0 31 c1 16 3e 4f d7 e1 bd e4 0b 0f be 72 93 ab 3d
       0.14722134 -0.11027395 -0.1396938 0.08377732
0003b0 6d 14 a7 bd 89 66 dc bd 79 3d 96 3e 20 10 03 bb
       -0.08158193 -0.107617445 0.29343775 -0.0019998625
0003c0 b5 08 3e be e0 8d b4 3d 44 89 d1 3c b5 8a 16 be
       -0.18558009 0.08816123 0.025578149 -0.1470135
0003d0 75 c6 63 be 84 d4 a1 bc 6b 4f ea 3d 66 7d d5 3c
       -0.22243674 -0.019754656 0.11440929 0.026060771
0003e0 af d8 21 bc 8c 1c 29 3d 28 57 78 bd 51 8d 00 bd
       -0.009878322 0.04128699 -0.060629994 -0.03138477
0003f0 8c ec a0 3c 16 41 36 3e 27 ac 39 3e a7 43 e6 bc
       0.019644044 0.17798266 0.18132077 -0.028108431

conv1.bias f4 [16]
000000 dd fb 0b 3e 1e d8 12 3e 0d 92 30 3d 77 97 00 3e
       0.13670297 0.14340255 0.043108035 0.12557779
000010 53 f6 c6 3d af 4d 46 bc 49 45 1e 3e bc 2b c5 3c
       0.09714951 -0.012103482 0.15456118 0.024068706
000020 4c 16 ee 3d ec bd 3a 3b 5b 33 af bd 43 5b b5 bd
       0.116253465 0.002849455 -0.08554717 -0.088552974
000030 f5 a3 f0 3d 22 26 1d be 40 7d a8 3d 76 f9 34 bc
       0.11750022 -0.15346578 0.082270145 -0.011045804

conv2.weight f4 [32, 16, 5, 5]
000000 22 7c 00 3c 6a 2b c2 3d b0 92 05 3d 65 84 82 3d
       0.007842096 0.09480937 0.032610595 0.063729085
000010 14 b8 a0 3d 21 06 8f 3d 73 ac bd bc 8f ad 7b 3c
       0.0784761 0.06983591 -0.02315352 0.015361204
000020 33 e7 97 3d db 70 a1 3d 33 b8 1b 3d 33 c2 68 3d
       0.074171446 0.078828536 0.038017463 0.056825828
000030 43 f0 df bc 92 85 4f bd ee 05 7e bd ae 6c 6a 3d
       -0.027336245 -0.050664492 -0.062017374 0.05723255
000040 36 36 bd 3c 57 63 57 3c 6e 90 8b bc 74 60 12 be
       0.023097139 0.013146243 -0.017036643 -0.14294606
000050 1f df 20 bd 0d 4f e2 3c 22 c6 09 bd 55 d2 86 bc
       -0.039275285 0.027625585 -0.03363622 -0.016457716
000060 a2 d7 ab bd 03 6b 48 3d 73 04 be 3d d0 53 f8 3d
       -0.08390738 0.04893018 0.09278192 0.12125361
000070 69 27 ba 3d 02 15 52 3c 47 ba 52 3d 79 3e db 3c
       0.09089548 0.012822391 0.05144718 0.026763188
000080 ca 1b b1 3d 28 21 af 3c 6e 59 a5 bc 8a b8 2c bd
       0.086478785 0.021378115 -0.020184245 -0.042168178
000090 97 b1 8a bd c9 18 8d bd 41 57 72 bb 79 e8 41 bd
       -0.06772154 -0.06889493 -0.0036978277 -0.047340844
0000a0 ac d1 a5 bd 74 2c e4 bd 17 7d c5 ba ee d8 36 bd
       -0.08096632 -0.11141291 -0.0015067187 -0.044640474
0000b0 29 b1 16 bd 79 ce 17 bd 79 38 ba 3c 96 0e 2d bd
       -0.036790047 -0.037062142 0.022732006 -0.04225024
0000c0 c9 41 67 bd af 1b 92 bd 4b 71 90 3d ce cd 2b 3c
       -0.056459222 -0.071341865 0.07052859 0.010486079
0000d0 96 6c ff 39 bf 9b da ba 8d 14 9f 3d 24 22 ee bb
       0.00048718293 -0.0016678496 0.077675916 -0.0072672535
0000e0 22 11 9b bc 69 45 d9 bc d3 5d bc 3c 88 3b 87 3d
       -0.018929068 -0.026522355 0.022993958 0.066031516
0000f0 69 69 ed bc f5 1b 94 bd a2 c4 57 bd d3 92 97 bd
       -0.028980928 -0.07231895 -0.052677758 -0.07401051
000100 23 ad 8a ba c6 b2 2f bd a5 89 c3 bc ec cd 0d bd
       -0.0010580163 -0.0428951 -0.023869345 -0.03462021
000110 40 d9 51 bd 54 01 78 bd 9b 4b f9 bc ba 0e d2 bd
       -0.051232576 -0.06054814 -0.03043156 -0.10256715
000120 3a 4d 07 be 5e ea 10 be 20 85 d9 bb 5c 3d 8c bd
       -0.13213053 -0.14151904 -0.006638184 -0.06847641
000130 7b c0 8c bc c1 3f 9b 3b b2 b5 94 bc 1c 2d 86 bc
       -0.017181626 0.0047378247 -0.018153045 -0.016378932
000140 ce f5 c8 bd 42 7b 79 bb 47 25 9b 3c 28 ff 6e bc
       -0.098125085 -0.0038067852 0.018938674 -0.014587201
000150 da b3 1f 3c d1 63 53 bb aa 52 19 bd b4 35 1a bd
       0.00974747 -0.003225554 -0.03743235 -0.03764887
000160 1b ff fb 39 b5 17 19 3c 83 04 5b 3d d4 5e 80 bc
       0.0004806452 0.009344031 0.0534711 -0.015670218
000170 2d 5c 42 bc 71 60 f6 bc e7 d2 96 bd 18 3a 84 3d
       -0.011862797 -0.030075284 -0.07364445 0.06456393
000180 c0 7b d3 3c d6 22 a1 bb 6f 96 75 bd dc 22 c2 bc
       0.025815845 -0.004917483 -0.059957918 -0.023698263
000190 ad 76 be 3d 21 96 a3 3c c6 ec 1a bc 86 72 55 3d
       0.09299979 0.019969048 -0.009455865 0.05211117
0001a0 b6 9d c2 bc 16 e4 a9 ba d8 2b 27 bc 32 9c 01 3c
       -0.023756843 -0.0012961652 -0.010203324 0.007910775
0001b0 e9 7b 0c 3d a0 00 82 bc c4 85 29 bd 6f 20 f7 3b
       0.034297857 -0.015869439 -0.041387334 0.007541708
0001c0 ad 9f 99 bc e8 9f a1 3d 53 6e da 3c 71 10 8c bc
       -0.018752897 0.07891828 0.026663935 -0.017097684
0001d0 b0 d4 15 3d 52 82 9f bc e8 a4 58 bc 79 a1 32 3d
       0.036579788 -0.019471321 -0.01322291 0.043611024
0001e0 9c 9a 59 3d ac fd 89 3d 34 7e f2 bb b5 cd c6 bc
       0.053125963 0.06737837 -0.0074002985 -0.02426801
0001f0 20 17 27 3d ab b8 db 3c 77 12 86 bd f9 7d e6 bd
       0.040793538 0.026821455 -0.06546491 -0.11254496
000200 79 fa c4 bd 7d b3 30 3a 5e 4e 5b 3d 19 bd 65 bd
       -0.09618086 0.0006740613 0.053541534 -0.05608854
000210 b5 ed c2 bd fb d1 cb b9 b1 c9 bd bc ed 07 d5 3d
       -0.09517995 -0.00038875625 -0.023167463 0.10401902
000220 ad fc 88 3d f8 8a 33 bd b1 16 21 bd 07 10 98 3c
       0.06688819 -0.043833703 -0.03932828 0.01856233
000230 da dc bf bb e4 ba 92 3d 7b 51 b5 bc e2 9c 2c 3d
       -0.005855185 0.07164553 -0.02213358 0.042141803
000240 80 01 3a 3d 7e ef 83 3c f9 92 9c 3d 53 a1 e0 ba
       0.045411587 0.01610541 0.0764522 -0.0017137922
000250 c2 68 2e 3c 87 00 81 3d db 9b f7 3c b5 d5 9f 3c
       0.010645093 0.06298929 0.030225685 0.019511083
000260 4d 8c 7d bd 6a eb 61 3c 43 a6 ac 3b f5 b3 59 3d
       -0.06190138 0.013789037 0.0052688434 0.053150136
000270 e7 80 22 bd 86 f0 8b bc 96 e7 8c 3c f9 c0 6b bc
       -0.039673712 -0.017082464 0.017200273 -0.01438927
000280 dd d4 91 bd 2c 10 c8 3b c1 4f 1a 3d 50 9c 01 3d
       -0.071206786 0.0061054435 0.037673716 0.03164321
000290 bb aa bc 3c 89 15 85 bc 8c 99 c4 bc 6a e3 2b 3c
       0.02303063 -0.01624562 -0.023998998 0.010491231
0002a0 1e b4 03 3d 98 51 fe 3b 96 4c 1e 3d 55 9d 52 bd
       0.032154195 0.0077611916 0.038647257 -0.051419575
0002b0 ee 12 e3 bc c0 c5 9e bc e6 c2 32 bd fc cd b5 bd
       -0.027718987 -0.019381404 -0.0436429 -0.08877179
0002c0 62 06 06 be 8f 15 e3 bc 91 ef a8 bb f7 1f 21 bd
       -0.13088372 -0.02772024 -0.0051555117 -0.039337125
0002d0 b0 66 80 bb d9 a3 92 bd ec 35 1a be 8b d6 f3 bd
       -0.0039184913 -0.07160158 -0.15059632 -0.11906155
0002e0 b5 a2 0d be bf 54 b3 3c 25 71 26 3c 1d 53 86 bd
       -0.13831599 0.021890996 0.010158812 -0.06558821
0002f0 a2 ff cd bd d9 85 aa bd 65 a7 8e 3b 91 c4 d3 3d
       -0.10058524 -0.08326311 0.004353451 0.103402264
000300 7c f5 c6 3d 10 39 ae 3c 87 6a 86 bd 15 10 b8 bc
       0.09714791 0.021267444 -0.06563287 -0.022468606
000310 18 78 8b 3d 64 d0 cb 3d 02 ba 9c 3d fd 06 a2 3d
       0.068100154 0.09951857 0.07652666 0.07911489
000320 1f 89 1d 3d 8f 68 68 3d ac aa b7 3d 26 85 ff 3d
       0.038460847 0.05674034 0.089681 0.12476568
000330 90 7f 93 3c b7 93 42 3d 99 c1 86 3d 77 ba 64 3d
       0.018005162 0.047504153 0.065798946 0.05584189
000340 b3 9b aa 3d 52 1e 26 3e 51 00 c3 3c 23 0e b5 3b
       0.083304785 0.16222504 0.023803862 0.005525367
000350 e3 21 d5 bc 4f 6e 5f 3d f0 ec 10 3e c4 da 8a 3d
       -0.026017135 0.054548558 0.14152884 0.067800075
000360 30 69 97 3d 18 e4 d9 3c f3 71 d6 bd 88 31 34 3c
       0.0739311 0.026598021 -0.10470953 0.010998137
000370 dd d9 ac 3d e0 c2 95 3d 32 67 cd 3d 91 18 fe bd
       0.084399916 0.0731256 0.100294486 -0.124070294
000380 62 66 63 be 5e c7 49 3c 0b d1 0f 3d a0 74 75 3b
       -0.22207025 0.012315599 0.03511147 0.0037453547
000390 f4 9d 6f 3d 64 bb 50 3d cd 47 6d bd 06 16 c5 3c
       0.058500245 0.05095996 -0.057929803 0.024058353
0003a0 a1 06 ba 3d a6 43 b8 3d 3c c9 e9 3d af e8 cb bd
       0.090832956 0.08997278 0.114153355 -0.0995649
0003b0 66 84 cf bd e4 b6 67 bd fe 9a 4d 3c 68 5d 36 3d
       -0.10132675 -0.056570902 0.01254916 0.044522673
0003c0 1f 00 ce bd 7e d1 50 bd b0 6d af bd 69 b9 8c bd
       -0.10058617 -0.050981037 -0.08565843 -0.06871302
0003d0 98 4a 2c 3d 6f 69 2b 3d db d6 bd 3c d0 f2 91 bd
       0.042063326 0.041848596 0.02317374 -0.07126391
0003e0 ed d9 5c bd 0a 1d 34 bc ef 0c 99 3d dc ba c2 3d
       -0.053918768 -0.010993252 0.0747317 0.09508297
0003f0 10 ef 12 3d 86 ff 01 3e 43 0c fa 3d 90 92 b3 3d
       0.03587252 0.1269513 0.1220937 0.08768189

conv2.bias f4 [32]
000000 6e f5 08 bd 9e d5 8d bc 1e d8 87 bd 81 d3 32 bc
       -0.033437185 -0.017313775 -0.06633018 -0.010914684
000010 1a 6b f7 bc cc 8d 2b bd 07 af 0c 3d 1a 3a 44 bd
       -0.030202437 -0.041883275 0.034346607 -0.047906972
000020 e5 66 86 bb 73 f0 25 3d 7b 7d ce bc 3f 14 a3 bd
       -0.0041016215 0.040512513 -0.025206318 -0.07962846
000030 d9 21 58 bc dd 2d b9 bd 31 1b c6 bb 0c 41 b5 bc
       -0.013191664 -0.09041951 -0.006045722 -0.022125743
000040 19 a2 93 bc 82 e3 a9 3d 46 9b ea bd 8a 75 37 bd
       -0.01802163 0.08295347 -0.11455397 -0.04478983
000050 48 30 42 3d 11 b0 54 3d 91 86 53 bd 62 b8 1a bb
       0.047409326 0.051925723 -0.051642004 -0.0023608436
000060 95 2a 56 bd 6e c9 bc 3c f3 99 9c 3c a3 a1 62 3d
       -0.052286703 0.023045268 0.019116377 0.05532993
000070 3c a1 36 3d 45 3e 4a 3b 5f d4 5e bc 82 ff e9 3b
       0.04458736 0.003085987 -0.013600438 0.0071410546

conv3.weight f4 [64, 32, 4, 4]
000000 2f 46 49 bd c8 36 6b bd ec f6 6e bc fb 82 eb bc
       -0.049139198 -0.05742529 -0.014585238 -0.02874898
000010 ed b4 2f bd 0b f3 91 bd 36 d1 0c 3d 7e 8f c8 3c
       -0.042897154 -0.07126435 0.034379207 0.024482485
000020 12 9e e4 bc b1 1e c6 bc e6 59 68 bd 04 f6 07 bd
       -0.027907405 -0.024184557 -0.05672636 -0.033193603
000030 b3 b7 cd ba bd 76 90 bd 3d c2 d0 bd 59 32 2d be
       -0.0015695005 -0.070538975 -0.10193298 -0.16913737
000040 ec fe aa bd 8c 14 10 bd 72 db 54 3c 4a 4d a6 bc
       -0.08349404 -0.035175845 0.012991773 -0.020300526
000050 3f 61 90 bd 9b f5 65 bd ac d6 f5 bc 08 b0 4e bc
       -0.07049798 -0.05614243 -0.03000959 -0.012615211
000060 0d b1 c1 bd 55 f6 df bd ef 4a a9 bd 34 4c ca bd
       -0.09457598 -0.10935656 -0.082662456 -0.09877816
000070 29 e0 4d bd f4 e7 f3 bb f7 aa 9a bd bf b2 9e bc
       -0.050262604 -0.0074434225 -0.0755214 -0.019372342
000080 27 d4 5d 3d 25 cf 3c 3c 8d ee 47 3d 1f ae 53 3d
       0.054157402 0.0115239965 0.048811484 0.051679727
000090 42 3d 87 3d 27 89 fc 3c 0b c3 7d 3c 09 ef 11 3c
       0.06603481 0.030827118 0.015488396 0.008907088
0000a0 31 9b f0 3d 62 c2 6b 3d e7 7f 00 3b 39 24 48 bd
       0.117483504 0.057558425 0.0019607486 -0.04886267
0000b0 3e 98 57 3d 3e f3 b5 3c ce 1c 4c 3d 9a ed 83 bc
       0.052635424 0.022210713 0.049832158 -0.016104508
0000c0 4b b0 8f 3d de 7b 31 3e 2c 78 eb 3d 11 39 7a 3d
       0.07016047 0.17332408 0.1149753 0.06108958
0000d0 03 5b c3 bc 30 8f 23 bc e1 37 94 bb a0 fe ec bc
       -0.023847109 -0.009982869 -0.004523263 -0.028930008
0000e0 8c 91 07 3c e0 3d 23 3c 66 83 0e bc a0 0f af bc
       0.008274447 0.009963483 -0.00869832 -0.021369755
0000f0 0a 7a 86 bb 0d f4 b7 bb a5 cf 80 bb fb 67 ad bc
       -0.0041039037 -0.00561381 -0.003931003 -0.021167746
000100 d0 99 a0 bd 95 f3 db 3d 16 7e bc 3c b6 a8 fd 3b
       -0.078418374 0.10739819 0.023009341 0.007741059
000110 55 53 a1 bc d0 19 b6 3a 6b 27 ad bc 41 59 de 3c
       -0.019693056 0.0013893191 -0.02113696 0.027142169
000120 09 6a 55 bd 88 01 c6 3c 83 35 39 3b d1 ca 8b bc
       -0.052103076 0.024170652 0.0028260655 -0.017064484
000130 f2 93 f4 bd a6 f3 06 bc 70 91 1b bd b5 4a 93 bd
       -0.11942281 -0.008236801 -0.037980497 -0.071919836
000140 f9 a8 b8 bc 76 0c 05 bd 22 22 16 bd be ae 08 bd
       -0.02254151 -0.032482587 -0.036653645 -0.033369772
000150 31 91 bc 3d 79 af 21 bd 2e 6c 52 3c be 55 56 3b
       0.092073806 -0.039473984 0.012843175 0.0032704915
000160 19 39 c2 3d 3f 65 8d 3c e1 e4 d2 3d 13 95 a4 3d
       0.09483547 0.017260192 0.102975614 0.08036246
000170 51 95 9d 3d 22 fb 92 3d 71 89 cd 3d 7f f0 dd 3d
       0.076944955 0.07176806 0.100359805 0.108368866
000180 2b ed 0c 3b e2 f2 1d bc 3f 11 ad 3d 2b 63 49 3c
       0.0021503668 -0.009640427 0.08450555 0.01229171
000190 64 11 89 bd ab 68 f2 bc ce a8 08 bd 55 a5 1d bb
       -0.0669277 -0.029590925 -0.03336411 -0.0024054844
0001a0 53 0b e1 3c f8 37 f3 3c 9c 1a 3f bc 33 77 9c 3d
       0.02747122 0.029689774 -0.011664059 0.07639923
0001b0 4f f4 d2 bc ab 57 4c bd 22 24 33 3d c6 00 38 3d
       -0.025751261 -0.049888294 0.04373563 0.044922613
0001c0 e6 56 df 3a f5 1c 9a bc 9e e3 ab bb 26 bb aa bd
       0.0017039448 -0.018812636 -0.00524564 -0.08336477
0001d0 28 2a 91 3c c8 af a1 bc 22 cb fb 3c 31 3e b1 bc
       0.017720297 -0.01973714 0.03073651 -0.0216361
0001e0 a5 e6 8b bc c5 1c a8 bc fa bc a9 bd bb d9 11 be
       -0.017077753 -0.02052153 -0.082879975 -0.14243214
0001f0 20 1a 34 bc 8f 30 c6 b9 69 9b b8 3c 97 43 8d 3d
       -0.010992557 -0.00037801682 0.022535043 0.06897657
000200 17 89 da 3d ea 84 f1 3c cf b1 7d 3d 84 74 52 3e
       0.10670679 0.029482324 0.06193715 0.2055226
000210 ba f6 09 3d 29 6d fc 3c df af 03 3d 77 ec 32 3d
       0.033682562 0.03081377 0.032150146 0.04368254
000220 1d d9 2b 3e 7b a8 4f 3d 95 b1 0e 3e 87 34 ef 3d
       0.16782041 0.050697785 0.1393493 0.11679941
000230 83 2e 8d 3d 25 8b 85 3c 0f b4 d8 3c 5b d1 9e 3d
       0.06893637 0.0163017 0.026453046 0.07754775
000240 0d 8c b8 bd f2 7e c8 bd 34 58 1a bd c4 06 62 bd
       -0.090110876 -0.09789838 -0.037681773 -0.055182233
000250 28 c6 5e bd 3e 08 91 3c 6e e8 02 bd 96 f0 6a bd
       -0.054388195 0.017704125 -0.031959943 -0.057358347
000260 65 4c 32 3b 5e f4 36 3b 38 9f 3b bc 49 40 a6 bb
       0.002720618 0.002791665 -0.011451535 -0.0050735814
000270 1e 35 e7 bc c3 f1 df 3c 51 c1 8a 3c 4d ee 4d 3c
       -0.02822357 0.02733696 0.016937884 0.012569022
000280 0d 5d 87 3d 87 26 6c 3b ee 8e 3a bd 22 27 0f 3d
       0.06609545 0.0036033706 -0.045546465 0.03494943
000290 6e 3e b0 3c 5e ff 32 3a 3c b7 66 bd 8d 56 93 3c
       0.021514144 0.0006828214 -0.05632709 0.017985607
0002a0 d7 c0 58 3d 3e 08 0a 3c e6 1b 60 bd 4a f8 d8 bb
       0.05291828 0.008424817 -0.054714106 -0.0066213952
0002b0 d7 13 7e 3d 59 6d 8a bd e1 5a c0 bd c8 d8 04 be
       0.06203064 -0.06759138 -0.09392334 -0.1297332
0002c0 a1 d2 ba 3d 73 0b dc 3c 98 92 62 bc 9a ff e2 3c
       0.091222055 0.026860928 -0.013828896 0.027709771
0002d0 21 cb a4 3c 20 e5 90 3b 43 e8 be 3c 74 98 11 bb
       0.02011639 0.004421845 0.02330411 -0.0022216113
0002e0 74 28 75 3d 85 a5 26 3d 53 0e 2e 3d fc 91 eb 3c
       0.059853032 0.040685195 0.04249413 0.028756134
0002f0 b2 44 a4 ba 28 04 22 bc f1 89 25 bd 82 88 ce bd
       -0.001253268 -0.009888686 -0.040414754 -0.100846305
000300 24 78 68 bd 95 46 f6 bc dc 37 6e bd 88 7f dd 3a
       -0.0567552 -0.030062953 -0.05815874 0.0016898969
000310 aa 45 cc 3c e8 13 8a 3c f8 35 1d 3c 20 08 c7 bd
       0.024935562 0.016855195 0.009595387 -0.097183466
000320 2b b2 e1 3d 92 b3 3c 3d 37 bf 26 3d 3d d7 23 3d
       0.11020311 0.04606969 0.0407097 0.04000019
000330 28 5f 8c 3d bd 67 4e bd 16 13 e8 bc 0d 73 f9 bc
       0.06854087 -0.0503919 -0.028329413 -0.030450368
000340 08 58 e1 bc bd 13 92 bd 78 f3 27 bd 09 4f 12 3d
       -0.027507797 -0.07132671 -0.041003674 0.035719905
000350 6d 83 c0 3d c2 cf 71 3d 01 40 31 bc 94 f1 b1 3d
       0.094000675 0.059036024 -0.010818482 0.086886555
000360 80 17 bb 3d 26 bb bc 3c 6b 25 68 3d 67 59 2f 3e
       0.09135342 0.023038458 0.05667631 0.17123948
000370 f7 e7 83 3d 82 b8 66 bc 2e e1 a5 bd 2f 67 51 bd
       0.06440728 -0.014082076 -0.0809959 -0.051123794
000380 ca 00 f5 bb e2 b1 c3 bc 25 21 44 bd 35 12 ca bc
       -0.0074769007 -0.023888532 -0.04788317 -0.024666885
000390 c5 68 99 3c 02 99 e8 3c cb 58 da 3c 42 25 f6 3a
       0.018726716 0.028393272 0.026653668 0.0018779414
0003a0 5a 38 cf 3d 2e eb 01 bd 8e 7b 17 bd 3b 40 4e bd
       0.1011817 -0.031718425 -0.036983065 -0.050354224
0003b0 cb 9f d4 bd 20 fa 1c bd be 6a e0 bc 53 f7 3c 3d
       -0.103820406 -0.038324475 -0.027394649 0.046134304
0003c0 95 d1 c9 3c ba db c8 3c 6b a0 8b 3c 96 fa 6c 3d
       0.02463607 0.024518836 0.017044267 0.057856165
0003d0 e8 34 2b 3d 56 0b 6a 3d 19 c8 71 3d 56 bd b6 bc
       0.041798502 0.057139717 0.05902872 -0.02230708
0003e0 1d 0b 58 3d ec f8 d1 bc cb 3e 3e bc b6 fd 14 bd
       0.052744973 -0.02563139 -0.011611651 -0.03637477
0003f0 92 df 1a bd 67 95 8b bb ae ef a3 bc cd 11 fc 3c
       -0.03781087 -0.0042597535 -0.02001175 0.030770207

conv3.bias f4 [64]
000000 e3 6e 83 bd a7 4a 07 bd 35 3d b9 bc 7b 9c 69 3d
       -0.06417634 -0.03303018 -0.022612194 0.057033997
000010 2f e1 af 3c 5f 20 2b bd 05 45 d6 bd f5 dc 46 bc
       0.02146968 -0.04177892 -0.10462383 -0.012137641
000020 0a 64 f0 bc 6e 24 d3 bc 98 69 be bd 65 75 38 3d
       -0.029344577 -0.025774207 -0.09297484 0.04503383
000030 a3 f0 e5 bd 2d 45 73 3d 07 71 3c bd 10 42 1a bd
       -0.112275384 0.059392143 -0.04600623 -0.03766066
000040 3a 59 49 bd e7 a4 17 bc 36 78 c1 bd a2 ff b5 bc
       -0.04915736 -0.009255624 -0.094467565 -0.022216622
000050 c2 62 36 3d 10 82 80 3c 1a 1a 20 3b 6f 81 92 bd
       0.044527777 0.015687019 0.002442962 -0.07153594
000060 ce 16 95 bd df 63 5b 3d 6d d1 3c bd e0 32 8c bd
       -0.0727974 0.05356204 -0.04609816 -0.06845641
000070 03 9e 37 bd ed 9a 51 bd 48 c8 fc bc 04 4f cf 3c
       -0.044828426 -0.05117314 -0.03085722 0.025306232
000080 da 1f b6 bc ea 1c d4 3c 63 11 45 bc 39 43 c5 bc
       -0.022231985 0.025892694 -0.012028071 -0.024079906
000090 bd 5d 1b bb a9 46 b2 3c 0a ea 13 bb 3c 38 98 bb
       -0.0023706995 0.021762209 -0.0022569918 -0.0046453755
0000a0 e1 7e 0c bc ca df 29 bd ca 32 9b 3c 79 16 38 3d
       -0.008575172 -0.041473188 0.018945117 0.044943307
0000b0 a3 1c 41 bd b4 ce 2a 3d 39 a0 ad bd cb 15 c4 3c
       -0.04714645 0.041701034 -0.08477826 0.023936173
0000c0 2a 63 07 bd 50 0e 68 3c ee 8a 20 bd 8a 2e 7f 3d
       -0.033053555 0.014163569 -0.039194994 0.062300242
0000d0 9e c8 84 3d 26 d1 57 3d 9b 1b 21 bd 3b 83 1e bd
       0.06483577 0.052689694 -0.039332967 -0.03869937
0000e0 e7 54 f2 bd da ab e9 3b c5 bd 0a bd 1c 3a 21 3d
       -0.118326 0.007131082 -0.033872385 0.039362058
0000f0 cf 27 f5 3c d2 2a 38 bd e6 5a aa 3d bb 99 e3 3c
       0.029926209 -0.04496271 0.08318119 0.027783265

conv4.weight f4 [128, 64, 1, 1]
000000 16 aa df 3d 3c 07 11 3e 84 c0 2b 3e 45 db fc bc
       0.10921113 0.14162916 0.16772658 -0.030866275
000010 71 eb 28 3e 4d c7 ea 3c 72 da f5 3c 68 3b 00 bc
       0.16496064 0.028659487 0.03001139 -0.007826664
000020 a6 cf 8e 3c e2 8f 90 3d e3 0d 42 bd b9 a6 63 3c
       0.017432999 0.070586935 -0.047376525 0.01389473
000030 32 20 be 3d a7 c0 72 bc f5 bf 66 3d ae 54 97 bc
       0.092834845 -0.01481644 0.05633541 -0.018472996
000040 b1 4b 82 bc f3 26 4c bb ba 80 d8 3d b5 d9 94 3c
       -0.015905233 -0.0031151145 0.10571428 0.018170217
000050 cf ab d2 3d 35 44 5d bd cc ac ac 3c 86 e5 b1 3d
       0.10286676 -0.054020125 0.02107849 0.08686356
000060 3b f3 a3 3d f4 32 82 3c a9 e1 8c bd 6f f8 03 bd
       0.08005377 0.015893437 -0.06878979 -0.032219347
000070 ad 67 aa 3c 37 4a 03 3d 80 09 fd 3d 67 24 df 3d
       0.02080139 0.0320532 0.123553276 0.10895615
000080 9d b9 65 3d f2 c3 26 3d 21 b3 9d bd 77 f4 73 3c
       0.056085218 0.04071421 -0.07700182 0.014889828
000090 ad 12 57 bd 05 4c 80 bc b7 66 a8 3d fd e9 f1 bc
       -0.052508045 -0.015661249 0.08222716 -0.02953052
0000a0 ef 0a e2 3d 2d 10 d5 bb b8 c4 0a 3c 0f 2e 02 be
       0.11037242 -0.0065021724 0.008469753 -0.12712882
0000b0 e4 ae b6 bd 96 01 a0 bd 20 9c eb 3d b8 8c bf bd
       -0.089200765 -0.078128025 0.11504388 -0.09353012
0000c0 cb 22 d2 3d 1d 6a 93 3c b4 a4 0c be fe f7 84 bb
       0.102605425 0.017994935 -0.13734704 -0.0040578833
0000d0 e9 73 df bd 9f bb 75 bd f2 31 6f 3d 7e 0b 06 3d
       -0.1091078 -0.059993383 0.05839724 0.032725804
0000e0 75 8b 90 3d 85 6e fe bc 66 bc 13 bd f6 21 87 bd
       0.07057849 -0.03105856 -0.036068343 -0.065982744
0000f0 13 2c 50 bc 19 a2 29 3e 1d 76 d2 3d 3d 2b 24 39
       -0.012705821 0.16565742 0.102764346 0.00015656366
000100 0c 82 80 bc 59 48 a3 3d 03 eb be bd 6d f5 73 bd
       -0.015687011 0.079727836 -0.09322169 -0.05956023
000110 97 b3 67 be b5 7a 40 be 50 0c eb 3d 71 f8 c5 3d
       -0.22627102 -0.18796809 0.11476958 0.09666527
000120 09 42 3a 3c 68 12 3a 3d 51 f3 0e be 64 91 c0 be
       0.011368283 0.04542771 -0.13960005 -0.37610924
000130 5f bb db bb 18 ee ad 3d be 38 97 3d 93 12 94 bd
       -0.006705686 0.084926784 0.073838696 -0.07230105
000140 ad 06 d1 3d 2f 77 2b 3e 61 92 79 3c df 3b 7e 3d
       0.102063514 0.16744684 0.015232653 0.062068816
000150 a7 70 a4 3d 1f fe d8 bd 89 dd 49 be c2 a0 7b 3d
       0.08029299 -0.10595345 -0.19713415 0.061432607
000160 22 98 99 be 13 a1 db 3d 0c de 98 bd ee 5f 74 bc
       -0.2999888 0.10724082 -0.07464227 -0.01491545
000170 51 58 74 3d 3f 8b 5f 3d dc 33 20 bc 99 ca f9 37
       0.059654538 0.054576155 -0.009777989 2.9777455e-05
000180 60 aa ea 3d e0 07 22 3c 33 f8 fa bd 35 9c a3 3d
       0.11458278 0.009889573 -0.122543715 0.079887785
000190 97 3c 01 be a0 e6 a0 be 75 69 0d bd b2 1d 6d be
       -0.1262077 -0.31425953 -0.0345244 -0.23155859
0001a0 ee 48 62 be 1c 01 56 3d 9a 3f 73 3b 5f 89 ae be
       -0.22098133 0.05224715 0.0037116767 -0.3408918
0001b0 b3 ee e6 3d 7d 30 17 3d 1a e3 19 bd 5c 86 e1 bd
       0.11275997 0.036911476 -0.037570097 -0.11011955
0001c0 fb 23 81 bc 79 10 c5 bd 33 e2 7c 3d a0 c1 f3 bc
       -0.015764227 -0.096222825 0.061739158 -0.029755414
0001d0 79 b2 9b bd 06 89 52 be e7 c7 16 be ff 9c b9 3b
       -0.076024 -0.20560083 -0.14724694 0.0056644673
0001e0 34 78 b3 3c a9 59 ec 3d ae 68 83 3d ed a3 1a be
       0.021907903 0.11540539 0.064164504 -0.15101595
0001f0 d7 2f af 3c 1b 32 2a 3d 11 5c 05 3b cc 0c 27 3d
       0.021385117 0.04155169 0.0020349065 0.04078369
000200 f3 0c 38 bd 1c 3c 17 be a1 bb ff bb 5b 07 89 bc
       -0.044934224 -0.14769024 -0.0078043495 -0.01672714
000210 cf de e3 3d 21 aa 3e 3d be d5 26 be 3f 34 b2 bd
       0.11126482 0.046548966 -0.16292474 -0.087013714
000220 7c db b5 3d d8 47 41 be 0e 1d 25 3e 5c 72 a2 3d
       0.08879754 -0.18875062 0.16124365 0.079319686
000230 40 ce bb bc 73 1e 0d be 72 83 4a bd 14 c9 d0 3d
       -0.022925496 -0.13781147 -0.049441762 0.101946026
000240 b5 43 55 bc 73 17 38 be d8 43 41 be d2 91 b7 3d
       -0.013016631 -0.17977695 -0.18873537 0.0896336
000250 7b 06 d5 bd 11 02 11 be 23 61 79 bc 5c 5a 0a bb
       -0.10401627 -0.14160945 -0.015220913 -0.0021110987
000260 8d 45 2e 3e 56 2d 41 3c e6 a7 d1 bd 38 80 87 3d
       0.17018719 0.011790594 -0.10237102 0.06616253
000270 c7 cd b1 3d 57 4e 2a 3c 79 d6 c2 3d 02 4c 82 bd
       0.08681827 0.010394654 0.09513564 -0.063621536
000280 51 aa ce bd 86 87 b3 3d 95 fe ef 3d 53 36 9d 3d
       -0.10091079 0.087660834 0.117184795 0.07676377
000290 86 5f db 3c c5 e3 8e 3d ff 64 1d be 5d 23 30 3e
       0.026778948 0.06977037 -0.15370558 0.1720099
0002a0 fd f3 8b 3d d8 b6 8b bc 66 f9 87 bd 0f b0 ae 3d
       0.068336464 -0.01705496 -0.06639366 0.08529674
0002b0 03 bb d1 3d 7a df 83 3d 28 4b eb bd b6 60 ce 3d
       0.10240748 0.06439109 -0.11488944 0.1007704
0002c0 2f 40 d6 bd 9b 98 46 3d 1c dc 4b 3a e1 07 f5 3d
       -0.10461461 0.04848538 0.00077766343 0.119643934
0002d0 fd 32 34 3e df a8 2c bd 5d 8b c0 3d e3 a0 c1 bc
       0.17597575 -0.042153236 0.094015814 -0.023636287
0002e0 de 89 04 3e 68 ad 04 3d 92 d9 8c bc cb cf eb 3b
       0.12943217 0.032391936 -0.01719359 0.0071964017
0002f0 da 60 bc 3d 17 2a a9 3b 41 96 88 3d a1 09 7b 3d
       0.091981605 0.005162488 0.06669284 0.06128848
000300 0a 3e b3 bd 4a 67 57 bd 13 85 2b be c4 df 10 be
       -0.087520674 -0.05258874 -0.16749983 -0.1414786
000310 0c a6 b1 bd 92 48 32 bd cf ba 6d be 10 bc ea bd
       -0.08674249 -0.04352624 -0.23215793 -0.11461651
000320 b8 b7 7d bc d5 f0 07 3e 61 51 a3 bd 5c 23 47 3c
       -0.0154856965 0.13275464 -0.07974506 0.012154426
000330 c9 06 7f bd 4b 19 17 3d 56 53 aa 3d 52 94 99 3d
       -0.06226233 0.036889356 0.08316676 0.07498993
000340 47 07 5f 3d d7 3d 2e 3d a7 46 41 bd 1e c1 cc bb
       0.0544503 0.042539444 -0.04718652 -0.0062486073
000350 88 18 12 3d 82 8c 16 be d5 d4 be 3d c1 33 c1 3d
       0.035667926 -0.14702037 0.09317938 0.094336994
000360 e5 19 b6 3d 79 3a d6 bd f6 f8 bc bd a5 0b e6 bd
       0.08891658 -0.104603715 -0.09227173 -0.1123269
000370 62 c7 64 3d d0 99 cc bd 31 bc 63 bd 29 bc 7c 3d
       0.05585421 -0.09990275 -0.055599395 0.06170288
000380 ef bb 93 bd cc 73 53 3d 72 29 bc ba db 51 2d 3d
       -0.0721358 0.051624104 -0.0014355613 0.04231439
000390 f4 67 b6 bd 71 52 7e bd 28 f7 dd 3d a5 02 9a bd
       -0.08906546 -0.06209034 0.10838157 -0.07520036
0003a0 8c 97 72 bc e0 59 35 3e 3a e9 9d bc 83 67 88 3d
       -0.014806639 0.17710066 -0.01927625 0.06660368
0003b0 95 02 c4 bd b6 c2 1a 3e c6 25 38 bc 7d 48 83 3d
       -0.09570805 0.15113339 -0.011239475 0.064103104
0003c0 02 2a db 3d 95 29 8b be 7c 53 4b bd fb 6a 34 3e
       0.10701372 -0.27180162 -0.049640164 0.17618935
0003d0 ff c6 40 3e ea ae 28 bd 51 77 f1 3d d7 e9 f4 bc
       0.18825911 -0.041182436 0.11790336 -0.02989666
0003e0 c8 02 1b be 1d 1f 1d ba 9b ec 88 bd f3 bf 82 bc
       -0.1513778 -0.0005993711 -0.06685754 -0.01596067
0003f0 a6 47 95 3d d1 7f 2d bc 2c da 53 3c 42 d1 39 3d
       0.072890565 -0.010589556 0.012930434 0.04536558

conv4.bias f4 [128]
000000 ad 33 5a be 14 23 c4 3e c4 8e 05 be 31 e7 4c 3e
       -0.21308775 0.38308012 -0.13042742 0.20010068
000010 a4 d0 9d 3e 61 5c 3e 3e cd d8 6f 3d b8 c5 dc 3d
       0.30823243 0.18589927 0.058556367 0.10779899
000020 3d 28 31 3b da 28 26 3e 79 89 0f 3e 4a 9c da bc
       0.002703204 0.16226521 0.14017285 -0.026685853
000030 66 69 7d 3c be 31 05 bd 84 a3 7c be 19 04 2a 3d
       0.0154670235 -0.03251814 -0.24671751 0.041507814
000040 c0 f8 29 bd aa 89 e4 bd 48 91 61 be 4e 7e fb 3d
       -0.041496992 -0.1115907 -0.22028077 0.1227995
000050 3c ce 1b bd ec c8 df 3d b6 80 30 be 56 d5 fb bd
       -0.038038477 0.10926995 -0.172366 -0.1229655
000060 aa 1a a6 3e 13 8c 21 bd 51 19 30 3e 80 de 75 3e
       0.32442218 -0.039440226 0.17197157 0.24010658
000070 23 a0 cd 3d 8d 97 a6 3e 9a ca 3d 3e b8 32 64 3d
       0.10040309 0.325375 0.18534318 0.05571243
000080 4e 49 b7 3d ea 84 ae 3e 02 8a ef 3c bb 34 f2 bc
       0.08949529 0.3408578 0.029240612 -0.02956616
000090 26 b9 ba 3e 57 7d 99 3d bd f6 68 3e dc 04 6f be
       0.36469382 0.0749461 0.22750373 -0.23341697
0000a0 08 93 39 3e b2 45 de bc f1 d9 17 3e 79 18 11 3d
       0.18122494 -0.027132843 0.14829232 0.03542373
0000b0 7d 09 9e 3d 92 e9 bb 3d 5e cc 0c 3d 6b 45 c0 3c
       0.077166535 0.091754094 0.034374587 0.023470601
0000c0 89 f4 79 bc cf 92 60 3e 80 1e fa 3d da 2c 1d be
       -0.015256056 0.21931003 0.12212849 -0.15349141
0000d0 f9 42 19 be 18 5a 5a 3e 58 f8 87 3e d4 81 31 3e
       -0.14966954 0.2132343 0.2655666 0.17334682
0000e0 a1 70 5b bd fe e2 96 3e 5d 02 de 3d 94 4d d6 3e
       -0.05357421 0.29470056 0.108402945 0.41856062
0000f0 ee 0d ee 3d 94 79 9f 3e 71 5f 97 bc fb 3b 5c 3e
       0.116237506 0.31147444 -0.018478127 0.21507256
000100 05 1b b2 3e ef 86 bc 3e c7 55 2f 3e 25 0e 54 3e
       0.3478624 0.36821696 0.17122565 0.2070852
000110 db 25 91 3e 83 84 7d 3e bd e3 b6 b9 8a aa 20 bc
       0.28349194 0.2475758 -0.00034883423 -0.009806285
000120 48 fa cf bd 36 3c 88 be e8 74 f9 bd f2 a5 82 3e
       -0.10155159 -0.26608437 -0.12180501 0.2551723
000130 65 14 64 3e 1c 35 ed 3d 57 7f a1 3e 4a 0b ad 3e
       0.22273405 0.115823954 0.31542465 0.33797675
000140 9f 80 9a 3e 29 5f c7 bd e0 d3 98 3c 11 c7 d3 3d
       0.30176255 -0.09734947 0.018655717 0.10340703
000150 52 f1 f3 bc 33 53 a6 bd d3 99 5e 3e 13 7a 22 3e
       -0.029778156 -0.08121338 0.21738367 0.1586688
000160 9c 9d 8c 3e f7 cf d7 3d f5 ad 83 3d 50 10 9c 3e
       0.27463996 0.10537713 0.06429664 0.30481195
000170 46 df 6b 3e 69 79 68 3e 2f 93 0b 39 8f f5 c9 3d
       0.23034391 0.22702564 0.00013310903 0.0986129
000180 78 c2 42 3e 92 67 98 3d 0d 1d 53 bd 0e af 8a 3e
       0.19019496 0.074416295 -0.051541377 0.2708668
000190 3a 23 e6 3e 00 7a 19 bd 74 1e 3b 3e f7 ae 0f be
       0.4494875 -0.037469864 0.18273336 -0.14031588
0001a0 17 3a 70 3e ed 00 ce 3d b3 9a 0a be e1 62 51 3e
       0.2345966 0.1005877 -0.13535576 0.20447876
0001b0 e8 f8 5d 3c 4a 1a 71 be b1 a5 59 3e 46 be 30 3d
       0.013548113 -0.23545185 0.21254613 0.04315021
0001c0 fc 6f cd 3c 88 ac 2b be b8 cf 08 3e b3 71 68 3d
       0.025077812 -0.16765034 0.13360488 0.056749057
0001d0 fc 2a 4c 3e 03 96 a2 3e de f6 38 bd ea e0 c0 3e
       0.19938272 0.31755075 -0.045157306 0.37671596
0001e0 53 89 71 be 38 d9 7e 3e e9 75 f4 3d ee a7 da bc
       -0.23587541 0.2488755 0.11936552 -0.026691403
0001f0 31 02 3d 3e 75 95 51 3e 45 a8 a1 be 19 58 4e 3e
       0.18457867 0.2046717 -0.31573692 0.20150794

conv5.weight f4 [256, 128, 1, 1]
000000 11 44 56 3b d8 24 a5 bd dc f2 98 bd 2f ca 85 bd
       0.003269438 -0.08063668 -0.07468197 -0.06532704
000010 ed 8c 8b bd 47 0c 10 3d 01 61 1a 3e 9c 24 98 bd
       -0.06813989 0.03516796 0.15076067 -0.07428858
000020 88 cc cc 3c 14 a5 d9 3d f7 82 d1 bc 07 0a 29 3d
       0.024999872 0.10627189 -0.025575144 0.04126933
000030 16 5f 75 bb d4 e2 54 bd a6 a5 7c 3d cf fd 0b 3d
       -0.003744071 -0.051974133 0.061681412 0.034177598
000040 88 34 4f 3d 47 cd a8 bd 74 44 a3 bd 3e 5b a7 3d
       0.050587207 -0.082422785 -0.07972041 0.081717
000050 dc 6a a5 bd 04 71 81 3d 54 90 d6 39 6e ab a9 3d
       -0.080770224 0.06320384 0.00040924794 0.08284651
000060 e1 cf 0c be 57 18 f7 b9 2f 6f 8f bd aa 56 71 bd
       -0.13751175 -0.00047129646 -0.070036285 -0.05892054
000070 1c 0c 74 bd ab ca 4f 3e 2b d0 c3 bd 29 db 51 3d
       -0.05958186 0.20292155 -0.09561189 0.051234398
000080 7a 89 22 3a fb d0 c7 bd a2 1e 03 be 79 ee c1 bc
       0.0006200295 -0.09756657 -0.12804654 -0.023673283
000090 90 f6 b9 bd 71 bf e5 bc e1 f5 72 3d 14 3d 0b 3e
       -0.09080231 -0.028045388 0.05931652 0.13597518
0000a0 dd d2 07 be 8b 15 49 bc e3 50 a1 bd 9f a5 55 bd
       -0.13264032 -0.012273203 -0.07876756 -0.0521599
0000b0 c7 f1 fd 3d b1 0b 0b 3d bb 2a df 3d 19 e2 87 bc
       0.12399631 0.033946697 0.10896822 -0.016587304
0000c0 85 fe df bc a3 bf 2a 3d ed b8 67 3d 59 72 4f bd
       -0.027343044 0.041686665 0.056572843 -0.05064616
0000d0 4c f4 60 bd 72 3d c7 3c 5c 00 fb bd bd b0 18 3e
       -0.05492048 0.024321292 -0.12255928 0.1491117
0000e0 5f b1 a5 3c bd 28 59 3d f5 99 e0 3d f8 54 eb bc
       0.020226179 0.053017367 0.10966865 -0.02872704
0000f0 ce fb fc bc b1 94 83 bd e0 76 dd 3d f8 f4 4b 3e
       -0.030881789 -0.06424845 0.10813689 0.19917667
000100 ac 9b f0 bc 68 c1 c1 bb 45 a7 82 3d 4c 92 8b bc
       -0.029371105 -0.0059129484 0.063795604 -0.017037533
000110 64 ab 0e be db fc f4 bd ed 79 98 3c a2 af 10 bd
       -0.13932568 -0.11962291 0.018612826 -0.035323747
000120 42 ed 6a bd 43 3c 81 3d e8 8c c4 bd 23 5b 17 3d
       -0.057355173 0.06310322 -0.09597188 0.03695215
000130 4f db 51 bd b6 5c a3 3c 6c ba c1 3d 7c 5c 66 3c
       -0.05123454 0.019941669 0.09459385 0.014060136
000140 fa cf d0 bc da 12 16 bd a3 ca ac 3b bb c5 02 3d
       -0.025489796 -0.036639072 0.0052731796 0.03192685
000150 34 a5 fc bd e7 1c 8d bb 5f 3b 89 bd 72 5b d8 bd
       -0.123361975 -0.004306424 -0.06700777 -0.10564317
000160 ba 35 e8 3d bc cd 54 3b d4 b4 6d bb 41 22 13 3d
       0.113383725 0.003247126 -0.0036271112 0.03592134
000170 05 38 b5 bd 7a 45 38 3d 42 72 a2 bb 88 ff 8d 3d
       -0.088485755 0.044988133 -0.0049574682 0.06933504
000180 30 da 06 3e 36 18 de bd 97 70 f0 bc f1 a7 a3 bd
       0.1316917 -0.108444616 -0.029350562 -0.07991017
000190 95 25 09 3d cb 2d 5d 3e 68 95 af bd f1 3c 46 bd
       0.033483107 0.215995 -0.08573419 -0.048397962
0001a0 1e dd 8d bd 38 bd 0a 3d e9 14 c6 3c 9f 60 a3 3b
       -0.069269404 0.03387186 0.024179893 0.0049858834
0001b0 58 37 23 3b a1 80 f2 3d 16 d0 e3 3c 7b fb 8e bd
       0.0024904814 0.1184094 0.027809184 -0.0698156
0001c0 ba 73 b4 bd 4a 3e e7 3c 6b 9b cd 3d 8c 11 3b 3d
       -0.088111356 0.028227944 0.10039409 0.04567103
0001d0 48 d0 7e 3b 41 07 68 3b c5 7d ce 3b ca 74 0c 3d
       0.003888147 0.0035404714 0.006301614 0.034291066
0001e0 7b 6a 9b 3c a0 0d ae 3d ae 79 77 3d 7c e1 96 3d
       0.018971672 0.084986925 0.060418777 0.073672265
0001f0 e9 12 a6 bd 0f 38 11 bd 08 5a fb 3c fc 2c 91 bc
       -0.081090756 -0.035453852 0.030682579 -0.017721646
000200 88 cc 04 be 50 37 3a bd a6 c1 16 be 2f 68 d5 3d
       -0.12968647 -0.045462906 -0.14722309 0.10420262
000210 ee 3a 20 bd d7 cb c3 bd a6 7f 5b bd 59 f0 d7 3d
       -0.0391187 -0.09560364 -0.053588532 0.105438896
000220 f2 d5 57 3d 80 49 71 bd 07 3b 82 bb d2 59 26 3d
       0.05269427 -0.058907986 -0.0039743218 0.040613003
000230 c7 c2 61 bd fb 33 31 3c 68 34 7c bd d5 24 17 bd
       -0.055117395 0.010815616 -0.061573416 -0.03690036
000240 c1 b6 66 3d bc 2d 81 bd a0 a6 64 3d 69 c8 dd 3d
       0.05632663 -0.06307551 0.05582297 0.10829241
000250 4c 58 eb 3d c5 72 16 bd 1f e1 0d bd fd ea 9b 3d
       0.11491451 -0.036730547 -0.03463852 0.0761318
000260 cc 18 10 be 67 7d 85 3c 1c 98 8b bd 65 cd 30 3d
       -0.1407196 0.016295148 -0.06816122 0.04316463
000270 d6 e3 c1 3c 20 9e b0 bb 55 98 42 3d 6c 7e 95 3d
       0.023668211 -0.0053899437 0.047508556 0.07299504
000280 0a 92 8c 3d bf fa da 3c ec ad ca 3d a7 af e7 3c
       0.06863792 0.026730893 0.09896454 0.028282
000290 7b 6b a0 3c 43 27 b9 bd 61 c8 9d bd 9b 61 16 be
       0.0195825 -0.09040692 -0.07704235 -0.14685671
0002a0 70 bb 8a 3d af 1d db 3a a3 27 b4 bd 46 e6 90 3d
       0.06774032 0.001671722 -0.087966226 0.07075171
0002b0 67 79 d9 bc dc 08 97 3c ad bb 23 bd ba 38 60 3d
       -0.026547147 0.018436842 -0.039973903 0.0547416
0002c0 0d 1f 85 3d 26 11 70 bc 6c 78 bd 3c 87 10 c9 bd
       0.06500063 -0.014652526 0.02312871 -0.098176055
0002d0 91 1e 93 3d d5 d8 ad bb 0f 9d 97 bd b6 91 3f be
       0.071835645 -0.0053053894 -0.074030034 -0.18707928
0002e0 a3 77 0e 3d ca 16 d7 3d 8d 8f b5 3d 78 44 1b bc
       0.034782063 0.105023935 0.08865271 -0.009476773
0002f0 b0 4f 02 bd dd 50 5f 3d cc 81 0c be f8 24 05 3e
       -0.031814277 0.054520477 -0.13721389 0.13002384
000300 56 3b e0 bc d5 5a de 3d 18 4e e5 3d 8a 9e 18 bd
       -0.027372044 0.108571686 0.11196536 -0.03726057
000310 dc e4 85 bd 9a 8a 06 bd 26 d1 c0 bc 4e 24 6b 3d
       -0.06537792 -0.032847025 -0.02353723 0.05740767
000320 50 04 bf bc 73 3c c6 3c d9 dc f1 3c 5c 27 08 3e
       -0.023317486 0.024198746 0.029524254 0.13296264
000330 c6 59 f3 bd c6 20 49 bd 72 a7 82 be 0d 9c 91 bd
       -0.11882357 -0.04910352 -0.25518376 -0.071098424
000340 6d a5 92 3d 15 ed 3b 3d ed f0 5b bc 98 e0 8d 3d
       0.07160459 0.045880396 -0.01342414 0.069276035
000350 45 fb 98 bc 53 de bb bd 69 71 02 be 9d f9 d5 3c
       -0.018674502 -0.09173264 -0.12738575 0.026120001
000360 29 c4 91 bd b7 83 1b ba ec 8d 18 3e 2d 6b b1 3d
       -0.07117493 -0.0005932408 0.14897889 0.0866302
000370 35 2e d3 bd 56 5d 5c 3c 64 5d 52 3c a0 10 d7 3d
       -0.10311548 0.013449987 0.012839649 0.10501218
000380 89 d8 8d bd b6 11 69 bd 07 33 a7 3b ee 75 2e be
       -0.069260664 -0.056901656 0.0051025185 -0.17037174
000390 35 43 95 3d 12 58 4a 3e 72 a7 e3 bd 90 94 95 3d
       0.07288209 0.19760159 -0.11115922 0.07303727
0003a0 21 9e b8 39 ab 67 1b bd f5 55 82 bd 08 75 a3 3a
       0.0003521303 -0.037940662 -0.06364051 0.0012470791
0003b0 5d 9d 8e bc ab 83 15 be a8 06 d0 3d 8d ed 29 bd
       -0.017409021 -0.14601009 0.101575196 -0.04148631
0003c0 83 56 24 bb 39 3b 7f bc b9 2d 0d 3e 23 d7 54 3d
       -0.002507598 -0.015578085 0.13786973 0.051962983
0003d0 88 4b bd bc 5d 67 91 3d ac 96 0b be 77 3d 49 be
       -0.023107305 0.07099793 -0.13631696 -0.19652353
0003e0 00 d4 a6 3d 2a b0 f1 bd 0a 1d f3 3c f7 e8 2b 3d
       0.081459045 -0.11801179 0.029676933 0.04197022
0003f0 b7 7b 9d 3d d7 da bb bd 1d fa 32 bd 34 23 2c 3c
       0.07689612 -0.091726 -0.043695558 0.01050644

conv5.bias f4 [256]
000000 d0 30 a1 bd ed 14 a1 bd 2c 09 d0 bd 16 f6 37 3e
       -0.07870638 -0.078653194 -0.101579994 0.17964968
000010 ab e7 02 3c 41 18 be bc 66 1d 4d 3d 13 73 df bd
       0.007989804 -0.023204925 0.050076865 -0.109106205
000020 80 2b 2d 3b 22 e8 3f 3e db 2d 8c 3e d3 74 4f 3e
       0.0026423633 0.18740895 0.27378735 0.20259409
000030 27 00 59 bd 1a 08 3f 3d 29 3d 24 3d c5 d6 3c bb
       -0.05297866 0.046638586 0.04009739 -0.0028814536
000040 93 b3 35 3e e3 5c f5 bc 74 34 8a bd 6d 36 77 3d
       0.17744283 -0.029951518 -0.06748286 0.06035464
000050 03 e2 e0 bd a2 86 88 bd 68 7c 5d bd f1 0a 42 bd
       -0.10980608 -0.06666304 -0.05407372 -0.047373716
000060 36 24 c2 bc dd 53 0d 3e fd 11 a0 bd 53 27 14 bc
       -0.023698907 0.13801523 -0.07815931 -0.009042579
000070 9e ad 04 3e 4c 83 37 3a cb 16 c1 bc b0 b4 80 3d
       0.12956855 0.0007000461 -0.023570439 0.062844634
000080 5e 18 87 bd 70 fe 1f 3e 2e 86 31 3e 48 9f 50 bd
       -0.065964445 0.15624404 0.17336342 -0.050933152
000090 1d 9b 62 3d 42 37 f3 3b 3e 98 83 3c be 47 2a 3e
       0.05532371 0.0074223587 0.016063806 0.1662893
0000a0 f3 65 d2 3c 6a 5a 67 bc c5 7e 77 3e 08 7d 0d 3c
       0.025683379 -0.0141206775 0.24169452 0.008635767
0000b0 68 27 c8 bd 5d a7 c4 3d 9a 67 52 3e 08 ed 09 be
       -0.09773141 0.096022345 0.20547333 -0.13469326
0000c0 08 37 3a 3e 2a ce 0c 3d 97 a8 05 3d 80 1f 32 bd
       0.18185055 0.0343763 0.032631483 -0.043487072
0000d0 9d fa a0 3c 02 2a da 3d d0 35 95 bd 32 df 04 3c
       0.019650752 0.106525436 -0.072856545 0.0081098545
0000e0 39 b0 53 bd de 6b a6 3d 0e 99 12 3e 29 59 33 bb
       -0.05168173 0.08126043 0.14316198 -0.0027366376
0000f0 91 cb 6b bd 49 fc dc bc d4 50 1f 3e b8 3f af bd
       -0.057567183 -0.026975768 0.15558177 -0.08557075
000100 85 fb c7 3d 21 26 37 3e e9 5f 90 bd cb 68 9d 3c
       0.097647704 0.17885639 -0.070495434 0.019215008
000110 0f 29 5e 3d c2 1f 5e bd 77 89 c9 3e 79 4b 71 3d
       0.054238375 -0.054229505 0.3936269 0.058909867
000120 ff 06 b5 3c cf f4 3f 3e 0f 99 24 3e 6f 76 88 3e
       0.022098063 0.18745731 0.16074012 0.26652858
000130 dc 80 70 3e 31 61 d1 3d 0e 30 80 3d b2 be cd 3d
       0.23486656 0.10223616 0.06259166 0.10046138
000140 f5 af 1b bd db 25 7c 3e 90 d7 fe 3b 4f 48 f2 bd
       -0.038009603 0.24623816 0.007777162 -0.11830198
000150 a5 f2 bc bd 80 0b 1e 3e b9 46 14 3d a5 1b e8 3d
       -0.09225968 0.15434074 0.03620026 0.11333398
000160 fe 32 88 3d 31 d6 6c bd c0 82 8a 3e ad 07 7f 3e
       0.06650351 -0.057821456 0.2705288 0.24905272
000170 9e f8 60 3d 07 a5 02 bd 64 74 3a bd 3f fc c7 bd
       0.0549246 -0.031895664 -0.045521155 -0.09764909
000180 d4 c7 12 3e 1e 26 0e 3e d3 ef 04 3e 51 f3 81 bb
       0.14334041 0.13881728 0.1298211 -0.003965773
000190 de 9f 62 3d 01 19 a7 bd 7c 78 47 3d cb 98 6a 3e
       0.055328242 -0.08159066 0.048698887 0.22909848
0001a0 87 c8 1c 3e ae a6 ea 3d 8c 70 09 3e ca 97 b2 bd
       0.1531087 0.11457573 0.1342184 -0.08720358
0001b0 43 b3 fd bd a4 3f b0 bd e5 a2 10 3e a4 dc 62 3e
       -0.12387707 -0.086058885 0.1412464 0.2215448
0001c0 2e 1c f3 3c 89 ed 6f 3c 15 f9 82 3c 4e 78 6d bc
       0.029676523 0.014644035 0.015987912 -0.014494015
0001d0 c9 50 b6 3a da 3a a7 bb 79 da dd 3c e0 cb d8 bd
       0.0013909574 -0.005103451 0.027081715 -0.10585761
0001e0 74 37 23 3e 06 aa 16 3e 0b 1f 5f bd 1f 74 1f 3e
       0.15939122 0.14713296 -0.054472964 0.1557164
0001f0 c9 d5 d3 bd f4 0d 7b 3e ee c1 0a 3e 3e 8a b1 3b
       -0.10343511 0.24517041 0.13550541 0.005418091
000200 68 73 1e bd 7d bf 7b 3e e8 58 c5 bc 71 12 9e 3d
       -0.03868428 0.24584766 -0.024090245 0.07718361
000210 c1 67 1d 3e 42 09 f5 3d 36 42 e0 3d 8d 47 88 3c
       0.1537161 0.119646564 0.10950129 0.01663568
000220 98 1d 4d 3c f5 f3 92 bd 35 b7 92 bd 0f c5 2a bb
       0.012519263 -0.07175437 -0.0716385 -0.0026057397
000230 53 04 5a 3d 6b 35 03 be e6 af 49 bd 59 60 99 bd
       0.05322678 -0.12813346 -0.049240015 -0.0748908
000240 f4 88 31 3b 1a db 02 bd a4 7a e2 3c 11 f7 84 bd
       0.0027089687 -0.031947233 0.02764637 -0.06492437
000250 c7 3a 01 3e b5 e0 b7 3b d0 8a ba bd 90 8e 8d 3e
       0.12620078 0.005611504 -0.09108508 0.2764783
000260 b3 a8 8d bc 65 60 81 3d 85 f2 4d 3d 5b d4 84 3e
       -0.017292356 0.06317214 0.050280113 0.25943264
000270 32 f8 5a 3e d8 0e 83 3c a1 41 67 bb b4 6f 10 3d
       0.21383741 0.015998289 -0.003528692 0.03526278
000280 f4 f3 38 3e 25 a3 70 3c 33 3e 10 be 08 ec 50 3e
       0.1806181 0.014687334 -0.14086227 0.20402539
000290 49 f0 84 bd 28 5d 76 bc c3 d1 09 3e 14 63 72 3b
       -0.06491143 -0.015036859 0.13458924 0.0036985325
0002a0 55 df be 3d c3 d4 6c bd cf f8 54 3e 2f aa 3b 3e
       0.09319941 -0.057820093 0.20798038 0.18326639
0002b0 12 f9 d4 3c 83 19 27 3d ff 1b a4 3d a2 d4 14 3e
       0.025997672 0.040795814 0.08013152 0.14534238
0002c0 10 35 f8 3d dc 8a bf bd 01 6c c2 bd c0 3c 57 3e
       0.12119496 -0.09352657 -0.09493256 0.21019268
0002d0 f7 70 f4 bc c7 e9 20 bd f7 cd 97 3d 94 c8 8e bd
       -0.029839022 -0.039285447 0.074123316 -0.06971851
0002e0 8f e7 62 bd 67 28 97 bb 8f 67 56 bd 84 e3 32 3d
       -0.055396613 -0.0046129706 -0.052344855 0.043674007
0002f0 b0 2d 51 3c af 9f d9 3c cc d5 8d 3d f8 2d 6b 3d
       0.01276724 0.0265654 0.06925544 0.057416886
000300 6c ba 3c bd 7b 58 b5 3d 3d c8 c7 bd 14 79 a3 3d
       -0.046076223 0.08854767 -0.09754989 0.07982078
000310 dd 6e 76 3d 60 dd 2d bd f0 04 86 3c 5b 0e ac 3c
       0.06016432 -0.042447448 0.016359776 0.021002939
000320 4d 5a cc 3d 1f f6 b0 bd 86 64 3e 3e bc 36 d7 3c
       0.09978161 -0.08640694 0.18593034 0.026271217
000330 1d 86 e4 3d ac f4 6c 3d ef 1d 5a 3d 5a 6f f8 3d
       0.111583926 0.057850525 0.053251203 0.121306136
000340 2e ea 2d bd 34 b7 31 3d 5b 92 b4 3d 00 71 1f 3e
       -0.04245966 0.043387607 0.088169776 0.1557045
000350 cf 5e 02 3e 43 3f 9b 3b 3a 20 ed bd 23 c5 6d 3e
       0.12731479 0.004737766 -0.11578412 0.23219733
000360 24 37 17 3d cb b4 73 3d d1 35 04 be f5 6d c7 3c
       0.03691782 0.05949859 -0.12911154 0.024344424
000370 85 dc e0 bc d7 10 5d 3e a4 4d 75 3e fd 17 70 bd
       -0.027448902 0.21588455 0.23955399 -0.058616627
000380 3f 79 93 bd ae a8 53 3a 6b c3 3f 3c 54 1e 89 3e
       -0.0720086 0.00080741465 0.011704306 0.2678095
000390 aa e4 8f bd 84 6c 8e bd bb da fd 3b 48 4c 06 3d
       -0.07026036 -0.069542915 0.007747022 0.03278759
0003a0 cb 3a e8 3d 98 9a e9 3d 68 87 18 bb 06 db 6d 3e
       0.11339339 0.114064395 -0.0023274068 0.23228082
0003b0 59 d0 09 3e c0 25 3e bc 06 99 68 3c 29 c7 d7 3c
       0.13458385 -0.01160568 0.01419664 0.026340084
0003c0 6a 9b 9b 3c d0 ca 8a bd 50 2b fb bc 2c 39 b8 3d
       0.018995006 -0.06776965 -0.030660301 0.0899528
0003d0 01 13 7c 3e 31 c0 74 3e 64 8b 76 3e d8 7a 00 be
       0.24616624 0.2390144 0.24076611 -0.12546861
0003e0 4e 21 26 3d 63 3b 2b 3e 7a f5 10 3e d1 2c a8 3d
       0.040559106 0.16721873 0.14156142 0.08211673
0003f0 4a cc 23 bd 78 fb 86 bd 49 7d 26 bd a3 de 36 3e
       -0.039989747 -0.065909326 -0.040646825 0.17858367
