models/trained/ConvNet2_1.pt (torch, 442402 bytes, 12 tensors)

conv1.weight f4 [8, 1, 3, 3]
0.35553235 -0.23432906 0.13593672 -0.12255718 0.29012752 0.2831277 0.22018799 0.20332086
0.0148945125 0.07351945 0.24894167 0.3730999 -0.47390103 -0.17085311 0.009550245 -0.0031947102
0.2293841 0.18907113 0.23815726 0.33255562 -0.018045543 -0.17316963 -0.34150976 -0.30289766
-0.41140527 0.11858111 -0.24182618 0.1898293 -0.0012467277 -0.36719015 0.39779997 -0.120678544
-0.22281885 0.20337796 -0.23490195 -0.09020504 -0.089659356 0.14588104 0.21512313 0.32391477
-0.28041512 -0.17256583 -0.022571506 -0.048435915 -0.07568199 -0.0042457725 0.34510183 0.11548338
0.23966074 -0.13724999 0.17745185 -0.05243004 -0.18495041 0.18639542 -0.39180213 -0.35072908
0.35073134 -0.44233263 0.04922367 -0.35457584 0.10676792 -0.16166352 -0.36997247 0.08017479
0.061768122 -0.14587578 -0.12282357 -0.34518218 -0.06600552 0.4071775 0.19369777 -0.052432545
00000000: 5608 b63e f5f3 6fbe ff32 0b3e 42ff fabd
00000010: 988b 943e 1df6 903e f678 613e 5833 503e
00000020: 1d08 743c 5e91 963d 91ea 7e3e f306 bf3e
00000030: 28a3 f2be 1ef4 2ebe a178 1c3c 585e 51bb
00000040: aae3 6a3e dd9b 413e 7fdf 733e bb44 aa3e
00000050: 3fd4 93bc 6153 31be 5eda aebe 6715 9bbe
00000060: b6a3 d2be a7da f23d 48a1 77be 9d62 423e
00000070: 3d69 a3ba 5900 bcbe 70ac cb3e 5026 f7bd
00000080: a02a 64be 5042 503e 238a 70be 6cbd b8bd
00000090: 539f b7bd d761 153e 3d49 5c3e 28d8 a53e
000000a0: 9292 8fbe 19b5 30be e1e7 b8bc bd64 46bd
000000b0: 29ff 9abd 1f20 8bbb 30b1 b03e 8d82 ec3d
000000c0: a069 753e 438b 0cbe f0b5 353e e2c0 56bd
000000d0: a463 3dbe 71de 3e3e 4a9a c8be c392 b3be
000000e0: 0f93 b33e 6c79 e2be c29e 493d f78a b5be
000000f0: 24a9 da3d 1f8b 25be 086d bdbe ae32 a43d
00000100: 9200 7d3d 7660 15be ed8a fbbd b8bb b0be
00000110: e72d 87bd 9279 d03e b558 463e 82c3 56bd

conv1.bias f4 [8]
-0.011031113 0.15206848 0.04946198 0.02590543 0.00038347454 0.14007887 0.24309467 -0.07060622
00000000: d7bb 34bc d7b7 1b3e a598 4a3d a037 d43c
00000010: 150d c939 d670 0f3e cfed 783e fe99 90bd

conv2.weight f4 [32, 8, 3, 3]
-0.102137394 0.024263874 0.13207097 0.1324419 0.068569094 0.016377172 0.10434948 -0.073663324
0.08792014 0.035683714 0.107649416 0.018752731 0.004286016 -0.02969212 0.106815524 0.09036262
-0.05317039 -0.10655936 -0.12226449 -0.14688565 0.035901576 -0.09595958 -0.18559271 0.08940887
-0.16118586 -0.03823732 -0.0036497985 0.028536974 0.056830868 0.028427761 0.01518848 -0.019295927
-0.10585624 0.12233845 -0.030114437 -0.0507799 0.10147894 0.085803345 0.10707355 0.016943248
0.18040498 -0.038581643 0.08559673 0.13400112 -0.025189282 0.012189296 -0.023316959 0.004525207
0.031499635 0.1457126 0.06658129 0.0039316933 -0.0834897 -0.06584721 -0.036539845 0.025910001
0.10190772 -0.10992874 0.0826099 0.13149372 -0.09108206 0.05729412 0.069373526 0.08263416
-0.029027952 0.17416944 -0.070380874 0.049007576 -0.0966876 0.18553624 0.12639067 0.0434593
0.12703423 0.113981545 -0.038061623 0.022445833 0.08271795 -0.04300546 -0.16688043 0.06919789
0.09661185 0.14567395 -0.045587026 0.030194258 -0.048405882 0.03542911 0.15963772 -0.07051376
0.0060823206 0.05120789 -0.04399351 0.027470712 0.06546157 0.028104128 -0.00985258 0.07797402
0.09184652 0.16327657 -0.010096987 -0.027040774 0.054010093 -0.13882136 -0.16719063 -0.07597335
-0.17274253 0.025649544 -0.20329551 -0.120456174 0.09607544 -0.093265824 -0.11720414 -0.07045338
0.003323796 0.0165797 -0.074749604 -0.11184499 -0.10868233 -0.07895859 -0.066128395 0.015436234
0.038894277 0.039286524 0.11989828 -0.10105174 -0.031521603 0.071498334 0.12728071 0.13694867
0.04088609 0.1079256 0.051424824 0.0520367 0.10802944 0.09296266 0.01748433 0.034707904
0.03555633 0.16846743 -0.059755746 -0.16822904 -0.07779637 -0.15003102 -0.12519178 -0.06681813
0.05076005 -0.11409186 -0.0731709 0.0048203766 0.08205917 0.08370889 0.08070472 0.02541232
-0.11199917 -0.116272 -0.10516727 0.058071095 0.12391132 0.14287858 0.06541976 0.056400016
0.061515283 -0.047506526 0.0097935805 -0.0663821 -0.047839545 0.039251316 -0.02665147 0.07962072
-0.03829503 0.0027150447 -0.06332712 0.023904713 -0.016158221 0.043949217 0.06646943 0.05631144
-0.093973175 -0.14697169 0.08645428 0.11106746 -0.03681087 0.012178009 -0.06574564 0.0022374035
-0.003910293 -0.025227297 -0.017903445 0.14847696 0.110397585 -0.04078844 -0.024925508 -0.08341275
0.13001263 -0.0095555745 0.016858645 -0.036991216 0.08876627 0.14156933 -0.02707883 0.09898468
-0.041060075 0.03898628 -0.11971824 -0.028620329 0.11695621 0.103829466 -0.0767156 0.12320407
0.23216072 0.04831291 0.07013302 0.19479056 0.208758 -0.04218121 0.14984523 0.12234091
-0.0941172 0.042106126 -0.069365025 -0.051332626 -0.061753638 -0.018147979 0.19324173 0.13006844
0.08882474 -0.02486108 -0.021072062 -0.05042072 -0.027900504 -0.08153705 0.05623278 -0.03679911
-0.041270047 0.033699397 0.056053624 0.15715294 0.20222539 -0.023390107 -0.06133104 0.10855152
-0.031157808 -0.12117146 -0.074303165 0.02151831 0.039893344 -0.028112125 -0.10883405 0.10308536
-0.12570986 -0.18827362 -0.16359778 0.09796793 -0.006068262 0.17462756 0.08603048 0.07980285
00000000: 692d d1bd 08c5 c63c 9d3d 073e d99e 073e
00000010: f46d 8c3d 6b29 863c 2eb5 d53d ccdc 96bd
00000020: 790f b43d 1629 123d 4c77 dc3d 549f 993c
00000030: b571 8c3b e43c f3bc 19c2 da3d 0a10 b93d
00000040: 32c9 59bd cb3b dabd ce65 fabd 3169 16be
00000050: 880d 133d 7586 c4bd 040c 3ebe ff1b b73d
00000060: e80d 25be bc9e 1cbd 7531 6fbb 5fc6 e93c
00000070: 7cc7 683d 56e1 e83c 1ad9 783c 7e12 9ebc
00000080: 28cb d8bd 958c fa3d 8db2 f6bc 96fe 4fbd
00000090: 31d4 cf3d aab9 af3d 6149 db3d 91cc 8a3c
000000a0: 15bc 383e c907 1ebd 574d af3d 9737 093e
000000b0: c159 cebc 9db5 473c 3503 bfbc 3048 943b
000000c0: c305 013d af35 153e c55b 883d 6fd5 803b
000000d0: a6fc aabd e7da 86bd ceaa 15bd 3641 d43c
000000e0: ffb4 d03d 5222 e1bd 612f a93d 4aa6 063e
000000f0: 3b89 babd 3dad 6a3d b513 8e3d 193c a93d
00000100: 07cc edbc 7959 323e d923 90bd 2bbc 483d
00000110: 2604 c6bd 36fd 3d3e 8e6c 013e 6102 323d
00000120: 4315 023e 286f e93d 81e6 1bbd 53e0 b73c
00000130: 0768 a93d 7e26 30bd b4e2 2abe a0b7 8d3d
00000140: 6fdc c53d 8d2b 153e 76b9 3abd f359 f73c
00000150: 3f45 46bd 1d1e 113d 1278 233e 8569 90bd
00000160: 344e c73b 5dbf 513d 8a32 34bd 420a e13c
00000170: b710 863d a13a e63c b76c 21bc d8b0 9f3d
00000180: 071a bc3d f931 273e d56d 25bc 9d84 ddbc
00000190: b039 5d3d 3027 0ebe 0534 2bbe ea97 9bbd
000001a0: 6be3 30be fe1e d23c b32c 50be bab1 f6bd
000001b0: 33c3 c43d 2702 bfbd b908 f0bd dd49 90bd
000001c0: 0bd4 593b 27d2 873c 5216 99bd fc0e e5bd
000001d0: d794 debd 0bb5 a1bd 536e 87bd 42e8 7c3c
000001e0: 9b4f 1f3d e8ea 203d 3b8d f53d 37f4 cebd
000001f0: cc1c 01bd b86d 923d e055 023e 463c 0c3e
00000200: 2c78 273d 1908 dd3d d6a2 523d 6f24 553d
00000210: 8a3e dd3d 3563 be3d 4c3b 8f3c e029 0e3d
00000220: 84a3 113d ba82 2c3e 71c2 74bd 3c44 2cbe
00000230: b453 9fbd bba1 19be 4632 00be f2d7 88bd
00000240: c5e9 4f3d fea8 e9bd a0da 95bd 40f4 9d3b
00000250: a30e a83d 916f ab3d 8448 a53d 7f2d d03c
00000260: d25f e5bd 0420 eebd f061 d7bd f5db 6d3d
00000270: 38c5 fd3d c34e 123e ccfa 853d b403 673d
00000280: 73f7 7b3d 3496 42bd 4175 203c 57f3 87bd
00000290: 66f3 43bd fdc5 203d 2f54 dabc 3010 a33d
000002a0: 40db 1cbd e4ee 313b a6b1 81bd d1d3 c33c
000002b0: 3f5e 84bc 1804 343d 2021 883d d3a6 663d
000002c0: 0275 c0bd bf7f 16be f10e b13d 5677 e33d
000002d0: ffc6 16bd 4686 473c a6a5 86bd 67a1 123b
000002e0: ea21 80bb 7aa9 cebc 3faa 92bc 580a 183e
000002f0: 2118 e23d c711 27bd 9430 ccbc 4ed4 aabd
00000300: 0822 053e fc8e 1cbc 241b 8a3c 1a84 17bd
00000310: 17cb b53d 8df7 103e 6cd4 ddbc 7bb8 ca3d
00000320: 9c2e 28bd 14b0 1f3d d62e f5bd 2e75 eabc
00000330: bd86 ef3d 8ba4 d43d 121d 9dbd 6a52 fc3d
00000340: 8abb 6d3e c2e3 453d e7a1 8f3d 2d77 473e
00000350: a8c4 553e 34c6 2cbd 0771 193e df8d fa3d
00000360: 85c0 c0bd 7977 2c3d 400f 8ebd 2942 52bd
00000370: 62f1 7cbd 12ab 94bc 29e1 453e a930 053e
00000380: bfe9 b53d 77a9 cbbc 519f acbc f585 4ebd
00000390: 998f e4bc e6fc a6bd 5854 663d aaba 16bd
000003a0: c80a 29bd 6108 0a3d 7c98 653d b3ec 203e
000003b0: 2c14 4f3e 9c9c bfbc 4236 7bbd 4250 de3d
000003c0: a93e ffbc be28 f8bd 422c 98bd 2b47 b03c
000003d0: 3467 233d 664b e6bc 63e4 debd 6b1e d33d
000003e0: 16ba 00be cdca 40be 2d86 27be 69a3 c83d
000003f0: 45d8 c6bb 91d1 323e c030 b03d ad6f a33d

conv2.bias f4 [32]
0.012292561 0.0992659 -0.005098836 0.05489776 0.061495654 0.12696877 0.14272611 0.09677867
0.0361936 0.11905848 0.07043756 -0.051948566 0.10096659 0.049059726 0.03991374 0.12126358
0.083994724 -0.0010345216 -0.063546814 0.11181644 0.12079768 0.12646972 0.047493737 0.0023061286
0.018592812 -0.08137538 -0.056815583 0.01162809 -0.044520944 -0.044759594 -0.006683219 0.07522303
00000000: bd66 493c ec4b cb3d 2314 a7bb 79dc 603d
00000010: dee2 7b3d 1a04 023e cb26 123e e533 c63d
00000020: be3f 143d efd4 f33d 9141 903d 05c8 54bd
00000030: 92c7 ce3d daf2 483d 977c 233d 0a59 f83d
00000040: 6d05 ac3d c998 87ba d524 82bd 0500 e53d
00000050: c664 f73d 4781 013e cb88 423d 6b22 173b
00000060: f44f 983c 23a8 a6bd 75b7 68bd bf83 3e3c
00000070: 985b 36bd d655 37bd e8fe dabb 880e 9a3d

conv3.weight f4 [64, 32, 5, 5]
0.06872377 0.018319855 -0.035082843 -0.0026287402 -0.0020851213 0.05414325 0.03612996 0.055876423
0.0022793058 -0.00091355783 0.04763965 0.02412598 0.027612805 0.019455595 -0.013558148 0.012622523
0.027178112 0.04008847 -0.027826129 0.025119778 0.0658313 0.062734015 0.048586965 0.026578378
0.0008467603 -0.038729623 0.005085238 -0.028683852 -0.046332743 -0.09797614 -0.05030774 -0.06493457
-0.044718225 1.926522e-06 0.03827603 -0.03136699 -0.06573909 -0.022404961 -0.020056682 -0.028463624
-0.0049836263 -0.02102193 -0.00863468 -0.07229836 -0.038768046 0.027001292 -0.0121754315 -0.007312508
-0.06274307 -0.043332905 0.028573569 -0.031035284 0.00411925 0.040093146 0.048885487 0.057681177
0.0076421807 0.046432063 0.022068765 0.031723738 0.046601173 -0.012146692 -0.012995934 0.012731683
-0.019051474 -0.0189655 0.009680322 0.024449859 -0.044628132 0.0086391885 -0.004411662 0.02354003
0.017392749 -0.0008588908 -0.06825493 0.0579507 0.04482592 0.031119328 0.092398785 0.06482393
0.051235914 0.023865696 0.05851051 0.038343888 0.05870999 0.0055262386 0.038779423 0.03674721
0.042675514 -0.028951393 -0.03196022 0.059705116 0.029919693 0.010419202 -0.03534515 -0.03272548
0.061365176 0.04383084 -0.0019373738 0.0010791804 -0.028518919 0.026503913 0.035773642 -0.007813372
0.021812158 0.006003829 0.026146721 0.0037761426 -0.00018163424 0.0034968134 -0.0036236884 -0.03368334
0.02780683 0.00079951534 0.0030715996 0.04672041 0.027920416 -0.039272785 -0.0410631 -0.044069428
0.058804214 -0.0072349384 0.013467105 0.0173667 -0.05383219 0.008723084 -0.005154774 0.026036933
0.05270308 0.009225611 -0.014610235 -0.05575032 0.0026404522 0.024624724 -0.00037264812 0.06308472
-0.0031497881 -0.04146222 0.0074968394 0.0020405042 0.07147501 0.04338009 -0.023565872 0.040674705
0.010360309 0.07405826 -0.0025295075 -0.020109294 -0.033946082 -0.019395921 -0.06931224 -0.06046849
-0.060145773 -0.081807874 -0.105030484 -0.03252921 -0.03709674 -0.026596844 -0.080934584 -0.12842256
-0.035615128 -0.024514627 -0.025832836 -0.056525473 -0.035122972 0.025776222 -0.047856502 0.0012905219
-0.027871475 0.012637677 0.012389499 -0.027632052 -0.049610846 -0.023838036 -0.024915136 -0.009239702
-0.03530074 0.031994343 -0.0065011913 -0.017998781 0.053603455 -0.023027714 -0.060303133 -0.049768902
-0.027891418 0.080484174 -0.021831837 -0.0015076026 0.01031754 0.033457097 0.06457509 0.08183311
-0.0018898175 0.04788888 -0.0051662074 0.055288833 0.02649078 0.046525493 0.020762041 -0.041117635
0.0054358104 0.0153293805 -0.016589345 -0.028528735 -0.061836604 0.045790598 -0.02480103 0.0084445765
-0.041622855 -0.008599765 0.01598191 -0.031928744 -0.053955466 -0.022897748 -0.023219105 -0.005505617
0.0009427274 0.012464866 0.0025374207 -0.015003889 0.038753234 0.009833489 0.027097091 -0.038919497
-0.019325975 -0.012087482 -0.0034804954 -0.044701952 -0.024304157 -0.04500153 -0.038905427 -0.054431077
-0.081056304 -0.1504697 -0.122256726 -0.09209774 -0.0281516 -0.049912218 0.024099601 0.04160877
-0.09029183 -0.07242584 -0.028919077 0.047755342 0.015762856 -0.1425128 -0.1378431 -0.12164359
-0.0281141 -0.008894158 -0.052243587 0.0019715724 -0.015682517 -0.026758984 -0.040204685 -0.098999225
00000000: 0cbf 8c3d 8513 963c 07b3 0fbd f146 2cbb
00000010: 88a6 08bb 50c5 5d3d 02fd 133d adde 643d
00000020: 6860 153b d47b 6fba cb21 433d d9a3 c53c
00000030: 4034 e23c 5761 9f3c ff22 5ebc b3ce 4e3c
00000040: a2a4 de3c cf33 243d 9ff3 e3bc fec7 cd3c
00000050: 90d2 863d b17a 803d 2003 473d e6ba d93c
00000060: 1ff9 5d3a f4a2 1ebd 11a2 a63b 66fa eabc
00000070: 67c7 3dbd b7a7 c8bd 7d0f 4ebd 6afc 84bd
00000080: 752a 37bd 6549 0136 54c7 1c3d ac7a 00bd
00000090: 37a2 86bd 9c8a b7bc e94d a4bc 8c2c e9bc
000000a0: b04d a3bb 2f36 acbc 7978 0dbc 2a11 94bd
000000b0: 3ecb 1ebd d031 dd3c 767b 47bc c39d efbb
000000c0: 707f 80bd d87d 31bd 1e13 ea3c b53d febc
000000d0: c6fa 863b b638 243d 263c 483d 1943 6c3d
000000e0: 426b fa3b 8c2f 3e3d 8ec9 b43c c0f0 013d
000000f0: dfe0 3e3d eb02 47bc e6ec 54bc 8d98 503c
00000100: d611 9cbc 895d 9bbc 379a 1e3c 124b c83c
00000110: fdcb 36bd 628b 0d3c b48f 90bb 05d7 c03c
00000120: 3d7b 8e3c 3027 61ba 3ec9 8bbd b75d 6d3d
00000130: 629b 373d f6ed fe3c 933b bd3d 69c2 843d
00000140: c0dc 513d fe81 c33c b7a8 6f3d 7b0e 1d3d
00000150: e379 703d 7315 b53b 2cd7 1e3d 3e84 163d
00000160: 85cc 2e3d 792b edbc b8e8 02bd 5a8d 743d
00000170: 251a f53c 4db5 2a3c 13c6 10bd 270b 06bd
00000180: 0d5a 7b3d f887 333d 7aef fdba 4973 8d3a
00000190: 82a0 e9bc bc1e d93c 6287 123d a803 00bc
000001a0: 69af b23c c5bb c43b a631 d63c 2979 773b
000001b0: 1275 3eb9 cb2a 653b 677b 6dbb 8bf7 09bd
000001c0: 26cb e33c 9196 513a e44c 493b e75d 3f3d
000001d0: 5bb9 e43c 80dc 20bd c831 28bd 2582 34bd
000001e0: b0dc 703d 1013 edbb 22a5 5c3c 9c44 8e3c
000001f0: 247f 5cbd 44eb 0e3c 61e9 a8bb 684b d53c
00000200: 2fdf 573d 0427 173c c45f 6fbc 735a 64bd
00000210: 700b 2d3b cab9 c93c fc5f c3b9 9032 813d
00000220: ad6c 4ebb 4ad4 29bd 0ca8 f53b fbb9 053b
00000230: 7d61 923d 52af 313d 370d c1bc 859a 263d
00000240: 49be 293c dbab 973d 18c6 25bb 3fbc a4bc
00000250: 0c0b 0bbd 32e4 9ebc 93f3 8dbd cfad 77bd
00000260: 6a5b 76bd e38a a7bd 391a d7bd 593d 05bd
00000270: c0f2 17bd a0e1 d9bc 08c1 a5bd 3481 03be
00000280: 2be1 11bd e6d2 c8bc 629f d3bc 4187 67bd
00000290: 1bdd 0fbd a828 d33c 2e05 44bd bb26 a93a
000002a0: b852 e4bc 420e 4f3c 53fd 4a3c 9d5c e2bc
000002b0: be34 4bbd fc47 c3bc d41a ccbc 1e62 17bc
000002c0: 8297 10bd 800c 033d f207 d5bb 2e72 93bc
000002d0: 4c8f 5b3d 9ea4 bcbc 6b00 77bd 7ada 4bbd
000002e0: 8b7c e4bc e3d4 a43d aed8 b2bc c09a c5ba
000002f0: e60a 293c 4f0a 093d f23f 843d 1e98 a73d
00000300: c1b3 f7ba 2127 443d 4a49 a9bb 8b76 623d
00000310: 3103 d93c 8491 3e3d 2815 aa3c f76a 28bd
00000320: e21e b23b 1528 7b3c 61e6 87bc 18b5 e9bc
00000330: 6148 7dbd ec8e 3b3d 882b cbbc 1f5b 0a3c
00000340: ba7c 2abd 07e6 0cbc 7fec 823c b7c7 02bd
00000350: 6800 5dbd 0f94 bbbc fe35 bebc 7668 b4bb
00000360: 5d21 773a 7039 4c3c db4a 263b dfd2 75bc
00000370: b6bb 1e3d a41c 213c b8fa dd3c 0d6a 1fbd
00000380: 8251 9ebc 930a 46bc 0619 64bb 6519 37bd
00000390: 8319 c7bc 8653 38bd 4c5b 1fbd 1ff3 5ebd
000003a0: d900 a6bd bb14 1abe bc61 fabd bd9d bcbd
000003b0: 2f9e e6bc c170 4cbd 876c c53c f56d 2a3d
000003c0: ecea b8bd 0054 94bd b3e7 ecbc 1b9b 433d
000003d0: 1b21 813c e0ee 11be be26 0dbe 4620 f9bd
000003e0: 8b4f e6bc cdb8 11bc 5ffd 55bd 7f35 013b
000003f0: 9f78 80bc a835 dbbc abad 24bd 1bc0 cabd

conv3.bias f4 [64]
-0.017045463 -0.030463666 -0.03065622 -0.0299799 0.0044173743 0.0327183 -0.0069743204 -0.038647965
0.025234718 0.0070513105 0.027396709 0.04841995 -0.0071422793 -0.013893787 0.0006569169 -0.019377505
-0.007976537 -0.03149283 -0.0010221843 -0.032089975 0.04001253 -0.029666351 -0.0023011805 0.0015354976
0.00014483927 0.032917526 -1.3503907e-06 0.010947652 -0.03194761 -0.029165104 -0.013204454 0.047419365
0.0063045486 0.021430846 -0.021211384 0.0083068935 0.032558106 -0.0138317915 -0.04090157 0.04095092
0.02215798 -0.0207689 -0.02453289 0.030597255 -0.011203596 0.0055760285 -0.042479664 -0.022416312
-0.02126289 0.0056662937 0.02147536 0.030027162 -0.013162821 -0.009790417 0.010654938 0.025898937
0.02558912 0.011019285 -0.036580555 0.015986497 -0.0049715494 0.016847199 -0.013739811 0.038271897
00000000: eda2 8bbc f08e f9bc c122 fbbc 6898 f5bc
00000010: 9fbf 903b a003 063d d788 e4bb 544d 1ebd
00000020: 0ab9 ce3c ae0e e73b 106f e03c ff53 463d
00000030: c809 eabb c4a2 63bc f234 2c3a 93bd 9ebc
00000040: 05b0 02bc a0fe 00bd d0fa 85ba c770 03bd
00000050: 2ee4 233d d906 f3bc 67cf 16bb c042 c93a
00000060: ffdf 1739 87d4 063d 123f b5b5 c85d 333c
00000070: 7fdb 02bd a8eb eebc 7f57 58bc cf3a 423d
00000080: 6396 ce3b be8f af3c 7fc3 adbc a319 083c
00000090: a65b 053d bd9e 62bc 6888 27bd 27bc 273d
000000a0: a784 b53c 8a23 aabc 33f9 c8bc 18a7 fa3c
000000b0: 4a8f 37bc 1eb7 b63b 28ff 2dbd 6aa2 b7bc
000000c0: 832f aebc 51ac b93b 18ed af3c 86fb f53c
000000d0: dfa8 57bc fc67 20bc 0d92 2e3c 022a d43c
000000e0: 46a0 d13c 3b8a 343c 7ed5 15bd 1df6 823c
000000f0: 61e8 a2bb 2303 8a3c f21c 61bc fec2 1c3d

fc1.weight f4 [86, 576]
-0.023884753 0.020478407 0.014292024 0.01671333 -0.029241545 -0.03388525 -0.032349713 -0.020998217
0.021584671 0.019115297 -0.018932978 -0.0017156771 -0.011229034 -0.008552608 -0.008766294 -0.034490038
-0.008040765 -0.00801058 -0.013409866 0.03203865 -0.016338944 -0.021581473 -0.017320514 -0.03961554
-0.013939937 0.017478451 0.023106277 0.026206518 -0.0010187638 -0.023736717 0.0013586099 0.03336281
0.025239175 -0.0053249146 2.0963877e-05 -0.035132695 0.02507896 0.016244331 0.0032694193 -0.02378086
-0.04293091 -0.010278468 -0.03005649 -0.018176079 -0.024849193 0.018833322 -0.006678154 0.03591077
0.0073941154 0.036207546 -0.02618061 -0.025847962 -0.031247409 0.03455648 0.0047436804 0.03185569
-0.00042022418 0.031801872 -0.02531353 0.03302721 -0.013984982 -0.036855888 0.020258414 0.040472236
0.014863715 -0.025420602 -0.033709824 0.028021932 0.04008963 0.019159283 -0.009863427 -0.040367417
-0.026688281 0.00038379303 0.018713597 -0.037645392 -0.03070932 0.018295605 0.0327396 -0.0139199095
-0.0023051272 0.016434237 0.016190013 -0.0041125617 0.02207162 0.0054472885 0.018208152 0.018868452
-0.02816936 0.01461717 0.034405157 0.010716411 0.035156794 -0.0083664665 -0.024497228 -0.01100275
-0.038887583 -0.031060917 -0.016871523 0.012863686 -0.046356205 0.010409181 0.02448468 0.018697342
-0.011668704 0.018178344 -0.0053630336 0.015860954 0.017315038 0.019030595 -0.04109104 -0.041962516
-0.035458885 -0.03704968 -0.037408944 -0.017101802 -0.01603243 -0.026357844 0.003422571 -0.011316325
0.020311428 -0.029530387 -0.046561208 -0.008489526 -0.021849023 -0.032891113 -0.013334409 -0.019584421
-0.007962256 -0.01983733 -0.0060585374 -0.029376395 0.031138333 0.019177685 0.0011681041 0.014784784
-0.02894421 -0.03793168 0.0332784 0.028223874 0.031072862 0.028261349 0.029780373 -0.022242965
0.017490601 -0.0030225646 -0.02358833 0.029535014 -0.022029148 0.027526667 -0.02859923 0.002538778
0.022510612 -0.045079295 -0.03048894 -0.02251429 0.01903865 -0.019517682 0.032163993 -0.005713073
0.034713935 0.016371995 -0.013211487 0.002589251 -0.018039664 -0.0030911122 -0.03636565 -0.037233774
0.022880523 0.018321052 0.012295499 -0.04546673 0.023728361 -0.017841352 -0.015960313 -0.0041661537
0.029282087 0.0019068277 -0.0071313162 -0.030470401 -0.018391374 -0.028944403 0.002749862 -0.030487081
0.0027450933 0.018811876 -0.03833372 0.020025136 0.006840831 0.008690384 0.022030057 -0.030920088
-0.033924766 -0.03623464 -0.02943724 0.009549245 0.007187776 -0.006682501 -0.045020603 0.0063371374
0.014933624 -0.019434992 0.011233199 -0.007196037 -0.019498415 0.002176203 -0.044362616 0.028748557
-0.042141132 -0.02079503 0.020835143 -0.02738237 -0.01751565 -0.028599579 0.03176105 -0.034507807
-0.005618623 -0.0057140454 0.023676077 -0.03169958 -0.04449808 -0.009689669 0.03577963 -0.013806667
-0.000122045356 -0.017828876 -0.016790776 0.012928969 -0.016055468 0.025392784 -0.03686496 -0.036940236
-0.009696723 0.0049062907 0.02236714 -0.0051326854 -0.03257514 0.028416064 0.0019854656 0.034939136
-0.01253812 0.021788865 0.009240563 -0.04372348 0.031531297 0.0022290188 -0.020025909 -0.009773188
-0.02970066 0.019107087 0.033796586 0.024535988 0.02237703 -0.02926687 0.0069937874 0.030003922
00000000: f5a9 c3bc 55c2 a73c 1829 6a3c 65ea 883c
00000010: f78b efbc 43cb 0abd 2281 04bd 7404 acbc
00000020: 56d2 b03c af97 9c3c 5519 9bbc 92e0 e0ba
00000030: fbf9 37bc 3d20 0cbc 81a0 0fbc 6d45 0dbd
00000040: 6abd 03bc cf3e 03bc 0eb5 5bbc f63a 033d
00000050: 40d9 85bc a1cb b0bc c0e3 8dbc e843 22bd
00000060: 5564 64bc f82e 8f3c 6049 bd3c 0daf d63c
00000070: 0a88 85ba 8173 c2bc 6213 b23a 71a7 083d
00000080: 63c2 ce3c 9f7c aebb 95db af37 4de7 0fbd
00000090: 6472 cd3c d512 853c c143 563b 14d0 c2bc
000000a0: 52d8 2fbd 0567 28bc 0739 f6bc 00e6 94bc
000000b0: 8990 cbbc 5748 9a3c 6bd4 dabb 2c17 133d
000000c0: 564a f23b 5d4e 143d b878 d6bc 1bbf d3bc
000000d0: 91fa ffbc 188b 0d3d e070 9b3b 1d7b 023d
000000e0: 8951 dcb9 ae42 023d 525e cfbc 8a47 073d
000000f0: 4421 65bc 33f6 16bd f9f4 a53c 37c6 253d
00000100: f086 733c de3e d0bc 5013 0abd 408e e53c
00000110: 0635 243d eef3 9c3c 369a 21bc 4e58 25bd
00000120: 62a1 dabc d437 c939 424d 993c 0e32 1abd
00000130: 1d92 fbbc aae0 953c f519 063d 5510 64bc
00000140: 9e11 17bb 18a1 863c eba0 843c abc2 86bb
00000150: 8bcf b43c 2b7f b23b 4329 953c 0392 9a3c
00000160: 6ec3 e6bc db7c 6f3c 6cec 0c3d e393 2f3c
00000170: 9200 103d 8113 09bc 69ae c8bc e144 34bc
00000180: 9648 1fbd 7773 febc 2636 8abc 36c2 523c
00000190: 01e0 3dbd 458b 2a3c 1894 c83c 2b2b 993c
000001a0: 182e 3fbc c0ea 943c 63bc afbb d5ee 813c
000001b0: 44d8 8d3c 0de6 9b3c 144f 28bd e3e0 2bbd
000001c0: 563d 11bd 68c1 17bd 1f3a 19bd 1419 8cbc
000001d0: 7156 83bc 68ec d7bc 374d 603b 1b68 39bc
000001e0: 2764 a63c b6e9 f1bc f7b6 3ebd a717 0bbc
000001f0: b9fc b2bc d5b8 06bd 9178 5abc 826f a0bc
00000200: 1f74 02bc e581 a2bc b286 c6bb c4a6 f0bc
00000210: d115 ff3c 851a 9d3c 121b 993a e13b 723c
00000220: 681c edbc 405e 1bbd ee4e 083d c135 e73c
00000230: 848c fe3c 5884 e73c f8f5 f33c e136 b6bc
00000240: 7348 8f3c 3816 46bb 503c c1bc 6af3 f13c
00000250: 7976 b4bc 9b7f e13c ef48 eabc a061 263b
00000260: 2d68 b83c 11a5 38bd f1c3 f9bc e36f b8bc
00000270: f1f6 9b3c 8ce3 9fbc 64be 033d bb34 bbbb
00000280: 3330 0e3d 901e 863c fe74 58bc 6cb0 293b
00000290: ebc7 93bc 4294 4abb 26f4 14bd 7182 18bd
000002a0: ef6f bb3c 0816 963c 1073 493c 523b 3abd
000002b0: fb61 c23c 0728 92bc 34bf 82bc 3b84 88bb
000002c0: fde0 ef3c 85ee f93a d1ad e9bb 109d f9bc
000002d0: 82a9 96bc d01c edbc 0737 343b 0bc0 f9bc
000002e0: 06e7 333b 5d1b 9a3c d203 1dbd c10b a43c
000002f0: 0d29 e03b 1d62 0e3c 6178 b43c 204c fdbc
00000300: b2f4 0abd c66a 14bd 5e26 f1bc 7074 1c3c
00000310: 6f87 eb3b e2f8 dabb 8667 38bd c3a7 cf3b
00000320: 29ac 743c 2236 9fbc 740b 383c bccc ebbb
00000330: 24bb 9fbc a19e 0e3b 93b5 35bd 1882 eb3c
00000340: 2e9c 2cbd 575a aabc 76ae aa3c fe50 e0bc
00000350: fb7c 8fbc aa49 eabc e017 023d 0f58 0dbd
00000360: 6d1c b8bb e33c bbbb 55f4 c13c 6bd7 01bd
00000370: 9e43 36bd 6bc1 1ebc a98d 123d 5c35 62bc
00000380: 9af2 ffb8 dd0d 92bc cf8c 89bc 07d4 533c
00000390: c286 83bc 8704 d03c b6ff 16bd a54e 17bd
000003a0: 01df 1ebc f3c4 a03b 4b3b b73c 1630 a8bb
000003b0: 836d 05bd cec8 e83c 961e 023b 571c 0f3d
000003c0: b06c 4dbc 907e b23c bb65 173c 6417 33bd
000003d0: f626 013d bb14 123b 600d a4bc b91f 20bc
000003e0: cc4e f3bc 7786 9c3c 4a6e 0a3d b2ff c83c
000003f0: 0950 b73c 13c1 efbc 242c e53b c9ca f53c

fc1.bias f4 [86]
-0.026920175 -0.032044653 0.019658262 0.023072008 -0.037482925 -0.0035805178 0.037083447 0.053470124
0.034647543 0.03626009 0.022074286 -0.01653469 -0.006061482 -0.036371354 -0.05393399 -0.03185834
-0.0005901564 0.036273293 0.021998046 0.046534915 -0.01733017 0.00089752 0.035671536 0.047928326
0.037189554 0.004153429 0.035562135 0.03656949 0.04686454 -0.023910763 -0.036655404 0.01103923
0.03027931 -0.017198298 -0.0135081755 0.049032222 -0.019533092 -0.0026747587 -0.0029065195 -0.008366153
-0.012627936 -0.01402172 -0.025738684 -0.019557731 0.0067407126 0.045825247 0.044162992 0.030085312
-0.0066673895 -0.031548705 0.036276065 0.00068947655 -0.005290363 -0.014045468 0.023347076 -0.018835442
-0.043225113 -0.0018711296 0.03355388 -0.036649104 0.028061423 0.03852902 -0.04286489 -0.030367376
-0.007876987 -0.020542072 -0.005631173 -0.006412728 -0.010740561 0.03917701 0.045244742 0.014937186
-0.006635616 -0.034068644 0.037621677 -0.016510952 0.012289316 0.047099657 -0.017555887 -0.00624912
0.037366096 0.03079393 0.041919447 0.0050843353 0.020070666 -0.02808918
00000000: b387 dcbc 4141 03bd 5d0a a13c 8201 bd3c
00000010: b287 19bd 1fa7 6abb d0e4 173d 7d03 5b3d
00000020: 95ea 0d3d 7685 143d 22d5 b43c c273 87bc
00000030: 659f c6bb 21fa 14bd e3e9 5cbd e47d 02bd
00000040: bab4 1aba 4e93 143d 3f35 b43c 659b 3e3d
00000050: 00f8 8dbc 8c47 6b3a 511c 123d 7e50 443d
00000060: 1354 183d 7d19 883b 9aa9 113d e4c9 153d
00000070: 08f5 3f3d 81e0 c3bc fa23 16bd e3dd 343c
00000080: 510c f83c 72e3 8cbc 6551 5dbc 03d6 483d
00000090: dd03 a0bc 014b 2fbb 4e7b 3ebb 3012 09bc
000000a0: 67e5 4ebc 5bbb 65bc efd9 d2bc 8937 a0bc
000000b0: 32e1 dc3b 41b3 3b3d 41e4 343d 7975 f63c
000000c0: 1e7a dabb 3739 01bd 3696 143d fdbd 343a
000000d0: c85a adbb f61e 66bc 5e42 bf3c c94c 9abc
000000e0: d10c 31bd b140 f5ba cb6f 093d 5f1d 16bd
000000f0: 12e1 e53c 9bd0 1d3d 1893 2fbd 01c5 f8bc
00000100: 7a0e 01bc d947 a8bc b485 b8bb dd21 d2bb
00000110: 2ef9 2fbc 1378 203d 8d52 393d 19bb 743c
00000120: 956f d9bb 908b 0bbd 3019 1a3d fa41 87bc
00000130: 2159 493c 92eb 403d 5dd1 8fbc 6bc5 ccbb
00000140: 310d 193d 8d43 fc3c bab3 2b3d 7f9a a63b
00000150: 3d6b a43c 481b e6bc

fc2.weight f4 [64, 86]
0.0073822527 0.107523434 -0.11638064 0.036322955 -0.016951231 0.037955035 -0.044194356 -0.1844098
0.09812227 0.12084681 -0.004390293 -0.088380635 -0.015380514 -0.07849828 0.016570995 -0.06716783
-0.055381786 -0.14670189 0.008598093 -0.05752817 0.06606077 0.09216949 -0.06872883 -0.18891528
-0.028502086 0.07179104 0.07462991 0.031164257 0.10655952 -0.017604614 0.066129446 0.0033698175
0.06749025 -0.0077722347 0.0726795 -0.13500278 0.03460686 0.099498086 0.10559792 0.09961753
-0.10482603 0.052842174 0.014084785 -0.011645674 -0.07425207 0.029141132 -0.003111142 0.090411134
0.07848067 0.08714514 -0.13444401 -0.03373596 -0.10619258 -0.07858921 0.07106192 -0.05529994
0.064295255 -0.08021589 0.006904881 0.04860737 -0.0030639037 -0.06134895 -0.0013330821 -0.036588483
-0.03761431 -0.06823912 0.00046762868 0.07814225 0.032305542 0.08712395 0.0167468 -0.04667321
-0.06540511 -0.051618576 0.086995915 -0.099862814 0.01708793 -0.16622649 -0.11425793 0.09338952
0.02417496 0.08420673 0.048593353 -0.0665977 0.1313782 -0.114452854 -0.06977766 -0.08130545
0.045095798 -0.050512727 -0.043007027 -0.09680049 0.08457337 0.00020774263 -0.061574064 -0.054303583
-0.073776975 0.09283942 -0.034677256 0.023041284 0.026034663 -0.032415874 0.06331492 0.07138251
0.01876182 -0.0016992829 0.026256155 0.085528925 0.031807117 -0.041871555 0.049953196 0.0065498906
-0.107966475 -0.09586886 0.088237606 0.013375951 -0.010272988 -0.1101049 0.09843783 -0.101561435
-0.0243293 -0.11335629 0.077697806 -0.07944359 -0.09046523 -0.09586683 0.062614806 -0.074772574
-0.023168739 0.030904397 0.0678502 -0.021788707 -0.075996354 -0.07779981 -0.033592816 0.08013557
-0.04114718 -0.06286512 0.013004657 -0.08166579 0.014237313 0.07633706 0.014825366 -0.040792517
0.06676459 -0.086797856 -0.11208239 0.08112956 0.08586214 -0.04152613 0.004646592 -0.030905409
0.035975777 0.015737688 -0.08174042 0.036913507 -0.07259187 0.090571515 0.031418424 -0.04961193
-0.014150423 0.057931248 -0.0049288874 -0.0049211886 0.029900365 -0.022949215 -0.04919561 -0.0347406
-0.087342314 -0.09821859 0.09839868 0.0856236 -0.016632598 0.05328998 0.06936281 0.03381778
-0.0858031 0.006211067 0.09058574 -0.10906272 0.06686276 0.061967354 -0.10155656 0.08592246
-0.18397456 -0.014465169 -0.06930322 0.051317733 -0.07605614 0.038410712 -0.023432497 -0.12360856
-0.018100701 0.010106729 -0.06611366 -0.11178829 -0.04647771 0.08224885 -0.031810757 0.10594819
0.100798614 -0.047303807 -0.054053664 0.086537935 -0.08358375 -0.018964944 -0.06365198 -0.06990143
-0.018546471 0.13676815 0.018562527 0.050698526 0.054047972 -0.09453192 -0.009303227 0.044651814
-0.09510367 0.02885148 0.10213359 0.011063297 -0.033900622 -0.036356434 -0.15190113 -0.04967767
0.04287275 0.10418099 -0.031992193 0.05301634 0.05541283 0.035861332 -0.012799608 0.02884689
0.11797306 -0.08825121 -0.036430843 -0.0019074484 -0.1653694 -0.052663486 -0.061829124 0.036524437
0.0536484 0.029439121 -0.055680677 -0.08722353 0.09745418 0.12701236 -0.028926954 -0.008536012
0.020745454 -0.11236539 -0.027172012 -0.008430359 0.06295647 -0.039218646 -0.06964692 -0.043505713
00000000: d3e6 f13b 3f35 dc3d f958 eebd 61c7 143d
00000010: 4fdd 8abc bd76 1b3d 2405 35bd ecd5 3cbe
00000020: 54f4 c83d 887e f73d 72dc 8fbb e800 b5bd
00000030: 8dfe 7bbc b5c3 a0bd e5bf 873c 4a8f 89bd
00000040: 03d8 62bd 0539 16be 04df 0c3c a9a2 6bbd
00000050: de4a 873d 5cc3 bc3d b3c1 8cbd 0273 41be
00000060: 357d e9bc 2e07 933d 91d7 983d 2f4c ff3c
00000070: e13b da3d 8d37 90bc e06e 873d 28d8 5c3b
00000080: 5438 8a3d 3bae febb fdd8 943d 2b3e 0abe
00000090: ecbf 0d3d a7c5 cb3d b943 d83d 4704 cc3d
000000a0: 08af d6bd 0971 583d dfc3 663c 7fcd 3ebc
000000b0: 7811 98bd 62b9 ee3c 4de4 4bbb 7929 b93d
000000c0: 79ba a03d 2779 b23d b1ab 09be b82e 0abd
000000d0: 7f7b d9bd 61f3 a0bd e988 913d 3182 62bd
000000e0: 3bad 833d 3b48 a4bd 5742 e23b 8618 473d
000000f0: c6cb 48bb 0949 7bbd d0ba aeba cedd 15bd
00000100: 7611 1abd f4c0 8bbd 0f2c f539 0b09 a03d
00000110: d152 043d 0b6e b23d 9630 893c 682c 3fbd
00000120: 1df3 85bd 006e 53bd ea2a b23d e084 ccbd
00000130: fdfb 8b3c 4737 2abe 1000 eabd 0143 bf3d
00000140: 910a c63c 9474 ac3d d309 473d 6064 88bd
00000150: 0288 063e 4266 eabd 97e7 8ebd 7983 a6bd
00000160: 5fb6 383d 6fe6 4ebd 2328 30bd 563f c6bd
00000170: ce34 ad3d 7dd5 5939 1635 7cbd 6f6d 5ebd
00000180: 6218 97bd 9822 be3d bd09 0ebd 13c1 bc3c
00000190: a546 d53c 82c6 04bd 41ab 813d fe30 923d
000001a0: 63b2 993c 79ba deba 2617 d73c ca29 af3d
000001b0: 2e48 023d 8281 2bbd b99b 4c3d 77a0 d63b
000001c0: 871d ddbd e556 c4bd ebb5 b43d ce26 5b3c
000001d0: 0950 28bc ae7e e1bd c699 c93d 71ff cfbd
000001e0: 3d4e c7bc 5827 e8bd 0720 9f3d 52b3 a2bd
000001f0: d645 b9bd d455 c4bd 313c 803d 5d22 99bd
00000200: 5ecc bdbc 382b fd3c 0cf5 8a3d 3b7e b2bc
00000210: faa3 9bbd 8255 9fbd 9f98 09bd 1e1e a43d
00000220: f289 28bd 6ebf 80bd 7c11 553c 6540 a7bd
00000230: 9e43 693c 9b56 9c3d 18e6 723c 0e16 27bd
00000240: e0bb 883d 13c3 b1bd 748b e5bd 4127 a63d
00000250: 7dd8 af3d 4e17 2abd 7042 983b 572d fdbc
00000260: 565b 133d 53ec 803c 8567 a7bd 9e32 173d
00000270: 0cab 94bd 8f7d b93d 9bb0 003d e135 4bbd
00000280: 2dd7 67bc 5149 6d3d 8182 a1bb ec41 a1bb
00000290: 9cf1 f43c feff bbbc 5681 49bd 294c 0ebd
000002a0: 87e0 b2bd d426 c9bd 3f85 c93d 6d5b af3d
000002b0: 1641 88bc 9846 5a3d 170e 8e3d 8384 0a3d
000002c0: 89b9 afbd 3586 cb3b 0485 b93d 465c dfbd
000002d0: 58ef 883d 7bd1 7d3d e3fc cfbd 1df8 af3d
000002e0: d463 3cbe 51ff 6cbc d9ee 8dbd 8b32 523d
000002f0: 52c3 9bbd 8d54 1d3d 82f5 bfbc 7c26 fdbd
00000300: ec47 94bc b296 253c 9966 87bd 42f1 e4bd
00000310: 695f 3ebd 1672 a83d ff4b 02bd 5dfb d83d
00000320: 816f ce3d a3c1 41bd 6067 5dbd cd3a b13d
00000330: f52d abbd 5f5c 9bbc f85b 82bd 7b28 8fbd
00000340: c5ee 97bc f30c 0c3e 7110 983c 42a9 4f3d
00000350: 6861 5d3d f499 c1bd 906c 18bc d2e4 363d
00000360: b7c5 c2bd f059 ec3c 6a2b d13d d542 353c
00000370: 61db 0abd 7cea 14bd f88b 1bbe d07a 4bbd
00000380: 569b 2f3d d85c d53d 3f0a 03bd a927 593d
00000390: 90f8 623d 55e3 123d 72b5 51bc 5050 ec3c
000003a0: dc9b f13d 0dbd b4bd 8238 15bd 5903 faba
000003b0: 9956 29be abb5 57bd 8940 7dbd a69a 153d
000003c0: 6dbe 5b3d 502a f13c 6c11 64bd 40a2 b2bd
000003d0: 0f96 c73d 870f 023e 38f8 ecbc a1da 0bbc
000003e0: 5ff2 a93c d31f e6bd d797 debc 7d1f 0abc
000003f0: 52ef 803d bba3 20bd 0ba3 8ebd 0c33 32bd

fc2.bias f4 [64]
0.055398386 -0.11390892 0.021501329 0.063464075 0.011984012 -0.02005364 -0.025422212 -0.038217425
-0.07883149 0.029949948 -0.052732408 -0.0039354437 -0.049073994 0.055011597 -0.016162882 -0.0448365
0.07970134 0.08188035 0.07198576 -0.008088735 0.08745199 -0.074090704 -0.06424299 0.06496484
0.044036277 -0.006738045 0.07146424 -0.046848882 0.10838207 0.025355032 -0.076995194 0.11894018
-0.0775359 -0.009111734 0.12524062 0.09385542 0.024757907 0.017024465 0.032382905 -0.004269802
-0.05870243 -0.09295236 -0.10943462 0.011608542 0.02018847 -0.068577506 -0.049745698 -0.048224084
-0.017688422 -0.09129455 -0.08805746 -0.07328282 -0.0025874474 0.08220026 0.055274 -0.064790346
-0.0437777 -0.028062731 0.08905974 0.10579421 0.040886424 -0.026602695 -0.025046589 0.066445425
00000000: 6be9 623d 1449 e9bd 8e23 b03c 74f9 813d
00000010: 9758 443c 8847 a4bc 3e42 d0bc e089 1cbd
00000020: 6772 a1bd 9859 f53c f0fd 57bd e5f4 80bb
00000030: d001 49bd d753 613d 0568 84bc 7aa6 37bd
00000040: 753a a33d e3b0 a73d 456d 933d 9d86 04bc
00000050: 071a b33d debc 97bd d491 83bd 490c 853d
00000060: 625f 343d d1ca dcbb d85b 923d 9de4 3fbd
00000070: 6bf7 dd3d 5bb5 cf3c a8af 9dbd e996 f33d
00000080: 24cb 9ebd 6249 15bc 143f 003e 4537 c03d
00000090: 18d1 ca3c e476 8b3c f0a3 043d b2e9 8bbb
000000a0: f671 70bd cf5d bebd 421f e0bd c131 3e3c
000000b0: 4a62 a53c 5d72 8cbd 25c2 4bbd 9e86 45bd
000000c0: 4fe7 90bc a3f8 babd 7857 b4bd 4e15 96bd
000000d0: 2a92 29bb 9c58 a83d fd66 623d cdb0 84bd
000000e0: 3f50 33bd d0e3 e5bc f464 b63d a3aa d83d
000000f0: 8678 273d e5ed d9bc 812e cdbc 8a14 883d

fc3.weight f4 [10, 64]
0.0061873565 -0.053131327 -0.13179263 -0.13326144 0.031710073 0.12222421 0.01667377 -0.09944372
0.23547155 0.14239874 0.0029265017 -0.12973498 -0.08088511 0.074324325 0.083972454 0.043455333
0.057449266 -0.094251245 0.092491515 0.00022209891 0.034958273 -0.1274062 0.106596395 0.16329512
-0.047971662 -0.051763162 -0.09010004 -0.109095186 -0.08320763 -0.11010572 0.061189175 -0.081156366
0.08558214 -0.1472773 0.12348646 0.037039164 -0.16374232 0.011969147 0.07385442 -0.06657466
-0.0033465738 -0.10562558 -0.066384055 -0.18276864 0.112101965 0.08364886 -0.08399737 0.04215783
0.09177697 0.121653765 0.08007515 -0.0044198036 0.13073504 -0.011912015 0.14263883 -0.08135595
-0.1301098 -0.10294253 -0.0698033 -0.1338005 -0.003868068 0.03814724 -0.14346087 -0.012805927
-0.039603293 0.05129425 -0.19054012 -0.13681294 -0.07908695 -0.15432352 -0.0697067 0.11361496
0.15908931 0.03827742 0.09773086 0.05908082 0.054340675 0.06188911 0.07339877 -0.13996439
-0.12816729 0.15657933 -0.17665765 -0.07116344 -0.06291745 0.0739883 0.11835314 -0.1035958
0.011309384 0.06806953 -0.07731101 0.10117071 0.05561949 0.12841703 -0.112631075 0.10997747
0.09099241 -0.14749463 0.09253117 -0.13130167 -0.066307075 0.0020043529 0.115679 0.033352975
-0.059831448 -0.05006444 -0.09785284 0.030534247 -0.022528537 -0.020519305 0.021071417 0.059610814
0.14599854 0.14337458 -0.1123582 -0.018895939 -0.048638966 0.097010694 -0.09959405 0.13354091
-0.046043634 0.07381191 -0.057567365 0.084068716 -0.18369794 -0.053897105 -0.13381904 0.13179995
0.008418629 0.011812041 -0.019460013 -0.11808265 -0.08847732 -0.019781493 0.014312264 -0.099873714
0.0035839777 -0.017859459 -0.12901211 -0.027271822 0.053543106 0.1015136 -0.12472716 0.102975935
-0.11840481 -0.13265903 -0.11730496 0.06562062 -0.09774561 0.08876226 -0.05662024 -0.013207188
-0.17933354 -0.0070792227 -0.07519505 -0.070747755 -0.10036799 0.03881309 0.13392588 0.1262433
-0.17024903 -0.019810628 -0.07970987 -0.19375266 0.058389317 0.11923562 -0.19125672 -0.007941064
-0.073604174 -0.039149366 -0.08880097 -0.05141035 0.058901407 0.09852408 -0.090862714 0.04610677
0.14348346 0.091261916 -0.033606227 -0.10468158 0.13968553 0.12058475 -0.1574628 0.018520433
0.078219704 -0.13959785 0.16068153 -0.18906315 -0.14973453 0.14779335 0.15218382 0.108252645
0.10848366 0.0023362706 0.024732852 -0.16234425 0.18477966 -0.09744714 -0.048563335 -0.06811562
-0.14696378 -0.07950576 0.11956022 0.04892675 -0.050210938 0.03049184 -0.0073051304 0.0068768607
-0.09756666 0.08248039 0.046700396 -0.1563103 0.027316615 0.109884225 -0.030262396 0.03583556
-0.14895853 0.015204386 0.016207019 0.06788895 -0.15368837 0.034491688 -0.11354066 0.05915002
-0.00070746744 -0.15161476 -0.006097218 -0.083966754 0.11094957 -0.09229205 0.03006992 -0.11157914
-0.07336641 0.04249366 -0.14365827 0.12469565 0.15729965 0.10070121 -0.10582763 0.01765944
0.006425532 0.06513312 0.09402173 -0.031580865 -0.010681289 0.1094592 0.15944055 -0.05386586
-0.1268651 0.08853704 -0.1104568 0.1498617 0.14518923 0.030444799 0.010205941 -0.123679176
00000000: 4fbf ca3b 3ca0 59bd a6f4 06be b075 08be
00000010: 6ce2 013d b050 fa3d 6e97 883c 26a9 cbbd
00000020: 741f 713e fad0 113e 8dca 3f3b 3fd9 04be
00000030: 18a7 a5bd 5a37 983d c0f9 ab3d 38fe 313d
00000040: ec4f 6b3d cc06 c1bd 316c bd3d 39e3 6839
00000050: 6830 0f3d c576 02be 364f da3d d636 273e
00000060: ef7d 44bd 9c05 54bd 5f86 b8bd 4c6d dfbd
00000070: c368 aabd 1c7f e1bd 80a1 7a3d 4f35 a6bd
00000080: b045 af3d dccf 16be 78e6 fc3d 61b6 173d
00000090: 11ac 27be 3e1a 443c fc40 973d 4c58 88bd
000000a0: 3152 5bbb 3952 d8bd 5df4 87bd b427 3bbe
000000b0: b795 e53d 1850 ab3d d006 acbd b0ad 2c3d
000000c0: 90f5 bb3d 9c25 f93d 71fe a33d 00d4 90bb
000000d0: 68df 053e 9d2a 43bc ea0f 123e f39d a6bd
000000e0: 813b 05be 88d3 d2bd 08f5 8ebd 0003 09be
000000f0: 6a7f 7dbb 4840 1c3d 68e7 12be f3cf 51bc
00000100: 1037 22bd eb19 523d f31c 43be b118 0cbe
00000110: 57f8 a1bd fc06 1ebe 63c2 8ebd f6ae e83d
00000120: 4fe8 223e c9c8 1c3d 1e27 c83d bbfe 713d
00000130: 5494 5e3d 6f7f 7d3d 1852 963d d352 0fbe
00000140: 493e 03be 5556 203e bee5 34be 23be 91bd
00000150: ddda 80bd 2e87 973d 2263 f23d 092a d4bd
00000160: ff4a 393c 0a68 8b3d 3c55 9ebd 9732 cf3d
00000170: 43d1 633d c17f 033e 1fab e6bd de3b e13d
00000180: 3b5a ba3d d508 17be fb80 bd3d f273 06be
00000190: 01cc 87bd 765b 033b 1de9 ec3d 219d 083d
000001a0: d211 75bd 5f10 4dbd 1267 c8bd f522 fa3c
000001b0: c48d b8bc 1a18 a8bc f79d ac3c 782a 743d
000001c0: a480 153e c9d0 123e 0e1c e6bd a8cb 9abc
000001d0: a739 47bd 8bad c63d f7f7 cbbd f3be 083e
000001e0: 4098 3cbd b32a 973d c2cb 6bbd 382c ac3d
000001f0: 501b 3cbe 36c3 5cbd dc07 09be 91f6 063e
00000200: 4aee 093c 4a87 413c 9b6a 9fbc 51d5 f1bd
00000210: 9933 b5bd cc0c a2bc fc7d 6a3c 978a ccbd
00000220: 2be1 6a3b 004e 92bc c01b 04be 2869 dfbc
00000230: 0450 5b3d 5de6 cf3d f470 ffbd 0ce5 d23d
00000240: 397e f2bd c5d7 07be 953d f0bd 1b64 863d
00000250: da2e c8bd fdc8 b53d a0ea 67bd f662 58bc
00000260: 36a3 37be d3f8 e7bb ddff 99bd 33e4 90bd
00000270: bc8d cdbd 7afa 1e3d de23 093e ec45 013e
00000280: c355 2ebe e649 a2bc ee3e a3bd 1967 46be
00000290: a329 6f3d ce31 f43d cdd8 43be 3d1b 02bc
000002a0: c9bd 96bd 165b 20bd 48dd b5bd a993 52bd
000002b0: 9a42 713d fec6 c93d 3b16 babd 74da 3c3d
000002c0: 54ed 123e 87e7 ba3d afa6 09bd 4c63 d6bd
000002d0: b909 0f3e 23f5 f63d ee3d 21be 2ab8 973c
000002e0: a731 a03d bdf2 0ebe b389 243e c599 41be
000002f0: 0254 19be 2457 173e 13d6 1b3e 90b3 dd3d
00000300: ae2c de3d 1e1c 193b 8d9c ca3c 923d 26be
00000310: e136 3d3e 5e92 c7bd 59ea 46bd 3480 8bbd
00000320: ac7d 16be ead3 a2bd fddb f43d 6a67 483d
00000330: fca9 4dbd 06ca f93c e05f efbb 4a57 e13b
00000340: 07d1 c7bd 7beb a83d ea48 3f3d cf0f 20be
00000350: 18c7 df3c fb0a e13d d8e8 f7bc 4fc8 123d
00000360: 9688 18be d11b 793c 95c4 843c 5d09 8b3d
00000370: 7c60 1dbe 2847 0d3d 0188 e8bd 4b47 723d
00000380: 5675 39ba e640 1bbe 2ccb c7bb c3f6 abbd
00000390: 8739 e33d 9d03 bdbd 3155 f63c 9b83 e4bd
000003a0: 2141 96bd d50d 2e3d 271b 13be 6f60 ff3d
000003b0: 2913 213e 703c ce3d 28bc d8bd 88aa 903c
000003c0: 458d d23b 8364 853d 778e c03d f05a 01bd
000003d0: 9300 2fbc 252c e03d 6244 233e 73a2 5cbd
000003e0: ede8 01be e852 b53d 2d37 e2bd 5875 193e
000003f0: 7cac 143e 5f67 f93c d236 273c 824b fdbd

fc3.bias f4 [10]
0.03924012 -0.061067417 -0.07092868 -0.12653519 -0.101951376 0.08864109 -0.11585459 0.030288056
-0.022782866 0.07803017
00000000: 40ba 203d d421 7abd 0e43 91bd 7192 01be
00000010: e2cb d0bd 7689 b53d 2c45 edbd a81e f83c
00000020: 22a3 babc 48ce 9f3d
