models/trained/ConvNet2_2.pt (torch, 442402 bytes, 12 tensors)

conv1.weight f4 [8, 1, 3, 3]
00000000: cb63 8dbe 1167 a5be e2e6 42be 24a8 b9be
00000010: 7e9f b0be 0ae7 b7be a0cd b9bb be27 e9bd
00000020: cb5a 99be 8b50 29bd 34a9 a7be 796e 9abe
00000030: 469e eebd 190a a23e cfa5 a43e fceb 763e
00000040: 9633 873e 7980 be3e 3ca1 8ebe 381a 62be
00000050: bee4 e33e 090c 6cbb 1458 923d b1e6 f83e
00000060: 3dcf 963e 743d 98bd 8fdb d13d 056c d4bc
00000070: 78af d43e 803a 6c3e fd02 483b 9611 8c3e
00000080: 6876 ca3c 010a ef3c 8308 183e 2b7c c73e
00000090: 51e8 88be 175a b73d 6c9e 823e c73e c8be
000000a0: a697 d03d b6c3 723e c628 1abe 02cb b63c
000000b0: 1b88 c53e 8693 8d3d 8a92 943e 92e7 35be
000000c0: 5af2 ea3e 6771 f93e 5ef9 0f3e d1ba b43e
000000d0: 74d7 263e 706d 3c3e caa4 933e b7e8 593e
000000e0: 7ab4 cabc 1020 a93e 6bfb cfbe afb3 4dbe
000000f0: 6033 c5be 97b5 69be f028 af3e d4fd 663d
00000100: dd5c b43e ef19 7bbd d6b2 b03d 9deb bf3d
00000110: 9702 a23e 1533 3c3e 5b38 723e 8db2 293b
-0.27615198 -0.32305196 -0.19033387 -0.36261094 -0.34496683 -0.35918456 -0.0056702644 -0.11384533
-0.29952082 -0.041336577 -0.3274628 -0.3016241 -0.11651282 0.3164833 0.32157752 0.24113458
0.26406544 0.37207392 -0.27857387 -0.22080314 0.44510454 -0.0036017916 0.07145706 0.48613504
0.29454985 -0.07433596 0.102469556 -0.025930414 0.41540122 0.23069191 0.003051936 0.27357167
0.024714664 0.029179575 0.14846997 0.3896192 -0.26739743 0.0895273 0.2551149 -0.39110395
0.10185175 0.2370747 -0.15054616 0.022313599 0.38580403 0.069129035 0.2901805 -0.17764118
0.45888025 0.48719332 0.1405997 0.3529878 0.16293126 0.18401122 0.28836662 0.2128018
-0.024744261 0.33032274 -0.40621504 -0.20088075 -0.3851576 -0.22823177 0.3421092 0.056394413
0.352271 -0.06130403 0.0862786 0.093711115 0.316426 0.18378861 0.2365431 0.0025893778

conv1.bias f4 [8]
00000000: a253 38bd 0df5 9d3e 71c6 fa3d 9224 723d
00000010: d6fa f33d 3cea 6e3e d893 3c3e 84ca a83e
-0.045001633 0.3085102 0.12244881 0.059116907 0.119130775 0.23331541 0.18415773 0.32967007

conv2.weight f4 [32, 8, 3, 3]
00000000: d895 8e3b 7029 b7bc ba51 60bc 08e6 edbc
00000010: 07d7 e139 d4f9 093d 1eb8 5dbd f11c 8abc
00000020: e1c7 523d f133 613d 8cb2 e13d a66f 88bd
00000030: c354 623c 232e 21bd 3438 10be f43f 183d
00000040: d385 863c 5819 003e 11a9 e63a 634f fb3c
00000050: 222f ae3c 2d28 013e 2d37 22bd bc4b c8bd
00000060: c289 e83d 13da f0bd 9d72 bfbc 2655 c9bc
00000070: 4a98 df3c a4ce f6bb 69ab 163e 3c2c d13d
00000080: 67ed 09bd cbe3 1b3e e9cc 873c 4d3e ebbd
00000090: dfa0 49bd 5b2b 80bd 3ba9 b1bd 7a62 093e
000000a0: 6f36 87bb 3604 9bbd ecad 1f3e e159 4dbb
000000b0: 6193 d1bd a62f 283d 3356 d0bb 13a4 8c3d
000000c0: 6d3d 4b3d 4de9 b93d 5161 2ebd 8692 1f3d
000000d0: bcb8 f83d c415 86bc 9f7d 7b3d dbee a0bc
000000e0: 00e6 ad3c f71c 17bd f2f3 dbbd 9755 203d
000000f0: f8e1 0abe 4111 81bd 3bc3 ccbd 186d cfbc
00000100: 2518 923c ede3 37bc 2c96 193d af2c 8b3d
00000110: 5fb4 5dbd 3a53 b53d 7145 d3bb 6c17 37bd
00000120: 4625 363d 2cee 423d f653 bb3b c046 92bc
00000130: f931 993c b497 bc3a 62d9 5abd 17d3 63bd
00000140: 9526 d63b f6db 88bd 7867 ebbd becf d1bd
00000150: d054 fb3d 673d 2a3e 53e1 c83c 1a6a d93d
00000160: a38e 3d3c 516b ee3d fa5d 79bc 758b 97bd
00000170: 2fb5 66bd 8357 383d 5cb4 233d 7edb 4a3c
00000180: a48c a43d 03a5 38bd abc5 9ebc 74ad b4bd
00000190: dbd0 8dbb 033f 02bc ecf3 8c3b 8b18 cf3c
000001a0: ae55 56bd 6811 f13d 39c4 7e3d 806e b5bd
000001b0: 3463 d13c 3f4e f33c 3956 f03d a5fc 0abd
000001c0: 3823 3ebd 8e9a 74bc b776 b83c b4d0 b5bc
000001d0: 77fe 46bd 2768 0dbd 0eb6 33bd baa9 5a3d
000001e0: c48a 0c3e a5bf 46bd 8c8d 59bc f502 063e
000001f0: f1af 943d 2217 e7bc f050 83bb a39d c93c
00000200: 6758 823c 9d3e 17bd 1663 d63b 4ac3 e83d
00000210: 16fe e93b 0228 f13d 39d2 db3d 4547 993b
00000220: 4abd 7bbd b5ec 8bbc 7a37 af3d b3e0 c53c
00000230: e0f6 c0ba 2e83 053e f466 b63c 1b1e 89bb
00000240: 05c2 013d a870 903c 2d3b f93b 5b20 3d3c
00000250: f251 91bc c85f 8eba d749 4dbc 03f0 e4bb
00000260: ab4a 3439 3613 eb3c 6e1b d3bd 8e75 933d
00000270: f72d f73d b09d 943d 0ef9 3d3c 38c0 18bd
00000280: 2aa0 fcbd ee82 d9bd d09b 943d 4c66 28bd
00000290: ffc2 7c3d 2f5f 193c 8127 c93d 9077 e63d
000002a0: c1ca 6e3d e43d 9cbd 530d 54bd 785c 60bc
000002b0: 426e 163d 6441 9bbd 29bd 5a3d a0a7 313d
000002c0: 74d5 a93d a887 953d ee93 3e3d 133c 943d
000002d0: 1264 a1bd 5536 673d bae8 d8bc c7dd fc3c
000002e0: e468 d1bc f2d6 463d 25df cf3d af13 c6bd
000002f0: d9bf d33d 3878 85bd 3a08 f33c e566 54bd
00000300: 84fe 28bd fc08 053e 09a6 aebc 0459 e13d
00000310: 59d5 c7bc 2656 11bd d385 073d 7dd2 1a3d
00000320: ece3 6d3d e4f6 493c c50d a5bc a5cd cbbc
00000330: daa4 d8bc a750 4b3d 0f87 6abc a3d1 59bd
00000340: c1c8 fdbb 4cf4 81bd 447e 01bd 8c9f 643d
00000350: 059d a63d 4191 a93d 8bab cf3c 20e5 363d
00000360: 2ced 9a3c b1f8 6d3d 3784 9f3d d55c b73c
00000370: 77a0 8d3d d05a 553d e296 23bd 0397 88bd
00000380: e4d0 73bd 72f0 80bd 97e7 1fbc 67ff 0cbe
00000390: 9734 843d a255 103e 4850 bebc 39b6 9b3d
000003a0: dc51 1f3e d7b5 073e 8cb1 1c3d c7d5 febd
000003b0: 00ce 0abe 3f3a c4bc 4a86 c1bd 2db2 833d
000003c0: 8e16 09bc 6bda 033e b738 0f3e 5dd6 50bc
000003d0: 804f dbbd 6e71 c8bd 7ddd df3c 823e f83c
000003e0: 17aa 8fbd 66a3 273d dea1 8f3d 8cd7 6b3d
000003f0: d134 233d 936a 403a 321e b5bc 6f75 643d
0.004351359 -0.022358626 -0.01369136 -0.029040352 0.00043075552 0.03368552 -0.054130666 -0.016859503
0.05146015 0.054981176 0.11020383 -0.0666192 0.013814154 -0.03935064 -0.1408394 0.037170365
0.016421234 0.12509668 0.0017597993 0.030677503 0.021262709 0.12612982 -0.0396034 -0.0978007
0.113544 -0.11760344 -0.023370082 -0.024576735 0.027294297 -0.0075319577 0.14713825 0.10213515
-0.03367367 0.15223615 0.016577201 -0.11486492 -0.049225684 -0.062582694 -0.08674856 0.13416472
-0.004126362 -0.075691625 0.1559369 -0.003133409 -0.102331884 0.041061066 -0.006357932 0.06867232
0.049619127 0.09077702 -0.042573277 0.038958095 0.1214461 -0.0163678 0.0613991 -0.019645145
0.021227837 -0.036892857 -0.10739888 0.039144125 -0.13562763 -0.06302119 -0.09998175 -0.025320575
0.017833779 -0.011223775 0.03749673 0.06795632 -0.054127093 0.08853765 -0.006447487 -0.04470007
0.04446914 0.04759042 0.005716796 -0.017856002 0.018700587 0.0014388473 -0.05342997 -0.055621233
0.006535361 -0.06682579 -0.114943445 -0.10244702 0.12272036 0.16624986 0.024521505 0.106159404
0.011569652 0.11641563 -0.01522016 -0.07399646 -0.056325134 0.045005333 0.039966926 0.012381433
0.080346376 -0.045079242 -0.019381365 -0.08822146 -0.004327876 -0.0079495935 0.0043015387 0.025280258
-0.052327804 0.11770898 0.06219885 -0.08858967 0.025559999 0.029700397 0.11735196 -0.033932347
-0.046420306 -0.014929427 0.022517545 -0.022194244 -0.04858252 -0.034523156 -0.043874793 0.05338452
0.1372481 -0.04852261 -0.013278376 0.13087066 0.07260121 -0.028209273 -0.0040074512 0.0246113
0.015911294 -0.036924947 0.0065425737 0.113653734 0.007140885 0.11775209 0.10733456 0.0046776854
-0.061459817 -0.017080644 0.08555503 0.024154996 -0.0014722012 0.13038322 0.022265889 -0.004184497
0.031679172 0.017631844 0.0076059313 0.011543359 -0.01773927 -0.0010862285 -0.012529812 -0.0069866194
0.00017193954 0.028695684 -0.10307966 0.07200156 0.12069314 0.07256639 0.011595024 -0.03729269
-0.12335236 -0.10620676 0.072562814 -0.041113183 0.0617094 0.009361072 0.09821988 0.112532735
0.05829883 -0.07628992 -0.05177052 -0.013693921 0.036726244 -0.07580832 0.053403053 0.04337275
0.08292666 0.07301265 0.046527795 0.07238021 -0.07880415 0.0564483 -0.02647816 0.03086747
-0.025562711 0.04854483 0.10149983 -0.09671723 0.103393264 -0.065170705 0.029667009 -0.05185594
-0.04125835 0.12991709 -0.021319406 0.110033065 -0.024393724 -0.03548255 0.03308661 0.037798394
0.05807869 0.01232693 -0.020148167 -0.024878332 -0.026445795 0.049637463 -0.014314427 -0.05317844
-0.007744879 -0.06345424 -0.031614557 0.05581622 0.08135418 0.08279658 0.025350353 0.044652104
0.01891192 0.0580985 0.0778889 0.022383133 0.06915372 0.05208856 -0.039938815 -0.06669428
-0.059525385 -0.06295861 -0.009759805 -0.13769303 0.06455343 0.14095166 -0.02323164 0.076031156
0.1555857 0.1325296 0.03825526 -0.124431185 -0.13555145 -0.023953555 -0.09449442 0.06430469
-0.008367194 0.12876289 0.13986479 -0.012746421 -0.10708523 -0.0978726 0.027327294 0.030303244
-0.07014864 0.040927313 0.070132956 0.05757861 0.03984529 0.00073400995 -0.022109125 0.055776056

conv2.bias f4 [32]
00000000: e126 90bc 3717 383d 4632 40bd e22c 8f3d
00000010: 5418 743c 698e bebb 366f 27bd 973d a83c
00000020: 1356 f63d 9a3b f1bc 4027 4d3d 03a2 83bc
00000030: 3b2f f13c d1a7 413d 4bc6 08bd c081 a5bd
00000040: 097e 1dbd 1bbc 09bd e73f a0bb d741 593c
00000050: eda5 923d 6f16 37bc 5af6 a03d a989 36bd
00000060: 5979 94bd 9cc1 ab3d 62e2 1d3c 139f aa3d
00000070: 3742 013e 8540 e53d 0ebd bc3d 1e3b 64bd
-0.017596664 0.044944014 -0.046922944 0.069909826 0.014898378 -0.0058153165 -0.040877543 0.02053718
0.12028136 -0.029447366 0.05008626 -0.016068464 0.029441467 0.047279183 -0.033392232 -0.080813885
-0.038450275 -0.033626657 -0.0048904303 0.013260326 0.07160554 -0.011174782 0.07859488 -0.044564877
-0.07249708 0.083865374 0.009636493 0.08331122 0.12622915 0.11193947 0.09215747 -0.05572044

conv3.weight f4 [64, 32, 5, 5]
00000000: 4d19 2d3d cefe b93c b82b bebc 5cdd ddbc
00000010: aa30 933c 611a d53c b331 29bc e159 0abd
00000020: 65b3 083c 0cd2 bbba eb99 87bb 587b e7bc
00000030: eea6 ef3c 3781 903c 9389 57bb 7520 813c
00000040: 76c0 4abc fedd 24bb a282 db3c bb88 143c
00000050: bf43 923c 66d7 9cbc bab0 03bb 9999 2dbc
00000060: 168a 91bc 303a a03c 3278 fc3c dd21 adbc
00000070: 0681 0e3c ed5c 783c 3d71 de3b e4eb e0bb
00000080: 1cdd bb3c a10b f83c 6c1a f23c 8406 06bc
00000090: 4137 e0bc fadb 3cbc efc0 95bc d09d c4bc
000000a0: e221 8e3c c4a5 93bc 38c2 03bd 9b38 ffba
000000b0: ff90 08bb 60d1 8d3c 279b edbb ed19 2dbc
000000c0: 2804 53bc 27e7 f2bc 3ed7 b83c fc21 ccbb
000000d0: 7201 73bd 7e3d 0cbd 213f de3c d03f b63b
000000e0: 08b2 ce3b 5c41 e93c f9ed bf3c 267a eb3c
000000f0: 4d83 623c 9b79 353c 5165 c23c 844e 1dbc
00000100: ca8b a2bc 3617 173c c73e b1bb 5558 7fbc
00000110: 7e39 af3c f5d0 9dbc 9a5c 12bc 0aaf f8bb
00000120: 3266 a03b b2a0 e5bc ee7c 60bd bf8a 47ba
00000130: bab8 0cba d47f 373d 8f2a 063d 6ea8 643d
00000140: e877 7b3b 6cde 283d d835 5b3c 5041 20bc
00000150: 22d9 73bc c4d3 bbba 3dad 48bc cb81 3fbd
00000160: e0bc 7ebd b68e 25bd 972d debc 1a84 00bd
00000170: 2e1f dabc 859f f5bc b451 ddbc 2185 273c
00000180: dec8 91bc aee7 cbbc 7499 6f3c d2d8 573b
00000190: e8a2 40bc b9cb c9bc c87a 00bd cd65 083c
000001a0: b562 2abc 6a2a 06bd b109 8ebc 9299 9b3c
000001b0: 61c9 933c 7635 803c 81e5 e3bc b9ae 923c
000001c0: 0387 f73c 26b3 0b3c 2d3c e0ba bd6d 3b3a
000001d0: 6087 e83c 662f 1d3c 9a7a c0bc 3572 dfbb
000001e0: d23e 8abc 64af 3b3c 8e6d 9fbc 74a7 5abc
000001f0: 34fe a2bc b453 ddbc c8e2 95bc 9b1b 0dbd
00000200: 22d1 b0bc 640b dcbc f25e 293c 4ea1 c9bc
00000210: 10b5 23bc 5f98 093b c926 453c 5190 2a3b
00000220: 9f2a 96bc 8341 323b 2b54 433d 07f4 483d
00000230: feac df3b 2fad 473c 0e9e 193b 6ba9 e23b
00000240: f483 2bbb e937 9dbb 5ac7 a43c 6124 243d
00000250: 38ed 813c c707 0a3d 9e6c 12bd e19a 23bd
00000260: 14f2 07bd 35b1 efbc a7e8 3fbd cea0 e43b
00000270: 4c06 66bc 8e69 85bc c5a7 f7bc aa5f 83bc
00000280: 17fc e33b c8e0 823c 89fe 28ba 8ca9 613b
00000290: 42c3 283d f3fc 413b 0488 823c 794c e7bc
000002a0: 7c12 993a c380 c73a 9487 223c 9478 7fbb
000002b0: c237 dc3b c571 b23c 4df2 88ba d632 853c
000002c0: 15ba fb3b 18ce 593c bf0b 283d 3042 2d3d
000002d0: 17e7 823c 454e ff3c 8d8c e53c 1a1c 6e3c
000002e0: 6886 06bc 96db 71bc 26d6 423b 0e45 8cbc
000002f0: a557 4ebd 38a0 2cbd edd8 65bb 9351 99bc
00000300: c162 e7bc 9a76 d4bc 97da f1bc 4919 da3a
00000310: f811 cfbc e2fa 8ebc 55eb d5bc b5bc cfbc
00000320: a9a3 24bd c2da abbc 5973 863c f85c 72bc
00000330: 398a dfbc b355 8a3c 0035 07bb bf97 05bd
00000340: 65bb 70bc b04d 13bc 4fa2 7b3c 6fba 6dbb
00000350: 6c9a 6ebc a183 2abd a23c c33b fa9f 85bb
00000360: 80d8 2c3c 95c1 31bd 4921 cfbc 514a bfbc
00000370: 35bf 5b3b 0e9e 693c be4d 9a3c d513 0d3d
00000380: 581a 7fba 2da1 a83b 36d7 2dbd 4927 72bd
00000390: 1d63 243c 5cb5 df3b e51a a7bc 91fe 43bd
000003a0: bf52 0d3c 1107 113d c50c 113d 3314 1a3c
000003b0: d06f b3bb ee98 2e3d bddb 943c c16f 04bc
000003c0: 1b9e e8bb 00b1 543c e020 00bb 7d41 1abd
000003d0: 14dd 12bb fd96 fb39 afab 1f3c 51d1 0e3c
000003e0: f0aa 5fbc a43a 1dbd 4749 1fbc 1d0f 19bd
000003f0: 221f 623c d0d6 483d 5f92 0f3d 3307 97bc
0.042260457 0.022704508 -0.023214206 -0.027083091 0.01796754 0.026013555 -0.010326791 -0.03377712
0.008343552 -0.0014329567 -0.0041382215 -0.028257057 0.029254403 0.01763974 -0.0032888397 0.015762547
-0.012374988 -0.0025156732 0.026795689 0.009065802 0.01785457 -0.019145679 -0.002009435 -0.010595703
-0.01776604 0.019558996 0.030819032 -0.021134311 0.008697754 0.015158874 0.0067884014 -0.006864058
0.022932582 0.030278983 0.029553615 -0.008180264 -0.027370097 -0.011527056 -0.018280474 -0.024001032
0.017350141 -0.01802338 -0.032167643 -0.0019471826 -0.0020838378 0.017311752 -0.0072511616 -0.010565263
-0.012879409 -0.029651238 0.022563573 -0.006229637 -0.05932755 -0.03423833 0.027129712 0.0055618063
0.006307844 0.028473549 0.023428904 0.028744768 0.01382525 0.011076356 0.023729952 -0.009601239
-0.019842047 0.0092218425 -0.005409095 -0.015585025 0.02138972 -0.019264678 -0.008933211 -0.0075892257
0.004894995 -0.028030727 -0.054806642 -0.00076119223 -0.00053681026 0.04479964 0.03275543 0.05582469
0.003837103 0.041227743 0.013379537 -0.009781197 -0.014883311 -0.0014330079 -0.0122483345 -0.04675464
-0.062191844 -0.040419303 -0.027121348 -0.031375982 -0.026626196 -0.029983291 -0.027016498 0.0102246115
-0.017795976 -0.024890747 0.014623988 0.0032935631 -0.01175759 -0.024633275 -0.031367093 0.008325052
-0.01039951 -0.032755293 -0.017338606 0.018994126 0.01804036 0.015650492 -0.027819397 0.01790558
0.030215746 0.008526599 -0.0017107778 0.0007149836 0.028384864 0.00959382 -0.023495961 -0.0068190345
-0.016875658 0.011455391 -0.01946142 -0.013345588 -0.019896604 -0.027017452 -0.018296614 -0.034450155
-0.021584097 -0.0268609 0.010337578 -0.024613049 -0.009991899 0.0020995361 0.012033173 0.002602596
-0.01833087 0.0027199693 0.04768769 0.049060848 0.006826042 0.012187286 0.0023440155 0.006917169
-0.002617118 -0.004797925 0.02011459 0.040073756 0.015860185 0.033698823 -0.035748117 -0.039942626
-0.033189848 -0.029259304 -0.046852734 0.006977177 -0.014039587 -0.016285684 -0.030231366 -0.016036827
0.0069575417 0.015976325 -0.000644662 0.0034433333 0.041201837 0.0029600232 0.015933998 -0.028234707
0.0011678482 0.0015220869 0.00992002 -0.0038981782 0.006720514 0.021782765 -0.0010448188 0.016259592
0.007682095 0.0132937655 0.041026827 0.04229945 0.015979333 0.031165252 0.028021121 0.014533067
-0.008210756 -0.014761826 0.0029729693 -0.017122772 -0.050376553 -0.042144984 -0.0035071925 -0.018715655
-0.028245332 -0.02593546 -0.029523177 0.0016639616 -0.025277123 -0.017453615 -0.026113192 -0.025358537
-0.04019514 -0.020978335 0.016412424 -0.014792673 -0.02728759 0.016886568 -0.0020630956 -0.03261542
-0.014693116 -0.00899069 0.015358522 -0.0036274453 -0.014563184 -0.041629437 0.0059581557 -0.0040779086
0.0105496645 -0.043397505 -0.025284426 -0.023350867 0.0033530716 0.014258875 0.018835898 0.03444274
-0.00097314036 0.005146167 -0.04244157 -0.059119496 0.010033396 0.0068270396 -0.020398566 -0.047850195
0.008625685 0.03540713 0.03541257 0.00940423 -0.0054759756 0.042626314 0.018171186 -0.008083285
-0.0070989258 0.012981653 -0.0019550845 -0.03766011 -0.0022409605 0.00047986946 0.009745522 0.008716897
-0.0136515945 -0.038386002 -0.0097220605 -0.03736793 0.013801368 0.049032986 0.0350517 -0.01843605

conv3.bias f4 [64]
00000000: 17b3 0f3c 078e 803b 4899 f7bb a983 14bc
00000010: 49d1 7fbc c277 a73c 4b68 38bb fea0 973c
00000020: b590 98bb f217 94bb 1d03 243b 5543 2abc
00000030: ef43 19a5 87c9 31bc 36fa ab3b 085c 7ebc
00000040: a5f8 d93b 231d 5a3b 8956 a1bb aa03 533c
00000050: 21fb ba3c 4402 15bc e6cf a73c aeb2 4bbb
00000060: 513d 45bb c4ca 553c adbb 91bc a2fa a93b
00000070: 2cbe 74bc 910f 89bb 07f1 163c 8e2e 1cbc
00000080: 43fb fabb c9ca 40bc 9444 78bb 92b2 163c
00000090: 5cc0 2dba 8896 723c 8ef0 1cbc 97e8 a43b
000000a0: 971f bfbc 660b cbbb 025b 763c a509 15bc
000000b0: 0024 ad3c 7570 60bc 9534 19bb 9a09 3d3b
000000c0: 7605 ab3c 8066 cdbb 8d2d 96bc e097 043c
000000d0: dde2 783a 20df 11bc 1c6b 37bc d7e0 6f3b
000000e0: 6804 18bc b5bc fbb7 b13b 223c 7464 d6ba
000000f0: 793b 4a3b 7e97 e73b b6cd 4b3b 1995 c6bb
0.008770726 0.003923181 -0.0075561143 -0.009064593 -0.015613862 0.020442847 -0.0028138335 0.018509384
-0.0046559223 -0.004519456 0.002502627 -0.01039203 -1.3293651e-16 -0.0108512705 0.0052483333 -0.015524872
0.006651955 0.0033281527 -0.004923646 0.012879292 0.022824826 -0.009094778 0.020484876 -0.0031081843
-0.0030096362 0.013048831 -0.017789686 0.0051873485 -0.014937919 -0.004182764 0.009212739 -0.009532584
-0.0076593473 -0.011767098 -0.0037882673 0.009197848 -0.000662809 0.014806397 -0.009578837 0.0050326097
-0.023330493 -0.006196427 0.015036346 -0.009096538 0.02113533 -0.013698687 -0.0023377289 0.0028844834
0.020876627 -0.0062683225 -0.018332267 0.00809285 0.00094942545 -0.008903295 -0.01119497 0.003660252
-0.009278394 -3.0009405e-05 0.009901927 -0.0016356842 0.0030858202 0.00706762 0.0031097955 -0.0060602543

fc1.weight f4 [86, 576]
00000000: b328 8fb7 b35e c4b6 5a64 54b2 56a0 95b4
00000010: 86e3 5ab3 50e7 cdb1 f33d 48b3 f601 afb5
00000020: 512a 2ab1 e60b e325 9fdb 4faa dfe4 cc28
00000030: 7390 9ba3 f455 0ca5 00d4 c9a3 9b3b 5c23
00000040: 57e1 9023 d435 88a3 ad83 23a5 8ab1 9f26
00000050: 44b2 0fac cb49 a2a3 ae39 32af 443c aab3
00000060: d3f0 1f24 73cf b9b4 e0da 85b4 2f54 cbb4
00000070: 5116 82b4 4218 2ab4 5001 8ab0 7739 5bb5
00000080: 777d fdb6 aa9a 14b4 44ef ddb7 7356 0bb7
00000090: 9535 10a4 412f 02ad c02d bfb4 7b47 75a6
000000a0: 95c0 64b3 d66c e9b6 fffa d1a3 a2e2 e1b5
000000b0: bc9b e8b7 d3a7 5823 f892 d9a3 fe2a 06b1
000000c0: d772 69af 6581 89a2 9f72 47a3 ae57 21b1
000000d0: 20ef 3624 d95b e3a3 d05c 0aa2 144c 6922
000000e0: fcfb b3b1 2803 f8a0 751d d221 f739 29b4
000000f0: fa9c 21a1 549c af22 60d3 4cb6 f0da 1624
00000100: 477c 0f22 3b9f e424 b359 d423 d323 61a3
00000110: 11b8 4ba7 caa2 81a2 5792 1123 5229 3fb3
00000120: c6ca c424 3b95 a324 7bdd c723 a225 b024
00000130: da45 f5a6 a474 94b3 c08d 6f23 5d66 8bb4
00000140: 8152 96b6 23e8 eb25 d62a dbb0 6c38 acae
00000150: 7aaa a7af 023b e1b3 571d 83b1 df6a 20ac
00000160: 97e2 0db1 e5af 3327 c6b7 39ae 8c04 71b0
00000170: e204 23b0 6e77 fda6 9d42 e4b0 10fa 51b2
00000180: d374 85a3 b846 63ae 0eaf 87ae f844 d0a1
00000190: b41b 9ea1 4d50 7f22 b202 1ba3 c0d7 28a3
000001a0: 2380 10ab 480e fd22 7c2f dca3 5a4c 94b3
000001b0: a40e 0000 650f 0000 d40d 0000 ca0d 0000
000001c0: 4d0e 0080 e60d 0080 d00f 0080 8f0e 0080
000001d0: f10d 0080 b762 b0ae 855f c8b3 e627 63b3
000001e0: 7f4e 5024 e288 f0aa 6bb3 a8a6 5204 3029
000001f0: c63c e8b1 ba22 45ae 2c82 22ab 09a2 c9b4
00000200: 306f f2b4 3b8a 8aa4 f2f9 d827 0cee 2dab
00000210: 4cd2 89a4 b67b 4c25 eec4 8224 d927 40b3
00000220: f98c 93b6 4d5f 3fb3 51d4 4fae e7c9 91b0
00000230: ba8e 6a24 8a52 b424 ee5f 5e24 ce3e dc23
00000240: dd83 3eb7 cf11 9cb8 1f74 0bb7 feef d6b2
00000250: 3c7c 3ab4 9ce9 efae d97b 6aab b696 a4ab
00000260: 7a1a d1a3 27a6 d2a4 7115 01a5 236a 84b0
00000270: 1a5e 3123 3f53 8ca4 bb84 16b4 063a 29a4
00000280: 6e20 48b3 c6e0 15b5 7e45 87ae fa5b 04b0
00000290: 9d3d 4d28 0113 14ac 445e a2ad 8663 b4b5
000002a0: b0ab 18a4 c8bc ccb2 42f0 adb6 c680 1529
000002b0: 4e61 b5b2 09ab 05b5 2d97 6fb2 461a d0b4
000002c0: 4a30 95b3 60bf 21b1 ae6d 97b4 0cc2 02b3
000002d0: ae30 83b4 490f 8db5 15c3 a5a3 101a 21b2
000002e0: 382d 36b2 6589 c728 da55 a228 a69a 07ac
000002f0: ef89 87ae 1a6c 2ea2 62b2 1da4 3a62 2cac
00000300: 2601 9f22 4969 92ae 46b7 70af f49a 9d23
00000310: bf96 00b2 f2cd a7ae 1d25 fab4 568a dfb5
00000320: bded 91b4 492f 62ae 1fab d6b0 25f9 cc25
00000330: 2d16 c0a7 76e2 05ab 11e0 1429 1631 c023
00000340: f8b0 bca6 9d7f d8a9 f4f4 5e23 596e 1228
00000350: e685 3ea4 304e 6aa7 c5f3 c2ad 80bd f324
00000360: 0785 1fa4 2caf e8a3 a38d 10a4 ce02 36a4
00000370: 31c4 ca25 01d0 80a4 b83e 8c24 d0ad d628
00000380: d9aa d924 bb20 56b4 7be6 53b6 2e84 3ab3
00000390: 8610 7ab3 bdfb efb4 35bf 2aad 9cf0 11a7
000003a0: 314e 0ba5 dc6a 0ba4 2416 70ae 541d 23b7
000003b0: ed71 45b7 da72 4322 de5e 0b23 8ed2 dfa5
000003c0: b27c 5024 12af ac23 d51c 3724 90a9 23b3
000003d0: 6b9b 2ab5 1460 eab3 b41a 87b0 9f3c 8bb4
000003e0: 6ba8 83b2 78c4 a8b6 75fd 1cb7 8e2e d0b2
000003f0: 223f f423 d215 05b2 497d f1af 7692 35a7
-1.706588e-05 -5.8522796e-06 -1.2362841e-08 -2.7870072e-07 -5.096401e-08 -5.9925824e-09 -4.662247e-08 -1.3039087e-06
-2.476231e-09 3.9386286e-16 -1.846149e-13 2.2747807e-14 -1.686631e-17 -1.2172186e-16 -2.1882249e-17 1.1938846e-17
1.5707946e-17 -1.4767947e-17 -1.418261e-16 1.1080963e-15 -2.042048e-12 -1.7595328e-17 -1.6209498e-10 -7.927204e-08
3.4681615e-17 -3.4609874e-07 -2.4932433e-07 -3.7872948e-07 -2.4230624e-07 -1.5841309e-07 -1.0041195e-09 -8.166748e-07
-7.5545936e-06 -1.383984e-07 -2.645667e-05 -8.305174e-06 -3.1270408e-17 -7.400137e-12 -3.560981e-07 -8.5098324e-16
-5.326054e-08 -6.9566113e-06 -2.2766126e-17 -1.6829765e-06 -2.7729075e-05 1.1744922e-17 -2.3589431e-17 -1.9524005e-09
-2.1232026e-10 -3.7270926e-18 -1.08120836e-17 -2.3478424e-09 3.9667506e-17 -2.4650288e-17 -1.8751622e-18 3.1617664e-18
-5.238233e-09 -4.2014923e-19 1.4237951e-18 -1.5760439e-07 -5.475668e-19 4.7599364e-18 -3.0521405e-06 3.2711512e-17
1.9445906e-18 9.9148985e-17 2.3023075e-17 -1.22048605e-17 -2.8271692e-15 -3.513788e-18 7.8914544e-18 -4.4508234e-08
8.534496e-17 7.094279e-17 2.1669424e-17 7.6391585e-17 -1.7019223e-15 -6.913004e-08 1.2986233e-17 -2.5965247e-07
-4.479953e-06 4.0923304e-16 -1.5946522e-09 -7.831677e-11 -3.0498254e-10 -1.04881124e-07 -3.8159373e-09 -2.2796693e-12
-2.0647002e-09 2.4936593e-15 -4.2227354e-11 -8.768175e-10 -5.9305993e-10 -1.7587773e-15 -1.6608116e-09 -1.2222259e-08
-1.4469366e-17 -5.1676635e-11 -6.170185e-11 -1.4112884e-18 -1.0713829e-18 3.4601455e-18 -8.403138e-18 -9.152985e-18
-5.13369e-13 6.859091e-18 -2.3872558e-17 -6.905675e-08 5.252e-42 5.523e-42 4.96e-42 4.947e-42
-5.13e-42 -4.986e-42 -5.672e-42 -5.223e-42 -5.001e-42 -8.021089e-11 -9.330601e-08 -5.2888844e-08
4.51693e-17 -4.2727546e-13 -1.1705973e-15 3.9083598e-14 -6.758998e-09 -4.4823457e-11 -5.773461e-13 -3.7557064e-07
-4.5156912e-07 -6.008213e-17 6.0223035e-15 -6.1792303e-13 -5.9770536e-17 1.7736094e-16 5.6712125e-17 -4.4739725e-08
-4.3973528e-06 -4.455733e-08 -4.7254926e-11 -1.0607523e-09 5.0861556e-17 7.820238e-17 4.8219832e-17 2.3879047e-17
-1.1355584e-05 -7.441977e-05 -8.312082e-06 -2.5022015e-08 -1.7367796e-07 -1.0909959e-10 -8.3305373e-13 -1.1694732e-12
-2.2671039e-17 -9.1354456e-17 -1.1196231e-16 -9.63443e-10 9.615116e-18 -6.0856346e-17 -1.4018126e-07 -3.669518e-17
-4.6595623e-08 -5.5833914e-07 -6.1514335e-11 -4.8152027e-10 1.1393146e-14 -2.1042614e-12 -1.845913e-11 -1.344001e-06
-3.310517e-17 -2.3834573e-08 -5.1837715e-06 3.319634e-14 -2.1115422e-08 -4.979525e-07 -1.3946004e-08 -3.8762136e-07
-6.947137e-08 -2.3537368e-09 -2.8205744e-07 -3.044447e-08 -2.443607e-07 -1.0509767e-06 -1.7971956e-17 -9.377359e-09
-1.0604076e-08 2.2153024e-14 1.8022845e-14 -1.92705e-12 -6.163591e-11 -2.3638626e-18 -3.4195044e-17 -2.4497197e-12
4.3098252e-18 -6.658014e-11 -2.1892985e-10 1.70876e-17 -7.484856e-09 -7.630864e-11 -4.6593132e-07 -1.6655056e-06
-2.7181332e-07 -5.142845e-11 -1.5619185e-09 3.5557186e-16 -5.331475e-15 -4.756537e-13 3.3056948e-14 2.083747e-17
-1.3093088e-15 -9.614464e-14 1.2086515e-17 8.128556e-15 -4.13131e-17 -3.251641e-15 -2.2163502e-11 1.05705477e-16
-3.4590308e-17 -2.5227679e-17 -3.1344994e-17 -3.9467335e-17 3.517436e-16 -5.5863524e-17 6.082157e-17 2.3834152e-14
9.4398176e-17 -1.994221e-07 -3.1575607e-06 -4.3426716e-08 -5.822269e-08 -4.4700383e-07 -9.705838e-12 -2.0253227e-15
-1.208282e-16 -3.0231334e-17 -5.4589347e-11 -9.722386e-06 -1.176864e-05 2.648823e-18 7.555294e-18 -3.882701e-16
4.520843e-17 1.8722423e-17 3.970622e-17 -3.810561e-08 -6.35561e-07 -1.09139506e-07 -9.830132e-10 -2.5934875e-07
-1.5326995e-08 -5.029662e-06 -9.357337e-06 -2.4235558e-08 2.648127e-17 -7.74658e-09 -4.3926665e-10 -2.5198193e-15

fc1.bias f4 [86]
00000000: a6d3 02a4 5ebb 7c3b 24de b439 d30d 0000
00000010: 553d 383c 77eb 14ba bb5b 4688 0f0e 0000
00000020: 44f8 113c 0b1a 723b f8cc 123c 0e00 013b
00000030: 2dc7 1eb9 47b8 b6ba 8918 58bc 29ca b03a
00000040: f1d4 993b 548d 298c e8e2 063c 17b8 323c
00000050: a398 0580 39a7 2397 2bc4 523c f239 293c
00000060: 0519 db3b 922d 04ae d00d 0000 f225 893a
00000070: 5cfc 033c fe0d 0080 5555 9dbb fb82 e7a7
00000080: 0848 5d3b 7d89 223c 6e12 44bb 178e f93a
00000090: cc0d 0080 1138 68bb c632 31bb a618 2a3c
000000a0: ba0d 0000 fa15 7aba 0614 a8ad 6a97 8cbb
000000b0: 6e7a f13a 8799 233b 1fa1 1abc 09d5 df3b
000000c0: 7675 223a da82 0d3c 3e46 833b 3f2e f0ac
000000d0: 447f 813b 43fd f9a6 db0d 0000 a843 3700
000000e0: af6e 493c b30d 0000 7da6 823b d979 cabb
000000f0: f00d 0000 b62d 57bb b068 423c afe7 6c3b
00000100: 1b32 56af 2114 a5a6 7e20 953c 9223 3fbb
00000110: ab65 5b3c 9d28 0dbc dc37 f8b9 181f e43b
00000120: 323d 75bb 9106 a396 4d9a bb3b 9091 9bba
00000130: 43d3 1537 74ae 9b38 5307 0a3c 7fca 193b
00000140: 39c5 5bbc f285 b4ba a18f 32bb d1a1 0ebc
00000150: 702d 50bb 57b7 c03a
-2.836853e-17 0.0038563828 0.00034497783 4.959e-42 0.011245091 -0.0005680839 -5.9691286e-34 5.043e-42
0.008909289 0.0036941792 0.008960001 0.001968387 -0.00015142253 -0.0013940417 -0.013189443 0.0013487983
0.004694574 -1.3061816e-31 0.00823281 0.010908148 -5.13933e-40 -5.2879205e-25 0.012864153 0.010328757
0.006686332 -3.00538e-11 4.955e-42 0.0010463579 0.008055773 -5.02e-42 -0.004801432 -6.425739e-15
0.0033764858 0.009920475 -0.0029918212 0.0019039538 -4.95e-42 -0.0035433809 -0.002703832 0.010381853
4.924e-42 -0.0009540018 -1.9108281e-11 -0.004290511 0.0018423328 0.0024963336 -0.009437828 0.0068308157
0.00061973126 0.0086371545 0.0040061763 -6.8263446e-12 0.003951939 -1.7346493e-15 4.97e-42 5.075223e-39
0.012294455 4.914e-42 0.003987132 -0.006179076 5e-42 -0.0032833642 0.01186578 0.0036148836
-1.9480988e-10 -1.1454631e-15 0.01820397 -0.0029165489 0.013390939 -0.00861564 -0.00047343865 0.0069617145
-0.0037420508 -2.6338214e-25 0.005725181 -0.0011868943 8.93028e-06 7.4234704e-05 0.008424598 0.0023466644
-0.013413721 -0.0013772829 -0.0027246254 -0.008705572 -0.0031765364 0.0014703077

fc2.weight f4 [64, 86]
00000000: e5e9 d811 fc0f 539f 0988 a3b0 e80d 0000
00000010: 6d1a 44b0 a109 ef9e 4b0e 0000 f00d 0000
00000020: f9fd 1bb0 d844 4c1d db9c 689e 5c17 bda0
00000030: 86d7 7fae 043d e624 8207 0121 1bb8 599f
00000040: daba 8b9e 1b0e 0080 3d15 30ab edd0 1bad
00000050: eb0d 0080 ec0d 0080 d282 0ba4 632e afad
00000060: 19da abb1 f50d 0000 da0d 0080 1691 a09f
00000070: 7add e4a3 4f0f 0080 e1f9 6ab1 6fa0 ae1b
00000080: 0661 d821 8a70 dab2 a087 9f9d 3659 d5aa
00000090: 120a 0000 b69f e7ae 5227 5b25 4c2a e521
000000a0: ee0d 0000 9cd6 4d26 6d0e 0000 7a1e 4faf
000000b0: 5937 b3ae 4094 4025 ce5c 37a0 2e88 8bb2
000000c0: 126b bf21 a410 83af ae2f 6420 7611 0080
000000d0: fadc 0f1f e30d 0000 040e 0080 da0d 0000
000000e0: f1f3 2026 2e0f 0000 4ba8 3a9d 0cd4 2622
000000f0: bd0d 0000 3132 9e9e 009f 9cb0 be04 31a3
00000100: d00d 0080 d70d 0080 51cf e89e c5d6 31a0
00000110: 58fe a3a9 e5a7 8e9f 110f d725 7821 01b7
00000120: 2ca0 981e ae0d 0000 4a85 68a9 c8c9 35a4
00000130: d00d 0000 2e39 9326 ae16 ae9e 4c84 d71d
00000140: 68e6 4caf 0260 4c1f 7820 6f26 88a9 49a7
00000150: 4fca 8d9d ce7b 0420 ee2c e6ba 22e9 b23d
00000160: 1c33 c03d 9cca 2638 1dd0 8a3d 5a53 063e
00000170: 3df4 6d3c 4092 2fb9 dfcf bfbc d008 dabc
00000180: 9c55 e7bc e383 efbc 7d9c 423c d8e3 18bd
00000190: 05ee 39bd ff9b 3f3e 72ce ccbd 48b9 5c3b
000001a0: 2e35 353d e276 87bc 8d77 aab9 e71b 85bb
000001b0: cf20 463c fd66 a33c fc56 a3bc ac92 953b
000001c0: 5354 743a 664c cc3c ca2a f3bc d90d 0080
000001d0: 6dab c23c 6ea6 b9bb 95d6 10bd a15a 3f3d
000001e0: c21e b13d 4d11 37ba 133a b219 c34a ca3d
000001f0: 7c33 043e a286 fc3d c1f0 19bb 301c e9bc
00000200: 3165 4faf 3013 31bd 278f 9d3d fb9c fb3a
00000210: e59b 97bc 5341 81bc 8e0a 643c a9fc 76bd
00000220: 736d 92bd 0215 1793 6868 0d3d 68aa fab9
00000230: 62c8 76b8 4745 e2b8 b067 5ebd 5ba7 e4b8
00000240: 31f0 b6bd e940 103d 0fe0 323a 013f 62bd
00000250: b9b2 123d 18c6 a7bd b873 9f31 f1e1 57b9
00000260: 44a2 883a 2789 bbbd e98a 6fbd 7565 c43d
00000270: 5ccf b0bc 6bc5 053d 68d9 78bd 29ba 2139
00000280: bbb8 923d 7587 183e d2ae bab9 7c16 983d
00000290: 54d8 acbd 2456 54bc 7037 00bd de5c a83d
000002a0: 1ca2 c3bd 966d 523d 04ed 0b3e d3e8 073c
000002b0: 7189 8dbb 36ec 843c 8b02 92bd 705f b8b8
000002c0: 21ba d33d 5408 85bd 8548 8ebb 05dc 75b3
000002d0: 0c43 153d 739d 5abc e683 533d d1c1 663b
000002e0: 753c e1bc 18b3 babc 4de3 483d ca4f 25bd
000002f0: f504 cabc 021e 4db8 2010 b63d 8686 e5bc
00000300: d5d3 33ba d7e8 a33a 7e9d f13c e687 5dbc
00000310: b227 8d3d b16e 1d3c 6419 9ab9 5244 67bd
00000320: 4167 7bbd 5d10 0080 e984 25bd 2e66 ee3b
00000330: 3036 e1bb 566a 123d e401 3b3c e959 99bc
00000340: 416b 1d00 fd61 c03d f601 163c f64d acbd
00000350: 5baa d6b8 1b0d a6bd 94c0 3334 61e6 b33d
00000360: 7848 c4bd c1b7 063e 9210 df3c 17bb 98bd
00000370: cf9f f63d 47ba 74bd b44f 4ebd 2f92 0d9e
00000380: bc74 ab3d 5c41 543b 37d6 5a1f d4e4 c4b8
00000390: 9dbc a1bd 1c1a 85b9 9348 c93d 23ce 3cbd
000003a0: bc58 a7b8 c2b5 523d ff9b c2bb 3b73 cbbc
000003b0: ada0 dc31 108b 7f32 dab1 553d 03ce 813d
000003c0: 6d57 fa3b a6fa 03be 77b0 7d3c f04c e13d
000003d0: a6fb 893c 4a32 f8b9 11c5 803d 3546 2f3c
000003e0: ea72 8438 8275 03bc 6b2e 01be 14c3 4bbd
000003f0: fdc4 383c ad04 463d 0b2e 1bbd 7390 cf3d
3.422294e-28 -4.469421e-20 -1.1898474e-09 4.989e-42 -7.134194e-10 -2.5309092e-20 5.127e-42 5e-42
-5.674959e-10 2.7034767e-21 -1.2314415e-20 -3.2033303e-19 -5.817171e-11 9.9849964e-17 4.3716837e-19 -4.6103826e-20
-1.4794477e-20 -5.06e-42 -6.2557235e-13 -8.857121e-12 -4.993e-42 -4.994e-42 -3.025163e-17 -1.9915796e-11
-5.00155e-09 5.007e-42 -4.969e-42 -6.800266e-20 -2.4813609e-17 -5.492e-42 -3.4193521e-09 2.8889563e-22
1.4662411e-18 -2.5429717e-08 -4.2227183e-21 -3.7898303e-13 3.613e-42 -1.0533034e-10 1.9008544e-16 1.552884e-18
4.997e-42 7.141451e-16 5.175e-42 -1.8837368e-10 -8.149809e-11 1.6703574e-16 -1.553141e-19 -1.6243657e-08
1.2971005e-18 -2.3840585e-10 1.9328127e-19 -6.264e-42 3.0464215e-20 4.982e-42 -5.028e-42 4.969e-42
5.5841753e-16 5.445e-42 -2.47039e-21 2.2609452e-18 4.928e-42 -1.674966e-20 -1.1395684e-09 -9.5961934e-18
-4.955e-42 -4.965e-42 -2.46497e-20 -1.5063544e-19 -7.282776e-14 -6.04171e-20 3.7306764e-16 -7.696792e-06
1.6159872e-20 4.907e-42 -5.1629958e-14 -3.9419034e-17 4.955e-42 1.0215673e-15 -1.8432347e-20 5.7046818e-21
-1.8635549e-10 4.3278096e-20 8.2963786e-16 -2.7986257e-15 -3.753157e-21 1.1221798e-19 -0.0017560998 0.08735873
0.09384748 3.976618e-05 0.06777976 0.13117734 0.014523563 -0.00016743783 -0.02341455 -0.02661553
-0.028239064 -0.029237693 0.01187813 -0.037326664 -0.04539301 0.18711852 -0.10000314 0.0033679772
0.04424017 -0.01653618 -0.00032514 -0.004062164 0.012092783 0.01994657 -0.019938938 0.004564604
0.00093204266 0.024938773 -0.02968349 -4.968e-42 0.023763383 -0.005665592 -0.03536089 0.04671729
0.08648445 -0.0006983474 1.8428225e-23 0.09877541 0.12910265 0.12330367 -0.0023489448 -0.028455824
-1.8862491e-10 -0.04323119 0.0769332 0.0019196564 -0.018506953 -0.01577822 0.013918532 -0.06029955
-0.07149782 -1.9069237e-27 0.034523398 -0.00047810678 -5.883759e-05 -0.00010789424 -0.054298103 -0.000109030596
-0.089325316 0.035218153 0.00068235485 -0.055235866 0.035814974 -0.0819208 4.6406647e-09 -0.00020588168
0.0010424335 -0.09157019 -0.058482084 0.09589664 -0.021583252 0.032658976 -0.06075421 0.00015423507
0.07164141 0.14895423 -0.00035606936 0.074261636 -0.08439699 -0.012959991 -0.03130287 0.08220838
-0.09552404 0.05137404 0.13664633 0.008295256 -0.004319363 0.016225915 -0.07129391 -8.79158e-05
0.10338236 -0.06495729 -0.004342141 -5.7243614e-08 0.036440894 -0.013343203 0.05163946 0.0035210738
-0.027494648 -0.022790477 0.049044896 -0.040359296 -0.024660567 -4.8903756e-05 0.08889794 -0.028018247
-0.00068598735 0.0012505305 0.029494043 -0.01352117 0.06892337 0.00960891 -0.00029392086 -0.05646164
-0.061377767 -5.87e-42 -0.040409956 0.0072753644 -0.0068729147 0.03574594 0.011414025 -0.01871963
2.701705e-39 0.0939369 0.009155741 -0.08413307 -0.000102360464 -0.081079684 1.6740734e-07 0.08784176
-0.09584135 0.13156034 0.027229581 -0.074575596 0.120422 -0.05974796 -0.05036898 -7.494708e-21
0.08371875 0.003238759 4.634049e-20 -9.388631e-05 -0.07897303 -0.0002538719 0.098282956 -0.046095025
-7.9797086e-05 0.05144287 -0.0059390063 -0.02483522 6.4211094e-09 1.4874573e-08 0.052171566 0.06338122
0.0076398165 -0.12888584 0.015483967 0.11001003 0.016843628 -0.00047339714 0.062875874 0.010697891
6.315655e-05 -0.0080236215 -0.12615363 -0.049746588 0.011277434 0.048344303 -0.037885707 0.101349734

fc2.bias f4 [64]
00000000: b22f e59d 0daa d63c daef 1f3d 76bc e13c
00000010: c738 0fbd 2899 5e3c d089 333d 979d e43c
00000020: c4c4 520d 25b2 263d 4994 a03c 5db4 3cbb
00000030: bb75 aeba c414 4111 ec6d a19e 521e 0f3b
00000040: 2db0 0080 673b c53b 775a 183d e187 30bc
00000050: 80f7 103d 4804 973c a134 c4b9 2b54 59bc
00000060: 2db3 4c3c 7856 113d 88c4 84bc 4b9f 83ac
00000070: 1e6a 922d 199a 7dbb 2549 aa3c a8a1 1a3c
00000080: 2b43 79bb faf6 5abc 1296 eb3c 681b cebc
00000090: c00d 0080 847b cc3c dd8b ebbc 6ef1 9d3c
000000a0: c13d 3f38 3fb9 593b e68e 3e3d c9a1 2e3c
000000b0: 6885 f93c 931b 373d c642 fe3c 00ca 42bc
000000c0: b9ba 2bbb 97a9 fa3c 5beb a43c 6c02 bc3b
000000d0: d286 899b a625 db3c 6850 be3c 65b8 29bc
000000e0: dc43 0b3d 2626 4c3d c2c4 a3bc 253d 09bd
000000f0: 4111 243c 6f01 b1bc 7f95 96bb 53bf 553d
-6.066511e-21 0.026204133 0.0390471 0.027555685 -0.034966256 0.01358632 0.0438326 0.027907176
6.4948094e-31 0.040697236 0.019601958 -0.0028794028 -0.0013310233 1.5231414e-28 -1.7092e-20 0.002183814
-6.32e-41 0.006019044 0.03719565 -0.010774584 0.035392284 0.018434659 -0.00037423245 -0.013264696
0.012493891 0.035482854 -0.016206995 -3.740929e-12 1.6645404e-11 -0.0038696586 0.020786831 0.009437956
-0.003803442 -0.013364548 0.028758083 -0.025159553 -4.933e-42 0.02496124 -0.028753215 0.019280162
4.559546e-05 0.0033221988 0.046522997 0.01065869 0.03045912 0.04470403 0.0310377 -0.011888981
-0.0026203825 0.030598445 0.020131757 0.0057375934 -2.2751874e-22 0.02675135 0.0232317 -0.0103589045
0.034000263 0.04984107 -0.019991282 -0.033505578 0.010013879 -0.021607129 -0.004595458 0.052184414

fc3.weight f4 [10, 64]
00000000: 2480 aeb9 9835 de3d c674 afbd ec95 9abc
00000010: 0d66 323d 9f93 23bc 42a5 ff3d 9c74 833c
00000020: c797 c53a 7a95 0f3e b3df 54bd d8b4 b5bd
00000030: 39ad f43b 8952 013a eda4 04b9 fb8c 86bd
00000040: f00d 0080 8449 90bd 2c60 dd3c 53d7 be3d
00000050: 7f76 a1bd 860b 0fbe d3af 72bd c549 373d
00000060: a33d c43d bd00 f3bd f15c 86bd b1b9 9807
00000070: aca3 8138 0222 37be b9d6 973d 00da 44be
00000080: 7a8e 23bd ed76 a63c c9ba b23d da5d b23d
00000090: 16f1 a2ba b106 2f3d 9357 04be 98db cebc
000000a0: 9a78 a7bd 631a c33d 9f92 99bd 18f9 04be
000000b0: 318b 86bd 0829 a03d 1799 793d 9864 81bd
000000c0: 7774 b43d b438 b53c ccee b6bd aa96 973d
000000d0: 0bad 5cb9 a125 f23d 6e26 723d 211d 5cbc
000000e0: 7cf2 92bb e218 1a3e 74c9 f3bd c726 a83d
000000f0: 51bb 953d 3424 23be 3eb2 8abd 67d7 203e
00000100: 1e5f adb0 fefb 5c3d 47a8 f03d c053 2bbe
00000110: 3fec 20be bffc dd3d 8f70 b03d 8c97 043e
00000120: 6360 bcaa 6266 a0bd c0ef df3d 895b 053e
00000130: d484 5db6 a23e a7b9 4b6f 7eba 02c1 343e
00000140: cd10 0180 2280 db3c ad8f b4bd 0648 c53c
00000150: 8c14 323d c251 83bd 3f28 2ebe f058 08be
00000160: 2c21 2a3b a2dd a1bd 94df 51bd 47ac 03af
00000170: f5b2 c63a efad f93d ac0c 25bd 6a2b 21bc
00000180: 1836 33be 870e 78bd 1022 0ebc 1d65 d9bd
00000190: fc4a f3ba 5b3a dbbd e5b5 53bd 45e8 40bd
000001a0: 5147 19bd b141 19bd ae02 013d 918c 233d
000001b0: 817c 233e 4bfa e03d 885b d3bd 2e1a 6bbd
000001c0: 05c0 ccbd 4f98 eb3d aee0 fc3d 50ed 4a3e
000001d0: a18a 503b 1ecb 00be d1b8 bebd e4a0 f9bc
000001e0: 2dd5 44bd ebd3 adbd 166a cbbc e57f 90bd
000001f0: 0684 bb3d 1cbb 5f3d ad61 9fbd 0388 1fbe
00000200: b5c9 9db5 16ba 203e 46af 543d a661 f4bd
00000210: fd73 c73d 64c1 233d 1ae4 96bd c28f 3ebd
00000220: e078 4e38 3a39 1dbe cb9c ccbd 5f66 0bbe
00000230: 5b25 bc38 2283 27ba ea4e 233a a6fa 393c
00000240: e00d 0000 750e 13be f266 06be 4397 0f3e
00000250: 40a7 11ba 1c6b d0bc aeaf 92bd 2137 183e
00000260: 7ca7 2cbe bd9e 0ebe dc9e 003e e9dc b836
00000270: c074 e839 570e 053d f5c6 42be 8acf 2ebe
00000280: c487 263d 87cc 32bc 1dcf a2bd 29f3 da3d
00000290: 454b 9d3a d40e e8bd b6e8 99bd 060a 2c3e
000002a0: a6db b8bd e88e 14be bfd2 873d 00c4 4f3d
000002b0: 0963 24bc 9fa4 003d 402e 9f3d 4b75 913d
000002c0: 4f0a f1bc d516 0e3e 915b c93d db01 16bc
000002d0: 89f1 ffbb 59db d93c 8f32 35be 1514 eebd
000002e0: 61ac 913d 9a40 063e eba8 bd3d 3f1a 49bd
000002f0: ebaf 083e 9c7e 003d b3fa 6f3c 917b 973d
00000300: e138 07ba 62cb 2dbe cb41 0e3e e997 aebd
00000310: fbb8 d13d 4722 8c3d 4baf 00be 3bdc bebd
00000320: e86d 02bb c9b5 9b3c 0272 f2bd e658 60bc
00000330: e81f 1d3a 3c2d 1e3b 8230 b5ba 6487 d83a
00000340: 933e cf0e 8e9d 253e deab 6a3d 5ab2 db3b
00000350: 739e 46be 050c 973d f8ee 013d 5c25 553d
00000360: 586f c33d 7185 f33d dcc3 083e b02e dbb5
00000370: e7ed ea3a 6f4b aa3d 5903 5b3c f2ee e33d
00000380: 8a8a 90bd 7e49 9b3d f391 34be ccb5 853d
00000390: 2bea 2dbb 120f 68bd 764d 8a3b fa4a 2fbe
000003a0: 009d 85bd 8507 b63d 2be2 1f3e 0822 d1bd
000003b0: 01e7 0e3e 6e0c 8cbd 2488 adbc 7667 0f3d
000003c0: ffae a3bd 67ae a43d b5e6 9cbd e322 58bd
000003d0: 2e51 1dbb a591 d03d 1f14 b8bc 3a9c 37bd
000003e0: 5bfc 8d3d 1bf7 06be b195 413d cae4 a5bc
000003f0: da46 71bd b84b 0abe e8ab c03d eed1 0cbe
-0.00033283338 0.10850066 -0.08567195 -0.018870316 0.043554354 -0.009983926 0.12482692 0.016046815
0.001507514 0.14021865 -0.05197115 -0.08872384 0.007466939 0.0004933258 -0.0001264994 -0.06569859
-5e-42 -0.07045272 0.027023397 0.093184136 -0.078839295 -0.1396924 -0.05924971 0.044748086
0.09582069 -0.11865375 -0.06560696 2.2979558e-34 6.1816856e-05 -0.17884067 0.07414002 -0.19223785
-0.039930798 0.02032038 0.08727033 0.08709307 -0.0012431468 0.04273099 -0.12924032 -0.025251195
-0.081773 0.09526517 -0.07498669 -0.12985647 -0.065695174 0.07820326 0.060937013 -0.06318015
0.088112764 0.022121765 -0.08932266 0.07401784 -0.00021045298 0.118235834 0.05911868 -0.013434679
-0.004484473 0.15048555 -0.119036585 0.08210521 0.073111184 -0.15931779 -0.06772278 0.1570717
-1.2614441e-09 0.053951256 0.11750846 -0.16731167 -0.1571512 0.10839223 0.08615219 0.12948436
-3.346239e-13 -0.07832028 0.109344006 0.13023199 -3.3008882e-06 -0.00031899387 -0.0009705915 0.17651752
-9.7862e-41 0.026794497 -0.088164665 0.024082195 0.043476626 -0.064120784 -0.1700754 -0.13315177
0.0025959713 -0.07903601 -0.05123861 -1.1975586e-10 0.0015159535 0.12191378 -0.040295288 -0.009837011
-0.17501104 -0.06056073 -0.008675113 -0.10614989 -0.0018561776 -0.1070449 -0.05168714 -0.04709651
-0.03742153 -0.037416164 0.031496696 0.039928976 0.15965463 0.109852396 -0.103201926 -0.057398014
-0.09997562 0.1150366 0.12347542 0.1981709 0.003182091 -0.12577483 -0.09312595 -0.030472226
-0.048054863 -0.08487686 -0.02483086 -0.07055644 0.09156041 0.0546218 -0.07782302 -0.15579228
-1.1756116e-06 0.15695986 0.051924966 -0.119326875 0.0973892 0.039979354 -0.07367726 -0.046523817
4.92268e-05 -0.15353861 -0.099908434 -0.1361327 8.9714966e-05 -0.0006390085 0.00062297157 0.011351263
4.977e-42 -0.14360984 -0.13125208 0.14022546 -0.0005556233 -0.025441699 -0.071624145 0.1486478
-0.16860765 -0.13927741 0.125606 5.5093446e-06 0.00044337474 0.03248438 -0.19021209 -0.17071357
0.04065682 -0.010913021 -0.0794966 0.1069091 0.0012000581 -0.11330953 -0.07515089 0.16800699
-0.090262696 -0.1450764 0.066319935 0.05072403 -0.010033377 0.031406995 0.07772493 0.0710245
-0.02942386 0.13875897 0.09831918 -0.009155716 -0.0078107757 0.02659385 -0.17695068 -0.11624924
0.07112957 0.13110581 0.09260734 -0.049097296 0.13348357 0.031370744 0.014647174 0.07396615
-0.0005158317 -0.16972116 0.13892286 -0.08525068 0.1024036 0.068424754 -0.12566869 -0.093193494
-0.0019901935 0.01900758 -0.118381515 -0.01369307 0.0005993829 0.0024135849 -0.001382366 0.0016519842
5.1089697e-30 0.16173384 0.05729281 0.006704611 -0.19396381 0.073753394 0.03172204 0.05203758
0.095427215 0.11890686 0.13355964 -1.6330359e-06 0.0017923684 0.08315169 0.013367497 0.111295596
-0.07057674 0.07582377 -0.176338 0.065288156 -0.002653728 -0.056654997 0.00422066 -0.17118445
-0.06524086 0.08888153 0.1561362 -0.10211569 0.13955308 -0.06838308 -0.021183081 0.035010777
-0.07992362 0.08041077 -0.076611914 -0.052767646 -0.0024004686 0.101840295 -0.022470532 -0.044826724
0.069328986 -0.13180201 0.047261897 -0.020250697 -0.05890546 -0.13505447 0.094077885 -0.13751957

fc3.bias f4 [10]
00000000: 1c6d 07bd 1d3e 2abd bfbb 77bc 216b f1bd
00000010: 0793 23bc 7099 c73c a548 b6bd 0cc7 c0bd
00000020: 1692 bb3c 3cad 153d
-0.03306304 -0.041563142 -0.015120446 -0.11788011 -0.0099837845 0.024365157 -0.089005746 -0.09412965
0.022896808 0.036542162
