models/trained/ConvNet4_1.pt (torch, 441826 bytes, 14 tensors)

conv1.weight f4 [16, 1, 7, 7]
-0.20308737 -0.05344073 0.054175276 -0.07933501 -0.08450518 0.09382438 0.047736324 -0.08601574
-0.11027007 -0.16133937 -0.07802374 -0.06965008 -0.10962013 0.12595384 0.016503472 0.020306928
-0.11347684 -0.35184312 -0.28050303 -0.16017012 -0.03652144 0.21088938 0.12709956 -0.15359232
-0.10642801 0.029586947 -0.03355863 0.06292532 0.047197703 -0.047167446 0.04788626 0.027400576
0.11657787 0.18554677 0.12002945 0.077349 0.04419378 0.049302075 0.11161919 0.18410033
0.1433451 0.12422916 0.018718714 -0.00011334842 0.04990416 0.17209247 0.21278885 -0.04865146
-0.09336769 0.01761888 0.11851498 -0.117669806 -0.024718385 0.080451176 0.17191423 0.024784178
0.15326275 0.010178504 0.109249376 -0.04499825 0.01203422 -0.060919236 0.04310671 0.04342524
0.090078495 0.13877976 0.16580322 0.09317228 0.19009435 0.14759584 -0.07565398 -0.11852233
-0.036740173 -0.10177617 0.13430949 -0.07776425 0.02485506 0.040883273 0.08040032 0.033708494
-0.059829976 -0.05637142 -0.013109479 -0.03488593 0.09864247 -0.078813806 -0.05512287 -0.11853076
0.0062885103 -0.049311016 -0.047041062 0.29411706 0.081470504 0.006293397 0.04296484 0.11822764
0.036468007 0.1851483 -0.008110675 0.094379805 -0.053643 -0.013321215 -0.1100099 0.06847171
0.11525166 0.16369402 0.18109648 0.0866582 -0.021252953 -0.06109961 0.10391673 -0.081939176
0.17870681 0.011284216 -0.0038010394 -0.17154077 -0.16085932 0.14772004 0.109068796 -0.05844227
-0.034934178 -0.079161055 0.104284555 0.028279988 0.16978627 0.26029515 0.09869083 0.10519615
-0.03692379 0.03506089 0.13181433 0.21680142 0.059890073 0.16130592 0.05193256 -0.07284324
0.109794065 -0.01025332 0.18214585 0.22570689 -0.0038037186 0.15337518 -0.16120517 -0.04145655
-0.0049305544 -0.06914242 0.111863114 -0.16414528 0.034280594 -0.10175013 -0.09953908 -0.034507293
-0.088185705 0.1023287 -0.016647281 0.016050946 -0.025934802 0.12290091 0.018720679 0.07823487
-0.16502358 0.034427047 0.1394924 -0.04966016 -0.061347865 0.081306495 -0.16685218 -0.09225258
0.13739552 -0.07730761 0.103730306 0.08174253 -0.14203885 -0.07844775 -0.14141886 0.005207628
-0.03143855 -0.053166125 0.16428232 0.020440264 -0.096628144 0.021855729 0.09506162 0.0661058
0.14889081 0.01079073 0.0549572 -0.07719288 0.0059033395 -0.0381455 0.18619713 0.09660762
0.08846481 -0.05308385 0.107835665 0.19218531 -0.090084024 0.048975322 0.07481091 -0.06628455
-0.013107565 0.14711678 0.14102788 -0.083578825 0.16623051 0.13411948 -0.093190774 -0.07886808
-0.121235885 0.11026438 0.17620355 0.087194115 -0.014770366 -0.1133074 -0.0026178265 0.08911431
0.07651807 0.17053208 -0.026302276 0.049140554 -0.14947568 -0.051604353 -0.15290157 0.007854542
0.037164446 0.13823184 -0.035841614 -0.16087157 -0.16784063 0.00785875 0.11451059 0.07285549
0.04664644 -0.19619729 -0.07424634 -0.19151524 -0.02853575 0.17527612 0.14241153 0.093531124
-0.0400837 -0.17611474 -0.119496375 0.09204432 -0.0070581865 0.21057253 -0.0013020281 0.053144813
0.005175417 -0.13918234 -0.0003248272 -0.053599413 0.16671018 0.21683449 0.071241006 0.003692264
00000000: 23f6 4fbe abe4 5abd e5e6 5d3d 657a a2bd
00000010: 0d11 adbd ff26 c03d 2a87 433d 0529 b0bd
00000020: 46d5 e1bd 2636 25be e9ca 9fbd b3a4 8ebd
00000030: 8580 e0bd 0bfa 003e 4a32 873c b75a a63c
00000040: 8c66 e8bd c824 b4be 189e 8fbe a303 24be
00000050: 8197 15bd 63f3 573e 6326 023e 4e47 1dbe
00000060: eef6 d9bd 5360 f23c c674 09bd fdde 803d
00000070: 6152 413d a732 41bd 6224 443d 2c77 e03c
00000080: 61c0 ee3d f9ff 3d3e 00d2 f53d 2769 9e3d
00000090: 8904 353d f9f0 493d 9a98 e43d cc84 3c3e
000000a0: 0fc9 123e dc6b fe3d fd57 993c 78b5 edb8
000000b0: 4e68 4c3d 0239 303e 52e5 593e c146 47bd
000000c0: 8f37 bfbd 7855 903c fbb7 f23d defc f0bd
000000d0: 367e cabc 96c3 a43d 490a 303e 3008 cb3c
000000e0: e9f0 1c3e bdc3 263c 23be df3d 1650 38bd
000000f0: 2d2b 453c 7386 79bd a990 303d aade 313d
00000100: 137b b83d 481c 0e3e 52c8 293e 1cd1 be3d
00000110: 18a8 423e 5d23 173e 79f0 9abd d6bb f2bd
00000120: dd7c 16bd 0670 d0bd 6d88 093e dd42 9fbd
00000130: d79c cb3c 3875 273d eca8 a43d eb11 0a3d
00000140: 4710 75bd b8e5 66bd 24c9 56bc 8de4 0ebd
00000150: 1005 ca3d 2269 a1bd 85c8 61bd 41c0 f2bd
00000160: d90f ce3b 59fa 49bd 21ae 40bd 8396 963e
00000170: 02da a63d d738 ce3b e6fb 2f3d 5521 f23d
00000180: 7a5f 153d 8497 3d3e a3e2 04bc 334a c13d
00000190: c3b8 5bbd 3a41 5abc df4c e1bd e53a 8c3d
000001a0: 1009 ec3d 689f 273e 5b71 393e db79 b13d
000001b0: ac1a aebc 9643 7abd 4bd2 d43d bacf a7bd
000001c0: ebfe 363e 6fe1 383c dc1a 79bb 62a8 2fbe
000001d0: 4eb8 24be ec43 173e 765f df3d 2961 6fbd
000001e0: 2417 0fbd 311f a2bd 2493 d53d 6fab e73c
000001f0: 74dc 2d3e 6845 853e 6b1e ca3d 1471 d73d
00000200: 663d 17bd 029c 0f3d 56fa 063e 3101 5e3e
00000210: 4b4f 753d 612d 253e 3cb7 543d d62e 95bd
00000220: b6db e03d 8bfd 27bc 7184 3a3e b51f 673e
00000230: cf47 79bb 620e 1d3e f812 25be 58ce 29bd
00000240: 7d90 a1bb 8b9a 8dbd 7d18 e53d b315 28be
00000250: cf69 0c3d 5f62 d0bd 25db cbbd 8557 0dbd
00000260: b59a b4bd b691 d13d e15f 88bc 467d 833c
00000270: 3975 d4bc 79b3 fb3d 1c5c 993c 9b39 a03d
00000280: f1fb 28be 6003 0d3d 19d7 0e3e 7468 4bbd
00000290: e647 7bbd 0584 a63d 4cdb 2abe ecee bcbd
000002a0: 69b1 0c3e 7453 9ebd 8e70 d43d a168 a73d
000002b0: a272 11be 37a9 a0bd 1bd0 10be c0a4 aa3b
000002c0: b6c5 00bd b9c4 59bd a039 283e 5772 a73c
000002d0: fae4 c5bd c90a b33c abaf c23d 7a62 873d
000002e0: d576 183e 9acb 303c cd1a 613d 4d17 9ebd
000002f0: cd70 c13b 753e 1cbd 76aa 3e3e 37da c53d
00000300: 0a2d b53d 736e 59bd f2d8 dc3d 3acc 443e
00000310: f97d b8bd 599a 483d 7636 993d 32c0 87bd
00000320: 1dc1 56bc c8a5 163e 9d69 103e 602b abbd
00000330: 5538 2a3e 9e56 093e ceda bebd 9785 a1bd
00000340: 854a f8bd 4bd2 e13d b46e 343e d492 b23d
00000350: 68ff 71bc b60d e8bd d78f 2bbb 9081 b63d
00000360: 82b5 9c3d f69f 2e3e df77 d7bc 9b47 493d
00000370: 2710 19be 165f 53bd 3b92 1cbe 56b0 003c
00000380: bf39 183d a68c 0d3e a8ce 12bd 84bb 24be
00000390: 6ade 2bbe fdc1 003c 8784 ea3d 4235 953d
000003a0: 5610 3f3d f1e7 48be 770e 98bd 921c 44be
000003b0: cec3 e9bc 957b 333e 54d4 113e 3f8d bf3d
000003c0: ce2e 24bd 6c57 34be 84ba f4bd bc81 bc3d
000003d0: 5c48 e7bb 53a0 573e d0a8 aaba 60ae 593d
000003e0: 8b96 a93b d185 0ebe 924d aab9 0f8b 5bbd
000003f0: 13b6 2a3e dc09 5e3e cee6 913d e9f9 713b

conv1.bias f4 [16]
0.11663436 0.16832633 0.15937203 0.08623592 0.10995781 -0.065776624 0.0213989 0.15411063
0.081519425 0.017111039 0.12362673 0.081386715 0.05404031 -0.045503315 -0.018232485 0.056390475
00000000: ffdd ee3d bd5d 2c3e 6c32 233e 759c b03d
00000010: 8f31 e13d e5b5 86bd bf4c af3c 2dcf 1d3e
00000020: a8f3 a63d 732c 8c3c 0330 fd3d 14ae a63d
00000030: 5f59 5d3d af61 3abd 4b5c 95bc b3f9 663d

conv2.weight f4 [32, 16, 5, 5]
0.01572402 -0.008651611 -0.047930736 -0.040910043 0.06990117 -0.041717507 0.038231764 0.012084402
0.018385958 0.039690696 0.01981649 -0.045712765 0.0043398603 -0.008509757 0.013850383 -0.0018937053
-0.04072932 -0.0022829492 0.02045688 -0.020018578 -0.06190537 -0.06787899 -0.07779776 -0.029325651
0.06614041 0.061131615 0.0061036428 0.016106227 0.032577064 0.00047865676 0.0011506489 -0.018955786
-0.01785418 0.0233042 -0.039515868 -0.024646616 0.05005351 -0.033682458 -0.04149939 0.029383272
0.018557359 0.03425083 -0.0044522397 -0.07466902 -0.029064357 -0.009254369 0.011749899 0.008968588
-0.062348206 -0.036305003 -0.03562372 -0.039843302 0.022386743 -0.012255367 -0.027930593 -0.011414506
-0.023146039 0.02749226 0.047868744 -0.017901374 -0.017097488 0.027295245 0.04632444 0.03272937
0.06459616 0.0076844622 0.028494809 0.016027655 -0.015492388 0.063794866 -0.06667563 -0.01154345
-0.03152034 -0.026080316 0.035994843 0.071160585 0.033874217 0.025690053 0.008297494 0.009161963
0.010531508 0.010391333 0.016257485 0.012148946 0.021231271 0.0025308086 -0.013530402 -0.017011033
-0.0050417385 -0.01807971 -0.00093976664 -0.014374356 -0.01538465 -0.0047077215 0.009095693 -0.011530068
-0.041723326 -0.05185819 -0.023587437 -0.062620856 -0.012479675 -0.047225203 -0.057698455 -0.030806703
-0.028096307 -0.07528261 -0.10481694 -0.11533991 -0.0041414825 -0.1085884 0.013595133 -0.08973917
-0.023945168 -0.07559304 -0.07649321 -0.007020076 0.030992648 -0.05279943 -0.027753904 -0.109918974
-0.0054907785 -0.0035409336 -0.066598736 -0.03925659 -0.05344663 -0.018369274 -0.05393618 -0.025129799
-0.055314723 -0.056714162 -0.06354917 -0.018181821 -0.107084736 -0.08395095 -0.03156011 -0.039116446
-0.08413911 -0.057886556 -0.09502622 -0.04335757 0.012742937 -0.03728483 -0.046646256 -0.08675019
-0.09476723 0.10568467 0.03444661 0.006453923 -0.059467245 -0.100211866 0.0138399415 0.0034172125
-0.05646456 0.009176892 -0.011443148 0.080780014 -0.024887841 -0.014464275 -0.046124615 0.02023255
0.03089628 -0.023133172 0.028047502 0.026308572 -0.013844405 -0.029736826 -0.03821586 -0.032775935
0.02648725 0.0069296504 0.013805742 0.015529823 0.0008287248 -0.013257662 -0.00088228635 0.101207234
0.021217536 0.068746306 0.08459057 0.07852756 0.020417254 0.0613827 0.022810228 -0.019393194
-0.026287347 -0.06232232 -0.04307915 -0.06618086 -0.0040137917 -0.041922525 0.08942021 0.07889675
0.07242542 0.045170315 0.07393133 0.12557536 0.11476068 0.12206594 0.07003017 0.121712536
-0.016482178 -0.051963914 -0.0071611563 -0.030884154 0.10583782 -0.04141198 -0.076544456 -0.012488441
0.01313348 -0.018269306 -0.06963724 -0.03929315 -0.07794999 -0.044607405 -0.059841182 0.025691278
-0.074836895 -0.038779248 -0.01936982 -0.019262783 -0.005158556 0.005029281 0.052924257 -0.010495296
0.035401504 0.014286847 -0.034220573 -0.006191022 -0.075373344 -0.038717702 -0.009968158 0.04022222
0.031924773 0.02096613 -0.04122374 0.00041649793 0.011218932 0.0064822314 -0.024429962 -0.022479907
0.04523883 -0.0064658932 0.041810423 0.011893447 0.033676766 0.044812914 0.0485302 0.026294906
0.022822957 0.023386555 0.061628133 0.025846122 -0.054209813 -0.08221503 0.007926792 -0.015122183
00000000: a9cf 803c 7dbf 0dbc 0553 44bd 4a91 27bd
00000010: 5828 8f3d fadf 2abd e998 1c3d a8fd 453c
00000020: 269e 963c b692 223d 3156 a23c 4f3d 3bbd
00000030: 6335 8e3b 826c 0bbc b8ec 623c 3536 f8ba
00000040: cad3 26bd 889d 15bb 3095 a73c 00fe a3bc
00000050: 7c90 7dbd 2404 8bbd 6f54 9fbd 593c f0bc
00000060: a074 873d 2565 7a3d 1101 c83b 35f1 833c
00000070: 876f 053d 39f4 fa39 5fd1 963a 2a49 9bbc
00000080: ee42 92bc 73e8 be3c 64db 21bd b3e7 c9bc
00000090: e904 4d3d 9ef6 09bd 44fb 29bd 30b5 f03c
000000a0: 9a05 983c 994a 0c3d 18e4 91bb 12ec 98bd
000000b0: 6018 eebc a39f 17bc a682 403c fcf0 123c
000000c0: d560 7fbd 8eb4 14bd 2eea 11bd bb32 23bd
000000d0: 6764 b73c bcca 48bc b3ce e4bc e803 3bbc
000000e0: c39c bdbc 7337 e13c 0412 443d e7a5 92bc
000000f0: 0810 8cbc 479a df3c b2be 3d3d 3b0f 063d
00000100: fe4a 843d f1cd fb3b f26d e93c 6e4c 833c
00000110: c9d3 7dbc e2a6 823d 3c8d 88bd bd20 3dbc
00000120: 791b 01bd 63a6 d5bc 546f 133d a4bc 913d
00000130: b1bf 0a3d f273 d23c 36f2 073c 0f1c 163c
00000140: 598c 2c3c 6940 2a3c 6b2e 853c 5f0c 473c
00000150: 34ed ad3c ecdb 253b 9fae 5dbc b95a 8bbc
00000160: 2b35 a5bb e61b 94bc ac5a 76ba 6b82 6bbc
00000170: e60f 7cbc 3b43 9abb 1a06 153c 9ce8 3cbc
00000180: 14e6 2abd 4169 54bd 713a c1bc 5d3f 80bd
00000190: 8d77 4cbc 376f 41bd 3755 6cbd 575e fcbc
000001a0: 3a2a e6bc c52d 9abd 44aa d6bd 5537 ecbd
000001b0: 46b5 87bb 9863 debd 1fbe 5e3c 2cc9 b7bd
000001c0: a828 c4bc 86d0 9abd 79a8 9cbd aa08 e6bb
000001d0: 4be4 fd3c 3744 58bd 285c e3bc 331d e1bd
000001e0: fdeb b3bb 020f 68bb eb64 88bd 85cb 20bd
000001f0: daea 5abd 297b 96bc 2fec 5cbd 02dd cdbc
00000200: b191 62bd 1c4d 68bd 1126 82bd 0bf2 94bc
00000210: 3e4f dbbd 7aee abbd 2d45 01bd 9138 20bd
00000220: 2051 acbd 741a 6dbd 1b9d c2bd b597 31bd
00000230: c0c7 503c fab7 18bd 2510 3fbd 15aa b1bd
00000240: 5215 c2bd 3471 d83d e317 0d3d 6e7b d33b
00000250: ed93 73bd e13b cdbd ecc0 623c 50f3 5f3b
00000260: 6247 67bd ad5a 163c 0b7c 3bbc fe6f a53d
00000270: 96e1 cbbc 91fb 6cbc 2aed 3cbd bcbe a53c
00000280: 321a fd3c c781 bdbc e0c3 e53c 1385 d73c
00000290: a5d3 62bc a59a f3bc 3c88 1cbd 0f40 06bd
000002a0: cafb d83c 1f12 e33b 7b31 623c cc70 7e3c
000002b0: c83e 593a aa36 59bc 3c49 67ba bd45 cf3d
000002c0: 66d0 ad3c ddca 8c3d d23d ad3d 0fd3 a03d
000002d0: 1642 a73c 6d6c 7b3d 84dc ba3c 7ade 9ebc
000002e0: 9058 d7bc b045 7fbd c373 30bd d589 87bd
000002f0: 2086 83bb f4b6 2bbd f121 b73d 9f94 a13d
00000300: c753 943d 8204 393d 4f69 973d d496 003e
00000310: a607 eb3d b5fd f93d fa6b 8f3d 6c44 f93d
00000320: a205 87bc 1dd8 54bd 22a8 eabb c400 fdbc
00000330: 80c1 d83d 9c9f 29bd 57c3 9cbd 519c 4cbc
00000340: cf2d 573c 83a9 95bc f89d 8ebd dbf1 20bd
00000350: 3fa4 9fbd 41b6 36bd 071c 75bd 8476 d23c
00000360: 1644 99bd fdd6 1ebd 75ad 9ebc fccc 9dbc
00000370: 1b09 a9bb abcc a43b 1bc7 583d 76f4 2bbc
00000380: 2b01 113d 6113 6a3c df2a 0cbd 0fde cabb
00000390: 575d 9abd 7496 1ebd 7c51 23bc 0ec0 243d
000003a0: 8dc3 023d 29c1 ab3c 39da 28bd 685d da39
000003b0: 9dcf 373c e668 d43b 5821 c8bc c827 b8bc
000003c0: 5a4c 393d d8df d3bb 6841 2b3d bbdc 423c
000003d0: a6f0 093d bf8d 373d 9ac7 463d 6a68 d73c
000003e0: 36f7 ba3c 2995 bf3c c86d 7c3d 3fbb d33c
000003f0: 1c0b 5ebd 5b60 a8bd 60df 013c 08c3 77bc

conv2.bias f4 [32]
-0.011978985 -0.02063946 0.034805436 -0.043172173 0.060720246 -0.014200945 0.07965415 0.023093984
-0.03061944 0.011054858 0.03235934 0.02273054 0.030025853 -0.046041634 0.014359928 -0.006308768
-0.008150437 0.020691613 -0.026585473 -0.007228436 -0.006269806 -0.0039186776 -0.031947564 -0.012071307
0.07535854 0.011828638 -0.007551909 0.045370124 -0.029469363 0.054519646 0.041968502 0.0064215744
00000000: 8143 44bc 1614 a9bc 2590 0e3d 4ed5 30bd
00000010: cbb5 783d 15ab 68bc b721 a33d 982f bd3c
00000020: 9fd5 fabc 6f1f 353c 3a8b 043d 6635 ba3c
00000030: c7f8 f53c 2796 3cbd e745 6b3c c8b9 cebb
00000040: 6989 05bc 7581 a93c c7c9 d9bc 84dc ecbb
00000050: f272 cdbb 4068 80bb 73db 02bd bbc6 45bc
00000060: 9455 9a3d e7cc 413c 0176 f7bb 06d6 393d
00000070: bc69 f1bc fe4f 5f3d 2ae7 2b3d 126c d23b

conv3.weight f4 [64, 32, 4, 4]
0.033904973 0.018727403 0.010695641 -0.016147917 0.046115823 0.037829585 0.030396188 -0.022712097
0.0052476437 -0.013194163 0.02711709 0.048691772 0.060113233 -0.03172007 -0.022868719 0.009066299
-0.0102941645 0.056745317 0.043556605 0.06767918 0.0027374942 -0.011233131 0.07191037 0.0049861153
-0.056419764 -0.00711082 -0.0022954608 -0.068758644 -0.030106844 -0.06011938 0.013517388 -0.05179884
0.075757585 0.019111736 0.019710997 0.04957846 0.048399616 0.01658865 -0.006264005 0.016297393
0.04354692 -0.00788645 0.05006823 0.015440874 -0.071932666 -0.044322744 -0.05039068 -0.061034612
0.059424907 -0.0021229498 0.041396853 -0.02788439 0.0014438322 0.032628022 -0.026825795 0.010036543
-0.013059447 -0.048164345 -0.02472184 -0.063448936 -0.0545855 -0.07217726 -0.0878489 -0.043629956
0.072234236 0.030943938 0.099816516 0.07956193 0.04712563 -0.0009078402 0.058202345 0.05149149
0.0819173 0.035084683 -0.03984021 -0.007616816 -0.055298492 -0.05915736 -0.04721663 -0.018862687
-0.0417047 -0.02693553 0.027801257 0.041528985 -0.0074298424 0.056884237 -0.0022505785 0.096373275
0.06691712 -0.0032449923 -0.020901093 0.029507555 0.011341081 -0.0042678546 -0.036326397 0.014235867
0.0746952 0.016211245 0.0053848056 -0.0006560603 0.007182315 0.009763855 0.019022835 0.04220352
-0.017867463 -0.0101420805 -0.03314026 0.042316344 -0.039060574 -0.002922134 -0.0012647728 0.038931876
0.035082832 0.0151501335 -0.042685103 -0.046580333 0.01725096 -0.012644441 -0.034246698 0.056237616
0.02939129 -0.05086571 -0.039106566 0.020136384 -0.02930971 -0.028137907 -0.0661583 -0.09391988
0.060214132 0.050903365 -0.011423422 0.04917504 0.0016889803 -0.011181408 0.0344534 0.0041084136
-0.073490374 -0.011782085 0.016483663 -0.08246742 -0.021230826 -0.020888822 -0.068116635 -0.03395891
0.029128652 0.017589634 -0.035868652 -0.06913535 -0.055385236 -0.0443788 -0.054152958 0.004663094
-0.002196561 -0.04970722 -0.029354924 -0.08358971 -0.029360995 -0.1301513 -0.12562074 -0.138928
-0.03549766 0.0023889337 0.019802995 0.074961014 -0.0011060191 -0.014509601 0.012919477 0.060408644
-0.0066036456 -0.044393424 -0.015283121 -0.02468788 -0.040672433 0.024488362 0.012985225 0.022432383
-0.08846702 0.0031417026 -0.07155365 -0.062201317 0.05368104 0.012676682 0.019365696 0.0036026947
0.059328686 0.039530706 -0.018258393 0.055823177 -0.03528307 0.016900796 -0.020117057 0.020435117
-0.0059758388 -0.012061487 -0.04914891 -0.0014294698 -0.024908654 0.0025475635 0.026235634 0.04841345
0.03274806 -0.022954896 0.013909572 -0.0010632555 -0.01104926 -0.015900942 0.04907475 0.04644665
-0.11157588 -0.062296245 -0.1132417 -0.030819768 -0.038809743 0.042360097 0.03881579 0.029581845
0.040299904 0.05411185 0.031068265 -0.032819465 0.017028287 -0.020724008 0.03012681 0.042413123
-0.05587708 -0.026609933 -0.027513318 -0.043845568 0.0451264 -0.012259667 -0.05052201 0.010575703
0.007869305 -0.005454268 -0.01758628 0.015426286 0.02213783 -0.02844635 -0.016807435 -0.03276252
0.124066435 -0.0064676944 0.03797287 0.051178914 0.030285152 -0.018403765 0.058086153 -0.014737916
0.051669274 0.020602722 -0.035380866 0.0063935085 -0.03706005 -0.035525974 0.012209095 -0.07708465
00000000: f1df 0a3d 366a 993c c53c 2f3c a348 84bc
00000010: f2e3 3c3d 32f3 1a3d 6d01 f93c b80e babc
00000020: 6df4 ab3b 552c 58bc a924 de3c 0671 473d
00000030: 4b39 763d e7ec 01bd 2e57 bbbc d08a 143c
00000040: dba8 28bc c76d 683d 6968 323d 629b 8a3d
00000050: 8867 333b 2b0b 38bc be45 933d 9162 a33b
00000060: 6918 67bd e201 e9bb 716f 16bb 55d1 8cbd
00000070: a1a2 f6bc bd3f 76bd 0978 5d3c 052b 54bd
00000080: cb26 9b3d 3790 9c3c f578 a13c c912 4b3d
00000090: ad3e 463d ece4 873c 4842 cdbb 1c82 853c
000000a0: 415e 323d 2b36 01bc 5814 4d3d b8fb 7c3c
000000b0: 6f51 93bd c48b 35bd 7566 4ebd 6eff 79bd
000000c0: 8867 733d 3021 0bbb bf8f 293d ce6d e4bc
000000d0: f83e bd3a f6a4 053d c5c1 dbbc 5070 243c
000000e0: 4af7 55bc fa47 45bd 7585 cabc 84f1 81bd
000000f0: 0c95 5fbd acd1 93bd 20ea b3bd 53b5 32bd
00000100: 8bef 933d 247e fd3c 9a6c cc3d 5df1 a23d
00000110: ce06 413d 20fc 6dba 9565 6e3d bee8 523d
00000120: 42c4 a73d f5b4 0f3d 7d2f 23bd 7c96 f9bb
00000130: ac80 62bd fd4e 72bd 3a66 41bd ec85 9abc
00000140: 8cd2 2abd e7a7 dcbc 76bf e33c 4c1a 2a3d
00000150: 0976 f3bb 72ff 683d 717e 13bb 5a5f c53d
00000160: d80b 893d f0a9 54bb c538 abbc d4b9 f13c
00000170: f1cf 393c 5cd9 8bbb fdca 14bd 8e3d 693c
00000180: ccf9 983d 72cd 843c 0673 b03b 76fb 2bba
00000190: a059 eb3b 93f8 1f3c c7d5 9b3c 99dd 2c3d
000001a0: c95e 92bc f82a 26bc 15be 07bd e753 2d3d
000001b0: fbfd 1fbd 4681 3fbb bcc6 a5ba 0877 1f3d
000001c0: 04b3 0f3d 4438 783c 93d6 2ebd 05cb 3ebd
000001d0: e351 8d3c a12a 4fbc 4446 0cbd 6a59 663d
000001e0: 01c6 f03c 9058 50bd 352e 20bd 0ff5 a43c
000001f0: eb1a f0bc 7881 e6bc 017e 87bd 1159 c0bd
00000200: 18a3 763d 0c80 503d 4e29 3bbc c46b 493d
00000210: c660 dd3a 3932 37bc 021f 0d3d df9f 863b
00000220: 1f82 96bd a509 41bc bf08 873c aee4 a8bd
00000230: 45ec adbc 091f abbc bc80 8bbd 7f18 0bbd
00000240: 369f ee3c 2318 903c 02eb 12bd d696 8dbd
00000250: a1db 62bd 8bc6 35bd 7ecf 5dbd decc 983b
00000260: 2ef4 0fbb cc99 4bbd bd79 f0bc 1531 abbd
00000270: 7886 f0bc 6246 05be b9a2 00be 2443 0ebe
00000280: ff65 11bd a88f 1c3b e439 a23c 2985 993d
00000290: d8f7 90ba adb9 6dbc 37ac 533c 0e6f 773d
000002a0: 6563 d8bb e1d5 35bd 0e66 7abc 3d3e cabc
000002b0: 2398 26bd d19b c83c fbbf 543c 1ec4 b73c
000002c0: 322e b5bd 06e5 4d3b b88a 92bd cfc6 7ebd
000002d0: a6e0 5b3d dcb1 4f3c cfa4 9e3c 301b 6c3b
000002e0: a302 733d f3ea 213d a092 95bc d8a6 643d
000002f0: fb84 10bd 8a73 8a3c 87cc a4bc 8c67 a73c
00000300: f8d0 c3bb 8b9d 45bc 5e50 49bd 0c5d bbba
00000310: 3c0d ccbc 06f5 263b 1dec d63c 2f4d 463d
00000320: d422 063d e80b bcbc f9e4 633c ef5c 8bba
00000330: f507 35bc b142 82bc 9b02 493d d83e 3e3d
00000340: e581 e4bd 592a 7fbd 44eb e7bd bd79 fcbc
00000350: f7f6 1ebd c881 2d3d 4efd 1e3d a055 f23c
00000360: 8311 253d 63a4 5d3d e082 fe3c b46d 06bd
00000370: e87e 8b3c 65c5 a9bc 80cc f63c 62b9 2d3d
00000380: 5ddf 64bd 13fd d9bc 9c63 e1bc 6997 33bd
00000390: 76d6 383d c5dc 48bc 2bf0 4ebd b745 2d3c
000003a0: 42ee 003c b7b9 b2bb 1a11 90bc 88be 7c3c
000003b0: 655a b53c 5208 e9bc bfaf 89bc fe31 06bd
000003c0: 8b16 fe3d f4ee d3bb 7189 1b3d fba0 513d
000003d0: 9118 f83c 7ec3 96bc bfeb 6d3d 4d77 71bc
000003e0: 29a3 533d 0ac7 a83c 87eb 10bd a380 d13b
000003f0: 47cc 17bd af83 11bd a808 483c 8fde 9dbd

conv3.bias f4 [64]
-0.014342106 -0.042214606 0.0518057 -0.005196602 0.010178099 0.028105536 0.040311333 0.0004961444
-0.00040015805 0.056126524 -0.007471199 -0.058568332 -0.00797122 -0.03684255 -0.038229574 -0.05343185
0.009436492 0.054202948 -0.02306729 0.026466731 0.005823832 -0.020596651 0.0055041686 -0.014637187
-0.020517794 0.030268993 -0.054682974 -0.019701296 -0.018221155 -0.01786117 0.042521298 -0.032024674
-0.039760854 0.014570409 0.024627555 0.03176872 0.0024165732 -0.023463553 -0.042172104 -0.0485491
0.003949913 0.026500849 0.05243433 -0.006315894 -0.00029024645 0.00092290225 -0.012911012 0.053178266
0.015867544 -0.03403686 -0.031244552 -0.008412584 -0.009236069 -0.017959766 -0.046602514 -0.059717223
0.048301376 -0.025848156 -0.03127299 0.0025672212 0.020795735 0.016372329 -0.018563751 -0.038071927
00000000: 27fb 6abc 39e9 2cbd 3732 543d 4248 aabb
00000010: 0bc2 263c 953d e63c 7f1d 253d b00f 023a
00000020: 4ecc d1b9 ede4 653d f6d0 f4bb 59e5 6fbd
00000030: b899 02bc 37e8 16bd 9d96 1cbd 5bdb 5abd
00000040: 849b 1a3c e903 5e3d 9df7 bcbc c2d0 d83c
00000050: d8d5 be3b 4fba a8bc 505c b43b d0d0 6fbc
00000060: ef14 a8bc aef6 f73c 41fb 5fbd 9d64 a1bc
00000070: 8844 95bc 9751 92bc d02a 2e3d 4e2c 03bd
00000080: 47dc 22bd bab8 6e3c babf c93c eb1f 023d
00000090: 5f5f 1e3b a336 c0bc a8bc 2cbd 6cdb 46bd
000000a0: 466e 813b 4f18 d93c 61c5 563d 8ff5 cebb
000000b0: 382c 98b9 ecee 713a b688 53bc 74d1 593d
000000c0: a7fc 813c 3c6a 0bbd 93f4 ffbc efd4 09bc
000000d0: e252 17bc 5c20 93bc 47e2 3ebd 0c9a 74bd
000000e0: aad7 453d 83bf d3bc 1b18 00bd d33e 283b
000000f0: d15b aa3c 431f 863c 0213 98bc 4ff1 1bbd

conv4.weight f4 [128, 64, 1, 1]
-0.036847785 -0.10188324 0.004615142 0.13729675 0.086480334 0.10440088 -0.03463026 0.1473505
-0.014814292 0.04727664 0.009072187 0.075606264 0.015973989 0.059841733 0.035221133 0.18110566
0.052406546 -0.15848848 -0.09926347 0.08571089 0.017149419 0.10974756 -0.061030377 -0.172068
0.13851723 0.041401345 -0.13067096 0.017159848 -0.10022492 0.19990419 -0.15100831 0.11314208
-0.049602345 0.072949484 0.1064678 -0.0012201824 -0.2185217 0.08676147 0.04967503 -0.038315523
0.08393306 -0.119446814 -0.19392748 -0.010735874 -0.08011186 0.07048847 -0.05853245 0.10092026
-0.20183188 0.074725755 0.067188054 -0.087437496 -0.22682332 0.08123456 0.116259076 -0.019166814
0.099398226 -0.09607581 -0.004990682 0.05207179 -0.0723944 0.10624788 0.09351855 -0.1746654
0.077154905 0.10795686 -0.11878464 0.12957726 0.08936356 -0.06230604 0.029100679 -0.093689084
-0.06430253 0.16651677 0.098192565 0.15338117 -0.21353267 0.010249338 0.052172158 -0.12382733
-0.15403377 -0.0026724967 -0.018919038 0.12352592 -0.04938309 -0.09949788 0.091024525 0.086028144
-0.016251244 0.17354776 0.055710997 -0.021437986 0.019829955 -0.05081254 -0.036628466 -0.07347593
0.06329457 0.077487774 0.1713368 0.088089034 -0.14053401 -0.11803099 -0.06999946 -0.0402182
-0.03998027 0.058301765 0.12307155 -0.12758745 -0.057925142 0.045954887 -0.06670798 0.1143675
0.0424528 0.13459292 0.0020878892 -0.119676776 -0.12637746 -0.07005515 0.18098119 0.11061084
0.16390704 0.03465664 0.045590967 0.029990721 0.033046536 0.0035288646 0.12358046 -0.022613646
-0.011012959 -0.04612913 0.1151222 0.13274007 0.01739711 0.16037777 0.020423325 0.08965855
-0.025545726 -0.09035101 0.038064826 -0.075141 0.014289162 -0.030988434 -0.13895428 0.06679032
-0.091746904 -0.082922466 0.14392209 0.07368585 0.103792936 0.009900756 0.06370507 -0.021532059
0.17770611 -0.00771961 -0.09433477 0.06325821 -0.1442529 0.124960326 -0.055391792 0.0757811
-0.12613392 -0.020278612 0.0068932227 0.07638634 0.005555537 -0.03650313 0.05141823 0.11076064
-0.013308864 0.01595825 -0.09806336 0.00096458924 -0.010303477 0.092644945 0.004947685 0.08841762
-0.08042594 -0.025769617 0.12773599 -0.06563268 -0.16837099 0.20753844 0.114798255 0.044569567
-0.015597159 -0.02195857 0.048965376 0.22898628 -0.011503113 0.12070269 0.06203143 -0.0012464144
-0.16150007 -0.021176854 0.038727883 -0.07942597 -0.084614 0.19556643 -0.05608769 -0.024966188
0.04128921 0.001489369 -0.036518876 -0.06737622 0.15330628 0.02516826 -0.08363769 0.08971287
0.07075288 0.047494568 -0.15999763 -0.061103396 -0.039285887 0.015495752 0.08803862 0.061799128
-0.14741112 -0.07374183 -0.057794366 0.06886872 -0.057427555 -0.08668457 -0.02774801 0.08764638
0.09389553 0.12234913 -0.05093017 -0.052289125 -0.02497868 -0.0931476 0.030132877 0.06058648
0.028790431 0.07451519 0.081717126 0.18715198 -0.18534546 -0.18220787 -0.13182966 0.09568695
0.022357907 -0.079649776 0.10055881 0.07100233 0.057209127 -0.05888219 0.059415817 0.09148357
0.14567775 -0.08198479 0.09775321 -0.07399352 -0.072801724 0.14794427 -0.0125059495 -0.059657466
00000000: b4ed 16bd 29a8 d0bd 9e3a 973b 8597 0c3e
00000010: 9a1c b13d 21d0 d53d 76d8 0dbd 0de3 163e
00000020: a5b7 72bc 26a5 413d 83a3 143c 75d7 9a3d
00000030: e2db 823c 9b1c 753d 0944 103d c373 393e
00000040: 3fa8 563d ce4a 22be a54a cbbd 3189 af3d
00000050: f07c 8c3c 54c3 e03d fdfa 79bd 9832 30be
00000060: 76d7 0d3e 7594 293d 9cce 05be cf92 8c3c
00000070: b942 cdbd afb3 4c3e eca1 1abe 09b7 e73d
00000080: d42b 4bbd 8a66 953d ca0b da3d 87ee 9fba
00000090: 27c4 5fbe ffaf b13d 0b78 4b3d bdf0 1cbd
000000a0: 19e5 ab3d 88a0 f4bd ed94 46be 85e5 2fbc
000000b0: b011 a4bd 425c 903d b9bf 6fbd 48af ce3d
000000c0: 04ad 4ebe d109 993d e499 893d 6e12 b3bd
000000d0: 5f44 68be 4e5e a63d 3d19 ee3d b903 9dbc
000000e0: 4c91 cb3d 65c3 c4bd e088 a3bb 3b49 553d
000000f0: 8443 94bd 7d98 d93d a786 bf3d 7ddb 32be
00000100: 6403 9e3d 7c18 dd3d 5d45 f3bd e7af 043e
00000110: 3e04 b73d 9e34 7fbd 8c64 ee3c 10e0 bfbd
00000120: 0bb1 83bd 5f83 2a3e 2f19 c93d f40f 1d3e
00000130: 4fa8 5abe d7ec 273c 79b2 553d 2f99 fdbd
00000140: 07bb 1dbe 0e25 2fbb 19fc 9abc 28fb fc3d
00000150: ec45 4abd 8bc5 cbbd 116b ba3d 862f b03d
00000160: 5421 85bc 81b6 313e 3731 643d b79e afbc
00000170: 6e72 a23c cf20 50bd bb07 16bd 8c7a 96bd
00000180: 95a0 813d e9b1 9e3d ea72 2f3e 0668 b43d
00000190: 26e8 0fbe 3bba f1bd e05b 8fbd d7bb 24bd
000001a0: 5ac2 23bd d5cd 6e3d f00c fc3d 49a6 02be
000001b0: ea42 6dbd 313b 3c3d 329e 88bd 8239 ea3d
000001c0: fde2 2d3d bad2 093e f8d4 083b 1919 f5bd
000001d0: 1869 01be 1379 8fbd 2253 393e f087 e23d
000001e0: 3fd7 273e 1ff4 0d3d 98bd 3a3d 1aaf f53c
000001f0: ce5b 073d 8644 673b c117 fd3d 4140 b9bc
00000200: b36f 34bc e6f1 3cbd 30c5 eb3d 03ed 073e
00000210: 6284 8e3c 123a 243e d14e a73c e79e b73d
00000220: 4545 d1bc f309 b9bd dde9 1b3d 86e3 99bd
00000230: 171d 6a3c 75db fdbc 084a 0ebe 5dc9 883d
00000240: cde5 bbbd 41d3 a9bd 5060 133e 9be8 963d
00000250: 6491 d43d c836 223c ce77 823d 0064 b0bc
00000260: 97f8 353e c8f4 fcbb 9732 c1bd 858d 813d
00000270: 08b7 13be 33eb ff3d 81e2 62bd 1f33 9b3d
00000280: 4029 01be 551f a6bc 8be0 e13b 7170 9c3d
00000290: 390b b63b 4e84 15bd ec9b 523d 79d6 e23d
000002a0: 6c0d 5abc e0ba 823c 71d5 c8bd 7ddc 7c3a
000002b0: eacf 28bc a2bc bd3d 3120 a23b 4c14 b53d
000002c0: 5bb6 a4bd ce1a d3bc 39cd 023e 6d6a 86bd
000002d0: 7269 2cbe f584 543e 591b eb3d 948e 363d
000002e0: 3a8b 7fbc 76e2 b3bc eb8f 483d 617b 6a3e
000002f0: 8e77 3cbc f932 f73d ab14 7e3d ba5e a3ba
00000300: 4660 25be 157b adbc 21a1 1e3d 15aa a2bd
00000310: 1b4a adbd 9142 483e 35bc 65bd e485 ccbc
00000320: e01e 293d ee36 c33a d194 15bd 8bfc 89bd
00000330: 52fc 1c3e ab2d ce3c 3d4a abbd 62bb b73d
00000340: e3e6 903d aa89 423d 6bd6 23be 8e47 7abd
00000350: 3dea 20bd e5e1 7d3c 984d b43d 1521 7d3d
00000360: f1f2 16be f505 97bd c9b9 6cbd 0b0b 8d3d
00000370: 2839 6bbd ae87 b1bd cb4f e3bc f27f b33d
00000380: 4d4c c03d 2e92 fa3d 279c 50bd 1f2d 56bd
00000390: 17a0 ccbc 2bc4 bebd 39d9 f63c 8729 783d
000003a0: e9d9 eb3c 6c9b 983d 4f5b a73d c5a4 3f3e
000003b0: 33cb 3dbe b394 3abe 5bfe 06be 85f7 c33d
000003c0: ee27 b73c 6c1f a3bd c7f1 cd3d ab69 913d
000003d0: 1e54 6a3d 742e 71bd 005e 733d bd5b bb3d
000003e0: 8c2c 153e a4e7 a7bd d632 c83d ea89 97bd
000003f0: 1219 95bd b47e 173e c1e5 4cbc 635b 74bd

conv4.bias f4 [128]
-0.03242352 -0.019137194 0.08748194 0.1528604 0.2464763 0.08542855 0.0682308 -0.04087062
0.0970216 0.20126306 -0.010330805 0.09404554 0.13109684 -0.040360473 0.14610772 0.15611479
0.034721747 0.3413367 0.07960368 -0.005180501 0.107186906 0.19287343 0.11526015 -0.025539106
0.060521413 0.06933641 0.20585395 0.043614645 0.14671503 0.05283172 0.0026441307 -0.017325666
0.12832743 0.26358473 0.024616044 0.13119313 0.11216536 0.13631512 0.012659512 0.04700907
0.24607195 0.16891557 0.025028298 0.11848409 0.11077293 0.15590419 0.2148286 -0.026168065
0.2775953 0.1927775 0.19123536 0.057360213 0.043225065 0.07518572 0.21188004 0.119507045
0.27645078 0.112240545 0.3348766 0.06648002 0.2674617 0.10081346 0.10360424 -0.15669712
0.14585629 0.0057836664 0.26675478 -0.028151529 0.015125777 0.29327723 0.1719124 0.11819721
0.06469958 -0.07451367 0.2670991 0.106097415 0.26996237 -0.03566194 0.017008938 -0.12572834
0.07472339 0.15545762 -0.12139522 0.096600205 0.08917683 0.14975522 0.120509736 0.05335255
-0.12803881 0.063617446 0.23432326 0.036316622 0.092247926 0.1611818 0.07497826 0.14570077
0.008752656 0.24670781 0.047943484 -0.08890017 0.06293326 0.17242473 0.030930659 0.048445795
0.2127223 -0.07876854 0.18365607 -0.02579698 0.078734376 0.06892058 0.10492703 0.07087323
-0.07271136 0.044314627 0.19902922 -0.071531445 0.035579663 0.17328195 0.26150513 0.029725201
-0.020942135 0.2690095 0.16526149 -0.1977848 0.05066543 0.13410035 0.18806386 0.11481294
00000000: 86ce 04bd 9bc5 9cbc bb29 b33d 7087 1c3e
00000010: 4864 7c3e 2af5 ae3d 97bc 8b3d f467 27bd
00000020: 43b3 c63d e717 4e3e 8942 29bc f39a c03d
00000030: 403e 063e 0651 25bd 439d 153e 8edc 1f3e
00000040: 6438 0e3d afc3 ae3e 4107 a33d 31c1 a9bb
00000050: cf84 db3d 9d80 453e 830d ec3d 6337 d1bc
00000060: 4de5 773d 3f00 8e3d 61cb 523e 45a5 323d
00000070: 773c 163e 1366 583d 2749 2d3b 8eee 8dbc
00000080: 4468 033e 94f4 863e 96a7 c93c 7e57 063e
00000090: f4b6 e53d 3196 0b3e d869 4f3c 958c 403d
000000a0: 49fa 7b3e 34f8 2c3e 2508 cd3c c9a7 f23d
000000b0: ebdc e23d 59a5 1f3e 07fc 5b3e 695e d6bc
000000c0: f920 8e3e 7767 453e 34d3 433e 8bf2 6a3d
000000d0: c40c 313d f9fa 993d 15f7 583e 1cc0 f43d
000000e0: f58a 8d3e 5fde e53d f274 ab3e ad26 883d
000000f0: bdf0 883e 4a77 ce3d 762e d43d 3675 20be
00000100: 5a5b 153e e984 bd3b 1594 883e 099e e6bc
00000110: 1bd2 773c 6f28 963e ce09 303e 6111 f23d
00000120: 3781 843d 9f9a 98bd 37c1 883e 9a49 d93d
00000130: 8238 8a3e 4112 12bd 5456 8b3c eebe 00be
00000140: 9408 993d 4830 1f3e 0f9e f8bd 54d6 c53d
00000150: 58a2 b63d 6f59 193e cfcd f63d 3488 5a3d
00000160: 9b1c 03be dd49 823d 70f2 6f3e bdc0 143d
00000170: 7bec bc3d d70c 253e 348e 993d 9532 153e
00000180: 4d67 0f3c f9a0 7c3e 6360 443d 4b11 b6bd
00000190: 27e3 803d 1c90 303e 4b62 fd3c 196f 463d
000001a0: e0d3 593e 6651 a1bd 5610 3c3e 3054 d3bc
000001b0: 7d3f a13d 3c26 8d3d fce3 d63d fc25 913d
000001c0: b2e9 94bd 4183 353d 51ce 4b3e 147f 92bd
000001d0: fbbb 113d d370 313e 00e4 853e 4482 f33c
000001e0: d78e abbc 9dbb 893e 4f3a 293e 1988 4abe
000001f0: 8e86 4f3d 9a51 093e d093 403e 0c23 eb3d

conv5.weight f4 [256, 128, 1, 1]
0.07449471 0.06658829 -0.023493938 0.03981901 -0.03268006 -0.025533643 -0.070096396 0.039546542
-0.056939594 0.022854436 0.0779461 -0.023780953 -0.033285934 -0.025557881 0.09774335 0.06257035
0.025411546 -0.0011819457 -0.03362892 -0.023833442 0.044366695 -0.08024389 -0.06583465 0.048226718
0.019896124 -0.017678823 -0.024794554 -0.036271513 0.032990944 -0.07286925 -0.07885399 -0.03176834
0.026046107 -0.048907414 -0.028495133 0.027445234 0.008652436 -0.017006665 -0.031178787 0.12771507
-0.020169633 0.059486743 -0.028417055 -0.016370436 0.04497872 -0.05127981 -0.07782633 0.045616195
0.014249192 0.11818019 -0.027708352 0.032596946 0.018186346 -0.03120271 -0.091384254 -0.023604838
0.018623037 0.02255612 0.084945805 0.07278946 -0.03361736 -0.017769767 -0.01284845 0.009061818
-0.0040854705 0.048356123 0.09143273 0.058180254 0.0734077 0.096391 0.052169945 -0.050160676
-0.011597754 -0.00489043 -0.088288605 0.017958138 0.022774177 -0.033786684 0.087692074 -0.050009515
-0.06999153 -0.10014669 0.0808108 0.026337693 -0.02288348 -0.12165115 -0.014879174 0.048279863
-0.0177033 -0.0084250225 0.09499285 -0.073019095 0.045773774 -0.02838665 0.11329798 -0.016300868
-0.011576306 -0.08459568 -0.08449917 -0.048632395 0.058120906 -0.009323629 0.008753433 0.062278315
-0.053036805 0.07567581 0.04113298 0.1322335 -0.011336623 0.015441785 -0.03412886 -0.02365494
0.04759549 -0.082166694 -0.077330224 -0.04003934 0.034507655 0.009111392 -0.14846177 0.05258858
-0.04250592 0.04526155 -0.022446917 -0.027415406 -0.06731134 0.018607669 0.10499445 0.0376181
0.00737687 0.09059464 -0.07759839 -0.009236368 0.004293474 0.012419087 0.023199722 0.003805943
0.061322857 -0.045109957 0.052883253 -0.063687004 0.10822526 -0.12509277 -0.04984602 0.011658581
0.08683989 -0.030776156 0.042221587 0.015332869 -0.086364456 0.011564664 -0.015579212 0.0014227834
0.0871448 0.02043241 -0.045033544 -0.019951385 0.036309686 -0.018272707 -0.13886192 -0.116893224
0.00056435226 0.0032622856 0.03532197 0.032977384 0.040448215 0.03234733 -0.045567706 -0.06656087
-0.14287877 0.0058298525 -0.024440978 -0.04283197 0.098399624 0.13636921 -0.018325416 0.07440074
0.082814455 -0.024453027 -0.03319419 0.020973274 -0.022241004 0.06819397 -0.062738806 -0.004751845
0.1016245 -0.030941583 0.083094954 0.010251295 0.016507136 -0.09577516 -0.05400598 0.03588001
0.061482776 0.044446018 -0.064186856 0.084284894 -0.020038497 0.049070746 0.04633519 -0.17919092
-0.08081458 -0.12594728 0.050298177 0.0027263286 0.012798175 -0.14227746 -0.025846275 -0.07625552
-0.046998803 -0.15287875 -0.025850698 -0.018654183 0.10579716 -0.078190744 -0.0011389295 0.05445469
0.062098514 0.11683053 0.04212045 0.098084204 -0.01108727 0.012797351 0.052301105 0.011806378
-0.12078772 0.10732885 -0.035904378 0.08430897 -0.08583732 -0.021019159 -0.0926759 -0.021771552
0.018246677 0.056281738 -0.029853698 0.051068407 -0.017258545 0.040441412 0.05463244 0.06297678
0.022101764 -0.021793272 -0.01626745 0.06233938 -0.04544001 0.045008898 0.015707655 -0.012338009
-0.035871483 0.06392587 -0.015962306 -0.014351763 -0.13502146 0.099075556 0.037095495 0.07360555
00000000: af90 983d 715f 883d 5c76 c0bc 4219 233d
00000010: 87db 05bd ee2b d1bc b38e 8fbd 8efb 213d
00000020: 7e39 69bd 3a39 bb3c 34a2 9f3d 46d0 c2bc
00000030: d556 08bd c35e d1bc aa2d c83d e224 803d
00000040: e02b d03c 84eb 9aba 7abe 09bd 5a3e c3bc
00000050: dab9 353d e956 a4bd 51d4 86bd 6189 453d
00000060: 32fd a23c 2ed3 90bc f31d cbbc 7091 14bd
00000070: 8321 073d 793c 95bd 337e a1bd 851f 02bd
00000080: a55e d53c 2453 48bd a06e e9bc d4d4 e03c
00000090: f2c2 0d3c 9051 8bbc a86a ffbc bdc7 023e
000000a0: c93a a5bc 5fa8 733d e2ca e8bc 4b1b 86bc
000000b0: 9b3b 383d c70a 52bd 6963 9fbd 0cd8 3a3d
000000c0: 7175 693c 7508 f23d a0fc e2bc 6084 053d
000000d0: 88fb 943c d39c ffbc ab27 bbbd ef5e c1bc
000000e0: 578f 983c 9dc7 b83c 11f8 ad3d a412 953d
000000f0: 5bb2 09bd e791 91bc 4e82 52bc 0578 143c
00000100: 69df 85bb 1211 463d 1541 bb3d 6b4e 6e3d
00000110: c756 963d a568 c53d 27b0 553d 4875 4dbd
00000120: 8204 3ebc e63f a0bb a8d0 b4bd f21c 933c
00000130: e990 ba3c e863 0abd e797 b33d c7d6 4cbd
00000140: b857 8fbd b519 cdbd 2280 a53d 25c2 d73c
00000150: 2376 bbbc 3d24 f9bd c7c7 73bc 1bc1 453d
00000160: 8306 91bc 1b09 0abc 9d8b c23d 098b 95bd
00000170: 487d 3b3d 1f8b e8bc c508 e83d 6689 85bc
00000180: 8caa 3dbc 8040 adbd e70d adbd c332 47bd
00000190: 3010 6e3d 22c2 18bc 8f6a 0f3c 8c17 7f3d
000001a0: 1f3d 59bd ebfb 9a3d 0e7b 283d 3868 073e
000001b0: 3ebd 39bc 8aff 7c3c b4ca 0bbd 01c8 c1bc
000001c0: 7df3 423d 0347 a8bd 4f5f 9ebd 4a00 24bd
000001d0: e657 0d3d f347 153c 5d06 18be 1f67 573d
000001e0: b01a 2ebd 2d64 393d 99e2 b7bc 4696 e0bc
000001f0: 87da 89bd 1c6f 983c 5507 d73d 7015 1a3d
00000200: acb9 f13b af89 b93d e8eb 9ebd 2354 17bc
00000210: 45b0 8c3b 6d79 4b3c 580d be3c 216d 793b
00000220: ad2d 7b3d 38c5 38bd 1c9c 583d 556e 82bd
00000230: 35a5 dd3d 5218 00be 572b 4cbd a203 3f3c
00000240: 1dd9 b13d 471e fcbc 8bf0 2c3d b736 7b3c
00000250: d9df b0bd b779 3d3c f43f 7fbc b07c ba3a
00000260: f978 b23d df61 a73c 1875 38bd 1671 a3bc
00000270: 77b9 143d a5b0 95bc d231 0ebe b765 efbd
00000280: 0af1 133a 12cc 553b c5ad 103d 4b13 073d
00000290: 07ad 253d a27e 043d 34a5 3abd 1151 88bd
000002a0: d04e 12be 5908 bf3b 7238 c8bc 9370 2fbd
000002b0: be85 c93d 5fa4 0b3e 2f1f 96bc 6a5f 983d
000002c0: a09a a93d b751 c8bc a2f6 07bd 25d0 ab3c
000002d0: c432 b6bc 48a9 8b3d 347d 80bd 5db5 9bbb
000002e0: 8120 d03d 3479 fdbc b02d aa3d 0cf5 273c
000002f0: f939 873c c425 c4bd 6035 5dbd ebf6 123d
00000300: 5dd5 7b3d 070d 363d 6674 83bd 8f9d ac3d
00000310: c627 a4bc 68fe 483d f8c9 3d3d d37d 37be
00000320: 1d82 a5bd 53f8 00be 7605 4e3d 34ac 323b
00000330: 70af 513c 2fb1 11be 91bb d3bc db2b 9cbd
00000340: d181 40bd 3f8c 1cbe d8c4 d3bc a8d0 98bc
00000350: 2eac d83d 7822 a0bd 2248 95ba e20b 5f3d
00000360: 035b 7e3d d844 ef3d 7e86 2c3d 5fe0 c83d
00000370: 62a7 35bc fbab 513c af39 563d 8a6f 413c
00000380: 8d5f f7bd 3acf db3d 7810 13bd 2eaa ac3d
00000390: 7acb afbd 5f30 acbc ddcc bdbd 415a b2bc
000003a0: 0e7a 953c ae87 663d be8f f4bc 1b2d 513d
000003b0: cb61 8dbc e5a5 253d 44c6 5f3d f8f9 803d
000003c0: c20e b53c ce87 b2bc 5143 85bc 9457 7f3d
000003d0: 4e1f 3abd 405b 383d 57ad 803c 5c25 4abc
000003e0: faed 12bd 91eb 823d 62c3 82bc a823 6bbc
000003f0: 1143 0abe 20e8 ca3d 72f1 173d 82be 963d

conv5.bias f4 [256]
-0.019338034 0.09455574 0.09683311 -0.05465339 -0.042521942 -0.08724029 -0.051209595 0.14354047
0.06834894 0.007250029 0.0904157 0.072089516 -0.0057631787 -0.012639748 0.010642347 0.042439103
0.1124012 -0.06796421 0.010204656 0.124119066 0.29256532 0.078618295 0.067513295 0.08471127
0.04264486 -0.04282461 0.21800682 0.16669397 0.14780222 0.128005 0.061909385 0.072909795
-0.005660776 0.027785635 -0.11905614 -0.040223937 -0.016346762 -0.023342827 0.060243953 -0.04725728
0.06504963 0.0016584524 0.08382493 -0.043552097 0.06302825 0.008462733 0.12623419 -0.07482892
0.053515397 0.1514154 -0.06059364 -0.01362627 -0.02045119 0.047733754 0.21692903 0.04625985
0.074601345 0.16423364 -0.08930525 -0.034267653 -0.031685762 0.039790783 -0.04619209 0.018127697
-0.038971264 -0.099393286 0.15366487 0.18159822 -0.048040908 0.17024441 0.047036912 0.07642412
0.10373739 0.24721958 0.1045616 0.113823935 -0.10181886 0.037946455 -0.035987165 0.0007781725
0.078824535 0.026501684 0.20754318 -0.13887145 0.015539607 0.022268765 -0.0053721494 0.017641397
0.054213338 -0.058832865 0.09147706 -0.017635865 0.20217411 0.09001432 0.08686896 0.12901051
0.11152104 -0.011361872 0.119277865 -0.056772195 0.060187347 -0.010005523 0.16678144 0.08173616
0.047733057 0.073025584 0.06500395 0.09710101 0.18570429 -0.01664375 0.1668886 -0.009555907
-0.08521551 -0.020358676 -0.004880995 0.10349683 0.094189815 0.1610465 0.084565684 0.08416794
-0.13496694 0.030929185 0.1510594 -0.047663346 0.030952176 0.12757975 -0.09385684 0.079922
0.055815518 -0.02383677 -0.08160603 0.105910055 0.056733843 0.045325384 0.07634069 0.05557023
0.122050144 0.04856356 0.11143311 0.19393605 0.0061828485 0.012292268 0.04670117 0.052225325
0.091488115 -0.0076862974 0.008326562 0.18545079 -0.04040687 0.009250251 0.03800468 0.08461623
0.23706166 0.0491011 0.103327416 0.06366006 0.021317514 -0.0025348007 0.031446368 0.036449473
0.116237275 0.001601975 -0.08353421 0.008721151 0.007859174 -0.027810575 0.09278351 0.10955174
0.10247934 0.009672343 0.06819691 0.13083088 0.03544045 0.04886954 -0.006035392 0.026709491
0.07871379 0.13056691 0.046666797 0.0728914 0.20712696 -0.0059360866 0.074471615 -0.060705025
-0.0907465 0.085602865 0.05101363 0.05166562 0.031291537 -0.077143975 0.1448683 0.00214525
-0.012220448 0.11433758 0.096558034 0.1274091 0.22909519 0.21787167 -0.015758028 -0.02228146
-0.099247456 0.052849 -0.09183191 0.00861955 0.07362188 0.12268873 -0.04544674 -0.05601191
-0.04441011 0.02273232 0.01706325 0.03050903 0.013296084 0.10850054 -0.08246875 0.0071258657
-0.036412064 -0.04837733 0.011682279 0.1155403 0.023023743 0.19722252 0.024304109 0.079349145
0.14634277 0.17145364 0.15117241 -0.024351094 -0.0669765 0.03869754 0.113448106 0.19417953
0.15002897 0.059551913 -0.04731731 -0.063364446 0.0050950376 -0.0881735 0.034492202 0.042292126
-0.011697523 -0.03361265 0.06713714 -0.065521985 0.1565993 0.081894785 0.008654189 0.18856221
0.006430915 0.03234085 0.15530509 -0.0042281603 0.07787229 -0.10524437 0.10471562 0.050239522
00000000: cc6a 9ebc 71a6 c13d 7050 c63d 3cdc 5fbd
00000010: 7d2b 2ebd 0aab b2bd 27c1 51bd 46fc 123e
00000020: 87fa 8b3d a791 ed3b de2b b93d aba3 933d
00000030: 0cd9 bcbb f216 4fbc 3d5d 2e3c a0d4 2d3d
00000040: 9a32 e63d d230 8bbd 6e31 273c 2332 fe3d
00000050: 1fcb 953e a102 a13d 6944 8a3d 1a7d ad3d
00000060: 60ac 2e3d dc68 2fbd 2e3d 5f3e d3b1 2a3e
00000070: 7759 173e be13 033e b294 7d3d bb51 953d
00000080: 087e b9bb b39e e33c b5d3 f3bd dbc1 24bd
00000090: a5e9 85bc 7539 bfbc 5dc2 763d da90 41bd
000000a0: be38 853d 6e60 d93a 68ac ab3d af63 32bd
000000b0: f514 813d 46a7 0a3c 8943 013e e83f 99bd
000000c0: f632 5b3d a30c 1b3e 0931 78bd b840 5fbc
000000d0: 4189 a7bc 7884 433d a522 5e3e f87a 3d3d
000000e0: 97c8 983d dd2c 283e ace5 b6bd 3d5c 0cbd
000000f0: eec8 01bd a9fb 223d eb33 3dbd 8980 943c
00000100: 55a0 1fbd b58e cbbd 535a 1d3e e2f4 393e
00000110: 8bc6 44bd 8d54 2e3e c7a9 403d 4084 9c3d
00000120: 4574 d43d 2127 7d3e 6424 d63d 861c e93d
00000130: 6886 d0bd be6d 1b3d 4767 13bd 46fe 4b3a
00000140: c26e a13d 0f1a d93c 3386 543e 5134 0ebe
00000150: d699 7e3c fc6c b63c db08 b0bb b184 903c
00000160: ce0e 5e3d bbfa 70bd 5358 bb3d 1779 90bc
00000170: bb06 4f3e 6e59 b83d 5ae8 b13d 551b 043e
00000180: 2565 e43d 2527 3abc f447 f43d f689 68bd
00000190: 0287 763d 35ee 23bc c1c8 2a3e 4a65 a73d
000001a0: bd83 433d 708e 953d ca20 853d e5dc c63d
000001b0: 4429 3e3e 7958 88bc d8e4 2a3e 6190 1cbc
000001c0: 7885 aebd 3dc7 a6bc c1f0 9fbb 25f6 d33d
000001d0: 97e6 c03d 60e9 243e c630 ad3d 3e60 ac3d
000001e0: c634 0abe 345f fd3c 51af 1a3e a43a 43bd
000001f0: 6b8f fd3c 44a4 023e 0438 c0bd 25ae a33d
00000200: d09e 643d 5445 c3bc 1021 a7bd 5fe7 d83d
00000210: bf61 683d 1ca7 393d 8258 9c3d 9c9d 633d
00000220: 6df5 f93d 95ea 463d 0b37 e43d 2c97 463e
00000230: 7e99 ca3b 8265 493c ba49 3f3d 39ea 553d
00000240: 1f5e bb3d 56dd fbbb 226c 083c d0e6 3d3e
00000250: ad81 25bd 5d8e 173c ccaa 1b3d 464b ad3d
00000260: 4bc0 723e 3c1e 493d 539d d33d 3560 823d
00000270: 11a2 ae3c e61e 26bb e8cd 003d 0b4c 153d
00000280: cf0d ee3d 5cf9 d13a fc13 abbd 29e3 0e3c
00000290: c4c3 003c 01d3 e3bc 4805 be3d aa5c e03d
000002a0: b0e0 d13d bf78 1e3c d2aa 8b3d 88f8 053e
000002b0: 012a 113d 6d2b 483d 8ac4 c5bb ddcd da3c
000002c0: b234 a13d 55b3 053e af25 3f3d 1648 953d
000002d0: 1719 543e 8183 c2bb 9384 983d d5a5 78bd
000002e0: 4dd9 b9bd 8e50 af3d abf3 503d 549f 533d
000002f0: 8e2b 003d a9fd 9dbd 5b58 143e 5397 0c3b
00000300: 4638 48bc d229 ea3d 38c0 c53d 8877 023e
00000310: ee97 6a3e c019 5f3e fb16 81bc 9c87 b6bc
00000320: 4042 cbbd 3178 583d 5e12 bcbd 0339 0d3c
00000330: 11c7 963d 3b44 fb3d 5c26 3abd bf6c 65bd
00000340: 60e7 35bd 2139 ba3c 3bc8 8b3c 13ee f93c
00000350: d1d7 593c 8835 de3d 60e5 a8bd 1880 e93b
00000360: d124 15bd 4f27 46bd 0867 3f3c 65a0 ec3d
00000370: 4a9c bc3c b3f4 493e 6919 c73c ce81 a23d
00000380: e1da 153e 8b91 2f3e f1cc 1a3e f27b c7bc
00000390: fa2a 89bd 5081 1e3d 7b57 e83d 00d7 463e
000003a0: 32a1 193e b5ec 733d cccf 41bd 38c5 81bd
000003b0: 46f4 a63b 4f94 b4bd b247 0d3d 823a 2d3d
000003c0: f8a6 3fbc 6bad 09bd 327f 893d 6430 86bd
000003d0: 915b 203e 74b8 a73d 4dca 0d3c 7416 413e
000003e0: 6dba d23b d777 043d 4c08 1f3e 618c 8abb
000003f0: 827b 9f3d 5c8a d7bd 2575 d63d f5c7 4d3d

conv6.weight f4 [80, 256, 1, 1]
-0.009054935 -0.047803164 -0.0074170874 -0.063220896 -0.08422156 0.003489055 -0.07279508 0.05292203
0.0058739614 -0.068348706 0.11344577 0.024653206 0.054876078 -0.0054142573 0.00080975733 0.020769821
0.06618727 -0.11084597 -0.02307121 0.081130885 0.006297077 -0.009280185 0.012581479 -0.021712737
0.0053111254 0.021838143 0.108431004 0.03917851 -0.048051532 -0.0382253 0.0071564773 0.06844342
-0.009104629 -0.009048144 -0.024735948 0.05464945 -0.0018684658 -0.059461735 -0.020398594 -0.007284584
0.039862446 0.011121717 0.07430115 -0.036461256 0.066437826 -0.07840495 -0.019555308 -0.0015633667
0.042556856 -0.062188085 0.008173583 -0.052575402 0.044321917 0.08102635 0.026501259 0.033072766
-0.043721158 0.0202001 0.07220643 -0.06839856 0.042085126 0.01258262 -0.062236387 0.040205874
-0.046160214 -0.10444415 0.00823628 -0.025289182 -0.018242313 -0.0080242595 -0.068738975 -0.02325822
0.07184216 0.08164842 0.03464855 -0.06758885 0.061901215 0.05315316 0.0023807604 0.024069002
-0.07026837 -0.022232689 -0.092447124 -0.020784315 0.08926168 0.01982319 0.023760144 -0.019015053
0.081018664 -0.033056498 -0.024930527 -0.090279214 0.015318994 0.030495202 -0.039400436 0.021484677
-0.025360418 0.05710485 0.0054571433 0.04780912 -0.086396575 -0.066394106 0.06161062 0.03602028
0.010977636 0.015767435 -0.04187689 0.087358706 -0.019064853 -0.04780452 0.060590595 0.0349484
-0.055982944 -0.07825308 0.022473607 -0.051307905 -0.05319463 0.05991489 0.05633879 -0.06122414
-0.06580839 -0.063630916 0.03948772 0.022271028 -0.0044885725 0.07306068 -0.0047919205 -0.03894189
-0.05379359 -0.023085918 0.004477236 -0.008789957 0.09065596 0.060345493 0.058349125 0.036344934
-0.020021517 0.08188239 0.12944667 0.084270865 0.09608371 0.03363448 -0.057492256 0.007215228
0.10855019 -0.029434688 0.010924999 0.0262105 -0.043792818 -0.029737817 0.049454395 -0.0141663775
0.026327172 -0.04783749 0.16010842 0.013656615 0.009409521 -0.057826888 0.118061416 0.0482508
0.043648075 -0.011850992 -0.05906209 0.02717866 0.03225208 -0.072480045 0.00888793 -0.057093624
-0.029074537 0.049875114 0.04025038 -0.0022234055 0.06469775 0.03806965 -0.035191167 0.0009467196
0.06489915 0.031034334 -0.08398611 0.025696093 0.08456333 -0.07013322 -0.02797241 0.009807282
-0.0749593 0.043705676 -0.0013401062 0.08010078 -0.015468163 0.06441893 -0.037848044 0.006486218
-0.09491406 0.04622802 0.10118527 0.08179743 0.03940058 -0.03738874 0.039064422 -0.07238573
-0.060161363 -0.048751056 -0.07484108 -0.0484776 -0.013349545 0.012310899 -0.042944726 -0.06737478
-0.028276011 -0.019384108 0.0068150638 -0.04230513 0.00432572 -0.019145807 0.09545809 0.033959318
-0.061743528 -0.07244834 -0.01756144 0.05344755 0.10659898 0.0026288587 0.013340749 -0.055188987
0.07659985 0.098190516 0.1162894 -0.00469901 0.05312205 -0.07786896 0.092724726 0.060524084
0.12596597 -0.07053829 -0.016222093 0.04015528 -0.018449567 -0.0075193136 0.070883706 0.08753989
-0.08429851 -0.049138807 0.004378159 -0.053493932 0.007543169 0.003890492 -0.04011633 0.015647406
0.020105412 -0.012853995 0.093044475 0.041057263 0.021034548 0.13619483 -0.079795815 0.03844217
00000000: 265b 14bc 40cd 43bd 0a0b f3bb f579 81bd
00000010: 5a7c acbd a1a8 643b 9615 95bd c5c4 583d
00000020: 5c7a c03b 68fa 8bbd 4256 e83d 85f5 c93c
00000030: bdc5 603d 156a b1bb e545 543a 7925 aa3c
00000040: 318d 873d 3603 e3bd d6ff bcbc f327 a63d
00000050: b657 ce3b eb0b 18bc 8c22 4e3c e9de b1bc
00000060: f308 ae3b e8e5 b23c 1311 de3d a579 203d
00000070: afd1 44bd 2292 1cbd e280 ea3b 102c 8c3d
00000080: 952b 15bc ab3e 14bc 0ba3 cabc 1ad8 5f3d
00000090: 4fe7 f4ba 268e 73bd f41a a7bc 85b3 eebb
000000a0: ce46 233d dd37 363c 342b 983d 6658 15bd
000000b0: 8e10 883d c692 a0bd 7432 a0bc e2e9 ccba
000000c0: 1950 2e3d efb8 7ebd 7eea 053c 4e59 57bd
000000d0: e68a 353d 25f1 a53d 2b19 d93c 4f77 073d
000000e0: f514 33bd ae7a a53c f7e0 933d 8b14 8cbd
000000f0: 7461 2c3d 5527 4e3c 95eb 7ebd eaae 243d
00000100: 7e12 3dbd d1e6 d5bd 76f1 063c 422b cfbc
00000110: e770 95bc 2f78 03bc 05c7 8cbd 0688 bebc
00000120: fb21 933d 4937 a73d a3eb 0d3d 066c 8abd
00000130: 218c 7d3d 21b7 593d 8806 1c3b 5b2c c53c
00000140: dde8 8fbd 5421 b6bc eb54 bdbd de43 aabc
00000150: d4ce b63d 3e64 a23c a2a4 c23c 75c5 9bbc
00000160: 1ded a53d 4066 07bd 1b3b ccbc 4fe4 b8bd
00000170: 85fc 7a3c 13d1 f93c 5a62 21bd a200 b03c
00000180: a7c0 cfbc c6e6 693d d6d1 b23b 7fd3 433d
00000190: b0f0 b0bd a2f9 87bd 6b5b 7c3d 008a 133d
000001a0: 8bdb 333c b52a 813c 1a87 2bbd 1fe9 b23d
000001b0: e52d 9cbc acce 43bd d82d 783d 0e26 0f3d
000001c0: 5f4e 65bd 2743 a0bd 921a b83c 3d28 52bd
000001d0: 9de2 59bd 5169 753d 81c3 663d 2ac6 7abd
000001e0: 8dc6 86bd ed50 82bd e0bd 213d bb71 b63c
000001f0: e014 93bb d6a0 953d 8b05 9dbb 8881 1fbd
00000200: ab56 5cbd ae1e bdbc c7b5 923b c003 10bc
00000210: d5a9 b93d d62c 773d 7eff 6e3d 6dde 143d
00000220: 2a04 a4bc f4b1 a73d ab8d 043e 3496 ac3d
00000230: 89c7 c43d 4fc4 093d 007d 6bbd b86d ec3b
00000240: 904f de3d 0421 f1bc c4fe 323c 67b7 d63c
00000250: 1960 33bd b99c f3bc b190 4a3d 181a 68bc
00000260: 15ac d73c 3ef1 43bd 76f3 233e ffbf 5f3c
00000270: 642a 1a3c e3db 6cbd 2fca f13d a2a2 453d
00000280: 53c8 323d aa2a 42bc 17eb 71bd c8a5 de3c
00000290: c21a 043d 6b70 94bd ae9e 113c 01db 69bd
000002a0: b92d eebc d949 4c3d 95dd 243d 8eb6 11bb
000002b0: 4180 843d ecee 1b3d 9d24 10bd 472d 783a
000002c0: d8e9 843d b73b fe3c e900 acbd 9d80 d23c
000002d0: 8a2f ad3d 01a2 8fbd 6526 e5bc b9ae 203c
000002e0: 4384 99bd b904 333d 81a6 afba e10b a43d
000002f0: 2e6e 7dbc 12ee 833d 8d06 1bbd 578a d43b
00000300: 4d62 c2bd 9859 3d3d 393a cf3d 6985 a73d
00000310: 8162 213d ef24 19bd 0402 203d f83e 94bd
00000320: c36b 76bd 30af 47bd 4846 99bd 7390 46bd
00000330: 0db8 5abc a7b3 493c cfe6 2fbd cafb 89bd
00000340: 18a3 e7bc 6ccb 9ebc e650 df3b 2548 2dbd
00000350: c5be 8d3b abd7 9cbc 887f c33d ed18 0b3d
00000360: c8e6 7cbd cc5f 94bd 02dd 8fbc d1eb 5a3d
00000370: 9150 da3d ee48 2c3b 2893 5a3c d90d 62bd
00000380: 62e0 9c3d 1c18 c93d 2329 ee3d 27fa 99bb
00000390: 8296 593d c379 9fbd 76e6 bd3d 1ae8 773d
000003a0: 39fd 003e 6176 90bd 32e4 84bc dd79 243d
000003b0: 8c23 97bc 9364 f6bb 7a2b 913d 1d48 b33d
000003c0: b2a4 acbd c645 49bd a976 8f3b 741c 5bbd
000003d0: b02c f73b a0f7 7e3b 0551 24bd fd2e 803c
000003e0: 1bb4 a43c 9099 52bc 1a8e be3d a92b 283d
000003f0: a550 ac3c a876 0b3e fd6b a3bd 8975 1d3d
