models/trained/ConvNet1_6.pt (torch, 442274 bytes, 14 tensors)

conv1.weight f4 [4, 1, 5, 5]
00000000: f213 ca3d 64fc 5f3b feab d1bc 9631 09be
00000010: ec86 2e3d 9ad7 bdbc ace2 26be aeb4 d6be
00000020: 246c b5be f13e e9bd 0bf6 b9bd 91dd 6e3b
00000030: de45 ba3d 031f 753d 7fa6 473d 2026 dd3c
00000040: 8f30 143f e9d6 203f 9633 a53e ca3b 8c3d
00000050: 7cd5 c5bd 56db f43e 5d9a da3e 2684 773d
00000060: 957c 8cbc 661e 4e3d ef58 3dba b5fc eebc
00000070: f4c6 56bd 77fc e5bd 6e8f 6fbd 1048 d3bd
00000080: 2837 f5bd 04c7 4cbe ae86 12be fdc6 acbd
00000090: 77df febd 28bd 46be aecd 8cbe 341b 033c
000000a0: b326 27be dd77 36be 1072 7ebe 1096 e5bd
000000b0: e3be 923e a4f9 4cbe 5aa5 36be 2df4 5abd
000000c0: 3143 603e b4a0 c93e 9612 a6bd abe0 633e
000000d0: 98b4 213e d895 94bd b04c 68bd d17c 123e
000000e0: e219 ba3e 4b59 e2bd 2505 b3be 9345 dbbc
000000f0: 790b 473e 27af 6a3e d4ed d2bd 74f5 dfbe
00000100: cdca 92bd 0ce3 573e 6a59 a53e 1425 763d
00000110: af4a 5cbe d950 edbd 9679 3d3e 7d20 313e
00000120: f229 7a3e 1395 ea3d 384d a7bd bf23 643d
00000130: 52b8 a4bd 70e8 7d3d 5bd6 613e de82 243e
00000140: 38f6 78bd ec86 753e da11 b63e 28a4 fe3d
00000150: 7244 56be 2796 423e af3a 0d3f 2353 023f
00000160: aab6 aabc 61ac 56be ee9a 4f3e 81c8 ce3d
00000170: 3ca0 193d 84fc 91bd be76 b6bd 6300 83be
00000180: e156 bebe 289c 95be 1023 c5bd 304d ad3d
0.098670855 0.0034177536 -0.025594708 -0.13397822 0.04260914 -0.023174096 -0.16297406 -0.41934723
-0.35434067 -0.11388958 -0.09080132 0.0036447982 0.09095357 0.05984403 0.048742767 0.026995718
0.57886595 0.62827927 0.3226592 0.06847341 -0.096598595 0.4782359 0.42695895 0.06042876
-0.01714925 0.05032196 -0.000722303 -0.029173234 -0.05243583 -0.112297945 -0.058486395 -0.10316479
-0.11973411 -0.19997793 -0.14309189 -0.084363915 -0.12444966 -0.19408095 -0.2750067 0.008002091
-0.16323356 -0.17819162 -0.24848199 -0.11210263 0.2866126 -0.20017105 -0.17836514 -0.05345552
0.21900631 0.3938042 -0.08109014 0.22253673 0.15791547 -0.07255143 -0.05671376 0.14305426
0.36347872 -0.110521875 -0.34964862 -0.026766574 0.1943797 0.22918378 -0.10299268 -0.43741953
-0.071675874 0.21082705 0.3229478 0.060093954 -0.21512865 -0.11587686 0.18503413 0.1729755
0.24430063 0.11454215 -0.08169025 0.055698153 -0.08042969 0.061989248 0.22054426 0.16065547
-0.060781687 0.2397725 0.35560495 0.12433654 -0.20924547 0.19002591 0.5516767 0.50908107
-0.020839054 -0.20964195 0.20273945 0.10096837 0.037506327 -0.07128242 -0.08909367 -0.25586233
-0.37175658 -0.292207 -0.09625828 0.08461988

conv1.bias f4 [4]
00000000: 8778 df3e 88f6 f73d 53f0 683e b9ad bf3e
0.43646643 0.12107569 0.22747926 0.37437227

conv2.weight f4 [8, 4, 5, 5]
00000000: f5b3 de3c 47b5 58bd 9a57 c6bd 0adc abbd
00000010: c6a8 9bbc bed2 7d3d 6b87 d2bb 40b1 1fbd
00000020: 3092 84bd 5738 38bd 4f5c 553d c50f 8d3b
00000030: 07eb 44bd 91ae babd 4ba5 97bd be8c 7e3d
00000040: 4ccc 123d 749f 6dbc 0812 a0bd a7d2 83bd
00000050: a532 803d 8c7c 8e3d e87a 1b3d 222a 3abc
00000060: e8e4 4dbc 0549 b83a 0484 c03b 7320 943c
00000070: 2c34 e93c 4f16 883c b823 76bb b876 c1bb
00000080: eff8 75bc 56fa 983c 2a3d 223c d2ce 83bc
00000090: 050d 0ebd e15d e9bc 1ed1 f83b b97a 9fbc
000000a0: 09f6 bdbc 5bf6 e3bc c506 cebc 93f9 0ebb
000000b0: a8eb cabb 3585 e33b 4340 4fb9 65f1 463b
000000c0: f8aa ea3b 434e 013c 6e02 7a3d cc52 1d3c
000000d0: c1f8 3cbd f884 88bd e1e7 0dbd fa9d a53d
000000e0: 5215 333d 5ff9 4dbc 37d1 30bd 45f4 56bd
000000f0: e3c5 cd3d 240c 913d 5be1 0b3c 70ba 0dbd
00000100: f948 82bd b6d9 bf3d 2996 a73d 2731 233d
00000110: 402a 5dbc fb7c 76bd d4aa 8a3d b334 be3d
00000120: f7c3 b53d 2117 e53c 0457 0cbd 0445 a73b
00000130: 0522 45bc ea86 52bc 0b99 333a 2e17 2e3d
00000140: fdcb 6d3d 8d32 bc3b 71fb 22bd 17ed 29bd
00000150: c18b f7bb f613 9b3d c697 1c3c 2ce1 20bd
00000160: e8f0 5abd d7c7 00bd 802d 5f3d 6326 edba
00000170: 6eca 56bd 6874 9abd c68b 8cbd d3bb da3c
00000180: f7f6 5ebb 2d1c 00bd 7afa 81bd b4b3 95bd
00000190: f27f 76bd 6974 b93c b707 7e3d b209 ddbd
000001a0: 2f2f 23be 85cf f8bd 49ba 813b 02ff 1a3d
000001b0: baa8 b5bd 6644 62be a6b8 9bbd 574a 693d
000001c0: e244 113e 8bd3 b93d 72bd b73b 688c 38bd
000001d0: 4288 35bd 3942 8f3d 5c9b 2f3e f306 d03d
000001e0: 71f9 10be 2250 92bd bb93 3dbc 693f 383d
000001f0: 1595 a53d c2e4 643d 2553 d53a f1c2 e6bc
00000200: 4c9c 113d d6e8 bf3d 4a8c 303d c5fd 8339
00000210: dfa2 8cbc 4c47 70bc 8e78 823d 7f91 b43c
00000220: acaa b23a 9b34 6ebd 4224 43bd 97f8 043d
00000230: 57b9 83bd a8d8 c0bd 3fc0 debd ca6f 73bd
00000240: a992 08bc 368d adbd 1eab c0bd 3651 97bd
00000250: f0cb 57bd 188e f3bb 22fc e93b 016c 4b3d
00000260: 2a9b 063e bc79 383d b14c 86bd 1a5f 5ebb
00000270: 536b af3d b21d 863e bb90 6e3e a733 533c
00000280: 923a f83c 8fac ec3d b837 ac3e d988 963e
00000290: ad61 883d a83d f73c 5230 d03d 7aa2 443e
000002a0: 70d4 4c3e b973 843d 89d9 02bd c7b6 933d
000002b0: add5 cb3d c349 f53d 7dab a83d 6578 dcbb
000002c0: 29b1 94bc 13a3 ee3c c3c3 a33c 4fc6 e4bc
000002d0: 1fcd febb 0343 653d 74d3 993d 0712 9bbd
000002e0: 09fa f6bd 9e0d b13c 6fcc 263e 7145 dc3d
000002f0: ef88 6c3c 07a5 94bd bae7 0f3d 8412 383e
00000300: 704b 103e ce4a ca3d 6d9b 67bd b8d6 773d
00000310: 3ead b03d dac0 693d 68a6 db3d 4232 d03c
00000320: 61c4 f03d df1c a03c b2f6 5fbe 1110 93be
00000330: 2da7 08be 5660 493d 77f6 17be c937 8abe
00000340: 5989 27be 36ef d33d 8b09 6dbd 8cb4 8ebe
00000350: 9594 87be abf0 3f3c 4db1 2f3e c931 60be
00000360: 05e8 7abe f390 8ebd adc7 be3d 22a0 c73d
00000370: a8b8 56be 9ec2 02be b0f6 7ebd 853e e83c
00000380: df39 8d3d 33ed 41bd 2dc5 abbc 7583 8a3d
00000390: da0e ef3d e2f7 063e b209 91bc 9628 ba3c
000003a0: 305e 113e a507 1e3e 09a6 e93d 24ca 653c
000003b0: cb9b a53d efed 123e 009a d63d 6547 983d
000003c0: a2d7 673d e486 b43d 32c5 ad3d 19ad 2e3d
000003d0: 0bfa 2c3d f868 823d 4686 003e fc1f da3d
000003e0: 2608 a53d bb9f 603d 47c3 ee3c 6c62 ba3d
000003f0: 54bd 0c3e 9f97 9b3c 3988 b5bd e8fe 293d
0.02718542 -0.052907255 -0.096846774 -0.083915785 -0.019001376 0.061968558 -0.0064248345 -0.0389874
-0.064731956 -0.044975605 0.052089985 0.0043048584 -0.048075702 -0.09115327 -0.07404574 0.06214594
0.035839364 -0.014503349 -0.07815939 -0.06436663 0.0625966 0.06957349 0.03795901 -0.011362584
-0.0125667825 0.0014059847 0.0058751125 0.01808188 0.02846726 0.0166122 -0.003755791 -0.005904045
-0.015012964 0.018674057 0.009902278 -0.01608983 -0.034680385 -0.028487148 0.007593288 -0.019467698
-0.023188608 -0.027827432 -0.025149712 -0.0021816238 -0.006192643 0.0069433697 -0.00019764998 0.0030356285
0.0071614943 0.007892194 0.061037473 0.00960226 -0.046135668 -0.06665987 -0.034644965 0.08086772
0.043721505 -0.012571662 -0.043168273 -0.052479047 0.100475095 0.07082394 0.008537616 -0.03460163
-0.06361575 0.09367697 0.08182938 0.039841797 -0.013498843 -0.060177784 0.06770864 0.09287395
0.08875268 0.02796513 -0.034262672 0.005104663 -0.012032037 -0.012849549 0.0006851113 0.042502575
0.058055867 0.005743331 -0.039790574 -0.041485872 -0.0075545018 0.075721666 0.00955767 -0.03927724
-0.053452402 -0.031440582 0.05448675 -0.0018093105 -0.052439146 -0.07541734 -0.06862597 0.02670089
-0.0034021714 -0.03127687 -0.06346603 -0.07309666 -0.060180612 0.022638517 0.062019076 -0.10792865
-0.15935968 -0.12148956 0.0039589745 0.03784085 -0.08870073 -0.22096404 -0.07603578 0.05695566
0.14186433 0.09073552 0.0056073004 -0.045055777 -0.0443194 0.06995053 0.17149109 0.101575755
-0.14157654 -0.0714419 -0.011570866 0.044982348 0.08085076 0.055882223 0.0016275389 -0.028169127
0.035549447 0.09370582 0.04310254 0.0002517534 -0.017167507 -0.014665436 0.0637065 0.022042034
0.0013631186 -0.058155637 -0.047642 0.032463636 -0.06431835 -0.09416324 -0.10876512 -0.059432782
-0.008335748 -0.084741995 -0.09407638 -0.07388537 -0.052684724 -0.0074327104 0.0071406523 0.049663547
0.13145128 0.04503797 -0.065575965 -0.0033931197 0.08565392 0.2619453 0.23297398 0.012890733
0.030301366 0.115563504 0.3363626 0.2940128 0.06659255 0.030180767 0.10165466 0.19202605
0.20002913 0.06467385 -0.03194574 0.072125964 0.09952865 0.119769596 0.08235834 -0.0067282193
-0.018150883 0.029130494 0.019990807 -0.027926592 -0.007775917 0.05597211 0.075110346 -0.07571798
-0.12059409 0.021612938 0.16288923 0.107554324 0.014436944 -0.07258039 0.0351331 0.17975813
0.14091277 0.09877549 -0.05654471 0.060507506 0.08626793 0.057068683 0.10725099 0.02541459
0.11756206 0.019545017 -0.2187145 -0.28723195 -0.13345022 0.04916414 -0.14840113 -0.26995686
-0.16360988 0.1034836 -0.05787043 -0.2787212 -0.26480547 0.011715095 0.17157479 -0.21893992
-0.24502571 -0.069612406 0.09315429 0.0974734 -0.20968878 -0.12769553 -0.06224698 0.028350124
0.06895804 -0.04734535 -0.020968044 0.06763355 0.116727546 0.13180497 -0.017704818 0.022724431
0.14196086 0.15432604 0.11408622 0.014025245 0.08086356 0.14348577 0.10478592 0.074354924
0.056602128 0.08814791 0.08484878 0.042645548 0.042230647 0.063676775 0.12551221 0.10650632
0.08058195 0.05483983 0.02914585 0.09100804 0.13744098 0.018993197 -0.08863873 0.041502863

conv2.bias f4 [8]
00000000: a08c 093c 2b93 883d 6a8a 33bd 3e8c 233d
00000010: c196 5c3c 1d15 7dbc 6110 80bb 4a51 c73c
0.008395344 0.06668695 -0.043833174 0.039928667 0.013463677 -0.015446928 -0.0039082025 0.024330754

conv3.weight f4 [16, 8, 3, 3]
00000000: 6d3a dbb3 efc5 87b4 d1f8 88b4 9e2c 05b4
00000010: 9395 2d34 db10 25b4 11e3 9832 9ed2 4cb4
00000020: 6d6f 4334 7c27 24bb e476 b2bb 48f5 05bc
00000030: 4fe9 78bb d8e8 c2bb f12a 11bc f8ab 30bb
00000040: e82a efbb a832 26bc be10 7eba cf9b e7ba
00000050: 5ce3 98ba ba5f 9eba 439e 90ba c9a5 bbb9
00000060: d9c4 3fba 0d9a 2eba b22c 0cba c17c 6fb7
00000070: 1ee2 b6b8 b28c 41b9 812f 57b7 d689 04b9
00000080: 1a86 8bb9 84b7 7fb7 4a24 a1b9 9947 b5b9
00000090: e17c d6bb 4ffa 29bc 256f 99bc c3e6 c5bb
000000a0: d781 5fbc 7c1d b9bc e3ab 0bbc a86d 67bc
000000b0: 38f7 90bc dc7d 81bb ddf9 eebb 00bb 80bc
000000c0: ade5 80bb edc2 05bc 99e8 36bc d456 30bb
000000d0: d9d8 9abb 5a5c d7bb 036a d2b8 3e11 44ba
000000e0: c73b 72ba f454 4bb9 68da 97ba f72b 81ba
000000f0: 3c88 eeb9 4791 f8ba 308d 2cba b0b5 ce34
00000100: d5f3 1bb7 7ae1 8db8 3fbb 30b5 e804 e1b7
00000110: cda9 92b8 82b1 3eb6 5142 6eb8 adc6 c5b7
00000120: e372 383d 3eda 233d 7efe c73b 0061 1bbd
00000130: 2f08 4bbd d6b6 5fbd 2fc2 91bd e04f d6bd
00000140: 91d7 a9bd 3fae 9f3d 3d7b 543c 551d 35bd
00000150: d01c 33bd 06cc bdbd a206 08be e5f4 82be
00000160: d463 6ebe a60f 11be fcb8 66bd afb0 cdbc
00000170: 14d3 b23d a521 4abd 999a 943d 82b0 3d3e
00000180: 2199 503e 40b9 513e 7938 d43d 7df0 fbbc
00000190: 6cff 48bd 6a6c 60bd b400 a7bd c293 b0bd
000001a0: 2cef 96bd 4279 e6bd 06ff 63bd 8fcb 98bc
000001b0: b7ee af3b b10d e2ba c17d e13c 8b0d b93d
000001c0: 2d2a 743d 65e6 7c3d b6ff c2bd 2a2d 1dbd
000001d0: 8852 ef3d dd9c cb3d afc5 c13d 3af0 3d3d
000001e0: bd2f da3c 7537 d93d a913 4b3e 601b 9f3c
000001f0: 19d8 2f3e 7eaa 013e 8859 49bd 34ff 27bd
00000200: d5b8 323d 086a e9bd 7c41 03be cdd6 b7bc
00000210: 46a5 15be 154a f8bc 4987 823d fd40 543d
00000220: 9001 3e3d b144 61bd 2ddb 0b3e 4518 963a
00000230: fd41 fabd 2225 f4bb ebc3 18bd 280b c3bc
00000240: c592 06bc 5893 bc3c 5ae9 473c 52af 8bbc
00000250: 05ce 9fbd 37c6 c5bd 3b32 dcbb cff4 2abd
00000260: 59ce 51bd 3eb5 e03d 6d8e 343e 8b4a 413e
00000270: 6a20 87be b17f 7dbe 391a 34be daec d5bd
00000280: 34b7 2abe 1ed2 b0bd b44d 003e aea3 d83d
00000290: 3258 a43d 32a5 8bbb 3ab9 9e3b 2990 593d
000002a0: c824 dfbc 03b5 5dbc 70c4 1e3e 8496 b83c
000002b0: ef15 0b3c 537d c7ba 9da3 9fbd 17f1 91bd
000002c0: 3ca7 9ebd d2c6 03bd 6b04 863d 1186 193d
000002d0: 8e2e 953d 2048 8f3e 7fb5 993e 142c 92be
000002e0: 06cb 38be 2a62 a7bd e4af f8bc c85c d43c
000002f0: 5c64 18bd f0bd 6dbe 58a2 c2bd 5022 d8bd
00000300: c258 56bd 9a62 73bd 6456 43be c7eb a63e
00000310: 2ae1 843e cdcf 853e 82a9 c93d 7553 6c3d
00000320: e486 37bb d58b 0ebe 5edd ebbd 9c2d a1bd
00000330: 1c83 0abd bb76 8abd eab0 843d 41f8 9c3d
00000340: 438a 403e d229 fe3d b019 fe3c 3bee 7f3d
00000350: 8770 1d3d 6c87 aa3c 529d ff3d 471d c23d
00000360: a873 503d c26c 54bb 0fe6 5f3d 42c3 793c
00000370: 76e0 51bd 51e8 c43c 986c 84bd 78a4 3cbd
00000380: 33a2 773d 20b1 c23d 975a 2e3e d5e8 433e
00000390: f5ca 29be 4e4d 963d 5456 3f3e 30e6 45be
000003a0: f703 d2ba 400e e83d e10c 833a bdac afbd
000003b0: 7c73 1fbe 427e 5cbd 2319 75be b71f cabd
000003c0: 9c83 223d 76e0 c3bd 54b9 ad3b ead2 c2bd
000003d0: f336 b93d bc4f 8a3d 3e2f 51be 1867 1ebb
000003e0: 615b 193d 2a89 6abd 0aec a23d c87b 4cbc
000003f0: 5f40 53bc 755d 10bd 3f41 483d 9d32 3ebe
-1.020861e-07 -2.5289725e-07 -2.5513012e-07 -1.2402822e-07 1.6166295e-07 -1.5372954e-07 1.7798387e-08 -1.9075603e-07
1.8201327e-07 -0.0025047949 -0.005446302 -0.008176155 -0.003798086 -0.0059481673 -0.008860336 -0.002695797
-0.007298816 -0.010143913 -0.0009691826 -0.0017670336 -0.0011664438 -0.0012082972 -0.0011033494 -0.0003579094
-0.00073154044 -0.00066605286 -0.00053472363 -1.4274557e-05 -8.720554e-05 -0.00018458327 -1.2826059e-05 -0.00012639849
-0.0002661206 -1.52419125e-05 -0.0003073535 -0.00034576355 -0.0065456484 -0.01037462 -0.018729756 -0.006039472
-0.013641796 -0.022597067 -0.008524868 -0.014125265 -0.017696008 -0.003951771 -0.0072929696 -0.015714169
-0.0039336295 -0.00816415 -0.011163854 -0.0026907222 -0.0047255573 -0.0065722885 -0.000100333265 -0.0007479376
-0.0009240475 -0.00019391236 -0.0011585476 -0.0009855021 -0.000454964 -0.0018964194 -0.0006582318 3.8502685e-07
-9.2954915e-06 -6.765402e-05 -6.583759e-07 -2.6824375e-05 -6.9934504e-05 -2.841553e-06 -5.6805384e-05 -2.3576746e-05
0.04503144 0.040003054 0.006103336 -0.037934303 -0.04956835 -0.054617725 -0.07117116 -0.10464454
-0.08293069 0.07796907 0.012968835 -0.044217426 -0.04372865 -0.0926743 -0.1328378 -0.25577465
-0.23280269 -0.14166126 -0.05632876 -0.025108663 0.08731666 -0.049348492 0.0725605 0.18524364
0.20370914 0.20480824 0.10362334 -0.030754322 -0.049071714 -0.05479089 -0.08154431 -0.086219326
-0.07369837 -0.11253597 -0.05566313 -0.018651752 0.005369033 -0.0017246512 0.027525784 0.09035786
0.059610534 0.06174316 -0.09521429 -0.03837315 0.116856635 0.09942029 0.09461533 0.046371676
0.026634092 0.10606281 0.19831719 0.019422233 0.17172278 0.12662694 -0.04915765 -0.041014865
0.0436333 -0.11397177 -0.12817949 -0.022441292 -0.14613828 -0.030308763 0.0637346 0.05181979
0.04638821 -0.05499715 0.13657828 0.0011451325 -0.122196175 -0.0074507156 -0.037296217 -0.02380903
-0.0082137035 0.023019478 0.012201631 -0.017051373 -0.07802967 -0.09656947 -0.006719855 -0.041737374
-0.05122218 0.10972069 0.17632456 0.18876092 -0.26391917 -0.24755742 -0.17588128 -0.104455665
-0.16671449 -0.08633827 0.12529641 0.105780944 0.080246344 -0.004261636 0.004843858 0.053115997
-0.027239218 -0.013531926 0.15504622 0.022532709 0.008489116 -0.0015219845 -0.07794879 -0.07126062
-0.07746741 -0.03217203 0.065438114 0.03748137 0.0728427 0.27984715 0.30021283 -0.28549254
-0.18046197 -0.0817302 -0.030357309 0.025923148 -0.037205085 -0.23216987 -0.09503621 -0.105534196
-0.05233074 -0.059420206 -0.19075924 0.3260176 0.25953037 0.26135102 0.09846784 0.05769678
-0.0028003985 -0.13920529 -0.11516832 -0.078700274 -0.033816442 -0.06760927 0.06479056 0.07664538
0.18802743 0.1241032 0.031018108 0.062483054 0.038437393 0.020816527 0.12481178 0.094782405
0.05089155 -0.0032413458 0.05466276 0.015244307 -0.051239453 0.024036558 -0.06466025 -0.046055287
0.06045742 0.0950644 0.17026745 0.19131787 -0.16581328 0.073389634 0.18685275 -0.19326091
-0.001602291 0.11330843 0.0009998345 -0.08577869 -0.15571398 -0.053831346 -0.2393537 -0.098693304
0.039676294 -0.09564297 0.005301634 -0.09512885 0.09043684 0.067534894 -0.20428178 -0.0024170335
0.03744066 -0.057259716 0.07955177 -0.012480684 -0.012893765 -0.035245378 0.04889035 -0.18573995

conv3.bias f4 [16]
00000000: d915 bc33 c01d 44bc 0737 133d 7c48 e63b
00000010: ad53 e33c 2723 913c 293e 0b3d 92d3 a0bc
00000020: 8531 2c3c 983e 1b3d a254 c93c 5c87 b73c
00000030: df60 893c 2d07 18bc 8d61 d73c 7b95 1c3b
8.758406e-08 -0.011969984 0.03594115 0.007027684 0.02774986 0.017716957 0.033994827 -0.019632135
0.010509853 0.03790149 0.024576489 0.022403412 0.016769825 -0.009279055 0.026291633 0.0023892808

conv4.weight f4 [64, 16, 3, 3]
00000000: d8a5 7733 82b0 56b2 5963 622e 35ce bdb2
00000010: 7380 21b3 8752 58b3 2d51 1332 a128 5eb0
00000020: ee76 4fb2 e9a3 3f3d 3967 dd3b f415 d83c
00000030: 0520 cc3c cb5e 3e3d 4844 113c aaf1 a03b
00000040: 5cf5 52bc 3595 a5bd 76e7 05bd 4a3a 0fbd
00000050: 255e 10bd 5809 b33c 388c 13bc 2d04 0a3b
00000060: 8e26 3e3d a77e 77bc cf86 7fbd 610d a6bc
00000070: 49f7 15bd 9061 94bd 44bb 583b 38aa 15bd
00000080: 3514 0dbd 4ca4 f13b c5ca 70bd daba d5bc
00000090: bbe4 743d 3dcd d43d 9483 c53d 4d0c 893c
000000a0: 6ba9 b0bc 5032 50bd 4126 1ebd 0c07 c9bc
000000b0: 54a4 75bc 58fa 9cbc 5732 a8bc f725 c9ba
000000c0: 238c 08bc bc4c d0bb 4d21 babd db76 69ba
000000d0: 6a01 57bd 1b55 02be 9a47 8bbc 7019 b5bc
000000e0: 2018 a8bc a89c 1dbd b68f 30bd ab39 1abb
000000f0: a45d c6bb a70c fabb fddf 6a3c 6772 2abc
00000100: ff72 7c3d b66d 8a3d de3b d93c 6a39 edbc
00000110: c24a 4fbd 53dd 10bd c61f 71bd 4990 3abc
00000120: 1c3e 9a3c 681b 413c 7b75 9d3d 4c4f 523d
00000130: 87e8 863d 7821 093c c4d6 77bd f545 6bbd
00000140: b51e fbbc f546 6b3b 07b5 9f39 85ee 66bc
00000150: a540 ccbc 7ac0 d93b bd38 20bd d248 293b
00000160: 064b 84bc f643 c5bc 3072 f8bb de5b bd3c
00000170: 235f fc3b 48c6 17bc b3bf 963c 4ebd 18bc
00000180: 7a1f 4cbc d4ff 2d3c fd00 cebc bc18 683c
00000190: ead6 b03c 57de 303b b16b 0dbb 4ff8 80bc
000001a0: 65eb 51bd 9d33 77bb c87b ccbc 43b9 e2bc
000001b0: 9e62 2cba d83b bdbb 8323 533b 61af 983d
000001c0: 4797 cd3d 22f8 01bb 9166 00bd 951e 3ebd
000001d0: 5bd1 6cbd 56b9 dabc d14a 5cbc 1c8e 11bd
000001e0: d96e 8ebd 8ca7 8abd 5ff2 3ebd 5fa5 79bd
000001f0: ed0d 3bbc 6e57 6abc c2c8 4cbd e1bb 09bd
00000200: f100 87bc eab6 e6bc baa3 ecbc 2398 35bb
00000210: ae24 77bc e8b5 2abc 75a3 a43c a2df cc3c
00000220: 7429 65ba cc01 d0bc ae92 d8bc 2a95 53bd
00000230: 4620 58bd edc0 adbc 57ca b6bc f182 90bc
00000240: d4af c5b5 1d79 37b8 7b09 feb9 8335 27b9
00000250: cb9c 4bba d5b1 07bb 925c 33ba 3806 f7ba
00000260: 6877 3fbb 844c c2bc b931 123e b37b dc3d
00000270: 8277 78bc 8ca1 c03d 7a0f 45bd 24c6 b73d
00000280: e8b2 c4bc 008a 0abe a86a 923c ee01 35bd
00000290: f784 16be 1eb0 003d f743 aabd 6cef 12be
000002a0: c2c2 84bd ff5b e9bd d497 23be c193 3a3c
000002b0: 8ae4 5cbd 3f4d a5bc 24ad bfbc 29e4 9e3c
000002c0: 3e3a 203d a9ac 3bbd b39e 433d f038 29bc
000002d0: 3fb7 643c e94a a0bc 1078 05bd 6a97 aebd
000002e0: dd3b b5bd 9470 0bbe 9b6b 81bd 73e3 1dbe
000002f0: 30db 04be 184a 08bd 185a 34bd 8d2e 5fbc
00000300: edee aabc 94b0 273c f5d6 1b3d cda5 6fbb
00000310: 23c9 32bb 6f19 173d 63f0 d53b 0fa5 913c
00000320: fde6 08bd 025c 563b 5a95 7dbc 60d8 f8bc
00000330: 361c 36bd 0c84 03bd abee acbb 1be9 39bd
00000340: 9c53 95bd ddaa 083d cd52 86bd bb4b b7bc
00000350: e49a 7d3d 8a7d dabd 9539 03bd d716 853c
00000360: a8da d6bb f845 96bd 9427 40bd 7dac d2bd
00000370: 5c82 a3bd 82a1 01bd 2e0a 97bc 1a12 acbd
00000380: 4386 5cbd 746f 4dbd 9f17 14bb 190d dbbc
00000390: fc9f 3ebc b6df 4ebd 0e11 3ebd 9b61 253d
000003a0: 827c d23c a072 b53c 8d18 ccbc a18b fabc
000003b0: 2735 d5bb bc0c 5abc 2db7 64bd a6d8 8fbd
000003c0: f57f ed3b 4620 adbb a1e4 373c caca 9dbc
000003d0: 4081 153a 3cdb d7bb 7da0 c1bc d22d ef3b
000003e0: 465a 76bc 200d 1ebb d51c 3dbc ce35 7dbd
000003f0: 965d a6bd 0aa3 adbd e25a b0bd c896 65bd
5.7660003e-08 -1.2496573e-08 5.147469e-11 -2.2096268e-08 -3.7602558e-08 -5.0366477e-08 8.574983e-09 -8.0820867e-10
-1.2076027e-08 0.046787176 0.00675669 0.026377656 0.024917612 0.04647712 0.008866377 0.004911621
-0.012875881 -0.080850996 -0.03269144 -0.0349677 -0.035246033 0.021855041 -0.009005599 0.0021059618
0.046423487 -0.01510588 -0.062384423 -0.020270051 -0.036612783 -0.07245171 0.0033070603 -0.036539286
-0.0344431 0.007374322 -0.058787126 -0.026090074 0.059788447 0.103907086 0.09644237 0.016729498
-0.02156516 -0.05082923 -0.0386107 -0.024539493 -0.014992792 -0.019162342 -0.020531816 -0.0015346397
-0.008334192 -0.0063568037 -0.09088383 -0.00089059555 -0.052491583 -0.12727778 -0.017001916 -0.022106856
-0.020519316 -0.038479477 -0.043105803 -0.0023532908 -0.0060536433 -0.007630903 0.0143356295 -0.010403252
0.061633106 0.06759207 0.026517805 -0.028958041 -0.050608404 -0.03536732 -0.058868192 -0.011386939
0.018828444 0.011786319 0.07688423 0.051345155 0.0658732 0.008369796 -0.06050755 -0.057439763
-0.03065429 0.0035900448 0.0003046172 -0.014094953 -0.024933169 0.0066452594 -0.03911661 0.0025830758
-0.016149055 -0.024080258 -0.0075819716 0.023115095 0.007701771 -0.0092635825 0.018401956 -0.0093224775
-0.0124586765 0.010620076 -0.025146956 0.014166053 0.021586854 0.0026987994 -0.0021579082 -0.015743403
-0.05124988 -0.0037719973 -0.024961367 -0.02767623 -0.00065759744 -0.005774956 0.0032217212 0.07455326
0.100386195 -0.0019831737 -0.031347815 -0.046415884 -0.057816844 -0.026699703 -0.013445572 -0.035535917
-0.06954736 -0.06770238 -0.04661786 -0.060948726 -0.011416894 -0.014303071 -0.049996145 -0.03362644
-0.016479941 -0.028163392 -0.028886665 -0.0027709089 -0.015084429 -0.010419346 0.020097474 0.02500898
-0.0008741834 -0.025391482 -0.02643713 -0.051655926 -0.052765153 -0.021210158 -0.02231328 -0.017640563
-1.4728816e-06 -4.3743396e-05 -0.0004845372 -0.00015946296 -0.00077671994 -0.0020705361 -0.0006842102 -0.0018846458
-0.0029215459 -0.023718126 0.1427678 0.10765781 -0.015165212 0.094058126 -0.048110463 0.08973339
-0.02401109 -0.13529205 0.017873123 -0.044191293 -0.1469916 0.03141796 -0.083137445 -0.14349145
-0.064824596 -0.113945 -0.15975887 0.011387766 -0.05392889 -0.020178435 -0.02339799 0.019395905
0.039118044 -0.04581896 0.04775877 -0.010328516 0.013959705 -0.01956697 -0.032585204 -0.08524974
-0.08849309 -0.13617164 -0.06319352 -0.15418796 -0.12974238 -0.033273786 -0.044031233 -0.013621938
-0.020865882 0.010234971 0.038046796 -0.003656733 -0.0027280531 0.03688949 0.0065289005 0.017778901
-0.033423413 0.003270865 -0.015477503 -0.030376613 -0.044460498 -0.03210835 -0.005277475 -0.045388322
-0.07291338 0.033366073 -0.06558762 -0.022374978 0.061915293 -0.10668476 -0.032037336 0.016246242
-0.0065568276 -0.07337564 -0.046912745 -0.10286806 -0.079838485 -0.031648166 -0.018437471 -0.0840189
-0.05383898 -0.050155118 -0.0022597087 -0.026739644 -0.011634823 -0.050506316 -0.046402983 0.040376287
0.025694136 0.022149384 -0.02491405 -0.030584158 -0.0065065804 -0.0133087 -0.055838753 -0.07023744
0.0072479197 -0.0052833883 0.011223943 -0.019261736 0.00057031587 -0.006587414 -0.023636097 0.0072991634
-0.015036171 -0.002411671 -0.011542519 -0.06181889 -0.08123319 -0.08478363 -0.086110845 -0.056052

conv4.bias f4 [64]
00000000: d1d3 36bc f8b9 1cbd 59fc 85bc 2216 bb3a
00000010: c40d 0000 4743 b9bb 72fc c725 da68 073c
00000020: 6173 4aba 0f27 5fb8 0f84 793b b2c9 52b7
00000030: 8794 853b ac88 a2b1 b979 fe3b 8aec 8abc
00000040: ed07 3ebc c3d4 d8b8 4149 0838 a6fb debb
00000050: 85a7 bbb9 c40a b3bb dae7 6bbc dae4 7db3
00000060: fc4f 3fb4 975c 59bc 8bb9 c83b 3e20 69ba
00000070: acdc 513c 68cf c7b5 021b 933b 4f43 46bd
00000080: 3700 10bd b700 5e3c f04c ccbc aafa 95bc
00000090: 7982 69ba 0fff 20bc e494 10bc 6127 18bd
000000a0: 1c27 45bc 2bc2 163c b652 bcbc 47ef e3b4
000000b0: 227a 1dbc 384d b03a 1db8 7c38 3eb6 f3bb
000000c0: 2e47 46a2 2716 fcba b23f 28bc d22b a83b
000000d0: 9eea 70b6 b189 163c 1c86 7abc c799 37bc
000000e0: d14e 83bc fbdb 6a37 1646 37bc 7431 99bc
000000f0: d41b afbc 0f8f ceba 8688 d237 f01a cfbc
-0.011158899 -0.03826329 -0.01635568 0.0014273564 4.938e-42 -0.005653772 3.469206e-16 0.008264745
-0.0007722881 -5.320372e-05 0.0038073098 -1.2563936e-05 0.0040765437 -4.7303583e-09 0.0077659753 -0.016958494
-0.011598569 -0.000103393126 3.249315e-05 -0.006804901 -0.0003579223 -0.00546393 -0.014398539 -5.9114292e-08
-1.781736e-07 -0.013266704 0.006125634 -0.0008893049 0.01280896 -1.4887019e-06 0.0044893036 -0.048404034
-0.035156455 0.013549975 -0.02493903 -0.018308003 -0.00089076866 -0.009826436 -0.008824561 -0.03714693
-0.01203325 0.009201567 -0.022988658 -4.2456142e-07 -0.009611638 0.0013450747 6.025295e-05 -0.0074374964
-2.6871686e-18 -0.0019232676 -0.010269092 0.005132177 -3.5899352e-06 0.009188102 -0.015290763 -0.011206097
-0.016028794 1.3998705e-05 -0.011186143 -0.018700339 -0.021375574 -0.0015759188 2.5097524e-05 -0.0252814

fc1.weight f4 [144, 576]
00000000: 38ea c1b5 0c7f ddb7 396f efbb 805e 6eb9
00000010: cc67 a2bc a641 30bb 4ef3 5539 772e bdbc
00000020: f54b 29bc f2ed 85bc 7f73 d53b a819 1ebd
00000030: c9b4 a83c c250 5a3c d4ad 8ebc d0aa 6cbb
00000040: c16d bd3a 2e88 8c3c add9 c1bb 25ad 1abb
00000050: 0db4 0a3c 1d27 25bb fd8e 963d e193 b8bd
00000060: 6f79 4abb 71a2 f43c c0d3 b53b ae71 0b39
00000070: 7d78 343c 370c 193c 772b ab3b 52bf 6f3c
00000080: 059b f6bc b505 aa3a b678 96bc 3d17 08bd
00000090: 6b1d 0080 270e 0000 220e 0080 b80d 0080
000000a0: b20d 0000 ea0d 0000 050f 0000 be0d 0080
000000b0: c40d 0080 de33 383c f30b d9bc 0ea0 d6bc
000000c0: 3325 02bc 8af4 6bbd 07c8 85bb 8ce9 c2bb
000000d0: eaf1 31bc 736b 883c 68c9 fb21 9157 be22
000000e0: dfd7 bda1 ab4a 3722 d40f bea2 9574 7ba2
000000f0: f325 6122 b26a c621 ffd2 54a2 ff84 953a
00000100: b88d 26ba 6487 53bc 579c 02ba b329 84bb
00000110: 559d a2bb 6cd6 c7b9 76ea 04bc ebeb 0d3c
00000120: 7afe 4c37 dcca 86ba d8c8 cb36 6f80 8539
00000130: eeb6 1bba be00 0938 a7c4 1eb9 4535 dab9
00000140: 7019 f238 cad1 1124 80a0 ec33 c4c1 bfad
00000150: 6ce7 19b3 0b63 33b5 102c 9a33 7f08 6dab
00000160: 531a 56b0 1183 8536 b9d0 f438 e540 74bb
00000170: 9fb6 07ba a3a5 083b d548 afbc e9ee 13bc
00000180: 76dd 1838 519d afbb 0908 5db8 6ae2 8134
00000190: b0c5 a234 b561 bb35 676e bd33 c839 0235
000001a0: d9e2 d7b1 38f1 2db2 869b 43b4 609c 8f35
000001b0: ca47 3539 4ee9 2339 6a24 103c f861 bc3a
000001c0: 2b37 98bc 2853 d8bc 0653 2abb b38f 82bd
000001d0: ae99 a2bc 3cc0 88ac a4cd b330 4f93 05ad
000001e0: 899f 07ad 4dd7 41b1 5e82 39b0 8ddd bfad
000001f0: 786b 0e30 2e7b 3630 4c41 34ba e813 d2bc
00000200: ae91 a0bb de08 1dbb 6ad6 09bd b69b 9bbd
00000210: d699 81bb 9711 e8bc 45d4 aebb c53f db3b
00000220: 82bb 9b39 9487 e7bc ac83 703b 0e72 3dbd
00000230: 19da a1bc 91e9 cdba ef20 b0bc 35f6 5abb
00000240: d2e2 b8ba 35f1 c23c bebf 89bb e3e7 133c
00000250: 1d13 cc3c d978 293c d77b 53bc f60a 933c
00000260: f9e9 de3c d177 88ae 3049 09b0 64c1 9231
00000270: b13f d935 32c4 abb7 6952 48b5 e67b e5b5
00000280: 868b 0537 54b8 6ab6 37fe 12bb 23d5 d43c
00000290: 4b30 d53c 7fad 2a3b 33f8 86bd 81d0 22bc
000002a0: 628f 8fbb 042f 33bd d366 d03c 0223 9cba
000002b0: be55 123d ae2a 59bc 21bb 2a3c 700f fd3d
000002c0: d35d 8c3c d0bf 07bc 1363 183c af9f 893b
000002d0: ef7e 363b 9c8a 22bc 628f 7d3a de4d 713b
000002e0: f677 a5bc 5296 cfbb 4547 963a d438 44bc
000002f0: 6abd 803b 65e2 9c38 651c 373c 40a4 15bb
00000300: 3c01 953b 8799 9bbc 22d3 37bd 7a59 42ba
00000310: b328 a9bc 47ac 85bc c387 00ba f474 803c
00000320: 9d1b 4dbb 3006 dc39 8f1f 33bd 399b 6fbc
00000330: 3146 ccbb 353c 73bc 00ef 1e3c 9542 8098
00000340: 43ed 9c18 d155 9e17 27dd 8798 85ce e018
00000350: 85e9 9e17 0e54 b898 1b9c 1599 4eab 4419
00000360: 3c34 7936 5148 af34 3cec e0b5 bb47 0bb7
00000370: 9c9b 54b6 090e 21b6 b95f df36 2b8d b936
00000380: 7a59 38b6 d538 843b fed7 25ba b9b5 f0bb
00000390: e3e4 7b3c c7a6 043d ad79 db3c a76f 1aba
000003a0: 3fd0 45bd c487 633d 3b3b 433b b3f8 5ebb
000003b0: f7bf cdbb 5163 0bbc 82a1 773b cc13 f5bc
000003c0: 963d 0e3c 4d7f d5bc 1e90 83bc 822c 1b3a
000003d0: 5d8e bbbb 31ea 55bc 52f9 a7bb 6f39 20bd
000003e0: 4110 0dbd 09dd d0ba 1ea6 62bd e227 8ebc
000003f0: 98d7 2eba c851 1ab9 dd95 2cbc d14f fa3a
-1.4447787e-06 -2.6404414e-05 -0.00730696 -0.00022732653 -0.019824885 -0.0026894598 0.00020403901 -0.023093445
-0.010333051 -0.016348813 0.0065140123 -0.038598686 0.020594018 0.013324918 -0.017416872 -0.0036112554
0.0014452265 0.01715478 -0.0059158416 -0.0023601737 0.008465779 -0.0025200315 0.073514916 -0.09012581
-0.0030895134 0.029862614 0.005548924 0.00013298422 0.011015055 0.009341291 0.0052236873 0.014633017
-0.030103216 0.0012971672 -0.018368106 -0.033225287 -1.0553e-41 5.077e-42 -5.07e-42 -4.921e-42
4.913e-42 4.991e-42 5.388e-42 -4.93e-42 -4.938e-42 0.011242835 -0.026494956 -0.026199367
-0.007943439 -0.057606257 -0.004082683 -0.005948251 -0.010860899 0.016652798 1.7061733e-18 5.1592318e-18
-1.2864279e-18 2.4840654e-18 -5.151636e-18 -3.4078561e-18 3.0513276e-18 1.3445244e-18 -2.8843058e-18 0.0011407434
-0.0006353515 -0.012910698 -0.0004982403 -0.0040332912 -0.004962603 -0.00038115995 -0.0081125405 0.008662204
1.22185975e-05 -0.0010283845 6.0732527e-06 0.00025463427 -0.00059400394 3.2664037e-05 -0.00015141313 -0.0004161989
0.00011544197 3.161956e-17 1.1018801e-07 -2.1800235e-11 -3.5833565e-08 -6.682682e-07 7.179199e-08 -8.4211105e-13
-7.7890155e-10 3.978967e-06 0.00011673704 -0.0037270125 -0.0005177054 0.002085068 -0.021397034 -0.009029129
3.6445876e-05 -0.0053593297 -5.269799e-05 2.419286e-07 3.0318688e-07 1.3961022e-06 8.8210804e-08 4.8512857e-07
-6.283113e-09 -1.0124772e-08 -1.821737e-07 1.0699841e-06 0.00017288249 0.00015631804 0.008797744 0.0014372459
-0.018580994 -0.02640684 -0.0025989427 -0.06375065 -0.01984867 -3.886695e-12 1.3082411e-09 -7.592884e-12
-7.7092855e-12 -2.820758e-09 -6.748787e-10 -2.1812574e-11 5.181202e-10 6.6386263e-10 -0.0006876185 -0.025644258
-0.004900179 -0.0023961584 -0.033651747 -0.07598059 -0.0039551063 -0.0283287 -0.005335363 0.0066909515
0.00029703608 -0.02826289 0.0036699576 -0.04625135 -0.019757317 -0.0015709867 -0.021500079 -0.003341091
-0.0014105684 0.023796657 -0.0042037657 0.009027454 0.024911458 0.010343754 -0.012907944 0.017949563
0.027211176 -6.2058476e-11 -4.9944315e-10 4.271145e-09 1.6186297e-06 -2.0476149e-05 -7.462573e-07 -1.7097889e-06
7.959903e-06 -3.497601e-06 -0.0022429356 0.025980538 0.026024004 0.0026043353 -0.06590309 -0.0099374065
-0.0043811062 -0.04374601 0.025439655 -0.0011912289 0.0357263 -0.013254805 0.010420592 0.1235646
0.017134583 -0.008285478 0.009300965 0.004199944 0.0027846654 -0.009920742 0.000967255 0.0036820094
-0.020198803 -0.0063350582 0.0011465332 -0.0119764395 0.00392883 7.480829e-05 0.011176203 -0.0022833496
0.0045472663 -0.018994106 -0.044879086 -0.0007413846 -0.02064929 -0.0163175 -0.00049030426 0.015680768
-0.0031296976 0.0004196628 -0.04373127 -0.01462441 -0.0062339534 -0.014845897 0.009700537 -3.3154455e-24
4.0564628e-24 1.0232174e-24 -3.511999e-24 5.8111174e-24 1.0269459e-24 -4.764776e-24 -7.734645e-24 1.0167557e-23
3.7134296e-06 3.2648907e-07 -1.6758054e-06 -8.301747e-06 -3.1681038e-06 -2.399904e-06 6.6570615e-06 5.5298638e-06
-2.7470219e-06 0.004035095 -0.0006326436 -0.007345882 0.015374395 0.032385614 0.026791418 -0.0005891271
-0.048294302 0.055549398 0.0029789943 -0.0034022748 -0.0062789875 -0.008507566 0.0037785475 -0.029916666
0.008681675 -0.026061678 -0.016059931 0.0005919413 -0.005723758 -0.013056324 -0.005126157 -0.039117273
-0.03443933 -0.0015935014 -0.055334203 -0.017353002 -0.0006669699 -0.0001471705 -0.010533777 0.0019097273

fc1.bias f4 [144]
00000000: 47c5 a53b 4b8e 10b6 3e69 ccbb 92eb 3f3c
00000010: f483 d8bb d861 e8b1 8fc1 0a80 84c5 7ebd
00000020: 723e 6537 e00c 8136 3bd8 c32b f587 a6b1
00000030: 5a72 03ba 5480 b43a 7657 b12c a6da 54b6
00000040: 5c43 4bb9 a8a5 adad f362 463c ffd9 06b8
00000050: 79ef 5ebb 319c 8337 f7c8 a43b 8451 ea3b
00000060: 4bce 7e01 ec17 b73a 86ee 3bbb c3f5 473b
00000070: aea7 ccb4 1730 4fb7 c0bd 38b2 880b 0a3c
00000080: bd36 0db0 d25a fd99 7310 48b2 cec4 962e
00000090: b547 efb7 98ae aa3b cc67 b5b5 18a1 423b
000000a0: 8164 f73b 9773 6232 21e4 f6ba 9fa0 763c
000000b0: 1273 13b9 dd08 2f3c 4846 a8bd e401 9b38
000000c0: ea47 88ba ae0d 0080 437c fcb9 ec04 773b
000000d0: f0e1 27bb b18f 6db4 937b 883c 3d0c 8ab2
000000e0: 1afb 1a34 7156 6484 579b bbb3 eecc 0fbb
000000f0: b20d 0080 dc46 c9b5 4a32 c73a 7b5c 95b5
00000100: f00d 0080 c5f3 013c bb5d 9f39 1a69 aebb
00000110: d9f1 913c 637c 0c2d bf6d 823b a667 ff3a
00000120: 8ed0 01b6 4707 643c 0681 d73a 5e2d beb9
00000130: f0bd 8431 3110 8fba 46d3 1e3c d25d 49a9
00000140: 283e a3b9 14d6 bd3a 0136 9e3c f840 43ba
00000150: 66b7 8839 185e 9b3a bf4b 2229 7cb7 443c
00000160: 4d45 16bb 63fe c6ba d7af 1b3c e706 3b38
00000170: f9bc 4fba de2e 93bb 07e9 8fb8 c390 203c
00000180: ecdf 8e3b 9423 1dba 944e 083a c50a abba
00000190: 9624 0e2b 7953 43b8 99c3 082f 6ce6 393c
000001a0: 33b2 4bbc d913 7337 bf62 07bb 6d37 c03b
000001b0: 95bf 0f38 f8f5 eda8 310a 27b9 078c 49b8
000001c0: fe76 41ab b9c2 6a3b bdd0 f42e ead3 3fb6
000001d0: 28f3 01bb 3657 b3b7 f973 963b a5bc 9a3b
000001e0: 5d01 e53b aa46 72bd 307f d71b 960c 319f
000001f0: 7258 d93b 0aab 28bc 8f16 313a 216c 4db9
00000200: b80d 0000 a657 322c 809d 323b 6cb1 d6bb
00000210: 7877 4b3b de93 87b4 f9d5 223a 2dbe 75bb
00000220: 3acc 023a 9501 7138 d485 933b 3268 5c3c
00000230: 43ea 3935 97b6 0cbc 3415 af33 d6ae deba
0.0050589177 -2.1540498e-06 -0.006238132 0.011713879 -0.006607527 -6.763212e-09 -9.87791e-40 -0.062200084
1.3664003e-05 3.8459984e-06 1.3915599e-12 -4.8466924e-09 -0.0005014293 0.0013771155 5.0403527e-12 -3.1717732e-06
-0.00019384682 -1.9741389e-11 0.012108552 -3.2151114e-05 -0.0034017249 1.568915e-05 0.0050288397 0.0071508307
4.680044e-38 0.0013968921 -0.0028676107 0.0030511476 -3.8119964e-07 -1.2349358e-05 -1.0753354e-08 0.008425601
-5.137329e-10 -2.6196269e-23 -1.1645272e-08 6.85617e-11 -2.8524411e-05 0.0052088015 -1.351576e-06 0.002969807
0.007549823 1.31812135e-08 -0.0018836298 0.0150529435 -0.0001406188 0.0106832655 -0.0821653 7.391328e-05
-0.0010397409 -4.907e-42 -0.00048157768 0.0037692143 -0.0025616847 -2.212462e-07 0.016660487 -1.607088e-08
1.4433718e-07 -2.6840963e-36 -8.736122e-08 -0.0021942216 -4.913e-42 -1.499629e-06 0.0015197482 -1.112828e-06
-5e-42 0.007931654 0.00030396678 -0.0053225877 0.017815517 7.985698e-12 0.003980368 0.0019485846
-1.9343893e-06 0.013917751 0.001644165 -0.00036273425 3.863299e-09 -0.001091486 0.009693926 -4.4712342e-14
-0.00031136093 0.0014483356 0.01931286 -0.0007448341 0.00026076584 0.0011853604 3.6036925e-14 0.012006637
-0.002292949 -0.0015182014 0.009502373 4.4590703e-05 -0.00079245825 -0.004491671 -6.862176e-05 0.009800139
0.0043601897 -0.0005994376 0.00051996973 -0.0013049474 5.049931e-13 -4.6569363e-05 1.2438618e-10 0.011346441
-0.012432623 1.448855e-05 -0.0020658222 0.0058659823 3.427228e-05 -2.6418958e-14 -0.00015930158 -4.8052545e-05
-6.873251e-13 0.003582163 1.1132915e-10 -2.8584568e-06 -0.001982877 -2.1379074e-05 0.0045914617 0.004722195
0.006988688 -0.05914942 3.565096e-22 -3.749162e-20 0.006632858 -0.010294685 0.00067553757 -0.00019590605
4.921e-42 2.5343976e-12 0.0027254522 -0.006551912 0.003104655 -2.5253297e-07 0.0006211694 -0.0037497387
0.00049895386 5.746035e-05 0.0045020375 0.0134525765 6.9258766e-07 -0.008588455 8.152929e-08 -0.0016989361

fc2.weight f4 [96, 144]
00000000: 8383 4b3d 8570 1f37 4479 633c 0272 b73b
00000010: b2b3 063d 3c77 a338 0547 d9ab 9105 863d
00000020: e4ee e63c 1272 a735 612f 0aba 10de c132
00000030: ba11 65bb 8594 813b 5ef7 a938 34dd 89bb
00000040: 2d34 68b9 3f95 5830 1edf b0bd 203a f938
00000050: e621 c7bc 1e8b 22b8 8e55 973c 5780 083d
00000060: cc89 abb8 a295 fcbd 4b7b e7bc f93f 4fbc
00000070: 153b 73b4 ebef 193a 4899 c333 9dbf 3fbc
00000080: 3bcc 4a3a ed19 f239 918b aa33 bbe8 d8af
00000090: 4e04 9e3a 76f3 c93c 98b3 3ebb aed0 933d
000000a0: 2e27 be3d a4e8 95b4 af64 8e3d 0edd 58bc
000000b0: c585 3dba 322c 053d 841d e8bd f8bf 8039
000000c0: 7cec da3b a45e 96b8 dd09 1b3c ba81 8cbd
000000d0: 4aec 293d d592 63bc 4b7e d6bd e814 2438
000000e0: 86ef 8bbc aec5 c5b5 cc67 19b6 0b28 a6bc
000000f0: cb8f a236 82d1 9b3b 84f9 a3bb 5112 7b3a
00000100: 3139 1336 c241 d13d 89e0 44bd afdf bdbd
00000110: ed89 ae3d faff b4ae ab7f 0f3e 5d65 4ebb
00000120: 2d09 a1b9 11f4 373d 6bf5 313d d1d5 5e3c
00000130: 907e 6a3a b2a0 7cbd ea9e ac3c cc19 21b9
00000140: 723a e3b9 1ae8 343c f533 babd 2243 6dba
00000150: 89ee 863d cdb7 8c3b cecf 1c39 eb48 803d
00000160: 9a92 913c 17d9 033d 9124 41bd e5a0 fc3a
00000170: a46a d83c a125 d6bb 64db 2cbb 191c bc3b
00000180: 3838 383d 410a 9cbd b086 3b3b 191a 503a
00000190: 0169 94b7 3b08 7639 7422 1e3a 9e82 ba3d
000001a0: 991e 16bd a490 bfb8 4dd0 c0bd 6825 cf3d
000001b0: 3f99 90b5 e49a 3b39 a981 093c 43b1 5eba
000001c0: d367 43ba 7260 db3c 9429 aabb 1e01 5037
000001d0: 3e43 dd3a a7a3 f9b9 a9e4 cb3b 07d1 5f3d
000001e0: c191 833d c5d2 75bd 47e7 8439 d0d0 ba3b
000001f0: 1480 723d eecf b6bd a1fc afbb e33c b838
00000200: cd1e 3eb8 7324 6cba e591 eabc e57c 963d
00000210: c841 143e f936 7037 a786 a93d 4da8 e53c
00000220: c8bb e53b 7a90 00bb 8314 64bd 0d83 cf3d
00000230: ee0c 5938 e2a7 d9bd 4279 5a34 5f40 10bd
00000240: 08e9 cf34 e32b 2433 01dc fab0 b40d 0000
00000250: b4db c3b9 7d0b 0080 981c 0080 f610 0000
00000260: ac0d 0000 b50d 0000 4810 0000 ce0e 0000
00000270: 880b 0080 3106 2fac 7d11 0080 2b9c 1eb7
00000280: b50d 0080 5494 4b91 19e5 58b8 df0d 0000
00000290: 544e 47b8 af0f 0000 bfed 94af 8ecf c7b9
000002a0: e774 3db7 a50f 0080 e22c a4b7 4777 9105
000002b0: d50f 0080 0e10 0080 2a10 0080 9f65 4e35
000002c0: 8a10 0000 d070 b7b4 b810 0000 af0d 0080
000002d0: bf0d 0000 1ecc 48af e50e 0000 2047 56b7
000002e0: aa9d 4e32 b30e 0000 8666 26b9 65ec 31b0
000002f0: c50d 0000 e84f fc33 b00d 0080 b50d 0000
00000300: 7bac ff22 f80d 0080 ca10 0000 7a11 0080
00000310: 909a ddb6 79ae 05b5 905e 16b1 bb0d 0080
00000320: b60d 0080 f81e 0000 bf0d 0080 daab de36
00000330: c155 0080 186f 9f39 b8d6 18b7 bc0e 0080
00000340: e3be b6b3 01b1 acb8 5fbd 50a2 1c12 7631
00000350: 41de 2c36 ca10 0000 4dcc a1b9 d810 0000
00000360: 5e0e 0080 d391 c1b8 c01b b9b2 ff49 36a5
00000370: 050e 0000 1c0f 0080 5896 30b7 7010 0000
00000380: a60f 0080 de0f fbb5 7f0f 0000 b70d 0000
00000390: eb01 dbba d3fa 86a8 b00d 0000 cfe6 09ba
000003a0: ccd4 09bb 5111 05b5 a7ae fab6 b30f 0000
000003b0: eeb5 e536 1166 4b2f 5825 0080 1afc c1b6
000003c0: b4d6 12b3 67a7 8cb8 bd0d 0000 3c0e 0000
000003d0: 91a9 6622 650f 0080 7de2 15b3 4e48 9eb7
000003e0: f0b3 872b f510 0080 da8a 59b1 25b8 4f34
000003f0: 370f 0000 b00d 0000 860e 0000 3d07 0080
0.049685966 9.5033365e-06 0.013883892 0.0055983076 0.032886215 7.794655e-05 -1.5438489e-12 0.065440305
0.028190084 1.2475668e-06 -0.0005271342 2.256914e-08 -0.0034953193 0.0039544725 8.104624e-05 -0.0042072777
-0.00022144681 7.8792434e-10 -0.08636306 0.00011884072 -0.024308156 -3.8753373e-05 0.018473413 0.03332552
-8.179582e-05 -0.12333228 -0.028257033 -0.01264953 -2.2652632e-07 0.00058722374 9.108277e-08 -0.011703399
0.0007736121 0.00046177153 7.941629e-08 -3.9455536e-10 0.0012055726 0.024652224 -0.0029098745 0.07217537
0.09284817 -2.792268e-07 0.069527976 -0.013236297 -0.0007229711 0.03251285 -0.11333755 0.0002455709
0.006681023 -7.1701856e-05 0.009462801 -0.06860681 0.04148511 -0.013889988 -0.10473307 3.9120117e-05
-0.017081987 -1.4735176e-06 -2.2859194e-06 -0.020282766 4.844716e-06 0.0047552 -0.00500411 0.00095776195
2.1937997e-06 0.102176204 -0.048065696 -0.0927118 0.08522401 -8.230923e-11 0.14013545 -0.0031493523
-0.0003071515 0.044910494 0.04344694 0.0136007825 0.0008945251 -0.06167669 0.02107187 -0.00015363767
-0.0004334036 0.011041665 -0.09091941 -0.0009050836 0.06588466 0.0042943717 0.00014954733 0.06263908
0.0177701 0.032189455 -0.047154013 0.0019274025 0.026418038 -0.0065352474 -0.0026375884 0.005740654
0.04497549 -0.07619143 0.0028614216 0.0007938459 -1.7691871e-05 0.00023463454 0.00060323556 0.091069445
-0.036650274 -9.134531e-05 -0.0941473 0.101145566 -1.0773437e-06 0.00017891411 0.00839273 -0.0008495042
-0.00074541307 0.026779387 -0.005192945 1.2398026e-05 0.0016881002 -0.0004761491 0.006222327 0.054642703
0.06424285 -0.06001546 0.00025349317 0.005701162 0.059204176 -0.08926378 -0.005370692 8.785145e-05
-4.5328215e-05 -0.0009008117 -0.028634021 0.073480405 0.14478219 1.4317914e-05 0.08277636 0.028034354
0.0070109107 -0.0019617365 -0.055683624 0.10132418 5.1748873e-05 -0.10627724 2.0346945e-07 -0.03521764
3.8726307e-07 3.822414e-08 -1.8252423e-09 4.916e-42 -0.0003735699 -4.121e-42 -1.0258e-41 6.084e-42
4.905e-42 4.917e-42 5.84e-42 5.311e-42 -4.137e-42 -2.4872433e-12 -6.274e-42 -9.453895e-06
-4.917e-42 -1.6059584e-28 -5.1711777e-05 4.976e-42 -4.7518246e-05 5.626e-42 -2.7089972e-10 -0.00038110878
-1.1292496e-05 -5.612e-42 -1.9571224e-05 1.367955e-35 -5.68e-42 -5.76e-42 -5.799e-42 7.688886e-07
5.933e-42 -3.4168488e-07 5.998e-42 -4.909e-42 4.931e-42 -1.8262411e-10 5.343e-42 -1.2771954e-05
1.2026627e-08 5.273e-42 -0.00015869187 -6.472816e-10 4.94e-42 1.1749199e-07 -4.91e-42 4.917e-42
6.930051e-18 -5.011e-42 6.023e-42 -6.27e-42 -6.6043067e-06 -4.980025e-07 -2.1881625e-09 -4.926e-42
-4.919e-42 1.111e-41 -4.931e-42 6.6361217e-06 -3.0763e-41 0.00030409615 -9.109899e-06 -5.286e-42
-8.5097575e-08 -8.234569e-05 -2.8289509e-18 3.5808005e-09 2.5759366e-06 6.023e-42 -0.0003086053 6.042e-42
-5.154e-42 -9.230119e-05 -2.1549454e-08 -1.5811054e-16 5.029e-42 -5.42e-42 -1.0525422e-05 5.897e-42
-5.614e-42 -1.8705575e-06 5.559e-42 4.92e-42 -0.0016708946 -1.4985766e-14 4.91e-42 -0.00052605284
-0.0021031378 -4.957156e-07 -7.470913e-06 5.632e-42 6.8459112e-06 1.8499004e-10 -1.3396e-41 -5.7811967e-06
-3.4188545e-08 -6.706901e-05 4.928e-42 5.106e-42 3.126058e-18 -5.523e-42 -3.4897756e-08 -1.8868737e-05
9.64227e-13 -6.083e-42 -3.1656584e-09 1.9345369e-07 5.458e-42 4.91e-42 5.21e-42 -2.597e-42

fc2.bias f4 [96]
00000000: ca43 ec3c 2217 deaa af7f 913b e5c4 392d
00000010: 8769 f53b 94d0 6c3c b551 923b 11b4 b1bb
00000020: 801b 5b3c 98de baba 78d0 9f3a f7c4 a0b8
00000030: 5667 9e3c a7d7 038c 214e beb2 e967 20bb
00000040: 89a7 fc3a 7b69 00bb 3fae 7fbb 6d32 9b36
00000050: 1ca5 f4b9 1015 753c 9b13 b730 5b79 d4b3
00000060: 14ba d03c d995 95b5 3af3 283a 49c7 543c
00000070: 7e3c 733b 9bd7 393b 244a e3ba 0934 f03b
00000080: 157d 863c 2295 4a3c a98d 9ab2 6f47 cbba
00000090: 32cb 913c 85a2 d53b d664 c7b3 8488 b3ae
000000a0: da4a 5cba ac37 863c 8fcd 09bb 6f91 92bb
000000b0: 2c2e c7b5 6b76 98b6 56ee 4cbb c159 c5b0
000000c0: a746 0b39 c40d 0000 7ae6 3cba bdff 603c
000000d0: 7f90 6a3b 10df bd3c dd17 8abb c683 963c
000000e0: 0643 a5bb 76cc 2839 6870 cebb e61e 5abc
000000f0: 1917 3e3c f170 e4b7 7a27 073c 2f43 b83b
00000100: a96b 123c 1385 473b 32f7 a8bb 575e a13b
00000110: 8afc f53b 6cf0 47b7 b846 1e3c 9ccf e4ba
00000120: 4355 529e 948d faba 2202 7ab4 d3a3 cbba
00000130: ee0e 92bc 0fb8 b63c f0d2 243c 7ebc 1b3c
00000140: 4a10 313c 9a48 d83c 8791 c13c cc89 bbb2
00000150: 8479 a63c 2d28 7935 6c90 5db7 138a 643c
00000160: 550a ed3b bc6b 20af 454b 0db4 c9d0 d13b
00000170: 27a7 6a90 1de8 5d3c 367e 843c b700 04bb
0.028840918 -3.9451173e-13 0.00444027 1.0559752e-11 0.0074893865 0.014454026 0.0044653066 -0.005423077
0.013373256 -0.0014257012 0.0012192866 -7.666082e-05 0.019336384 -1.0156768e-31 -2.215444e-08 -0.0024475998
0.0019276004 -0.0019594121 -0.003901377 4.6252303e-06 -0.00046662323 0.014958635 1.3320575e-09 -9.894094e-08
0.025479354 -1.1144976e-06 0.0006444935 0.012986966 0.0037114914 0.002835727 -0.0017340821 0.007330422
0.016417066 0.012364658 -1.799238e-08 -0.001550896 0.017797086 0.006519618 -9.2850016e-08 -8.1642276e-11
-0.0008403488 0.016383968 -0.0021027063 -0.0044729034 -1.4840093e-06 -4.5437387e-06 -0.003126999 -1.4359146e-09
0.00013282393 4.938e-42 -0.00072059745 0.013732848 0.0035791693 0.023177654 -0.0042142705 0.018373381
-0.00504339 0.00016097896 -0.006300021 -0.013313031 0.011602187 -2.723231e-05 0.008249158 0.0056232433
0.008936801 0.0030444309 -0.005156421 0.0049245763 0.0075069116 -1.1917302e-05 0.009660415 -0.0017456892
-1.1134939e-20 -0.001911568 -2.328384e-07 -0.0015536494 -0.017829385 0.022304563 0.010060057 0.009505389
0.010807106 0.026401807 0.023628963 -2.1832328e-08 0.020321615 9.281819e-07 -1.3206252e-05 0.013948935
0.0072338977 -1.459019e-10 -1.3159031e-07 0.006403063 -4.6277132e-29 0.01354411 0.016173463 -0.0020142028

fc3.weight f4 [10, 96]
00000000: e60a 6dbd ad74 303b 280f 8c3a 156c d0b9
00000010: f8a7 8a3d ae1d b03e 31c8 2fbe db1f e5bc
00000020: a8cf 16be 3089 083d f032 b7bd 25c9 a039
00000030: 50e2 afbd e75e 9a0d ca2d 00b4 8e2a c63c
00000040: 1578 d8bc 57d1 1ebb 7872 cfbd c421 26b4
00000050: f7c3 7c3a 5292 8e3d 7c28 8b32 695c 40b6
00000060: d19a 2e3d 8732 062f 6b97 35bd 1645 64bd
00000070: da3b 873a c907 0dbb c7c0 4f3c dc03 bfbd
00000080: 6451 14bd 0d4f ddbd a7cf 7235 9ed6 383e
00000090: 6b4a 58bd 7981 71bd 2341 0a39 7d47 a7b7
000000a0: 6b23 8abb 825d d4bd e31a b0bd ed1a f13b
000000b0: 60e4 13b8 4999 e73a 7315 503b 70e0 3631
000000c0: 610e 433a e873 6a0a 8240 bb39 024e 30bb
000000d0: 2b30 9bbd 8663 31bd 8c6b 4f3c 3bde 1a3e
000000e0: ceff d7ba 2dcb 6a3b 53d4 abbd 05ea adba
000000f0: a147 df3d 4f70 0538 50e2 e8bc d03d 85bd
00000100: 04fd 91bd aa67 e33d 6f36 073e a22e c83c
00000110: 7fa8 25be 5685 01b7 dc79 003c bf9f b23c
00000120: bd84 ea33 7d59 61bc 9cb9 c1b9 43f1 abbc
00000130: ec92 33bd 78c2 8cbd f595 923b ac32 6c3d
00000140: 97bd 4e3d 4951 febc deb7 e2bd 9a5d a032
00000150: 4537 e53c 0e74 e033 d18b 3139 36fe f1bd
00000160: bc88 823e 28e5 4533 fac6 1db8 4883 c0bd
00000170: a4c2 ce09 31fa 5bbd 025d 213e 8951 79bc
00000180: 1f53 4c3e 0a55 443b 196f 7bbb 7261 acac
00000190: 2eab 97bd 791f 4f3e 670e 803c 17f1 a83b
000001a0: c480 093d 0a7a 32bc b918 38bd 667c f439
000001b0: cb7a 2c3e 8b46 7e92 4361 1f33 8652 beba
000001c0: 74d7 fbbd f082 5e3b ffe9 82bd 7c21 fdb4
000001d0: 6cf1 56b9 2314 1ebe e67a e9b1 4632 d837
000001e0: 723c 043e 2fc1 12b2 1b35 c7bd 385f 423e
000001f0: ef2d fa3d 58ab 6abb 6c71 2abc 0e1c 4bbd
00000200: 42ec b1bd 7920 c43d dfe4 2b32 1ed5 3bbe
00000210: 3dfe 6d3d 2bad c9bc e13d 87b6 68ff a237
00000220: 1356 6e3a f142 233e e154 d3bd 472a 42bb
00000230: 6ea4 fbb7 cdd5 4cb8 f9ea fa3a 4b98 8733
00000240: ec98 88b8 5d7d 8ab5 5b9c ca3b 92e7 ee3d
00000250: 0b93 813d ce44 bb3d c722 0fbe 96c7 efbd
00000260: f14f 843a 65d9 8d3a 987e 0bbd 31f6 2cbe
00000270: 76eb 7f3c 5f97 e5b7 71c5 e83d 9aa0 cabc
00000280: 5481 0d3e cd3d d8bc f134 bebd 2c9c 6bbd
00000290: 6760 57be 5a4f a839 29a9 8a3d 535f 17bc
000002a0: 6000 9b34 b3c6 84bd 97db c6ba 3c3a 1739
000002b0: 6f9f 35be ab79 a83d 0e5f 84bd c188 203d
000002c0: 949f c2bd 12df 613e aa16 ea3d eec9 d032
000002d0: d3c6 183e 70d0 f6b6 aca8 3d36 f215 97bc
000002e0: c32b 7bbd 7ff8 8ab2 520e d832 e21f 91bd
000002f0: 6a55 90b4 c48b 463e 8212 22bd a193 a93b
00000300: c90d f4bd 1dfd a238 5152 b1bc 2031 5038
00000310: 4e27 8d3d a31c 83be 09f8 4fbe abd7 9bbc
00000320: 2051 5cbe 8c93 46bc 91c7 04be 7fc8 46ba
00000330: 7e49 5abe 6305 0516 607f 29b2 6e88 94bb
00000340: 6619 64bc b6ab 3fbb c5bf b03b 2805 71b7
00000350: 5a92 04ba f04a 7ebd cd5e 9333 8457 c133
00000360: e14c 673d 2465 af36 8376 10be 83aa e93d
00000370: 32b8 ff3c 12bc 033c 56f2 ce3c 9386 cc3d
00000380: 3219 793e 4891 33bd dfa7 a636 c89b 053e
00000390: 3d47 e53d 45c4 eebd 4a4f 5db7 479b 3eb8
000003a0: b4ce 8f39 4590 f33c 7ade f6bd 4185 0138
000003b0: d006 5cb5 2d0d 9839 035a 25ba abf1 2631
000003c0: 0c5e a439 39a3 1e32 9347 85ba a131 bb3d
000003d0: aa0b f5bd 3532 583d 1a65 aa3d 0a29 f03c
000003e0: 27d5 8dbb 460a 16bb f3a6 8c3c 0b83 1c3c
000003f0: d39c e63d 9d14 c5b7 b6a9 5abd c79c 67bc
-0.05787172 0.0026925013 0.0010685669 -0.0003975338 0.06770319 0.34397644 -0.1716621 -0.027969291
-0.14727652 0.033333957 -0.089452624 0.00030667442 -0.085880876 9.51383e-31 -1.1937587e-07 0.024190214
-0.026424447 -0.0024233663 -0.10129255 -1.5472239e-07 0.0009642238 0.06961502 1.620014e-08 -2.866402e-06
0.042628113 1.220518e-10 -0.044333857 -0.055729948 0.001031752 -0.0021519533 0.012680239 -0.09326908
-0.036210433 -0.10806093 9.04542e-07 0.1805062 -0.052805346 -0.058961365 0.00013184971 -1.994124e-05
-0.004215648 -0.10369398 -0.08598878 0.007357946 -3.5260222e-05 0.0017669584 0.0031751066 2.6612064e-09
0.00074408023 1.128849e-32 0.00035715481 -0.0026901965 -0.07577547 -0.043307804 0.0126599185 0.15123837
-0.0016479434 0.0035826669 -0.08390107 -0.0013268596 0.10902334 3.1814267e-05 -0.028428227 -0.065059304
-0.07128337 0.11103757 0.13204359 0.024436299 -0.16177557 -7.720044e-06 0.007841554 0.021804688
1.0920619e-07 -0.013754246 -0.00036950118 -0.020989066 -0.043841287 -0.068730295 0.0044734427 0.057665512
0.050473776 -0.03104462 -0.11070226 1.8669017e-08 0.027980456 1.0451923e-07 0.00016932121 -0.11816065
0.25494945 4.6076053e-08 -3.761703e-05 -0.0940004 4.9775735e-33 -0.053705398 0.15758136 -0.015217193
0.19953583 0.0029957914 -0.003836578 -4.8993526e-12 -0.07405697 0.2022685 0.015631868 0.0051556933
0.033570066 -0.010893354 -0.044945452 0.0004663199 0.16843717 -8.023522e-28 3.710853e-08 -0.0014520444
-0.12296954 0.0033952557 -0.063922875 -4.7149285e-07 -0.00020498567 -0.15437369 -6.7951644e-09 2.5772617e-05
0.12913683 -8.542243e-09 -0.09726926 0.18981636 0.122157924 -0.0035807695 -0.010403018 -0.049587302
-0.08687641 0.09576506 1.0005549e-08 -0.18343017 0.05810379 -0.024618706 -4.030517e-06 1.9430838e-05
0.00090918056 0.15943505 -0.10318924 -0.002962725 -2.99981e-05 -4.8836508e-05 0.0019143514 6.314129e-08
-6.513469e-05 -1.0318287e-06 0.00618319 0.11665262 0.06326874 0.09143983 -0.1397811 -0.1170799
0.0010094625 0.0010822235 -0.034056276 -0.1689079 0.015620103 -2.7369415e-05 0.11365784 -0.024734784
0.13818866 -0.026396656 -0.092874415 -0.057521984 -0.21032868 0.0003210258 0.06770546 -0.009239036
2.8871273e-07 -0.06483211 -0.0015171644 0.00014422176 -0.177366 0.08226331 -0.06463443 0.03919292
-0.09503093 0.22057751 0.11430104 2.4306214e-08 0.14919595 -7.3556366e-06 2.8261375e-06 -0.018443082
-0.06132103 -1.6178317e-08 2.5152222e-08 -0.07086159 -2.6884237e-07 0.19389254 -0.03956843 0.0051750694
-0.11916692 7.771908e-05 -0.021645697 4.9636816e-05 0.068922624 -0.25607786 -0.20309462 -0.019023737
-0.21515322 -0.012120139 -0.12966754 -0.0007582977 -0.21317098 1.0745354e-25 -9.866056e-09 -0.0045328652
-0.013922071 -0.0029246635 0.0053939545 -1.436592e-05 -0.00050572085 -0.062083185 6.862465e-08 9.003182e-08
0.0564698 5.2271807e-06 -0.14107709 0.11409476 0.03121576 0.008040445 0.02526204 0.099866055
0.24326017 -0.043839723 4.9667283e-06 0.13047707 0.11195228 -0.11658529 -1.3191087e-05 -4.5444143e-05
0.0002742909 0.029731879 -0.12054153 3.08801e-05 -8.19663e-07 0.00029001516 -0.0006307663 2.4293552e-09
0.00031350588 9.233923e-09 -0.0010168426 0.09140325 -0.11965115 0.052782256 0.08320065 0.029316444
-0.0043283883 -0.0022894307 0.017169451 0.009552727 0.112603806 -2.3493829e-05 -0.053384505 -0.0141365

fc3.bias f4 [10]
00000000: f7b9 843c c35c b73c 70cf 213d e484 023c
00000010: 959b cfbc 3204 e03c 0193 67bd 7a27 94bc
00000020: c606 ed3c e771 ddbc
0.016201956 0.0223831 0.03950447 0.007966254 -0.025342742 0.02734575 -0.05653668 -0.01808523
0.028933894 -0.027031852
