models/trained/ConvNet2_4.pt (torch, 442402 bytes, 12 tensors)

conv1.weight f4 [8, 1, 3, 3]
0	0x3eb521f7	0.35377476
1	0x3e111e91	0.14171816
2	0x3ed449ff	0.41462705
3	0xbdf4ab13	-0.11946692
4	0x3dd738b1	0.1050886
5	0x3eb93db2	0.36179882
6	0xbed9df60	-0.42553234
7	0xbe9a6a12	-0.3015905
8	0x3ead98e6	0.33905715
9	0x3db83347	0.089941554
10	0x3e97b4ec	0.2963022
11	0x3ec289a7	0.37995645
12	0xbdb58c25	-0.08864621
13	0x3e880279	0.26564386
14	0x3e03994d	0.12851448
15	0xbdcfb0ee	-0.101411685
16	0xbefc57f7	-0.49285862
17	0xbef3aef4	-0.47594416
18	0xbee40a87	-0.44539282
19	0xbea345e0	-0.31889248
20	0xbd9cb549	-0.07651765
21	0x3df5811a	0.11987515
22	0x3dc80824	0.09767178
23	0x3ef046f6	0.4692914
24	0x3ecc4ae3	0.39900884
25	0x3ea26ddc	0.3172444
26	0x3e821725	0.25408283
27	0x3eb1095d	0.34577456
28	0x3e98ddc9	0.2985671
29	0xbcb19e61	-0.021681966
30	0x3e3e6ef4	0.18597013
31	0x3e4e1605	0.20125587
32	0x3e807849	0.2509177
33	0xbd3ebee8	-0.04656878
34	0x3e5a9636	0.21346363
35	0x3e5af602	0.21382907
36	0xbe552f30	-0.20818782
37	0xbeda5635	-0.42643896
38	0xbed218f5	-0.41034666
39	0x3ed2b192	0.411511
40	0xbdbe65c1	-0.09296752
41	0xbe44131e	-0.19147918
42	0x3e801ae5	0.2502052
43	0x3eb0c2ac	0.34523523
44	0x3ed1a35f	0.40944955
45	0x3daf5767	0.085615925
46	0x3e3af856	0.18258795
47	0xbe4fa235	-0.20276721
48	0x3ea199cb	0.31562647
49	0x3e964d3e	0.29355806
50	0xbee1db0f	-0.4411244
51	0x3e2dc75a	0.16970578
52	0x3cd195a2	0.025584046
53	0xbecbf301	-0.39833835
54	0xbca4011b	-0.020020058
55	0x3e8b882e	0.27252334
56	0x3eb8952d	0.36051312
57	0x3ee278e8	0.4423287
58	0x3e8744f9	0.2641981
59	0xbde6c2ce	-0.11267625
60	0x3f00be46	0.50290334
61	0xbe52d356	-0.20588431
62	0xbeaf2013	-0.34204158
63	0x3e03fc3a	0.12889186
64	0x3ecd80e1	0.4013739
65	0xbe936285	-0.28786102
66	0xbd3482e6	-0.044070147
67	0x3eb22536	0.34794015
68	0xbe94fcd5	-0.29099146
69	0xbdac8ce9	-0.08425314
70	0x3ede1f5a	0.43383294
71	0x3ebb1a2c	0.36543405

conv1.bias f4 [8]
0	0xbdf2c51f	-0.11854004
1	0x3c149bfb	0.009070392
2	0x3e0805a9	0.13283409
3	0xbd9b0e5f	-0.075711004
4	0x3e20415d	0.15649934
5	0x3a1f4b3c	0.00060765794
6	0x3d977283	0.07394888
7	0x3e660143	0.22461419

conv2.weight f4 [32, 8, 3, 3]
0	0x3d10d62e	0.035360508
1	0xbcccbf0d	-0.024993444
2	0xbd86d694	-0.06583896
3	0x3d95ac3b	0.07308241
4	0x3e176080	0.14782906
5	0x3cb54a3c	0.022130124
6	0x3dba8a55	0.09108416
7	0x3d67bdd6	0.056577526
8	0x3b93168b	0.0044887713
9	0xbe303fe1	-0.17211868
10	0xbe370c0f	-0.17875694
11	0xbbe49bbb	-0.0069765723
12	0xbd5ef9a2	-0.054437287
13	0xbd1e77cb	-0.038688462
14	0x3dbc09d7	0.09181564
15	0xbd831cd8	-0.06401986
16	0xbd346098	-0.04403743
17	0x3af7c53e	0.0018903387
18	0xbae49f01	-0.0017442406
19	0x3951395a	0.00019953158
20	0x3da905cc	0.08253059
21	0xbd86dd3c	-0.06585166
22	0xbe0b3c1f	-0.13597153
23	0xbdf01bae	-0.117240295
24	0xbcc0e072	-0.023544524
25	0xbde2c425	-0.11072568
26	0xbd85a997	-0.06526487
27	0x3d1c9ef4	0.038237527
28	0x3da29b52	0.07939781
29	0x3d8908bb	0.06691118
30	0x3caedf3e	0.021346685
31	0x3e1bdf1e	0.15221831
32	0x3d4fc121	0.05072129
33	0xbd7720e8	-0.060334116
34	0x3de40289	0.11133296
35	0x3d3223f3	0.043491315
36	0xbdcd705d	-0.10031197
37	0xbcb39534	-0.021921732
38	0x3d3d01c6	0.04614427
39	0xbe22899b	-0.15872805
40	0xbda6c0ee	-0.08142267
41	0x3da91c9f	0.08257412
42	0xbd518dad	-0.051160503
43	0xbc06ee06	-0.00823546
44	0x3e02ca98	0.12772596
45	0xbdaba35a	-0.08380766
46	0x3d099afb	0.033595067
47	0x3d979079	0.07400603
48	0xbe01b17d	-0.12665363
49	0x3d119995	0.035546858
50	0x39dc9b1f	0.00042077244
51	0xbdf1a33b	-0.11798712
52	0xbaf8d2a7	-0.0018983678
53	0xbd12bfb5	-0.035827357
54	0xbe159c9c	-0.14610523
55	0xbceebab5	-0.029141763
56	0x3e185a6e	0.14878246
57	0xbe35937a	-0.17732039
58	0xbd78aea2	-0.060713418
59	0x3cca1f32	0.024673078
60	0xbdcc8b48	-0.09987503
61	0xbba62525	-0.005070346
62	0xbd38f734	-0.045157626
63	0x3d06c20b	0.032899898
64	0x3e046804	0.12930304
65	0x3d1bd251	0.03804237
66	0x3d3e982e	0.04653185
67	0x3d85ab95	0.06526867
68	0x3e0370fc	0.12836069
69	0xbd9c35bf	-0.07627439
70	0x3e249f41	0.16076376
71	0x3bd1e209	0.0064051193
72	0xbb731e9a	-0.0037097097
73	0xbd245c69	-0.04012719
74	0xbba6c564	-0.0050894488
75	0xbd7749f8	-0.060373276
76	0x3dcca3bd	0.09992168
77	0x3de8634e	0.11347066
78	0xbda82186	-0.08209519
79	0xbd9bc980	-0.076067924
80	0x3e25978d	0.16171093
81	0xbb82ac07	-0.0039877924
82	0xbc91c993	-0.017796313
83	0xbd9bda9c	-0.07610056
84	0x3d60d45d	0.054890025
85	0x3d9f9b85	0.07793335
86	0x3d83bb53	0.06432214
87	0xbcfa2c03	-0.030538565
88	0xbd3c9ea4	-0.04604973
89	0x3d218bfe	0.039440148
90	0xbd5631b9	-0.052293513
91	0x3d754a19	0.05988512
92	0x3d93a640	0.07209444
93	0x3c49a23c	0.012306746
94	0x3b43eb0c	0.0029894738
95	0xbd0bd981	-0.034142975
96	0xbdb916ef	-0.09037577
97	0xbdc7d8cf	-0.0975815
98	0x3d9571d0	0.07297099
99	0x3bf47dad	0.007461271
100	0xbd2e72ac	-0.04258983
101	0x3c80dc7b	0.015730133
102	0xbd3e64d2	-0.04648287
103	0x3b338af2	0.002739605
104	0x3e1b2006	0.15148935
105	0x3ccadaa7	0.024762465
106	0xbdcb85f5	-0.0993766
107	0x3d167f4d	0.036742497
108	0x3d8fc7f4	0.0702056
109	0x3d599a9f	0.053125974
110	0x3e2d238b	0.1690809
111	0x3bfaca98	0.0076535456
112	0xbca87cba	-0.020567287
113	0x3d8da52e	0.06916271
114	0x3ce57263	0.028008645
115	0xbc31a7ac	-0.010843199
116	0xbd5fddf4	-0.05465503
117	0x3d63a531	0.05557746
118	0xbd57ad62	-0.052655585
119	0xbc71076f	-0.014711245
120	0x3d5d0cb0	0.053967178
121	0xbd37cbc9	-0.04487208
122	0xbd1cdece	-0.03829842
123	0x3d5417b3	0.051780414
124	0xbd58a17c	-0.05288838
125	0xbcf38e72	-0.02973101
126	0xbc9771e1	-0.018486919
127	0xbd97d6fa	-0.074140504
128	0xbccd69f6	-0.02507494
129	0x3d34dc9d	0.044155706
130	0x3d2dc3e7	0.042423155
131	0xbd706202	-0.058687218
132	0x3c95f999	0.018307494
133	0xbdf2a0de	-0.11847089
134	0xbda4322a	-0.080173805
135	0x3d8dec61	0.06929851
136	0x3db42ded	0.08797822
137	0x3e10b885	0.14132889
138	0xbd49f220	-0.049303174
139	0xbda5fd91	-0.081050046
140	0x3cb5220f	0.022110967
141	0xbc308637	-0.010774187
142	0xbdd9a779	-0.10627646
143	0x3cc73b0d	0.02432015
144	0x3db6e18c	0.089297384
145	0xbdaf0fe1	-0.085479505
146	0xbd314333	-0.043276977
147	0xbd02422b	-0.031801384
148	0x3d7ae6db	0.061255317
149	0x3e094af1	0.13407494
150	0xbdaf0557	-0.0854594
151	0x3d0c7bf8	0.034297913
152	0x3cf06744	0.029346116
153	0xbdfa9dca	-0.12237127
154	0xbd3e6058	-0.0464786
155	0xbae2ca02	-0.0017302635
156	0x3d40e37a	0.04709194
157	0x3da93f45	0.08264021
158	0x3d6a0eec	0.057143137
159	0x3d77dca3	0.06051315
160	0x3be2e12a	0.0069238143
161	0x3d85784f	0.06517088
162	0xbbb47b87	-0.0055078897
163	0xbd2587f8	-0.040412873
164	0xbda1ef6c	-0.07906994
165	0x3c40c382	0.011765363
166	0xbd1d5f2e	-0.03842085
167	0x3cfa9d6c	0.030592643
168	0x3d15c9cc	0.0365694
169	0xbd9353ae	-0.07193695
170	0x3dac9c75	0.08428279
171	0x3d406e68	0.04698029
172	0xbd58cfcf	-0.052932557
173	0x3cd97752	0.026546154
174	0x3d1a0bfc	0.037609085
175	0x3daff911	0.085924275
176	0x3c821c42	0.015882615
177	0xbd9e3fa0	-0.07726979
178	0xbdbfd4da	-0.0936677
179	0xbbca8fde	-0.006181701
180	0xbe0affa3	-0.1357408
181	0xbdda3079	-0.10653777
182	0xbd9eabd1	-0.07747615
183	0xbd99a2c0	-0.07501745
184	0x3c11ac55	0.008891185
185	0xbd562c01	-0.05228806
186	0x3ccf250d	0.025286222
187	0x3dab1d97	0.08355253
188	0x3c3f21c8	0.011665769
189	0x3d47ec8d	0.048809577
190	0x3debbce8	0.115106404
191	0x3da5ad7f	0.080897324
192	0x3dd357f5	0.10319511
193	0x3d961748	0.07328659
194	0xbcb25b33	-0.021772003
195	0x3d153a76	0.036432706
196	0xba9badeb	-0.0011877393
197	0x3c91d8bd	0.017803544
198	0xbd756510	-0.059910834
199	0x3de06661	0.10957027
200	0xbc9dc686	-0.019259702
201	0x3d747a9a	0.059687234
202	0x3db8d571	0.09025086
203	0x3b84b86b	0.0040503046
204	0x3c9d6b09	0.019216077
205	0xbd917995	-0.07103268
206	0x3a2e858c	0.0006657473
207	0x3d77f404	0.060535446
208	0x3d59ab39	0.053141806
209	0x3d87ceb7	0.066312246
210	0xbd10bad7	-0.035334434
211	0x3c78f9ec	0.015196305
212	0x3d8d13c3	0.06888535
213	0x3dba7de4	0.09106043
214	0xbc7f3319	-0.0155761475
215	0x3d0d3eeb	0.03448383
216	0xbc5d4b3f	-0.01350671
217	0xbc85273c	-0.01625406
218	0x3cc8cf37	0.02451287
219	0x3bec7d2f	0.0072170715
220	0xbcf365f4	-0.029711701
221	0xbc8f42fd	-0.017487997
222	0xbb05b06a	-0.002039934
223	0x3c6de1a5	0.01451913
224	0x3d3530b0	0.044235885
225	0x3d2ad430	0.041706264
226	0x3d9e3722	0.077253595
227	0x3b8ad0cf	0.0042363177
228	0xbd814b86	-0.06313233
229	0xbdc0a8bc	-0.094071835
230	0xbdd02710	-0.101637006
231	0x3c9d053a	0.019167531
232	0x3d835f03	0.064146064
233	0x3d6dd66d	0.05806582
234	0xbdc3d1ef	-0.09561526
235	0xbe5025b7	-0.20326887
236	0xbe37acd8	-0.17937028
237	0x3cd33420	0.025781691
238	0x3c72fe5d	0.014831153
239	0x3e165c51	0.14683653
240	0x3e10651c	0.1410107
241	0x3d90149d	0.07035182
242	0x3dc282e3	0.09497621
243	0x3d260764	0.040534392
244	0xbc844a28	-0.016148642
245	0xbd645109	-0.055741344
246	0xbcbb18ff	-0.022839068
247	0xbdb42340	-0.08795786
248	0xbcd1ff11	-0.02563432
249	0x3b400f97	0.0029306167
250	0x3d9aa1e4	0.075504094
251	0x3da76104	0.08172801
252	0x3d1a5450	0.037678063
253	0x3c8cb95a	0.017178226
254	0x3d2f3e09	0.04278377
255	0x3e053863	0.13009791

conv2.bias f4 [32]
0	0x3c927ff8	0.017883286
1	0x3dc0774b	0.09397753
2	0xbdbfceaa	-0.0936559
3	0x3dea22ca	0.11432417
4	0xbd1c3599	-0.038137052
5	0xbc0bac79	-0.008525007
6	0x3c419e38	0.011817507
7	0xba68dbe5	-0.00088828645
8	0xbcf633b9	-0.03005396
9	0xbc5b0330	-0.013367459
10	0x3c3ef323	0.011654648
11	0xbd80c65d	-0.06287835
12	0x3bfaf9c2	0.007659168
13	0xbd007019	-0.031356905
14	0xbcdc0d7c	-0.026861899
15	0x3de1e892	0.110306874
16	0x3cf91fda	0.030410696
17	0x3d91f051	0.07125915
18	0x3c5b39c0	0.013380468
19	0xbc8ee2b8	-0.017442092
20	0x3d721447	0.05910137
21	0xbb8dcc06	-0.0043273
22	0xbc77504b	-0.015094827
23	0x3dd198ce	0.10234223
24	0xbdb0fb5e	-0.086416945
25	0x3df51793	0.11967387
26	0x3cfa39a4	0.030545063
27	0xbd123efb	-0.035704594
28	0x3d5d3c13	0.05401237
29	0x3cabc326	0.020967077
30	0xbc48d46f	-0.012257679
31	0x3c23a54a	0.009988138

conv3.weight f4 [64, 32, 5, 5]
0	0x3cbd35bc	0.023096912
1	0x3c5d25f6	0.01349782
2	0x3cd64feb	0.026161155
3	0xb996097d	-0.000286173
4	0xbc83c70f	-0.01608613
5	0x3b4a3555	0.0030854542
6	0x3cf7989c	0.030224137
7	0x3d3153f9	0.043292973
8	0xbba6a17d	-0.005085169
9	0x3bb26d75	0.005445177
10	0xbadf03f6	-0.001701473
11	0x3ce2e875	0.027698735
12	0x3d17c888	0.037056476
13	0xbbb10b7e	-0.0054029813
14	0x3b05af64	0.002039873
15	0xbc953b28	-0.018216684
16	0x3cecfb2f	0.028928367
17	0x3ca8eb78	0.020620093
18	0xbb37ba29	-0.0028034544
19	0x3b540d2f	0.003235649
20	0xbaad0f7c	-0.0013203467
21	0x3d04f7e6	0.032462977
22	0x3d08b010	0.03337103
23	0x3c7f908e	0.015598429
24	0xbc1efb2e	-0.009703441
25	0xbc0856be	-0.008321462
26	0xbc628a53	-0.013826924
27	0xbc9a6892	-0.018848691
28	0xbc933d5d	-0.017973596
29	0xbca1c1b8	-0.019745693
30	0x3b74d0aa	0.0037355819
31	0xbb8abf77	-0.00423425
32	0xbc9bbb3f	-0.019010184
33	0x3b709a2f	0.0036712994
34	0x3c9c275b	0.019061735
35	0x3cb7fa7b	0.022458306
36	0x3b296639	0.0025848283
37	0xbc694de6	-0.014239764
38	0x3cb390a8	0.021919563
39	0x3c1a4e71	0.009418116
40	0x3c2320f6	0.009956589
41	0xbc4c43ae	-0.012467308
42	0xbc4e4d4b	-0.01259167
43	0x3c6bbd5e	0.01438841
44	0x3af4d582	0.0018679353
45	0x3d0bb84e	0.034111314
46	0x3d1a2f47	0.037642743
47	0xbc2f342c	-0.010693591
48	0xbce23879	-0.027614819
49	0xbce9d9a0	-0.028546154
50	0xbc7c36a9	-0.015393891
51	0xba92a5e9	-0.0011188361
52	0xbc07f6eb	-0.008298616
53	0x3cfbc874	0.030735232
54	0x3c1b2ae0	0.009470671
55	0xbbbaf7b8	-0.0057058
56	0x3ae1b061	0.0017218703
57	0x3bd38fa8	0.006456334
58	0x3d06c730	0.032904804
59	0xbc0fce72	-0.008777248
60	0x3ba74b16	0.0051053865
61	0x3bde03ea	0.006775369
62	0x3cb1cc12	0.021703754
63	0x3cfeb048	0.031089917
64	0xbc43c5a5	-0.011948978
65	0xbc09b517	-0.008404992
66	0xbc0c7c73	-0.008574593
67	0x3c0347b0	0.008012697
68	0xb9e60e58	-0.00043879705
69	0xbcc39282	-0.023873571
70	0xbb0bc1f3	-0.002132532
71	0x3ca9361a	0.02065568
72	0x3c9cf2f3	0.019158816
73	0xbce56540	-0.028002381
74	0xbc6fb8bd	-0.014631447
75	0x3c09fd90	0.00842227
76	0xbb9cc6b5	-0.00478443
77	0xbd1f9491	-0.038960043
78	0xbcdc9d79	-0.026930558
79	0x3a6adb5b	0.0008959078
80	0x3ce17288	0.027520433
81	0xbc65d4a7	-0.014027751
82	0xbd2ecaf2	-0.042674012
83	0x3bcd340b	0.0062623075
84	0x3d1dc135	0.038514335
85	0xbae40583	-0.0017396662
86	0xbc3386eb	-0.01095746
87	0xbcfc27b1	-0.030780645
88	0x3c82732a	0.015924055
89	0x3c07cf84	0.008289222
90	0xbd0a34da	-0.03374181
91	0xbd47b570	-0.048757017
92	0xbce62b94	-0.028096952
93	0xbab755b8	-0.0013987338
94	0xbcf49086	-0.02985407
95	0xbd687fb8	-0.056762427
96	0xbd0eac44	-0.034832254
97	0xbbb1bfe8	-0.0054244883
98	0xbb869f69	-0.0041083586
99	0xbd11577a	-0.035483815
100	0x3c6a5961	0.014303536
101	0x3be82007	0.007083896
102	0x3c91b1e9	0.01778503
103	0x3cb9e02b	0.0226899
104	0xb9f03ea5	-0.0004582304
105	0x3b3038d2	0.0026889336
106	0x3c82fac8	0.015988722
107	0x3ca8118a	0.020516176
108	0xbb35dd9a	-0.0027750493
109	0x39a3a625	0.0003121357
110	0x3baab4ee	0.005209557
111	0x3c452bf0	0.012034401
112	0x3c4fbe6b	0.0126796765
113	0x3b835276	0.004007633
114	0xbbdd70a8	-0.0067578144
115	0x3be0eaaf	0.006863914
116	0x3cb2a8cb	0.021809002
117	0x3c8783e4	0.016542383
118	0xbb9b7dce	-0.0047452217
119	0xbc2e1612	-0.010625379
120	0x3c920a68	0.017827228
121	0x3cf7622f	0.030198185
122	0x3b8f4b3b	0.004372982
123	0x3b24e72e	0.0025162208
124	0x3a34a970	0.0006891703
125	0x3cde76e0	0.027156293
126	0x3d47d871	0.0487904
127	0x3c70178c	0.0146540515
128	0xbc817aa1	-0.015805544
129	0xbc47f8eb	-0.012205343
130	0x3c821804	0.015880592
131	0x3d09b125	0.033616204
132	0x3c01b3ea	0.00791643
133	0xbccf135e	-0.02527779
134	0xbc995102	-0.018715385
135	0x3c862df4	0.016379334
136	0x3c9a420c	0.018830322
137	0xbcb1c571	-0.021700593
138	0xbc5c2cc5	-0.013438408
139	0x3be46894	0.0069704745
140	0x3cf2a812	0.029621158
141	0x3d219027	0.039444115
142	0xbcaa045e	-0.020754036
143	0xbcc0f268	-0.023553088
144	0xbc59ac81	-0.013285757
145	0xbb809dfb	-0.0039250827
146	0x3c45009b	0.01202407
147	0x3c2bc82d	0.010484737
148	0xbce47531	-0.027887912
149	0xbd208ea9	-0.03919855
150	0xbcbf9fda	-0.023391653
151	0xbccaf07d	-0.024772877
152	0xba93e76b	-0.0011284178
153	0x3c00c0d4	0.007858474
154	0xbc713f31	-0.014724539
155	0xbbd8e4e5	-0.006619083
156	0xbbf44cdb	-0.007455451
157	0xbb92dd3f	-0.004481941
158	0xbc08ce32	-0.008349942
159	0xbb1f009b	-0.0024261835
160	0x3c89e756	0.016833942
161	0xbb40fa00	-0.0029445887
162	0xbbee494b	-0.007271921
163	0x3bbc1021	0.0057392274
164	0x3a01caa0	0.0004951153
165	0x3b04ad89	0.0020245037
166	0xbc692044	-0.014228884
167	0xbbb5adef	-0.005544416
168	0xbc47fd5f	-0.0122064045
169	0xbc13eb6b	-0.009028296
170	0xbbaabf26	-0.005210775
171	0x3b3fd0ab	0.0029268663
172	0xbc41ad34	-0.01182108
173	0xbc980348	-0.018556252
174	0xbc3c958e	-0.011510266
175	0xbb40c041	-0.0029411467
176	0x3ca24fbe	0.019813415
177	0x3d598ef0	0.05311483
178	0xbd4240c2	-0.04742504
179	0xbc1137c4	-0.008863393
180	0x3c67fe2d	0.014159721
181	0x3cb194e9	0.021677451
182	0x3abbcb33	0.0014327526
183	0xbcc4a459	-0.024004148
184	0xbc9cf674	-0.019160487
185	0xbbce209f	-0.00629051
186	0x3c566512	0.0130856205
187	0xbc810388	-0.015748754
188	0xbd15344b	-0.036426824
189	0x3cdd2000	0.026992798
190	0xbb607621	-0.0034250098
191	0x3c83ce54	0.016089596
192	0xbd551f75	-0.052031953
193	0xbc99bc77	-0.018766625
194	0x3c107f37	0.008819393
195	0xbbc41388	-0.0059837736
196	0xbd3f7933	-0.046746444
197	0xbd78952a	-0.06068913
198	0xbc352c8b	-0.011057983
199	0xbd0b1d55	-0.03396352
200	0x3bb0a567	0.0053908112
201	0x3c00f351	0.007870511
202	0x3ce93e28	0.028472021
203	0xbc413a3e	-0.011793671
204	0xbd28e54a	-0.041234292
205	0x3cbc67fc	0.022998802
206	0x3c9ea6ba	0.01936661
207	0x3c0dc2c7	0.008652396
208	0xbcd89419	-0.026437806
209	0xbc7acebc	-0.015308078
210	0x3cfb04ef	0.030642001
211	0x3beb1a19	0.007174742
212	0xbc42a256	-0.011879524
213	0xbc87b460	-0.016565502
214	0xbbc00369	-0.0058597815
215	0x3b87ece7	0.004148114
216	0xbc58393f	-0.013197242
217	0xbcf41476	-0.029794913
218	0xbca76850	-0.020435482
219	0xbaa41c04	-0.0012520556
220	0x3a89b984	0.0010507558
221	0xbcb71698	-0.02234964
222	0xbd321ffb	-0.04348753
223	0xbc988b5e	-0.018621143
224	0xbca36787	-0.019946827
225	0xbcb4435f	-0.022004781
226	0xbc344335	-0.0110023515
227	0xbc18efad	-0.009334487
228	0xbd0fc6d2	-0.03510172
229	0xbcba2ae6	-0.022725534
230	0x3ae22cd2	0.0017255789
231	0x3c63bd81	0.013900162
232	0x3c3254db	0.010884489
233	0xba9799d9	-0.0011566236
234	0x3a1e0e60	0.0006029364
235	0x3c28ce05	0.010303025
236	0x3c86f319	0.01647334
237	0x3b599966	0.0033203005
238	0x3ac78232	0.0015221296
239	0x3bf53303	0.0074828877
240	0x3c5770e4	0.013149474
241	0x3c323334	0.010876466
242	0xbc7fd84c	-0.015615534
243	0xbc74317f	-0.014904379
244	0x3b5cc8a2	0.0033688922
245	0x3aea18c1	0.001786016
246	0x3baa2df9	0.0051934686
247	0xbc242fcc	-0.010021161
248	0xbcb1fff2	-0.02172849
249	0xbcdc5126	-0.026894163
250	0x3c61ee2d	0.013789696
251	0x3ca87b65	0.020566652
252	0x3ce3d1b5	0.027809957
253	0x3a486d87	0.00076457154
254	0xbc85dd03	-0.016340738
255	0x3c927f34	0.01788292

conv3.bias f4 [64]
0	0x3a85fb7b	0.0010222042
1	0x3bccc42a	0.0062489705
2	0xbc021a69	-0.007940867
3	0xbc0ffa5e	-0.0087877195
4	0x3b126c22	0.0022342284
5	0x1108faaf	1.0805756e-28
6	0xbbe5091c	-0.0069896113
7	0xbaa18e61	-0.0012325757
8	0xbb896936	-0.0041934503
9	0x3c5d9f53	0.013526755
10	0xbc322311	-0.010872618
11	0xbc824592	-0.015902314
12	0xbbdce433	-0.0067410707
13	0xbbca561f	-0.006174817
14	0xbc80bcdd	-0.015715057
15	0xbc05d2f7	-0.008167974
16	0xbc6ac4b4	-0.014329124
17	0x3be9e811	0.00713826
18	0xbc504674	-0.01271211
19	0xbc31f3be	-0.010861335
20	0xbc07b69f	-0.008283286
21	0xbc5519c0	-0.013006628
22	0xbc2e94ce	-0.010655595
23	0xbbd749f6	-0.006570096
24	0xbc35a0d4	-0.011085708
25	0x3c0f76ab	0.00875632
26	0xbbc4c5d7	-0.0060050297
27	0xbb763f5d	-0.0037574389
28	0xbb50ea88	-0.0031878073
29	0xbb8ef93c	-0.004363207
30	0xbbb5d646	-0.005549225
31	0xbca2e466	-0.0198843
32	0xbbf3bb3a	-0.0074380906
33	0x3c7fada4	0.015605364
34	0xbb4dd7d8	-0.003140917
35	0xbcc3a4a0	-0.02388221
36	0x3b683f5b	0.0035438153
37	0xbb3fe84b	-0.0029282745
38	0xbbb1859d	-0.0054175393
39	0xbca1d483	-0.019754654
40	0x3b0f2848	0.0021844078
41	0xbc7c3d51	-0.015395478
42	0xbaa0c70e	-0.0012266354
43	0xbb9ce2f5	-0.0047877976
44	0x3b1e67b8	0.0024170708
45	0xbbba6545	-0.005688342
46	0xbc091a9e	-0.008368162
47	0xbbfd761f	-0.0077350284
48	0xbca133dc	-0.019678049
49	0xbca517ab	-0.020152887
50	0x3c5a7082	0.013332488
51	0xbc2ca543	-0.010537448
52	0xbc18779f	-0.009305864
53	0xbc7e2b32	-0.015513228
54	0xbb009c14	-0.001962428
55	0xbb7622ef	-0.0037557443
56	0xbc0917fb	-0.008367534
57	0xbb0c876e	-0.0021443027
58	0xbbf70e68	-0.007539559
59	0xbc18af56	-0.009319147
60	0xbd014f25	-0.03156962
61	0xbc99446a	-0.01870938
62	0xbc316d61	-0.010829301
63	0xbb906c2e	-0.0044074273

fc1.weight f4 [86, 576]
0	0xbc06b455	-0.008221705
1	0xbc7c5ed7	-0.015403471
2	0xbc9af36c	-0.0189149
3	0xbc05ca73	-0.008165943
4	0xbc93e7c2	-0.018054847
5	0xbc701e13	-0.014655608
6	0xbbceaa96	-0.0063069565
7	0xbc88c1fe	-0.016694065
8	0xbc6dcc55	-0.014514049
9	0x39795c76	0.00023780935
10	0xbb8524e7	-0.004063237
11	0xbc951876	-0.01820014
12	0xbc03540a	-0.008015642
13	0xbc1247e7	-0.008928276
14	0xbcaa3e54	-0.020781673
15	0xbbb3b5c9	-0.005484317
16	0xbc2769ce	-0.010218097
17	0xbc897dff	-0.016783712
18	0xbc1e9f44	-0.009681527
19	0xbb5d830b	-0.0033800032
20	0xbae45625	-0.0017420693
21	0xbbc12eb4	-0.00589546
22	0xbb2286e9	-0.002479965
23	0xbb0fc904	-0.0021939883
24	0x38d6c3d2	0.000102407896
25	0xbb5c5120	-0.003361769
26	0xbba2b6ec	-0.0049656536
27	0xbbe64617	-0.0070273983
28	0xbc20c68f	-0.009812965
29	0xbc394f2b	-0.011310379
30	0xbb0a9cba	-0.0021150545
31	0xbc05c329	-0.008164206
32	0xbc35b245	-0.011089866
33	0xbbb3fbc0	-0.0054926574
34	0xbbd61491	-0.0065332134
35	0xbc340f14	-0.010989923
36	0xbbf5ea46	-0.007504734
37	0xbc6a7173	-0.014309275
38	0xbc570ca9	-0.013125577
39	0xbc9f2e26	-0.019431185
40	0xbc9b633e	-0.01896822
41	0xbc84a284	-0.016190775
42	0xbbaa38b0	-0.005194746
43	0xbb75261e	-0.0037406753
44	0xbb63f89a	-0.003478563
45	0x000033e7	1.8619e-41
46	0x80000f26	-5.434e-42
47	0x00000db0	4.91e-42
48	0x800033d8	-1.8598e-41
49	0x00000f19	5.416e-42
50	0x80000f21	-5.427e-42
51	0x80000e9d	-5.242e-42
52	0x80000f23	-5.43e-42
53	0x0000095e	3.36e-42
54	0xbc85c64e	-0.01632991
55	0xbc5a1c4c	-0.013312411
56	0xbc6ae6dc	-0.014337268
57	0xbc74cdd5	-0.014941652
58	0xbc69fb3f	-0.014281093
59	0xbc151b11	-0.009100691
60	0xbcb58b4e	-0.022161152
61	0xbca278ac	-0.019832931
62	0xbc3b823e	-0.011444626
63	0xbc568967	-0.013094283
64	0xbc792a16	-0.015207788
65	0xbc3e5db5	-0.011619021
66	0xbc30522f	-0.010761782
67	0xbc7d27c4	-0.015451375
68	0xbc80b4f5	-0.015711287
69	0xbc02a527	-0.007973946
70	0xbc531c07	-0.0128851
71	0xbc7233b1	-0.014782832
72	0xbc8db9b0	-0.017300457
73	0xbc8b87ae	-0.01703247
74	0xbc92c23b	-0.017914882
75	0xbb5d6b7b	-0.0033785987
76	0xbbc4c049	-0.0060043675
77	0xbc62db2f	-0.013846203
78	0xbb894600	-0.004189253
79	0x3a2a8f91	0.00065063784
80	0xbc936bf4	-0.017995812
81	0xbc27d345	-0.010243242
82	0xbbf6ca3a	-0.0075314315
83	0xbc4061e6	-0.011742091
84	0xbc172c62	-0.00922689
85	0xbb0bbc1f	-0.0021321846
86	0xbcad9c3f	-0.021192668
87	0xbc94ef88	-0.018180624
88	0xbc64e4a6	-0.01397053
89	0xbc752868	-0.014963247
90	0xbb8f4ecc	-0.004373407
91	0xbbeb37aa	-0.0071782665
92	0xbc4ff431	-0.012692497
93	0xbc34547a	-0.011006469
94	0xbc08e8da	-0.008356297
95	0xbc11f65d	-0.008908835
96	0xbbf84c09	-0.0075774235
97	0xbc249ed2	-0.010047631
98	0xbbd61a3c	-0.006533889
99	0xbc1f0986	-0.00970686
100	0xbc54430c	-0.012955438
101	0xbc28df0f	-0.010307088
102	0xbc1a878b	-0.00943173
103	0xbc6f9ba2	-0.014624508
104	0xbc93cc65	-0.018041799
105	0xbb44edac	-0.003004889
106	0xbc4cb662	-0.012494655
107	0xbc635695	-0.013875623
108	0xbc020af2	-0.00793718
109	0xbc46c38e	-0.012131585
110	0xbc17004b	-0.009216378
111	0xbc0cc32b	-0.008591454
112	0xbc1185d0	-0.008882001
113	0xbbe2963e	-0.006914883
114	0xbc59dc59	-0.013297164
115	0xbc167831	-0.009183929
116	0xbb75aaf1	-0.0037485922
117	0xbc484903	-0.012224439
118	0xbc56c9fd	-0.013109681
119	0xbbc0bc9b	-0.0058818585
120	0xbc71172f	-0.014715
121	0xbc237d3b	-0.009978588
122	0xbbe4cf22	-0.0069827
123	0xbbed9c0b	-0.007251268
124	0xbc3eaf32	-0.0116384495
125	0xbc92954b	-0.017893454
126	0xbba7a277	-0.005115803
127	0xbc34c39f	-0.011032968
128	0xbc89bd69	-0.01681395
129	0xbc4ba77b	-0.012430067
130	0xbc72909c	-0.014804985
131	0xbc6de8f7	-0.014520875
132	0xbc3dcdc6	-0.011584705
133	0xbc618933	-0.013765621
134	0xbb965774	-0.004588062
135	0xbc64f5a6	-0.013974583
136	0xbc098bc8	-0.008395143
137	0xbc546c3f	-0.012965261
138	0xbb18556a	-0.002324427
139	0xbbe7e33b	-0.0070766485
140	0xbc7fdf10	-0.015617147
141	0xbab90e2a	-0.0014118601
142	0xbc096b84	-0.00838745
143	0xbc85001c	-0.016235404
144	0xbb839eaf	-0.0040167193
145	0xbc0c9d61	-0.008582444
146	0xbc681eb1	-0.014167474
147	0xbbda054e	-0.0066534644
148	0xbc3acd2b	-0.011401455
149	0xbba123f2	-0.004917615
150	0xbbf9785a	-0.007613224
151	0xbc2012b4	-0.009770084
152	0xbb756a76	-0.003744749
153	0xbc149bad	-0.009070319
154	0xbc8020e7	-0.015640689
155	0xbc44a776	-0.012002816
156	0xbc11bfa4	-0.008895788
157	0xbc983a97	-0.018582625
158	0xbc4ba2bd	-0.012428937
159	0xbca518d0	-0.020153433
160	0xbc81bc0c	-0.015836738
161	0xbc81e00c	-0.015853904
162	0xbc2f9815	-0.0107174115
163	0xbc8bc4f8	-0.017061695
164	0xbc8cbd31	-0.017180057
165	0xbc4d9b99	-0.012549304
166	0xbc9e8757	-0.019351644
167	0xbc9dd655	-0.01926724
168	0xbc746cd4	-0.014918525
169	0xbc6e75c2	-0.014554443
170	0xbc631733	-0.013860512
171	0xbb84d6cc	-0.004053926
172	0xbad8eef0	-0.0016550701
173	0xbbe2c317	-0.006920229
174	0x3be02a23	0.0068409606
175	0x3ba3ef9b	0.0050029284
176	0xbc0b75fb	-0.008512015
177	0xbc0b1d6d	-0.008490902
178	0xbbfb7ccd	-0.0076747895
179	0xbc002b5b	-0.007822837
180	0xbc7e91ac	-0.015537661
181	0xbc9b352e	-0.018946256
182	0xbca9323e	-0.02065384
183	0xbc7fb707	-0.015607602
184	0xbc353841	-0.011060775
185	0xbbf58e7a	-0.007493791
186	0xbb5cb4e1	-0.0033677148
187	0xbb93f815	-0.0045156577
188	0xbb9e4373	-0.004829818
189	0xbc401c3c	-0.011725482
190	0xbc88a027	-0.01667793
191	0xbc8c4d85	-0.017126808
192	0xbc114de2	-0.008868666
193	0xbc214ea1	-0.009845407
194	0xbbdc31df	-0.0067198123
195	0xbc5c7bbe	-0.013457237
196	0xbc737b39	-0.014860922
197	0xbc1fffad	-0.009765548
198	0xbbae7d27	-0.005324978
199	0xbcaf2eb2	-0.02138457
200	0xbc7810f0	-0.015140757
201	0xbc875080	-0.016517878
202	0xbcb04a13	-0.021519696
203	0xbc6a4fd7	-0.014301262
204	0xbc78b239	-0.01517921
205	0xbc8e4952	-0.017368946
206	0xbc372ecc	-0.011180591
207	0xbc85d93b	-0.016338935
208	0xbc7bfe79	-0.015380495
209	0xbc7bfc1f	-0.015379935
210	0xbc807bb1	-0.01568398
211	0xbc3d2be2	-0.011546107
212	0xbc7c0dca	-0.015384147
213	0xbb85d45d	-0.0040841536
214	0x397d3ac3	0.0002414985
215	0xbc4ebf94	-0.012618918
216	0xbc4c6216	-0.012474557
217	0xbc65870d	-0.014009249
218	0xbc37ff59	-0.011230313
219	0xbc7f7038	-0.01559072
220	0xbbdbce86	-0.006707969
221	0xbb213171	-0.002459612
222	0xbc8ae641	-0.016955497
223	0xbca379c2	-0.01995552
224	0xbc8aa32a	-0.016923506
225	0x3a9a3528	0.0011765109
226	0xbb59595c	-0.0033164835
227	0xbc94f231	-0.018181892
228	0xb986a6b3	-0.00025682672
229	0xbbbbb1bc	-0.0057279747
230	0xbca0b97a	-0.019619692
231	0xbbaa0c73	-0.0051894723
232	0xbc3b8402	-0.011445047
233	0xbc1d7491	-0.009610311
234	0xbc021974	-0.007940639
235	0xbc46393e	-0.012098609
236	0xbc7f07dc	-0.015565839
237	0xbc218724	-0.00985888
238	0xbc12b422	-0.00895408
239	0xbc654b00	-0.013994932
240	0xbc11e8b1	-0.008905576
241	0xbc1b241a	-0.0094690565
242	0xbc74a0ac	-0.014930885
243	0xbc83157c	-0.016001455
244	0xbc6b866b	-0.014375309
245	0xbc28b5e6	-0.010297274
246	0xb829c471	-4.047569e-05
247	0x3608ca60	2.0383377e-06
248	0xbc05c99e	-0.008165745
249	0xba2d7e7c	-0.0006618274
250	0xbaf46d36	-0.001864827
251	0xbc2686c2	-0.010163965
252	0xbbc7bedc	-0.0060957503
253	0xbbeff10f	-0.0073224376
254	0xbc11f2e4	-0.008908007
255	0xbc6f8f1e	-0.014621524

fc1.bias f4 [86]
0	0xbbbbae90	-0.0057275966
1	0x3aa641cc	0.0012684404
2	0x3a065534	0.00051243906
3	0x3c015b66	0.007895326
4	0x3ba3f05e	0.0050030192
5	0xbab3bae9	-0.001371232
6	0xbbb59c55	-0.005542318
7	0x390a716c	0.00013202959
8	0x00000fcf	5.671e-42
9	0x3bda979e	0.006670906
10	0x00000dcf	4.954e-42
11	0x2cc5b931	5.619637e-12
12	0x3b875d25	0.0041309767
13	0x00000e21	5.068e-42
14	0xb976434e	-0.00023485461
15	0xbac6d343	-0.0015169162
16	0x3c1d975c	0.009618606
17	0x80000dc5	-4.94e-42
18	0x3ad95eb3	0.0016584009
19	0x3bcc09ad	0.0062267394
20	0x28cdd5e6	2.2852336e-14
21	0xba67d4ad	-0.0008843642
22	0xba35ee00	-0.0006940067
23	0x00000def	4.998e-42
24	0xa401ef97	-2.8175357e-17
25	0xa6c40576	-1.3601712e-15
26	0xbb227705	-0.002479018
27	0x3b880c1f	0.0041518356
28	0x8cbb8a3e	-2.8895113e-31
29	0x3b9348ad	0.0044947476
30	0xb9f2f0b7	-0.00046337183
31	0xb6168f9d	-2.2435336e-06
32	0xbb80958a	-0.0039240764
33	0xbad50532	-0.0016252159
34	0x3b281ef3	0.0025653213
35	0xb5ea4121	-1.7453314e-06
36	0x3b75dc43	0.003751532
37	0x13c67835	5.010076e-27
38	0xbaf64fca	-0.001879209
39	0x3c2ee063	0.010673615
40	0x3982dc41	0.00024959634
41	0x2ff70cec	4.493822e-10
42	0xbb030e11	-0.0019997398
43	0xb9a1b2b4	-0.00030841457
44	0x0df107cb	1.4854648e-30
45	0x3bd7bb4f	0.006583608
46	0x3b84d424	0.0040536094
47	0x3b6debfb	0.0036303985
48	0x3ba2fcba	0.004973975
49	0x00000e21	5.068e-42
50	0xbac36ed3	-0.0014910348
51	0x3c087d9f	0.008330732
52	0xbbef627b	-0.007305441
53	0xbb2bdfdc	-0.002622596
54	0x3534ef27	6.740324e-07
55	0xbac353e8	-0.0014902325
56	0x3a74e33d	0.00093417225
57	0xb9b75e59	-0.00034974774
58	0x3b1f049a	0.0024264217
59	0xb8aad728	-8.146308e-05
60	0x37865fbb	1.6018623e-05
61	0x3a2f4fd3	0.0006687615
62	0x3c90d25c	0.017678432
63	0x3b3038ae	0.0026889252
64	0x3be1dc0c	0.0068926867
65	0xb536a292	-6.8036854e-07
66	0xa73eeb14	-2.6495233e-15
67	0x88209b69	-4.8330932e-34
68	0xbaa15371	-0.0012308193
69	0x3b82fb4f	0.0039972435
70	0xbb1d3da1	-0.0023993033
71	0x3c18bb40	0.009321988
72	0xbb98e847	-0.0046663615
73	0x3b695c0e	0.0035607847
74	0xbae1f8a2	-0.0017240236
75	0xbb15b06e	-0.0022840756
76	0xbb3e3455	-0.0029022892
77	0x3aedf52c	0.0018154732
78	0xa6f90647	-1.7279547e-15
79	0xbafc2fe9	-0.0019240353
80	0x3b035e9a	0.00200454
81	0xbb852076	-0.0040627075
82	0x00000dbc	4.927e-42
83	0xb2ee19fe	-2.7718666e-08
84	0x3c27788e	0.010221614
85	0x3ba14505	0.004921558

fc2.weight f4 [64, 86]
0	0x3d0c97eb	0.034324568
1	0x3d858fdc	0.065215796
2	0xbcc1a388	-0.023637548
3	0x3d627ede	0.05529677
4	0x3cf9e815	0.030506173
5	0xbe44bf82	-0.1921368
6	0x3c307fef	0.010772689
7	0x3d9e84fa	0.07740207
8	0x3857a3ed	5.1412662e-05
9	0x3d1f472b	0.03888623
10	0xacce02cf	-5.855184e-12
11	0xbb918638	-0.004441049
12	0xbd902d04	-0.07039836
13	0x32535c57	1.2302812e-08
14	0x3dc9df5a	0.09857054
15	0xbd8b9aa6	-0.06816606
16	0xbca6af92	-0.02034739
17	0xb7bbfcf0	-2.240992e-05
18	0x3cc85760	0.024455726
19	0xbd0cbb45	-0.03435828
20	0x3b59a8a6	0.0033212095
21	0x3c315c89	0.010825285
22	0x3de04f76	0.10952656
23	0x35e9a276	1.7407135e-06
24	0x8bf80594	-9.553452e-32
25	0xaa5fe1e7	-1.9884754e-13
26	0x3cdd8462	0.027040664
27	0xbd954b5a	-0.07289763
28	0xaa8690ca	-2.390365e-13
29	0x3d028c8d	0.03187232
30	0x3d2b9dfe	0.04189872
31	0xbcef5f1d	-0.029220158
32	0xbdf58586	-0.11988358
33	0xbcccc97f	-0.024998425
34	0x3d3fdbed	0.046840597
35	0x3acae4b3	0.0015479535
36	0xbdcebfd0	-0.10095179
37	0x3b4f790b	0.003165784
38	0x3c60411c	0.013687398
39	0x3d7130f1	0.058884565
40	0x3de2b0f1	0.11068905
41	0x376c4484	1.4082649e-05
42	0x3de9032d	0.11377559
43	0xbdd50765	-0.10401801
44	0xb10ea7b2	-2.0759043e-09
45	0x3cbb9494	0.022897996
46	0x3d305551	0.043050114
47	0x3d32e6a5	0.04367699
48	0xbcfe9b6c	-0.03107997
49	0x355293a3	7.8445936e-07
50	0x3d9dd116	0.077058956
51	0xbc176733	-0.009240913
52	0xbb99b081	-0.0046902304
53	0x3cb81bc6	0.02247418
54	0x3b1cbef0	0.0023917519
55	0x3e059646	0.13045606
56	0xbc97869c	-0.018496804
57	0x3de73258	0.11288899
58	0xbd730bf3	-0.059337568
59	0x3a2af602	0.00065216434
60	0x3da79b3e	0.08183907
61	0xbd366964	-0.044534102
62	0xba0dd274	-0.0005410083
63	0x3e1782e8	0.1479603
64	0x3db2960b	0.08720025
65	0xbcdd37cc	-0.027004145
66	0xbbb28a06	-0.0054485826
67	0x38d16324	9.984363e-05
68	0xbd3248da	-0.043526508
69	0x3db1e622	0.086864725
70	0x3de04be6	0.109519765
71	0x3deddb44	0.11614087
72	0xbdfd347d	-0.12363527
73	0xbd10e341	-0.035372976
74	0x3d72b88a	0.05925802
75	0x3d485d33	0.048917007
76	0xbdae96d3	-0.08524861
77	0xbc026814	-0.0079593845
78	0xbaa716b9	-0.0012747861
79	0xbc9b1596	-0.018931191
80	0xbc6e36d7	-0.014539442
81	0x3d009973	0.03139634
82	0x80000e00	-5.022e-42
83	0x3c120a3d	0.008913574
84	0xbdc7aedc	-0.09750149
85	0xbd6efdfb	-0.058347683
86	0xbc332409	-0.010933884
87	0xbdaaeb71	-0.08345688
88	0x3ce92518	0.02846007
89	0xbdba5850	-0.090988755
90	0x3c464a90	0.012102738
91	0xbd902e44	-0.070400745
92	0xbc4d8e19	-0.012546086
93	0x3ca07a56	0.019589584
94	0x2e3d3906	4.302427e-11
95	0x3c39306f	0.011303051
96	0x00000dbf	4.931e-42
97	0x3ac41501	0.0014959873
98	0x3cd830a6	0.026390385
99	0x219d38aa	1.0653733e-18
100	0x3d0d3fc8	0.034484655
101	0xbc61be51	-0.013778285
102	0xbd934aef	-0.07192027
103	0x27a7e94b	4.660475e-15
104	0x3cd448a8	0.025913551
105	0x3d370b8c	0.044688746
106	0xb728e8a5	-1.0067747e-05
107	0x3c01c801	0.00792122
108	0x3d2b2d48	0.04179123
109	0x09a3b4ef	3.941097e-33
110	0x0017bf39	2.180814e-39
111	0x2917cf34	3.3708455e-14
112	0x3c54c07b	0.012985344
113	0x3d90e7ca	0.0707546
114	0x33d409ca	9.8738e-08
115	0x3d269187	0.04066613
116	0xbcbeacf6	-0.023275834
117	0x3d3bdc97	0.045864668
118	0xbcec1c96	-0.028822225
119	0x3cece49f	0.028917609
120	0xbd71d10c	-0.059037253
121	0xbac10879	-0.0014727256
122	0x3deed740	0.116621494
123	0xb915b5c0	-0.00014277454
124	0xbd2118ea	-0.0393304
125	0xbe0e142b	-0.13874881
126	0x3c96cc21	0.018407883
127	0xb8c664eb	-9.460173e-05
128	0xbda67982	-0.081286445
129	0x3d49d1c8	0.04927233
130	0x32d720da	2.5044233e-08
131	0x3c0b77fa	0.008512491
132	0x3d564506	0.05231192
133	0x3e05c43f	0.13063143
134	0xbd36c970	-0.0446257
135	0x33bfcf2d	8.9318156e-08
136	0xbde90b9a	-0.11379166
137	0x3e35a1c8	0.17737496
138	0x3dd054c0	0.10172415
139	0x3d02a2b9	0.031893466
140	0x3cf198eb	0.029491862
141	0xbba6f9c6	-0.0050956933
142	0x3c88ae75	0.01668475
143	0xbc080234	-0.0083013065
144	0x3d7f9b8f	0.06240421
145	0xb917d42e	-0.00014479525
146	0x3d099ebb	0.033598643
147	0x3d6b0a16	0.057382666
148	0x3d400f28	0.046889454
149	0xbe699de9	-0.22814144
150	0xbe1e5a9d	-0.15464254
151	0x3c7ba02d	0.015358013
152	0xbbbbcfea	-0.0057315724
153	0x2dd11990	2.3771901e-11
154	0x3d0443b3	0.032291126
155	0xbc30efaf	-0.0107993325
156	0x3cde7d25	0.027159283
157	0xbdb779b0	-0.08958757
158	0x3d2c9489	0.04213384
159	0xbc57170f	-0.013128056
160	0x3d94bfb4	0.07263127
161	0xbc66eb5a	-0.014094198
162	0x3b68bd49	0.0035513213
163	0xbdcb95b6	-0.099406645
164	0x3b5f7cd1	0.0034101496
165	0x3da13ce5	0.07872943
166	0x3da64cf3	0.08120146
167	0x3db7455b	0.089487754
168	0x80000e49	-5.125e-42
169	0xbc5a7a23	-0.013334784
170	0x3dda171b	0.10648938
171	0x3d85291c	0.065019816
172	0x80000e5c	-5.151e-42
173	0x0fa13542	1.589634e-29
174	0x0fbd84a9	1.8687938e-29
175	0x10848675	5.2271984e-29
176	0x1c0ef941	4.730601e-22
177	0x101a9abe	3.0490354e-29
178	0x0c76e21b	1.9019192e-31
179	0x104d16b2	4.0446605e-29
180	0x00000dad	4.906e-42
181	0x8fafaf37	-1.7323823e-29
182	0x8000108b	-5.934e-42
183	0x0151392a	3.842825e-38
184	0x116b2477	1.8549468e-28
185	0x00000dc2	4.935e-42
186	0x0fb0facb	1.7451542e-29
187	0x8fbbc415	-1.8515152e-29
188	0x11500fbc	1.6413155e-28
189	0x80000e39	-5.102e-42
190	0x105ebe46	4.3928362e-29
191	0x10a63cfd	6.556942e-29
192	0x87f8d4a1	-3.7439865e-34
193	0x90d59782	-8.424712e-29
194	0x912ef8d2	-1.3802853e-28
195	0x80000dde	-4.975e-42
196	0x80000e7f	-5.2e-42
197	0x00000e89	5.214e-42
198	0x101c7601	3.0856482e-29
199	0x9e922371	-1.547301e-20
200	0x00000a49	3.69e-42
201	0x1032a7b0	3.5233492e-29
202	0x90923cb8	-5.76804e-29
203	0x80000e00	-5.022e-42
204	0x802a803f	-3.903097e-39
205	0x10f52488	9.6691746e-29
206	0x10c16ae7	7.6289786e-29
207	0x8c74bdd6	-1.8854203e-31
208	0x102d8126	3.4217726e-29
209	0x800088d7	-4.9089e-41
210	0x8fcf16de	-2.0420584e-29
211	0x0fd727f8	2.1216032e-29
212	0x10fe8093	1.00383435e-28
213	0x0ac39579	1.8834042e-32
214	0x10ac3fb5	6.7940194e-29
215	0x0fc56f87	1.9468659e-29
216	0x00000dcc	4.95e-42
217	0x108ba60b	5.508166e-29
218	0x85463dc2	-9.3212584e-36
219	0x910bfe12	-1.1043458e-28
220	0x0dabf456	1.059751e-30
221	0x0000108a	5.933e-42
222	0x066e6d18	4.4842974e-35
223	0x911857f1	-1.2017785e-28
224	0x910565e8	-1.0523252e-28
225	0x0f9c5584	1.5415727e-29
226	0x800136b5	-1.1146e-40
227	0x9c963c04	-9.941681e-22
228	0x8f5f1530	-1.09988294e-29
229	0x8e97c31d	-3.741226e-30
230	0x1083d380	5.1996257e-29
231	0x80000daf	-4.909e-42
232	0x1028cc7f	3.3289696e-29
233	0x90811915	-5.0920173e-29
234	0x90d52b66	-8.408055e-29
235	0x90044aba	-2.6089977e-29
236	0x9080404a	-5.058615e-29
237	0x10a8581f	6.640009e-29
238	0x0d620535	6.9647895e-31
239	0x00000e31	5.091e-42
240	0x0df92354	1.5354315e-30
241	0x0e743a13	3.0103284e-30
242	0x0f95a62a	1.4756538e-29
243	0x1055b7fb	4.2148577e-29
244	0x90fa390c	-9.869551e-29
245	0x8fab63b8	-1.6900312e-29
246	0x0e830721	3.230086e-30
247	0x9067fa97	-4.5749765e-29
248	0x0fb4bd62	1.7822318e-29
249	0x8fce38dc	-2.033507e-29
250	0x0b0e10ed	2.736094e-32
251	0x8a78a271	-1.19713175e-32
252	0x0d15d04e	4.6164908e-31
253	0x90008d55	-2.5352427e-29
254	0x80000e20	-5.067e-42
255	0x392f46d9	0.00016715693

fc2.bias f4 [64]
0	0x3c913ddc	0.017729692
1	0x3b13ad6f	0.0022533794
2	0x8f1ec54d	-7.828e-30
3	0x00000db9	4.923e-42
4	0x3a3ccbb7	0.0007201987
5	0x80000ddf	-4.976e-42
6	0x3c3585c3	0.011079255
7	0x3c3db4a8	0.011578716
8	0xad1344e0	-8.371276e-12
9	0x3ba9159f	0.005160048
10	0x3a717dc2	0.000921216
11	0x80001afb	-9.679e-42
12	0x3c155264	0.009113882
13	0x3d001353	0.03126843
14	0x3c80edf3	0.015738463
15	0x3c623f0d	0.013808978
16	0x831acc4d	-4.549106e-37
17	0x3cb8222d	0.022477234
18	0x80000ea8	-5.258e-42
19	0xbb159e46	-0.0022829934
20	0x3b653650	0.0034975
21	0x3c065405	0.008198743
22	0x00000ddd	4.973e-42
23	0x0e974a34	3.729583e-30
24	0xbaf02169	-0.0018320504
25	0xbb3d9173	-0.0028925806
26	0x3cd2563a	0.025675882
27	0xbc224f71	-0.009906636
28	0x3bef0441	0.0072942083
29	0xbcc45a74	-0.023968913
30	0x3ca768b9	0.020435678
31	0x3cd88534	0.026430704
32	0xbc3b09aa	-0.011415878
33	0x3cd5d1d2	0.026101027
34	0x3c38249c	0.011239197
35	0x3c10eb7a	0.0088452045
36	0xbc62f0d6	-0.013851365
37	0x241f9bb6	3.460952e-17
38	0x3d03c0b7	0.03216621
39	0x370443cf	7.883601e-06
40	0x3bec0e87	0.00720388
41	0xa745e6bf	-2.746433e-15
42	0xb52d7bfa	-6.462793e-07
43	0xbb0cd130	-0.002148699
44	0x3ccd8127	0.025085999
45	0x80000e16	-5.053e-42
46	0xbb03ccc8	-0.0020111073
47	0xa948569e	-4.448405e-14
48	0x3c59c6de	0.013292043
49	0xaadc1f4c	-3.9101567e-13
50	0xbc79d0e1	-0.0152475545
51	0x3cb1f90b	0.021725198
52	0x3c88079f	0.016605197
53	0x3cba7d5a	0.02276485
54	0x3d1e99db	0.038720947
55	0xbc0ccd93	-0.008593935
56	0x3b8ba06b	0.0042610667
57	0xbc0a8960	-0.008455604
58	0xba7c699b	-0.00096287736
59	0x01cfdac1	7.635369e-38
60	0x3c762b20	0.01502493
61	0x3c3f3a0d	0.011671555
62	0x80036171	-3.10462e-40
63	0x3bae960a	0.0053279446

fc3.weight f4 [10, 64]
0	0xbe6bc482	-0.2302418
1	0x3e5435ff	0.20723723
2	0x157c64dc	5.097056e-26
3	0x2db8f2ad	2.1026148e-11
4	0xbd78c909	-0.060738597
5	0xb2a32454	-1.8992218e-08
6	0x3da3465f	0.079724066
7	0xbca5e0ba	-0.02024876
8	0x170829ce	4.3996735e-25
9	0x3dcd14e7	0.100137524
10	0x3de6845e	0.11255716
11	0xb5320a79	-6.6325407e-07
12	0xbda62d41	-0.081141
13	0x3e2d9686	0.16951951
14	0x3b58532c	0.0033008559
15	0x3cc5e380	0.024156332
16	0xad19b605	-8.7374595e-12
17	0xbe050769	-0.12991108
18	0xb4862afe	-2.4990726e-07
19	0x3d769cae	0.060208015
20	0xbddf1140	-0.10891962
21	0xbe151a95	-0.14560921
22	0x2e8e23df	6.4637844e-11
23	0x36053363	1.9848455e-06
24	0xbd2d33a8	-0.04228559
25	0xbe1c5abb	-0.15268986
26	0xbda93530	-0.08262098
27	0xbe08f31b	-0.13373987
28	0x3d6b145e	0.05739247
29	0xbe3586bd	-0.1772718
30	0x3d91b2b3	0.07114162
31	0x3dcbb069	0.09945757
32	0xba85d4e6	-0.0010210543
33	0x3e2db06a	0.16961828
34	0xbdc22b8b	-0.094809614
35	0x3e2fd019	0.17169227
36	0x3dcec2e7	0.100957684
37	0xa55bc262	-1.9061082e-16
38	0x3e117afc	0.14207071
39	0x3a5a5f76	0.0008330265
40	0xbd550346	-0.052005075
41	0x00000deb	4.993e-42
42	0xb9ebc733	-0.00044971108
43	0xbccb5032	-0.024818514
44	0xbdf3a844	-0.118973285
45	0xb8908d96	-6.8928275e-05
46	0xbe15071f	-0.14553498
47	0x27822f3f	3.6133473e-15
48	0xbceaf083	-0.028679138
49	0x0003cb9d	3.48549e-40
50	0xbdbf22e4	-0.09332827
51	0x3c02f3ae	0.007992668
52	0xbcfd52a6	-0.030923199
53	0xbd1c1049	-0.03810147
54	0xbdcb1cef	-0.09917628
55	0x3d3dcf88	0.046340495
56	0x3d8dd39c	0.06925127
57	0xbdd9102d	-0.105987884
58	0x3d572946	0.052529596
59	0xb97744d2	-0.00023581393
60	0x3dbf774f	0.09348928
61	0x3d601797	0.054709997
62	0x01e00194	8.228687e-38
63	0xbe316397	-0.17323147
64	0x3e259d02	0.16173175
65	0x3cb3b5f0	0.02193734
66	0x149aa17b	1.5613719e-26
67	0x2a0759f6	1.202162e-13
68	0xbe0360a8	-0.1282984
69	0xb81a1646	-3.6737205e-05
70	0xbcbd3781	-0.023097755
71	0x3d8ddf63	0.06927373
72	0x1d8c54b4	3.7145272e-21
73	0xbc1860ef	-0.0093004545
74	0xbd0a48d5	-0.033760864
75	0x3698543f	4.5397605e-06
76	0xbdbb43b0	-0.0914377
77	0x3d8f198e	0.06987296
78	0x3e3ba068	0.18322909
79	0x3dfed304	0.12442592
80	0xa2c315d6	-5.2877976e-18
81	0xbe0ce313	-0.13758497
82	0x32f41f1a	2.8419482e-08
83	0xbe21ecc0	-0.15812969
84	0xbc19aab5	-0.009379079
85	0x3de3a563	0.111155294
86	0xb2a4ab39	-1.9169976e-08
87	0x2afbe1d8	4.4743267e-13
88	0xbdd587a7	-0.10426264
89	0x3b7e27b9	0.0038781
90	0x3d7f8e04	0.062391296
91	0xbda95005	-0.08267216
92	0x3da6ead9	0.081502624
93	0xbdbbee1a	-0.09176274
94	0xbc6e05a2	-0.01452771
95	0x3e3ee14d	0.18640633
96	0xbe4006df	-0.18752621
97	0x3dace144	0.084414035
98	0x3c89c2b0	0.016816467
99	0xbd7a279a	-0.061072923
100	0xbe5fe216	-0.21863589
101	0x25dbf3cf	3.8155655e-16
102	0x3e075691	0.13216616
103	0xb9488e54	-0.00019126508
104	0xbd2e59cf	-0.042566117
105	0x00000e4b	5.127e-42
106	0xb8296dd9	-4.0395043e-05
107	0xbdd0e034	-0.10199013
108	0x3e449067	0.1919571
109	0x3912ad9d	0.00013988321
110	0x3dd0bae5	0.10191897
111	0xa8bdeb01	-2.1085132e-14
112	0xbdb9d006	-0.090728804
113	0x80000dc8	-4.944e-42
114	0xbc0b5fe0	-0.008506745
115	0x3e2fb1de	0.17157695
116	0x3d95af5e	0.07308839
117	0xbdc01b97	-0.09380262
118	0x3de25f23	0.11053302
119	0xbe58c001	-0.21166994
120	0x3d0bfb7e	0.03417539
121	0xbe2194e2	-0.1577945
122	0xbd8f0b9e	-0.06984638
123	0xba202dbd	-0.0006110331
124	0xbe46d600	-0.19417572
125	0x3c9f599f	0.019451914
126	0x00299b29	3.820916e-39
127	0xbd7970ba	-0.06089852
128	0x3d0471a6	0.032334946
129	0xbe7cbdfc	-0.24681848
130	0x1289d7e9	8.6991415e-28
131	0x2d5a96bd	1.2425336e-11
132	0xbe22fbf0	-0.15916419
133	0x37ea039c	2.7896655e-05
134	0x3ce47461	0.027887525
135	0xbddd8225	-0.10815839
136	0x98b8c5b7	-4.7762526e-24
137	0xbc916903	-0.017750269
138	0x3d4cfaa9	0.050043736
139	0x37025e22	7.770521e-06
140	0x3d604b4e	0.054759316
141	0xbcd6998c	-0.026196264
142	0xbe0ca002	-0.13732913
143	0x3e2047d3	0.15652399
144	0xb7f7ea2f	-2.9553745e-05
145	0xbdb002f5	-0.08594314
146	0xb1197cb1	-2.233531e-09
147	0x3e09e371	0.13465668
148	0xbde5c161	-0.11218525
149	0xbe3bc182	-0.18335536
150	0xb7af84b1	-2.0923415e-05
151	0xb9f8c088	-0.00047445693
152	0x3e260990	0.16214585
153	0x3d578275	0.052614648
154	0xbda212d5	-0.07913748
155	0x3da0012e	0.07812725
156	0x3c3116f1	0.010808692
157	0xbd0ca602	-0.034338005
158	0x3e4534a4	0.19258362
159	0xbd56e252	-0.05246193
160	0xbd2c8acb	-0.04212455
161	0xbe348ec1	-0.17632581
162	0xbe6adfcd	-0.22936936
163	0x3e031f33	0.1280487
164	0xbdeed830	-0.11662328
165	0xa49679c5	-6.5258416e-17
166	0x3e14d5fb	0.14534752
167	0x3a7e32b5	0.0009696887
168	0xbd988d29	-0.07448799
169	0x00000dc3	4.937e-42
170	0xbacf0978	-0.0015795669
171	0x3e06c5a2	0.13161328
172	0x3c657a99	0.01400628
173	0x3940d498	0.00018389744
174	0x3d8be3e2	0.068305746
175	0xa7c2065e	-5.385272e-15
176	0xbe46e546	-0.19423398
177	0x80000dd6	-4.963e-42
178	0x3dcb6290	0.09930909
179	0x3d10caa1	0.035349492
180	0x3de3f567	0.11130791
181	0x3e0e27f6	0.13882431
182	0xbe50a3e3	-0.20375018
183	0xbd1317ed	-0.03591149
184	0xbd5b361d	-0.053518403
185	0xbe0ff2af	-0.1405742
186	0x3d8d6443	0.06903889
187	0x3aa18863	0.0012323972
188	0xbd26d64c	-0.040731713
189	0xbdfa23d8	-0.12213868
190	0x2d0a4251	7.859117e-12
191	0x3d4983c5	0.04919793
192	0x3e14e979	0.14542188
193	0xbe08244c	-0.13295096
194	0x8f12a8a2	-7.230833e-30
195	0x376b4313	1.40227085e-05
196	0x3dd7d6f7	0.10539048
197	0x3827b4e6	3.9984378e-05
198	0x3d0a3d5a	0.033749916
199	0xbc957f51	-0.018249186
200	0x97540314	-6.850478e-25
201	0x3dc6b3e9	0.09702284
202	0x3d6c5be3	0.057704818
203	0xb8f1dd89	-0.0001153304
204	0xbc3ee8e5	-0.011652206
205	0x3def83ac	0.11695036
206	0x3d05165b	0.032492023
207	0x3dfa8344	0.12232068
208	0x3499c1be	2.8639437e-07
209	0xbe1edde7	-0.15514337
210	0xb8435a6e	-4.6575842e-05
211	0xbd9d375b	-0.07676574
212	0xbd0138c1	-0.031548265
213	0x3e0787ed	0.13235445
214	0xb714e6be	-8.875211e-06
215	0x379f5a81	1.8996421e-05
216	0xbd972c81	-0.07381535
217	0x3de28a7d	0.11061571
218	0xbde8c882	-0.11366369
219	0x3da04eb7	0.07827514
220	0xbdf7dfd5	-0.121032394
221	0xbe04dcac	-0.12974805
222	0xbdc0cd9e	-0.09414218
223	0xbda9aca2	-0.0828488
224	0xbc23f22a	-0.010006467
225	0xbe0253f6	-0.12727341
226	0x3dfe3d5d	0.12414048
227	0xbe097ed8	-0.13427293
228	0x3da0d5ba	0.07853265
229	0x24883df8	5.908558e-17
230	0x3e02355c	0.12715667
231	0x3973ca84	0.00023249729
232	0x3e30bfc9	0.1726066
233	0x00000dd0	4.955e-42
234	0xbb265776	-0.002538172
235	0xbdb5f1a1	-0.08883978
236	0xbdf7477d	-0.12074182
237	0x3a197ae5	0.00058547995
238	0x3db1495a	0.08656569
239	0x28379d33	1.0192628e-14
240	0xbe1cb66b	-0.15303962
241	0x80000e14	-5.05e-42
242	0x3d9ed299	0.07755012
243	0x3d868864	0.06568983
244	0xbe51b8a7	-0.20480596
245	0x3dc316fc	0.09525868
246	0x3da41c95	0.08013264
247	0x3b010f0c	0.0019692807
248	0xbdc15188	-0.09439379
249	0x3d277c55	0.040890057
250	0x3df553e3	0.11978891
251	0xba1216ad	-0.0005572837
252	0xbdc65abe	-0.096852764
253	0xbe13cd0c	-0.14433688
254	0xb0a64ad5	-1.2099358e-09
255	0xbdc152d5	-0.09439627

fc3.bias f4 [10]
0	0x3cc2fd3e	0.023802396
1	0xbc9c78f1	-0.019100638
2	0x3d3f2322	0.046664365
3	0xbd947aae	-0.07249962
4	0xbb720277	-0.0036927739
5	0x3d8404ef	0.064462535
6	0x3ce810ef	0.028328387
7	0xbda7d9c2	-0.08195831
8	0x3d214289	0.039370093
9	0x3cba80b9	0.022766458
