models/trained/ConvNet1_3.pt (torch, 442274 bytes, 14 tensors)

conv1.weight f4 [4, 1, 5, 5]
00000000: 052c 153e cbd9 c63d 57e7 c73d bf50 05be
00000010: fb74 c03d 8308 0ebe 6772 a3bd caa2 bdbc
00000020: 0ae0 ae3e 1426 1e3e bc41 733d ebfe 643e
00000030: 5984 a83e 7d6b 3f3e e028 4ebc 0694 1bbe
00000040: 9cf8 88bd 73e3 d0bd 8db1 483e ee59 143e
00000050: 9994 8ebe 8adc f1be 7600 80be 1752 5cbc
00000060: 7ea0 513e 76f2 06bd 2efe e9bc 1b24 663d
00000070: 2063 773d ab6a ae3d 2b99 d13d 47a1 ae3e
00000080: e814 873e 6597 563e c379 6c3e 69df 6fbd
00000090: 9f8e a73e 8336 153e ac66 e9bd 4798 b7bd
000000a0: f99d 0c3d 99e0 f23d 6a1d 10be 8ebb 85be
000000b0: 49c3 b83d 2b4e 68be 1a69 28be 8ff6 37be
000000c0: b335 0a3e 478b d2bc 43db 953d 149f 543e
000000d0: 3100 d53d 5f87 013e 25f7 8fbd 21bc 043e
000000e0: aba0 ac3e b7ab a43e 7aa2 813e 17db 27be
000000f0: c799 de3c d226 a83e a167 8fbd 83d5 7dbd
00000100: 7c6b 42bd fc89 bd3a 7657 cb3c aadd 3cbd
00000110: c0f6 db3d 923c 37bd 0e5e 163e 6e85 363e
00000120: 0ed2 ef3a 9149 bfbc 92c0 573e cd02 69bd
00000130: d4a5 6abd 6cc4 8e3e 84dd af3e 925e 5d3d
00000140: c17a 7abe b573 d3b9 d2b9 88bd abd6 7a3d
00000150: 50dc a83e 0e17 50be 3bee d8be f040 17be
00000160: fa6c 5abd 694c 06be 4b42 f3bd 05e3 b1be
00000170: 22ae 5bbe 1a56 b2be c211 30be e0c6 89bc
00000180: fd50 413c 7459 b5bd d702 6fbe 1fae 31be
0.14567573 0.097095095 0.097609214 -0.13019083 0.09397312 -0.13870434 -0.07980805 -0.023148913
0.34155303 0.15444213 0.05938886 0.22362868 0.32913473 0.18693347 -0.012582988 -0.15193185
-0.066880435 -0.101996325 0.1959898 0.1448743 -0.27847746 -0.4723857 -0.25000352 -0.013447306
0.20471379 -0.032946073 -0.028563585 0.056186777 0.060397267 0.08516439 0.102342926 0.3410742
0.26383138 0.2095619 0.23093323 -0.05856267 0.32726 0.14571576 -0.11396536 -0.089645915
0.034330342 0.11859245 -0.1407372 -0.26119655 0.09021623 -0.22686069 -0.16446343 -0.17965148
0.13497047 -0.025701178 0.073172115 0.20763808 0.10400427 0.12649296 -0.07029561 0.1296239
0.3371633 0.32162258 0.25319272 -0.1639217 0.027172936 0.32842118 -0.070021875 -0.0619712
-0.047465786 0.0014460678 0.024821978 -0.046109833 0.10740423 -0.0447355 0.14684317 0.17824337
0.0018296854 -0.023350509 0.21069553 -0.056887437 -0.057287052 0.27884233 0.3434869 0.054045267
-0.2446089 -0.00040331265 -0.066760674 0.06123988 0.32980585 -0.20321295 -0.42369255 -0.14770865
-0.053326584 -0.13115086 -0.11877879 -0.34743515 -0.21453145 -0.34831315 -0.17194274 -0.016818464
0.011799094 -0.088549525 -0.23340927 -0.17351578

conv1.bias f4 [4]
00000000: 8f6d 903d 06cf bd3e 63bb e03d 5d11 d5bd
0.07052147 0.3707201 0.10973241 -0.104037024

conv2.weight f4 [8, 4, 5, 5]
00000000: 7d12 b73d 2f97 2e3e e454 a8bc 2deb 063d
00000010: ee7a 14be 1138 ea3d c992 853d 2897 a53d
00000020: eb72 873d 1997 bd3d ee6c 88bd 2d76 2c3d
00000030: 54a8 c03d 9ebc 083e f167 3e3e 01fe 483c
00000040: 3fda a93d 82d8 193d 233d 613c cf2d 103e
00000050: a8a1 9dbc a75f afbd bcbc 7ebd 86aa d53d
00000060: 059c 9a3d 4eda ff3d 9e3d 7cbd abb5 5e3d
00000070: 37c7 d9bc b006 97bd 00ef 173d d0cb f73d
00000080: a32a 583b cedb d33d 0415 953d 19d4 053d
00000090: 3cdc f13c 8b8a dd3d 78db 1e3e 25e1 373e
000000a0: 60d3 3cbc f6ad 033e 9c39 543e 44ec 733d
000000b0: 1148 c33d d549 53bd f384 1c3e 7449 e63d
000000c0: 4e7e 8a3d e59b 963d 6551 b0bd 3e12 c03d
000000d0: deb7 84bd 28f4 8bbd 2c23 08be b16a bc3d
000000e0: e079 b83d 9674 103e 17a5 69bd 9fd5 153c
000000f0: 7187 ee3d f165 163e 8406 5d3c cc66 1d3e
00000100: 2f60 303d 7a65 aabd 04b3 af3d 5cb2 e33d
00000110: 86fc e53d 0f6a 143e 1546 b4bc 5ee9 abbc
00000120: 5737 53bc 825d 203d 7128 ac3d da04 cf3b
00000130: 0d32 a5bd 689c 77bd 2d70 18be ead4 f8b9
00000140: 4bbc 553d 0193 45bd a995 3cbd 7bdb 23bd
00000150: ee10 2cbe e639 f038 2554 a5bd 1c31 14be
00000160: d927 39bd b601 d43d 3d1a 3cbd 6e44 22bc
00000170: 918f 3c3d c56b 5fbc 3b9c 0a3e a421 02bd
00000180: 41e9 f53d 6da7 053e e74b 243e 2b1c c33d
00000190: 3188 653d e694 513e db8e 773e f38d 633e
000001a0: 2004 cb3d 387a 153e 4b26 6c3e dcc4 6b3e
000001b0: 804d e13d 29e4 50bc f3cb c73d c5ba 943d
000001c0: 47a7 cc3d 7d3f 063e 8dc7 4a3e 78e6 f2bd
000001d0: eafd 28bd 2898 60bc a2f8 273e a796 b73d
000001e0: c20e 76be b296 f1bd b2b6 6dbd e97e 563c
000001f0: 8d4a ce3c ea59 133e 451e f23d 9e65 2d3b
00000200: f0c6 4c3a ff81 533c ab48 ac3d 8dbb 563e
00000210: 744c d93d 866a 053d 4211 eb3d c5c4 3c3e
00000220: 2712 a83c d19c 99bd 021a cebd e50a cbbd
00000230: 3644 47bd 8e0f f0bd ee0e 033d aa34 1a3d
00000240: c3c0 cbbc 126d 5bbe 965b c6bd 35c9 153c
00000250: 13ff b7bd be3f d5bb b582 a63d 3e07 df3d
00000260: 943a 6d3d 1838 ed3d ad7a 89bd 4515 ac3c
00000270: 9e1b 1cbc 540a 1e3e 7f58 3b3d 62fc b43d
00000280: 9aa8 d53d 57eb 813d effb f43c 9d64 943c
00000290: 940f f13d a7fc d1bd 986e 87bd fdfc a8bd
000002a0: af50 8c3c 37ee ad3c 7fa2 0cbe f181 22be
000002b0: 7e57 02be fc17 093d 7d77 283b 8c0e 08bc
000002c0: 7e7a dabd 0c3a 97bd 78df 993c 02bd bfbd
000002d0: d1a8 483e efcd f43d cdb1 53bd 2c42 b43d
000002e0: 3e23 d83d 5a5f 023e 617f 0c3e 244f 5c3e
000002f0: 3561 0a3d 64c3 923a 55ce 6fbd 6c86 5a3e
00000300: 5394 003e b6ca e33d 5ee2 87bd 4b6f 19be
00000310: b7b8 bcbc e770 643d ddc3 3c3e c2a9 153c
00000320: ac07 c03d 8090 823d 4194 b23c 8f91 f73c
00000330: 352d 2e3e d791 eb3c 915d 153e 246c 1d3e
00000340: fff5 f23d 7b15 313e 7bf8 6ebd 39d6 babd
00000350: aea9 0cbc c6cc 373c 373b 523d 483a 2abe
00000360: 5d80 7bbe 1ceb 3cbe f6bc c9bd d5ba 0ebe
00000370: e51c 02be a7a4 10be 3505 d7bd 1099 75bd
00000380: d31a dfbd ba30 e53d b911 0e3e cfd2 183e
00000390: 57e6 3d3d c898 623d bdec 933d 1686 453e
000003a0: 0469 dd3d 41ff 773e 7d1e 433e 9717 763c
000003b0: b06d d7bc 05ea 08bd 77c9 e13b 24e6 cb3d
000003c0: 017e d739 909d 70be 99dd 84be b2ec 54bd
000003d0: c821 dc3c 807e 1cbe 3b28 83be 74dd 1cbe
000003e0: c7bd eabc 3d15 8e3c ab41 8fbd 4a28 d93d
000003f0: 95d0 a1bc 0685 4ebd 3402 afbc 7f6f 403c
0.08939073 0.1704986 -0.020548292 0.032939125 -0.14500019 0.11436475 0.06522138 0.080854714
0.06613716 0.09257335 -0.06661402 0.04210489 0.09407106 0.13353202 0.18594338 0.0122675905
0.0829358 0.037559994 0.013747486 0.14079975 -0.019242123 -0.08563166 -0.06219171 0.104329154
0.075492896 0.1249281 -0.0615822 0.05437247 -0.02658425 -0.073743224 0.037093163 0.12099421
0.0032984398 0.10344659 0.07279399 0.032672975 0.029523961 0.108174406 0.15513408 0.1795698
-0.011525005 0.1285933 0.20725101 0.059551492 0.0953523 -0.051584084 0.15285091 0.11244479
0.06762372 0.07353953 -0.08609275 0.093784794 -0.064803824 -0.068336785 -0.13294667 0.09200037
0.09007621 0.14106974 -0.057042208 0.0091451695 0.11646927 0.14687325 0.013490323 0.15371245
0.043060478 -0.08320136 0.085790664 0.11118004 0.11229806 0.14493583 -0.022006074 -0.020985302
-0.012891612 0.039151676 0.08406151 0.006317717 -0.08066187 -0.060451895 -0.14886542 -0.0004746088
0.052181523 -0.048235897 -0.046041165 -0.040004235 -0.16803333 0.00011454876 -0.0807269 -0.14471859
-0.045204017 0.10351889 -0.04592346 -0.00990401 0.046035353 -0.013636534 0.1353616 -0.031770363
0.1200738 0.13052149 0.1604458 0.09526857 0.056038085 0.20466956 0.24175589 0.22222118
0.09912896 0.14597404 0.23061483 0.23024315 0.1100111 -0.01274971 0.09755697 0.07262186
0.09992843 0.13110156 0.19802685 -0.11860365 -0.041257776 -0.013708152 0.1640344 0.089642815
-0.24029067 -0.11796321 -0.05803556 0.013091781 0.025182033 0.14389768 0.1182218 0.0026458274
0.00078116264 0.012909411 0.08412298 0.20969982 0.106102854 0.03257229 0.11477901 0.18434437
0.020516468 -0.075006135 -0.10063554 -0.09914187 -0.048649035 -0.11721717 0.03199666 0.03764788
-0.02487219 -0.21428326 -0.096854374 0.00914221 -0.089841984 -0.006507843 0.08130399 0.10890053
0.057917193 0.11582965 -0.06712852 0.021006236 -0.009528069 0.15433627 0.045738693 0.08837201
0.10432549 0.06343716 0.029905288 0.018114382 0.117705494 -0.10253268 -0.06612891 -0.08251379
0.017128317 0.021231754 -0.13733862 -0.15869881 -0.12728688 0.03347014 0.0025705986 -0.0083042495
-0.10667895 -0.073841184 0.018783316 -0.09362222 0.19595648 0.11953341 -0.051683236 0.08801684
0.10553597 0.12731686 0.13720466 0.21514565 0.03378411 0.0011197147 -0.058546383 0.2134034
0.12556581 0.111226484 -0.06634973 -0.14983861 -0.023037298 0.055771735 0.18434091 0.009134712
0.09376463 0.063752174 0.021799209 0.030220775 0.17009433 0.028756065 0.14586474 0.15373284
0.11863326 0.1729335 -0.05834244 -0.09122891 -0.008585377 0.011218255 0.051326003 -0.16623795
-0.24560685 -0.18449062 -0.098504946 -0.13938458 -0.12706335 -0.1412531 -0.1049904 -0.059960425
-0.10893788 0.111909345 0.13873948 0.14924167 0.046362247 0.055321485 0.072228886 0.19289431
0.10811046 0.24218465 0.19054599 0.015020273 -0.02629742 -0.033426303 0.0068904716 0.09956005
0.00041101876 -0.23497605 -0.25950316 -0.051983543 0.026871577 -0.15282631 -0.2561663 -0.15318853
-0.028654946 0.017344112 -0.06994947 0.10603388 -0.01975278 -0.05041983 -0.021363355 0.011745333

conv2.bias f4 [8]
00000000: 1d13 d43d a189 e63b 7a17 083d b138 8f3d
00000010: f606 123e 1f2e 573d b17f 083d d945 b93d
0.10355208 0.0070354496 0.033225514 0.06993235 0.14260468 0.05253422 0.0333249 0.090465255

conv3.weight f4 [16, 8, 3, 3]
00000000: caab 1dbd 3e5b 663d 1e2b fabd a271 8fbc
00000010: 0ab2 2a3e dfbf 833d 0ebc d03d de22 343e
00000020: d201 37bc deba f43d 1e11 313d e0c3 42be
00000030: 08bf 9a3d 7a3b bdbc cf8c 25be ea7d 1a3d
00000040: d614 513d 11d7 043e 3447 1d3e c07a 91bd
00000050: 10aa 80bd 0ac4 acbd 9406 23be 8c98 36be
00000060: 4d50 e8bd 9a4a 43bd 5b0f 90bd 9840 b3bd
00000070: 41f3 a4bd 98af a33d 7351 26bc ff63 29be
00000080: b1b2 d0bd 4b05 473d e745 90bc 6a22 0b3e
00000090: de25 21bd 8d9c 743d 559b 9a3d e3a0 1e3d
000000a0: f601 493d d7ac c8bc 1f22 e53d ac0f b83d
000000b0: 97f2 883d 417f 37bc 5391 013b 601f c43b
000000c0: fbe1 b8bd 6f4f 3c3d f207 98bd aa58 4b3d
000000d0: b893 1b3e b26a e63d 67a8 203e a009 843d
000000e0: ca77 adbd ad22 923d f996 84bd 763d edbb
000000f0: 1cff 593c 5d57 693d 8ddb 133e 1192 e6bd
00000100: bb25 b2bb fc12 d03c e30c f2bd 69c7 033e
00000110: 890a 343e 64ab 323d 90b3 e9bc 89be 243d
00000120: 5d58 9f3d ff96 113e cd31 0b3e a35d 0a3e
00000130: 9f6e ce3d f6d6 dfbd 2911 243d a811 ac3d
00000140: db10 f6bc 4fb6 cd3d 0428 ca3d 7225 a2bd
00000150: 42bc 1e3e b78d 023e 740f 713c 71a2 ea3c
00000160: fac0 dabc d85a e6bd 0c98 03be 7927 1b3d
00000170: 8804 99bd 0f1d a13d a696 be3c 8e42 cebd
00000180: de14 573d 47b3 74bd c96a 5ebe 3f24 75bd
00000190: da0f a6bd 0d96 eabc 2ebb 1cbe 992d 523d
000001a0: e5b7 3e3e 9314 97bd f1fa 4abd 0bfe a2bc
000001b0: a6bd aabd 3b5d b4bd be78 113d fbf7 4dbc
000001c0: 3b41 09bd c579 c63d 62b5 c2bc eb5b 9bbd
000001d0: 2d6f e43c 6cf4 8f3d 9186 e53d 5fcc bf3d
000001e0: aa41 c3bd e942 ca3d dc0d 7c3c 3e82 ad3a
000001f0: a222 113e c138 0b3e 600a ce3d 268d fdbd
00000200: 5e32 f1bd f1e6 143d 9474 45bd c101 dd3d
00000210: c16b 84bd 3e4b cd3d 97fb 9bbc 8d2f b23d
00000220: ffc1 163e d0f4 92bc 8c1d 953d 6e92 733d
00000230: 9f5f f2bc 1902 28bd 3215 16bd 6b64 e7bd
00000240: 3b13 4c3c c90b ba3d 8d32 dabd 5be1 b4bd
00000250: e3d9 453d fba4 ffbd a20d 8f3d 640e 81bd
00000260: 214d 16bc e402 a73d 574f d23c 40ab 00bd
00000270: 9148 adbd b9b5 f0bd 43c4 0dbd 2bb5 6f3d
00000280: 5d5d 30be 3420 0fbe a08e 70bd eed5 87bd
00000290: 5c7b 30bd 4df7 fcbd 524c 6cbe c136 5f3d
000002a0: d1f6 56be d31a 92be e5b3 76bc 67af 60bd
000002b0: 880b 2d3e cfb5 443c e968 66be a284 0c3d
000002c0: 0b75 ad3d c5be 75be f74d d43d 5847 33bb
000002d0: f102 f33c 954c 1a3e d05a b83d 9fe4 cfbd
000002e0: 2a44 053e 2f68 ecba f035 e03d 4746 843b
000002f0: b592 ed3d b9d4 083e 75e7 fa3d 943b 50bd
00000300: 55ef 933d 877f 133d ed0c 003d 70c4 263d
00000310: da26 1d3e 9151 6b3d 4050 203e c5f6 bc3d
00000320: eaa8 cc3d 2920 9e3d 907d 4b3d 149c 113e
00000330: 8399 1c3d f048 5c3d 8c31 103e bb00 ed3d
00000340: 0171 f33d ee48 f4bd a674 5c3d 4c96 bf3d
00000350: 7d6c 2bbd 709b f33d 5b39 20bd 40be bfbd
00000360: 2e83 043e a8c0 eebc 70f9 aa3c e803 933d
00000370: 3738 bd3d 43d6 bf3d 1c4d bfbd 9c07 d73c
00000380: 7f9f 693d 39b1 9d3d 69d6 31bc 80bb d7bc
00000390: 845f 313e e4cd 483e 0486 60bd 4177 913d
000003a0: 7986 373e 62fa e43d 95a7 3abe fbb5 14be
000003b0: 6d9f cbbd e03e b93c 4bcd 4cbd 996a 01be
000003c0: 0e7f ee3d 0555 4d3c 4e18 023b b727 50be
000003d0: 9a6b 03bc 2f55 1c3d 1895 88bd d26c 16be
000003e0: ab3a d1bd 4649 973d 90b8 f53d 788f bcbd
000003f0: 4d59 b63d 4ee5 3a3d a780 3bbb 4e0c 4abd
-0.03849391 0.05623936 -0.12215255 -0.017510239 0.16669479 0.06433081 0.101921186 0.17591426
-0.011169868 0.119497046 0.043229215 -0.19020033 0.075559676 -0.02309965 -0.16166995 0.037717737
0.05104526 0.12972666 0.15359193 -0.07103491 -0.06282437 -0.08435829 -0.15920478 -0.1783163
-0.11343441 -0.047678567 -0.07034179 -0.08752555 -0.080542095 0.07992476 -0.010151255 -0.16542052
-0.10190333 0.048589032 -0.017611457 0.13587347 -0.039342754 0.05971961 0.075491585 0.038727652
0.049074136 -0.024496479 0.11188149 0.08987364 0.06686895 -0.011199773 0.0019770458 0.0059851855
-0.09027477 0.04597419 -0.074233904 0.049645104 0.15193069 0.11250819 0.1568924 0.06447148
-0.084701136 0.0713552 -0.06474108 -0.0072399927 0.013305452 0.05696808 0.1443922 -0.11258329
-0.0054366267 0.025399677 -0.11818864 0.12869038 0.17582144 0.043620482 -0.028528005 0.04022077
0.07780526 0.14217757 0.13593216 0.13512282 0.10079693 -0.109296724 0.040055428 0.08401805
-0.030037334 0.10044538 0.098709136 -0.079172984 0.15501502 0.12749372 0.014713157 0.028641911
-0.026703347 -0.11247796 -0.1285097 0.03787944 -0.074715674 0.078668706 0.023265194 -0.10071288
0.052510135 -0.059741285 -0.21720423 -0.05984902 -0.08108492 -0.028636003 -0.15305778 0.051313017
0.18624838 -0.07376971 -0.049555723 -0.019896528 -0.08336954 -0.08806845 0.03551554 -0.01257133
-0.033509474 0.096911944 -0.02376813 -0.07585891 0.027885044 0.07029042 0.11207307 0.093651526
-0.09534009 0.09876043 0.015384164 0.0013237668 0.14173368 0.13595869 0.100605726 -0.123804376
-0.11777185 0.036353055 -0.04820688 0.1079135 -0.06465865 0.10024117 -0.019040866 0.08700476
0.14722441 -0.017939001 0.07281026 0.059465818 -0.029586611 -0.041017625 -0.036641307 -0.1129845
0.012455757 0.09084279 -0.10654173 -0.08832046 0.048303496 -0.124826394 0.06985022 -0.06301573
-0.009173662 0.08154848 0.025672598 -0.031413317 -0.084611066 -0.11753411 -0.034610998 0.058522385
-0.17223115 -0.13977128 -0.058729768 -0.06632601 -0.043086395 -0.123518564 -0.23075989 0.054495577
-0.2099259 -0.2853609 -0.015057539 -0.054854777 0.1689893 0.012006237 -0.22500958 0.034306176
0.0846959 -0.23998554 0.10366433 -0.0027355757 0.029664489 0.15068276 0.09001696 -0.10151028
0.13014284 -0.001803642 0.10947788 0.004036698 0.11600248 0.13362397 0.12251178 -0.050838068
0.07223383 0.03601029 0.031262327 0.04071468 0.15346852 0.057450835 0.15655613 0.09226755
0.09993155 0.07720978 0.049680293 0.14219695 0.038232338 0.053780496 0.140814 0.11572405
0.11886788 -0.11927973 0.053822182 0.09354839 -0.04185151 0.11894882 -0.0391172 -0.09362459
0.12940666 -0.0291446 0.020870894 0.071784794 0.09239238 0.09367039 -0.09340879 0.026248746
0.057036873 0.07699818 -0.010854342 -0.026334524 0.17321593 0.19609791 -0.054815307 0.07102824
0.17922391 0.11180569 -0.1822799 -0.14522545 -0.099425174 0.022612989 -0.05000047 -0.1263832
0.116453275 0.012532477 0.0019850913 -0.2032765 -0.00802126 0.038167175 -0.066690624 -0.14689949
-0.10216268 0.07387023 0.11998093 -0.09207052 0.089037515 0.04562884 -0.0028610618 -0.04932814

conv3.bias f4 [16]
00000000: 47d1 903d 637a 6e3d d3db 0d3e 495c 1ebd
00000010: be5f dcbd a2d0 d93d a7cc cf3d 6fbd 203d
00000020: 2533 113e 49be ba3d c0ac 13bd 6e2f 5fbb
00000030: 1eff 4bbd 13dc 893d 5c88 223d 4c2c e23d
0.070711665 0.058222186 0.13853388 -0.03866223 -0.10760449 0.10635497 0.10146456 0.039243158
0.14179666 0.09118325 -0.03605342 -0.003405537 -0.049803846 0.06731429 0.039680824 0.11043605

conv4.weight f4 [64, 16, 3, 3]
00000000: f2d6 8fbd 5a7d f23c 43da d13d 260c 303d
00000010: 4488 963d 0406 3c3d 17e5 263d 059a 9c3d
00000020: d6e2 4bbd e28a 9fbd 7f23 a4bd 7c4d d93c
00000030: 1b97 6ebd 9243 cbbc f6c3 fd3b d03f 753d
00000040: f0c8 ab3b 1ec0 943d 71b5 12bc af2a f13d
00000050: 8c2e 87bd b73c d63d 3bc4 623d 2a81 a4bd
00000060: cd53 08bd 5a79 6b3c 43f1 283c b1ea 943d
00000070: c238 d7bd 9f9b b93c d758 edbc d1a4 963d
00000080: 82ef dcbc 6410 0fbd ca52 9e3d d4f3 cf3d
00000090: 4ed0 dabd 50db a43c 082a bfbd f5c7 aabc
000000a0: d499 94bd 879c 6fbc 3e6a debd 046e 8cbd
000000b0: c84e 89bd 1fad b33d e533 2cbd 42e9 23be
000000c0: 4cc2 4cbd 5f14 f2bd 4b72 d7bb 98c3 0a3d
000000d0: 47e9 573c be8c 373d 0846 003e 3bb8 323d
000000e0: ff79 8a3c 1449 de3d eaee 2abd f156 2bbd
000000f0: f6e7 b9bd a322 e5bb d1af 2ebd ae58 2fbd
00000100: 413d 92bd 276a 9b3c 5cc7 37bd fee6 ce3d
00000110: c651 183d a8cf 22bd a6c9 c93d 33ba a8bd
00000120: e777 8bbd a4a6 883d f3fd 6a3d 0fd5 9ebd
00000130: df53 a23d fcb9 14bd 659c 3d3d 3ee1 20bd
00000140: 329a 023d cecc 89bd 06e6 123d 272e 973d
00000150: 9fde 2dbd 3e8c 943d 6b10 d53d 791a c93d
00000160: f792 b03d 68a0 93bd 8618 78bb 5cdd e93c
00000170: ac85 973d 9437 2f3d 1b18 6cbc 9d52 013e
00000180: 8c17 8cbd deb9 b13d d2c0 5c3d c79b a53b
00000190: 0d49 9c3d 572e 1c3d 7b89 273d 68a4 873d
000001a0: 1b7f 683c 724e 0abd 7d67 84bd 6089 d8bd
000001b0: fed3 aa3c a934 08be 32b3 2dbe 3a1e 31bd
000001c0: 5dce 18be c2f0 46be 8bff 86bd 8e24 5bbe
000001d0: 304d 3fbc 02e6 ce3d 4eb5 013e 8672 bdbd
000001e0: 5cfd dd3d 101b 27bd 18c6 f23c 1908 07bd
000001f0: baa1 bfbc 7934 5cbd dd7c 633c 2194 b9bb
00000200: 25a5 aabd c359 b2bd 0ca3 3bbd 9064 353d
00000210: e8a4 423d 6d53 d6bc 744d 943d 70ff df3c
00000220: dd43 7e3c 8682 eb3b f040 d43c e1e5 80bc
00000230: b9c6 f03d fbdd 9dbd 5beb 84bd c36a af3d
00000240: 799b 03be e35f 7fbd 8ad5 1bbe 2791 a2bc
00000250: 1b6f 23be bace a4bc 5a09 44be 6f55 87bd
00000260: 2762 163d c2d1 8bbd 1da2 a4bd 37dd 82bd
00000270: 42bb f63c 3932 f9bd 6f19 16bd ed8a 84bc
00000280: 1d9d 44be 9a79 eabd 23ee f3bc b64a e0bc
00000290: 13d8 39bd 8d23 3f3d f1d1 02bc 17c3 84be
000002a0: a954 833d 3cd1 4dbd 5cb1 c4bd 183c 803c
000002b0: d0f6 febc f46e 12be e138 9e3c 60d4 10be
000002c0: d19d 50be 543d e8bd 3f38 1abd 484a 0dbd
000002d0: b4d6 7ebd 4416 90bb a2ca e53d df55 2cbb
000002e0: d200 00bd df32 843d 8775 13bb 51fb 69bd
000002f0: e2b1 223d 2704 013e 6de9 cb3d d148 14bd
00000300: ef92 c43d 5cbc 563d b16a 55bc 12e7 bb3c
00000310: 3840 3cbd 3161 43bd 048b 273b 2ac9 36bd
00000320: 23d8 0a3c c725 b33c 2cef 17bd fa0c 993d
00000330: e229 d23d cfbd 1b3e 8b8d 283e 92a5 a7bc
00000340: 9794 d0bd d4cf 8cbd 43bf e2bd cbf3 22bd
00000350: 11d8 8e3d 09aa b6bc c9bb 823d eab8 1e3e
00000360: feef 57bd f294 383d 1fb3 5c3d b825 6bbd
00000370: 31a8 16bd 2a05 f4bd cb08 f7bd 5123 e9bd
00000380: 7ea9 d2bc a4fc 263c 08e6 26ba e639 9b3c
00000390: 092f 6d3d 7841 b5bd 516f e63c c5ec 30bd
000003a0: 3c83 e4bd fe4e 273e 4aa6 0b3d a723 98bd
000003b0: 2dda 54bd f1b5 323c 7eb4 2abe 8d25 12be
000003c0: b316 d2bd bacd 8fbc 34e4 a53d 6529 113d
000003d0: dcb0 8cbd 749d ffbc 182f 9b3d 1819 6abd
000003e0: fa8d 55bd 545f 8f3b e2e8 51bd 5ee2 a93d
000003f0: f065 623d e82d a53c 8aa7 cfbc 687a 4d3d
-0.070234194 0.029600788 0.10246708 0.042980336 0.07350209 0.045904174 0.04074582 0.076465644
-0.049776874 -0.07790162 -0.08014583 0.026526205 -0.058249574 -0.024812493 0.0077443076 0.05987531
0.0052424595 0.07263206 -0.008954392 0.117757194 -0.06600675 0.10460799 0.05536292 -0.080324486
-0.033283044 0.014372194 0.0103114275 0.07271326 -0.105088726 0.022657214 -0.028973026 0.07355655
-0.026969675 -0.03492774 0.077306345 0.101539284 -0.10684262 0.020124108 -0.09334189 -0.0208473
-0.07255903 -0.014624721 -0.10860108 -0.06856921 -0.067044795 0.087732546 -0.042041678 -0.1600695
-0.049989983 -0.11820292 -0.006574904 0.03387794 0.013178176 0.044811957 0.12526715 0.043632727
0.016903875 0.10853782 -0.041731752 -0.04183096 -0.09077446 -0.0069926544 -0.04264814 -0.04280918
-0.071405895 0.018971516 -0.04486786 0.10102652 0.03718736 -0.039748818 0.098529145 -0.0823864
-0.06809979 0.06672409 0.05737109 -0.077554815 0.079261534 -0.03631018 0.046291728 -0.039277308
0.031885333 -0.067285165 0.0358639 0.0738185 -0.042448636 0.072533116 0.10403522 0.098195024
0.08621781 -0.072083294 -0.0037856414 0.028547935 0.07398543 0.042777613 -0.014410044 0.1262917
-0.06840429 0.086780295 0.053894825 0.0050539705 0.07631121 0.03813013 0.040902596 0.06623155
0.014190461 -0.033766218 -0.06465051 -0.10573077 0.020853039 -0.13301338 -0.16962889 -0.043241717
-0.14922471 -0.1942778 -0.0659171 -0.21400663 -0.011676118 0.10102464 0.12666818 -0.09250359
0.1083934 -0.040797293 0.029635474 -0.032966707 -0.023392547 -0.05376098 0.01388475 -0.0056634103
-0.0833228 -0.08708527 -0.04580979 0.044285357 0.047520548 -0.026162827 0.072413355 0.027343482
0.01551911 0.0071871905 0.02590987 -0.015734615 0.11756653 -0.07708355 -0.06490203 0.08565285
-0.12852277 -0.062347304 -0.15218177 -0.019844605 -0.15960352 -0.020118106 -0.19144192 -0.06608092
0.0367147 -0.068271175 -0.08038733 -0.0638985 0.030118588 -0.12167782 -0.03664535 -0.016179526
-0.19200559 -0.11448975 -0.029776638 -0.027379375 -0.04537208 0.046664763 -0.007984624 -0.25930092
0.06412632 -0.05024837 -0.09604141 0.015653655 -0.031123549 -0.14300138 0.019314231 -0.14143515
-0.20372702 -0.113398224 -0.037651297 -0.03449467 -0.062216476 -0.0043971855 0.1122029 -0.00262963
-0.031250782 0.064550154 -0.0022500472 -0.05712444 0.039720424 0.1259924 0.09956632 -0.036202256
0.09598338 0.052425727 -0.0130259255 0.022937331 -0.04595968 -0.04770011 0.0025565038 -0.04462544
0.008474383 0.0218686 -0.037093326 0.07473178 0.10261895 0.15209125 0.16460244 -0.020464692
-0.10184591 -0.068755776 -0.110716365 -0.03978328 0.06974805 -0.022297876 0.063834734 0.15500227
-0.05271911 0.04506392 0.05388176 -0.05740902 -0.036781494 -0.119150475 -0.12062224 -0.11383689
-0.025715586 0.01019207 -0.0006366675 0.018948507 0.057906184 -0.08850378 0.028129252 -0.04319455
-0.111578435 0.16338727 0.034094132 -0.07428675 -0.05196588 0.010907636 -0.16670415 -0.14272137
-0.10258236 -0.017554153 0.08100167 0.035439868 -0.06869671 -0.03120301 0.07577342 -0.057152838
-0.052137353 0.0043753777 -0.051247485 0.08295129 0.055272996 0.020163491 -0.025348444 0.050165564

conv4.bias f4 [64]
00000000: 3e98 6dbd 68a3 df3d d8d1 0abd 5d9a 44bd
00000010: 782f 1dbb 2b14 8b3d 29fc 2e3b 95b7 80bd
00000020: eee3 c63d 587f 683d 4cad b4bd daeb fabd
00000030: 96bd 7abd b0c0 bb3d cbe2 80bd e371 463b
00000040: aa6e fd3c da63 eb3d b836 b0bd 0378 593d
00000050: ef62 053d b851 9a3d c4cf 72bd f400 73bc
00000060: 72ad 6b3d ca32 cd3c e77f 87bc 53a9 533d
00000070: 07f3 333d 5a4b 093b 480e 47bd 7573 6b3c
00000080: 17a9 81bd 0ed4 5f3c 3e72 553d 9f65 8c3d
00000090: c273 043d 774b 473d 6704 02bd 0a5e afbd
000000a0: 834c dcbd 5676 f93c f8b9 853d abeb 253c
000000b0: fa87 8a3c b009 ddbc 3b23 ddbd 10e3 6dbd
000000c0: 6efb df3d 4756 bd3c 38ff 94bd 8b3b c03d
000000d0: 8153 cdbd beba e6bd 61ab 87bd c810 9a3d
000000e0: 5571 093e 9f56 693c 395d c33d 56ae 71bd
000000f0: 8c88 bcbd 82b7 47bc 21bb d63c d160 ddbd
-0.058006518 0.10919839 -0.03389153 -0.047998775 -0.0023984592 0.06790956 0.0026700592 -0.062850155
0.09711443 0.05676207 -0.08822116 -0.12252016 -0.06121596 0.091676116 -0.06293257 0.0030280284
0.030936558 0.114936545 -0.08604187 0.053092968 0.032565054 0.07535118 -0.059280172 -0.01483177
0.057538457 0.025048632 -0.01654048 0.051675152 0.04393294 0.0020949454 -0.048597604 0.014370789
-0.063310795 0.013661398 0.052110903 0.0685532 0.032336958 0.048655953 -0.03174248 -0.085628584
-0.10756781 0.030451935 0.06529611 0.010126988 0.016910542 -0.026982158 -0.10797735 -0.05807787
0.10936628 0.02311243 -0.072752416 0.09386357 -0.10025693 -0.11266087 -0.06624485 0.07522732
0.13422139 0.0142418435 0.09539265 -0.05900415 -0.09205732 -0.012189748 0.026212277 -0.10809482

fc1.weight f4 [144, 576]
00000000: 1a49 99bc 4c20 89bc 2bdb cdbc 66b9 b93c
00000010: 15a5 4dbd 33fb dcbc e77f 953c 28f4 363d
00000020: 8b4e 95bd 554b c53d b9e2 473e b600 d4bd
00000030: 6576 85bc 1496 c1bd 52ef 92bd 3514 093c
00000040: b206 15be b681 9e3c dc53 b8bb 062d 043c
00000050: c0a1 103c 5c06 42bd cacb b9bc e55b d6ba
00000060: c5b0 813c dee8 2f3d 0008 b6bb dcd6 d43c
00000070: d7ac 09be 7c5f debd 3a08 3e39 0b76 6b39
00000080: cbb9 e93a 41e1 5b3d 1510 a2bd a11e e1bc
00000090: 0565 29bd 4599 d53c 096c 4e3d b24d 2bbd
000000a0: 8837 23bd f023 4fbc 41c3 6f3d d3f6 303a
000000b0: 1754 91bd e66a 623d 303f adbc 4a41 f9bc
000000c0: d73d b1bb bf1d 91bd 3c61 383d e021 fc39
000000d0: 7abe 0dbd 654c b3bb 1646 bdbd 527a d73b
000000e0: 75f7 8c3d 6b18 47bd 26a0 80bc a865 15bc
000000f0: ae35 6e3d 9cbf 80bc f531 193d c6fe efbc
00000100: 1c08 263d ece4 783d 07fb a8bb 8388 f0bc
00000110: c9cf b23c 0332 113c b7b9 2dbc 7836 b53c
00000120: 368b 84bd 4bd3 60bd 4ffa 9c3d adfc eb3d
00000130: bbfe 6ebd 6c74 98bd 1433 173d 341c 71bc
00000140: 041e e93c 6998 e63d 2baf b3bd 3ea8 6ebc
00000150: 6bd5 c93d 9049 babd 8498 06bd 2ddb d73d
00000160: d825 2abd ac3f 41bd 40b1 923b 4b87 803c
00000170: a825 d8bc 36f4 0bbc 3654 083c ebb3 1bbb
00000180: b614 c4bb 58e0 25bd ebb4 dc3b ea49 a03c
00000190: f5fa 6c3d a53c bb3d 4f51 173d e4d1 973d
000001a0: cdb2 25bd 0536 1dbd 91dc aa3c 2512 323d
000001b0: 69b6 c0bc 6b60 0b3d d01e 653d a21e 81bb
000001c0: 6885 92b9 30d9 44bd cca4 b53d 461a 9fbc
000001d0: a179 fcbc cf0c 0a3d 3218 7e3d 0a07 26bd
000001e0: eb38 a5bd 77bb 1f3d cf61 193c eb3f 35bd
000001f0: f60a c23c a0ce 15bd 70cb acbd 458d 05bc
00000200: ae15 ab3c 2674 a9bc 0cb2 913c a8ff ae3d
00000210: a314 0a3d 94b2 043d 4219 433b f378 5e3c
00000220: 8752 5d3c ebbf 98bd f544 a6bc 5664 be3b
00000230: f350 3e3d 4126 c03c 505f 193d f68d 9dbc
00000240: 356d 303c 4128 dcbd ca8a e03c 9654 2f3d
00000250: ef82 bfbc 0711 94bc 9711 18bc 257c 60bd
00000260: e5a4 55bd 6b95 a9bd 14fa 773d f80f b63c
00000270: e608 61bd 4243 af3a a2be 8ebc 7aa7 063e
00000280: 94eb bdbd 58d8 7c3b 4b9f 7abd 96d5 83bc
00000290: 8713 d3bc c483 2dbd 5a95 fc3a 83da 5abd
000002a0: 72f1 83bc 14cf c73b f0b0 88bc 20f3 443d
000002b0: 4057 64be c6f0 883d b82a 65bd 8080 7dbd
000002c0: fcff 19bd 6ea4 023d 654b 363b fa96 543d
000002d0: 2ad4 76bc 2b9e 82bd 3384 d03c 8764 1ebe
000002e0: 16e7 9b3b f64c b93b c8a9 663d fb27 433d
000002f0: b3a8 ab3c 36b4 f43c 5ab3 33bd 7b3c 4d3c
00000300: df9b af3d 529c 283d c218 86bd a5ee 293d
00000310: a5f3 bebd 5556 2cbc 8e64 c3bd d2b4 da3c
00000320: aa14 7e3e 3469 99bb 8621 2e3c 18b0 833c
00000330: 2f69 c23c a821 1fbc 121e 8fbd d3aa 09bd
00000340: 416f f9bc a492 613d 783d 26bc cc04 53bc
00000350: 20dd 143d 2d02 773d 858b d63b ed2c 85bd
00000360: 30bb 6cbd 4c37 ee3c bf06 7c3c 3da8 7cbb
00000370: c406 2abc c04b b6bb 3c02 223d b0e2 04bd
00000380: 6c2e 78bd 0dc5 ea3d 2eda febc ee8c 803d
00000390: 761e 7fbd 2b20 8e3d 1a49 31bd 0427 5a3a
000003a0: ce32 3bbd 2df4 333d dd8f 11bc 776e 143d
000003b0: 205b 643d 6b63 c6bc 6603 33bd 8809 903c
000003c0: 8233 a63c 99d2 883d 32a6 2ebd 5881 e9bb
000003d0: 13e2 983b 9b74 243d f147 f3bb 23b4 d9ba
000003e0: 6bbd 7f3d cbe6 99bc 765b 80bd b1ba 89bd
000003f0: 3530 aebd 9250 12bd 6daa a53d 8aba e53d
-0.018711615 -0.016739033 -0.025128921 0.022671413 -0.050206263 -0.02697525 0.018249465 0.04466644
-0.072903715 0.09633509 0.19520082 -0.10351698 -0.016291806 -0.09452453 -0.07174553 0.008366634
-0.14553335 0.01934896 -0.005625231 0.008067375 0.008827627 -0.047369346 -0.022680182 -0.0016354291
0.01583136 0.04294669 -0.005555153 0.02598136 -0.1344484 -0.10858056 0.00018122877 0.00022455321
0.001783186 0.053681616 -0.07913224 -0.027480425 -0.041356105 0.026074061 0.050396 -0.041822143
-0.03984788 -0.0126428455 0.058535818 0.0006750647 -0.07096117 0.055277728 -0.021148294 -0.03042664
-0.005408983 -0.07085752 0.045014605 0.00048090424 -0.03460548 -0.0054717534 -0.092418835 0.006575861
0.06883136 -0.04860727 -0.015701365 -0.009118475 0.05815666 -0.015716366 0.03740116 -0.02929629
0.040535077 0.060765192 -0.005156878 -0.029361969 0.021827595 0.008862021 -0.01060336 0.0221207
-0.06471865 -0.054889005 0.0766493 0.115228035 -0.0583484 -0.07444081 0.036913946 -0.014716197
0.028456695 0.11259539 -0.08773645 -0.014566479 0.09855159 -0.09096062 -0.032860294 0.10539851
-0.041539997 -0.047179863 0.0044766963 0.015689513 -0.026385143 -0.008542111 0.008320859 -0.0023758363
-0.0059839142 -0.040497154 0.0067354343 0.019566495 0.05785652 0.091424264 0.036942776 0.0741308
-0.04045372 -0.038381595 0.020857127 0.043474335 -0.02352448 0.0340275 0.05593759 -0.0039404193
-0.00027946685 -0.04805869 0.08869323 -0.019421708 -0.030819716 0.03370362 0.062034793 -0.040534057
-0.08067497 0.03899714 0.009361698 -0.04425041 0.023686867 -0.036574006 -0.0843724 -0.008151357
0.020884361 -0.020685267 0.017785095 0.08544856 0.033711087 0.032396868 0.0029769694 0.013578641
0.013508446 -0.074584804 -0.020296553 0.005810301 0.046463918 0.02345574 0.037444413 -0.019232731
0.0107682245 -0.10749865 0.02740993 0.042805277 -0.023377864 -0.018074526 -0.0092815375 -0.054805893
-0.05215921 -0.08280452 0.060541227 0.022224411 -0.054940127 0.0013371485 -0.017424885 0.13149825
-0.092734486 0.00385811 -0.06118707 -0.016093057 -0.025766147 -0.04236199 0.0019270584 -0.053431045
-0.016106341 0.0060976837 -0.016685933 0.048083425 -0.22298908 0.06686549 -0.055948943 -0.061890125
-0.03759764 0.031895094 0.0027815935 0.051901795 -0.015065232 -0.063778244 0.025453662 -0.15468036
0.004757772 0.0056549264 0.05631426 0.04764555 0.020954465 0.029871088 -0.043872215 0.012526627
0.08574652 0.041164704 -0.06547691 0.041487355 -0.09323815 -0.01051863 -0.09540664 0.02669755
0.2481257 -0.0046817306 0.01062811 0.016075179 0.023731796 -0.009712614 -0.06988157 -0.033610176
-0.030448558 0.055071488 -0.010146491 -0.012879562 0.036343694 0.06030481 0.0065473937 -0.065027095
-0.057795703 0.029079102 0.015382468 -0.0038552426 -0.01037759 -0.0055632293 0.039552912 -0.03244275
-0.060591146 0.11463366 -0.031109896 0.0627688 -0.06228491 0.06939729 -0.043282606 0.0008321854
-0.045702748 0.043934036 -0.008884397 0.03623816 0.055750966 -0.024217328 -0.043704413 0.01758267
0.020288233 0.06680793 -0.042638965 -0.0071260147 0.004665622 0.040150266 -0.0074243476 -0.0016609471
0.062436502 -0.018786808 -0.06267445 -0.06725062 -0.085052885 -0.03572137 0.08089147 0.1121722

fc1.bias f4 [144]
00000000: 48a9 6fbc 6b22 bc3c 5ef8 0a3b 1a80 da3c
00000010: ca67 473c f291 103d 570f 03bd 83bd 9cba
00000020: 78ae 1f3d 0a33 0dbc 0e73 ca3c bd73 ce3b
00000030: b473 873c 31d5 b0bc c490 adbc ac16 1bbd
00000040: f134 603d cb14 ffbb 3063 9fbc 69f8 adbc
00000050: 4b1f 5fbb d12f 3fbd cb51 27bd 2c4b c6bc
00000060: be5b 12bc ec1f 7bbd f287 dd3c d079 713d
00000070: 29a5 18bd 8451 c23b 7de0 103d 6f9e f13b
00000080: 8600 0b3c ff06 7a3b 7b7f cd3b dddd e8bc
00000090: 810d 3b3a a4c0 813d c305 0b3d 7506 873d
000000a0: 8c0f 443c 91e4 dd3a 4a25 363c b253 0239
000000b0: fbd2 233d ab34 a43c cf6f c73c b3ab 353d
000000c0: 3a0d 13bd 35ca a93c 1b9c ce3c e0a5 0f3d
000000d0: b1b8 c33c ec3c aa3c 42a3 d53c dd7d 06bc
000000e0: b361 a93b ed93 97bc f56b fcbc a2f3 edbc
000000f0: 9823 de3a aeed 19bd 97de c83c 2922 0abd
00000100: 26b6 ffbc cf88 f8bc bd6f d8bb ad88 05bd
00000110: 80dc 91bb 3705 933c d18c bebc afd0 73bc
00000120: 676b b93a a245 9abb 3d77 423d 1705 0e3b
00000130: 9f4e 8a3b 14fe 9f3c f233 f33c 0ab6 0bbd
00000140: 8bbe 193d 9e89 1e3c 6348 c0bc 6379 a9bc
00000150: 9c3c 2fbd 0cf2 0dbd 64ad abbc da9d 033d
00000160: 57c4 65bc 6be1 613d 1433 663d 99d5 e13a
00000170: d032 56bc b1db 133c 42ae 8bba 2231 a03c
00000180: 23b2 06bd 719c 8f3d b070 fcbc acc8 9c3c
00000190: 9979 06bc 64a9 e53c 892e 523b bbf0 3fbb
000001a0: d733 e43b 6009 69bb d6c9 2b3c 7d9a 7a3b
000001b0: 3488 823c 1340 933b e500 26bc a2c7 7fbc
000001c0: ff23 8b3d f3f9 713d fec1 d13c 31d0 173b
000001d0: 9fd7 333d 92e8 fa3c 465d 753c 77c6 b73c
000001e0: 5313 b4bc d68b 9a3d 39d8 923d 973b 71bc
000001f0: b87c e63c 90c9 58bd fd75 093b 18bc 37bd
00000200: e5e6 5c3d da1d abb8 f568 fdbb 0ec9 483d
00000210: 20bf 713d ebde 76ba 9248 f9bc 1a97 c83c
00000220: 92b0 0bbd 98f2 113d fc3a 81bb f381 9cbc
00000230: 39f6 523a d650 a63c a964 e03c a78b 253c
-0.014627762 0.02296563 0.0021205167 0.026672412 0.012170741 0.035295434 -0.03199705 -0.0011958334
0.038984746 -0.008618126 0.024713065 0.006300418 0.016534664 -0.021586033 -0.021187194 -0.03786342
0.05473799 -0.007784461 -0.019456476 -0.021236615 -0.0034045752 -0.04667646 -0.04084949 -0.024205767
-0.008933006 -0.06130974 0.027042363 0.05895406 -0.037266884 0.0059301276 0.03537034 0.007373623
0.0084840115 0.0038151143 0.0062713004 -0.028426105 0.0007135496 0.063355714 0.03394104 0.065930285
0.011966597 0.001692908 0.011117289 0.00012428945 0.03999613 0.020044645 0.024345307 0.0443532
-0.035901286 0.020726303 0.025220921 0.0350703 0.023891779 0.020781003 0.026078824 -0.008208719
0.0051691174 -0.018503154 -0.030813197 -0.029046837 0.0016947864 -0.037580185 0.024520202 -0.033723984
-0.031214785 -0.030338673 -0.006605117 -0.032601047 -0.0044513345 0.017946823 -0.023260506 -0.014881297
0.0014146388 -0.004708008 0.047476996 0.0021670514 0.004220798 0.019530334 0.029687855 -0.034109153
0.03753523 0.009676365 -0.023472017 -0.020687765 -0.04278241 -0.034654662 -0.020956703 0.03213296
-0.014023862 0.055146616 0.056201056 0.0017229795 -0.013073638 0.0090245465 -0.0010656791 0.019554678
-0.03288473 0.07012261 -0.030815452 0.019138657 -0.008207702 0.028034873 0.0032071194 -0.0029287774
0.0069641876 -0.0035558566 0.010485133 0.0038239055 0.015934087 0.004493722 -0.010132049 -0.015611561
0.06793975 0.05907626 0.025605198 0.0023164863 0.043906804 0.030628476 0.014975851 0.022433503
-0.02198187 0.07546203 0.071701474 -0.01472368 0.028135642 -0.0529266 0.0020974868 -0.044857115
0.053931136 -8.159476e-05 -0.007733459 0.049019866 0.05902016 -0.00094173726 -0.030430112 0.024486113
-0.034103937 0.035631746 -0.003943799 -0.019104933 0.00080475543 0.020302217 0.027391749 0.0101040965

fc2.weight f4 [96, 144]
00000000: 5e62 533d ee66 8e3d ab42 ad3d d9ab 213d
00000010: 9ac2 1c3d 8cc1 11bd be69 cc3c 1c2b ab3d
00000020: 0d51 a9bc 2268 5ebc 8f45 813d 29f4 a4bd
00000030: 2102 c43c 7708 dcbc c40e 96bc 4894 0bbd
00000040: e666 5f3d fa10 973c 739c 133c f834 8b3c
00000050: 05a9 c93d a31f 9d3d bb90 83bd 2baa 77bd
00000060: 12fd 8b3d 6ed0 72bd e5fd a53c c9e9 553d
00000070: c7f6 273c 5a28 4f3d e646 21bd c3d9 c2bc
00000080: 4387 503b b44d b13c d8be a23d b847 8cbd
00000090: 37fa 523d 74c4 7bbb 1c08 0a3e ec64 c23d
000000a0: 3217 a1bd ec35 9b3d c085 8abc d2f0 b03d
000000b0: 75b6 473d eb60 5c3e e6af 1c3d bfe5 cfbd
000000c0: 7b76 e5bc 5324 033e 77de a9bc 3938 b5bc
000000d0: 8562 1c3b b560 4e38 bf14 c6bc 2bd6 aa3d
000000e0: 044f 91bd 8484 4c3d e330 4cbc 0a2b a9bb
000000f0: ec75 cd3d c73a e53c 8fb6 86bd ab10 57bc
00000100: 545a 36bd 0053 48bd a03f 8abc 28da 87bd
00000110: 4777 363d ba04 9d3d 3202 4a3d 5849 be3c
00000120: 2d75 05bd f978 9ebd 6d8e 7c3d 3d79 f9bb
00000130: 4334 503d 8bdf 81bd 4f82 953d e20f af3d
00000140: aca2 7f3d 4e10 723d 5545 5a3c dc3a 9ebd
00000150: 6d6d c6bc 2dec a0bd cdbc 6dbd e1ca b5bc
00000160: 0ce9 debc 252d b53d e282 f43c d65c 58bd
00000170: 8adb 663d 8713 67bd a0c6 8f3d 746e 02bd
00000180: 9a53 36bd 1725 fc3b e8b9 98bc 69cc fd3c
00000190: c1f9 a03c 6d72 58bd 3f5e 153d 2ef0 0e3c
000001a0: 4f01 8fbd 3419 2cbd 194a 38bc 08b2 4ebc
000001b0: fecf 0bbd d16d 26bd 26d7 c0bd 68f6 71bc
000001c0: b0df 7ebd ee05 d93c f9e2 0b3d 0856 eebd
000001d0: a6fb 583d 909f eb3d 4a11 8a3c 9415 3d3d
000001e0: 090e cabd 158c a63d 0b75 c83d a7e3 9a3d
000001f0: 12c3 08bc 3dae 4dbd 8baf 7cbd abea 3d3c
00000200: 60d2 10bd b772 a53d fbb4 1ebd 5c3f 553d
00000210: 8681 9d3d bb22 17bc 4290 bcbd cde2 73bc
00000220: 8000 a4bc a505 6fbd 42e1 12bd 28d9 67bd
00000230: 658e ac3d 1e50 533d d5b4 a2bd 52f4 47bd
00000240: 9e1e 23bd ab9a bebd 90c2 d3bc 56e5 7e3d
00000250: 6044 7b3d 484d a53d b072 04bd 2981 d03c
00000260: 4b3f f73d 9c92 103b f8ca a43c 63b0 473d
00000270: 6585 01bd cd3b 19bd 9d2b b8bd 20e1 a1bd
00000280: e919 7f3c b039 aa3d 711e d43d 3fee ecbc
00000290: f727 bc3d 368e 943d 7815 b7bd 5c24 c83c
000002a0: 89ab 793d 8594 883d a854 a63c d270 6cbd
000002b0: 0dad 783c fc16 89bc dae9 a43d 9910 55bd
000002c0: 474a c33c 2b6a 9ebb 6f31 4a3d d8b9 0bbd
000002d0: 99c1 9ebc e5e1 903d 26d3 debd f026 1bbd
000002e0: 0693 733d e333 39bd f69f 75bc dcf3 353d
000002f0: b989 d9bd 5106 ac3d bf3b 61bd cfa6 a7bd
00000300: 8b6b ccbd 1f19 c2bd c3f2 863d 9289 a13d
00000310: 2ac9 973d 86f1 fcbd 36af b6bd f95f b03c
00000320: 3db8 223d 736f 93bc d883 1a3d a04c b7bb
00000330: efcd 3dbd a2ab f1bc 6246 663d b59f 6bbd
00000340: cb75 f13c a263 6bbd 3cf6 bd3d 546b 0fbe
00000350: a9e4 44bd 95a9 09bd 2550 fd3c 91d2 6b3d
00000360: 91b6 18bd 5f2d 963d 2420 c5bd 07fe 91bd
00000370: b7f4 383c caf1 b83d 133b 9b3d 12f7 273d
00000380: 4c45 4ebc 2e3a 9ebd 347c 3dbd 8ab6 073d
00000390: 69bc 59bd bd7a 3bbd 8ffc 1fbd ad41 c43c
000003a0: 6311 5f3d 0c4b 8d3d 4780 173c 4bab 1fbc
000003b0: 3656 823d a747 143b 3a0c 513d 85bd d33d
000003c0: 8573 a03d d466 6a3d 2c30 6bbd 0903 cb3b
000003d0: 88c1 5c3c 78d4 d23c e586 8e3d e999 70bd
000003e0: b7ae 1dbd f81b 6abd e03c 423d ebbd 2fbe
000003f0: 78e3 703d 54f2 513d e916 733d f5b5 d4bb
0.051607482 0.06953226 0.084599815 0.039470527 0.038271524 -0.03558497 0.024952766 0.08357832
-0.02066853 -0.013574632 0.063120954 -0.08054382 0.023926796 -0.026859505 -0.018317588 -0.03407696
0.05454149 0.018440712 0.009009468 0.01699303 0.09846691 0.0767205 -0.064240895 -0.06046502
0.06835379 -0.059280805 0.020262668 0.052224908 0.010251707 0.05057559 -0.039374255 -0.023785478
0.0031818904 0.021643497 0.07946557 -0.06849617 0.051508155 -0.0038416656 0.13479656 0.094919056
-0.07865752 0.07578644 -0.01690948 0.08639683 0.04875799 0.21521346 0.038253687 -0.101512425
-0.028010597 0.12806825 -0.020735962 -0.022121536 0.0023862433 4.9204293e-05 -0.024179814 0.083416305
-0.07095149 0.049931064 -0.012462827 -0.0051626014 0.100322574 0.027982129 -0.06577789 -0.013126533
-0.044519737 -0.04890728 -0.016876042 -0.06633407 0.044547345 0.07666917 0.0493185 0.023228332
-0.03258245 -0.077379175 0.061659265 -0.0076133297 0.05083109 -0.063414656 0.07300245 0.08547951
0.062410995 0.05909758 0.013322194 -0.0772607 -0.0242221 -0.07857547 -0.058041383 -0.022191467
-0.027210735 0.08846501 0.029847566 -0.05282291 0.056361713 -0.056415107 0.070203066 -0.031843618
-0.044513322 0.007694851 -0.018643335 0.03098126 0.019650342 -0.0528435 0.036466833 0.0087242555
-0.069826715 -0.042016223 -0.011248135 -0.012615688 -0.034133904 -0.040632073 -0.09416036 -0.0147682205
-0.062225044 0.026492085 0.034152005 -0.11637503 0.052974366 0.115050435 0.016853947 0.046163157
-0.09865958 0.08132187 0.09787949 0.075629525 -0.00834729 -0.050214995 -0.06169085 0.011591594
-0.03535688 0.08078521 -0.038746815 0.052062377 0.0769072 -0.009224589 -0.092072025 -0.0148856165
-0.02001977 -0.058354992 -0.035859354 -0.05660358 0.08425597 0.051590078 -0.07944647 -0.048816986
-0.03982412 -0.09306844 -0.02584961 0.06223043 0.061344504 0.08071381 -0.032335937 0.025452213
0.12072619 0.0022060042 0.020116314 0.0487522 -0.031621356 -0.037410546 -0.089926936 -0.07904267
0.015570142 0.08311784 0.10357369 -0.028922198 0.0918731 0.07253687 -0.08939642 0.0244314
0.060954604 0.06668953 0.02030404 -0.05772478 0.015177977 -0.016734593 0.08052416 -0.052017782
0.02383913 -0.0048344336 0.04936355 -0.03411278 -0.019379424 0.07074336 -0.10880117 -0.03787893
0.059466384 -0.0452155 -0.014991751 0.044422016 -0.10621972 0.08399642 -0.05498862 -0.08186113
-0.0998145 -0.09477448 0.06589272 0.078875676 0.07411416 -0.123507544 -0.089201376 0.021530138
0.039726485 -0.017997479 0.037723392 -0.005593851 -0.04633897 -0.029500786 0.056219466 -0.057525355
0.029475113 -0.057468064 0.09275481 -0.14005786 -0.04806963 -0.03360899 0.030922005 0.05757386
-0.037283484 0.073328726 -0.09625271 -0.0712853 0.011288813 0.090304926 0.07579627 0.04100711
-0.012589764 -0.07725941 -0.046261027 0.033133067 -0.053158198 -0.04577135 -0.039059218 0.023957098
0.05445994 0.0689908 0.009246892 -0.009745429 0.063641 0.0022625716 0.05103705 0.10338882
0.078345336 0.05722697 -0.057418987 0.00619543 0.013473876 0.025736079 0.06959323 -0.05874053
-0.0384967 -0.05715558 0.047421336 -0.17162292 0.05881068 0.051256493 0.05934802 -0.0064914175

fc2.bias f4 [96]
00000000: 2365 ca3d f4d2 6d3d f2b6 37bd f87a 2a3d
00000010: 0c7f 92bd 27cf bb3c 0947 27bc d719 5cbc
00000020: 1bd7 d2bd 1d11 1a3c 3132 95bc 21eb a2bd
00000030: 4973 2fbd 7a8e 5cbd 328f 64bd bc89 30bd
00000040: 0e83 103d 5982 b8bc 826a 983d 9d8e 57bc
00000050: 9932 713d 9fb2 12bd 20b9 b1b8 b66d 703c
00000060: 74f9 af3d 3033 48bb db66 673c 37b4 1a3d
00000070: ca46 21bb 48da 5fbd b3ee 8abd 7aac e8bc
00000080: e4ac d9bd cecd a8bd 6778 863c c5bf 6abd
00000090: a2c4 5c3d a3f0 b13d 4e5a 17bd c716 6dbc
000000a0: 7e3e 0cbd 287c 0cbd 5eef 6f3d 76f8 dabc
000000b0: 70ac 443d 70f2 5dbb 3224 85bc c342 083d
000000c0: 39eb 5e3d 73ec 373d 00de 70bc 84c4 1abc
000000d0: 3eb2 913d 52bd 39bd 8fd9 97bd 7023 283d
000000e0: 9deb b13d 8ea9 65bd 00f9 20bc f050 83bd
000000f0: 44d4 773d a78a bdbd d30d 833d 13d4 8d3d
00000100: ceb0 a33c 43d4 a63c d573 a1bd fd2e 5fbd
00000110: 97f1 ab3d f7a2 a53c ad7f 133d b68a 7b3c
00000120: 9fcc 8a3c 439d 3a3c 8bac 303d 41ce 503d
00000130: dd32 ebbc d8e5 683c 55e2 afbd 754a 54bc
00000140: 21ee 6dbd 0908 3dbd 1d94 d23d 0e68 c3bc
00000150: 2192 ba3d f4aa a7bd a2b7 a33d 8bf5 863d
00000160: 872d 733d 1d9e ca3d 119f 54bd 83b1 d33c
00000170: db2a 933d 87cb 9dbd ad66 e73c b358 5e3d
0.098825715 0.05806251 -0.044852205 0.04162118 -0.071531385 0.022925926 -0.010209807 -0.013433895
-0.10294934 0.009403494 -0.01821241 -0.079550035 -0.042834554 -0.053846814 -0.055800624 -0.043100104
0.035281233 -0.022523092 0.0744219 -0.01315656 0.058886144 -0.035814878 -8.4745e-05 0.014674595
0.08592501 -0.0030548088 0.014123644 0.037769523 -0.0024608844 -0.05465153 -0.067838095 -0.028402556
-0.106286794 -0.08242379 0.016414834 -0.057311792 0.05389846 0.08688476 -0.036951356 -0.014470763
-0.034239285 -0.034298092 0.058577888 -0.026729804 0.04801601 -0.0033866428 -0.01625261 0.033266794
0.054423545 0.04490323 -0.014701366 -0.009446267 0.07114075 -0.045346566 -0.07414543 0.04104942
0.08687518 -0.056069903 -0.009824991 -0.06411922 0.060505167 -0.092549615 0.06399121 0.069252156
0.019981768 0.020364886 -0.07883421 -0.05448817 0.08395689 0.02021931 0.036010433 0.0153528955
0.016943274 0.011390033 0.0431333 0.05097795 -0.028710777 0.014214955 -0.08588091 -0.012957205
-0.058088426 -0.04615024 0.102821566 -0.023853328 0.09109903 -0.081869036 0.079940096 0.06589802
0.05936959 0.09893439 -0.05190951 0.02584148 0.071859084 -0.077048354 0.028247202 0.05428381

fc3.weight f4 [10, 96]
00000000: 180b 103c e91c dcbd 3b81 4a3c 3c1f 84bc
00000010: 6f9c 053d 6081 2abe 0722 8c3c 2128 35bc
00000020: 16e1 4e3e eca3 febc 665b 903c 44c7 d4bb
00000030: 5b49 303e ed4d b73c 4101 17bc e250 6a3d
00000040: 5e77 83bd aa10 fd3d b0e1 49be 7da6 66bc
00000050: 746a 083d 55f6 55bd 3219 c33c 63c9 cbbd
00000060: aa9a c7bd 29b8 6cbd 9ff7 13be 2cd9 41bc
00000070: be34 013e dda0 ecbd 6ed7 513d 1ddd a93c
00000080: 48bd dd3d 5bfb b7bd 1f5c 61bd 761d b1bc
00000090: dc97 503d a617 853d 5b38 83bd 55b8 733d
000000a0: fe70 df3d 7c72 11bd d40e 013e 272b 803c
000000b0: 8649 28bd 479a bd3d c7fb 93bd 6229 cd3c
000000c0: 315a fc3d 6657 783d 9eb4 b53d 248f ee3d
000000d0: 1041 92bc 4c7f 86bd a5da 3f3c 9d33 fc3c
000000e0: a50d 20bd 877f 093e 32f4 2d3d c451 83bd
000000f0: 7a69 9ebc ae74 62bd 8ed9 d93d 6944 95bb
00000100: b706 843d 61f8 0a3d aee9 afbd da4b 4cbd
00000110: a8ac 2dbe 4801 08be 2149 d5bd e189 05be
00000120: 1d26 19be bac9 76bc 2b8d f93d e0dc d8bd
00000130: a3f6 253d 6daa c7ba 83e7 b1bd 3307 cebd
00000140: 1bea 023e 354e f2bc 4326 26be de4a 743d
00000150: 9852 07bd 62b0 0b3d d4d7 30be 6df4 9e3d
00000160: 9eb8 033e f640 0bbe aedc 383c ccaa 903d
00000170: 4615 943c 1043 07be 7d38 473d dfe8 80bd
00000180: a6a0 da3d 20c8 613d 7608 dbbd e949 1dbe
00000190: a144 203e 5a69 87bc d702 29bd c194 923d
000001a0: f1b3 7bbc c6a1 f5bd 86a5 863d 7e5e 2abd
000001b0: b6ba 3e3c a51a 00be 7266 bbbd b5ba 50bd
000001c0: 966a 2cbc 6cc1 49bd eada 903d cdc4 9c3d
000001d0: d6cc 16bd 506c b83c 8504 5cbd 812a efbd
000001e0: bc2d f6bd fb19 d8bb bcff 2d3d 5c1f f6bd
000001f0: 7c53 f23c ba14 993d 8a25 703d a3c0 fabd
00000200: 3a81 0c3d e0dc 93bd df65 b73d 2aa0 163d
00000210: e8a1 0e3e 3438 323d 0166 94bd 488d 1b3d
00000220: b268 993d 4aae 90bd 03bd 36be 5be5 033e
00000230: 3c01 a0bd 33f4 b13d 5ac3 7f3d f360 cd3d
00000240: 65b3 e4bb 53b3 adbd 43f6 b6bc b1e9 8a3d
00000250: 1e2f 9bbc 27cd 22bd 38d5 b03d be32 a13d
00000260: dc58 c5bc cf3c 283d 86bf 70bd de0f 993d
00000270: 765c d3bd 213f 7dbc 525f 853d 991b 02be
00000280: 519d 8cbd f6cb 73bd 6cd9 e1bd 4759 8f3d
00000290: c9f0 6a3d 31a2 513c 1bcf e8bc 59de 933d
000002a0: e896 a9bd f3ed 11be a6d3 23be 09a4 01be
000002b0: b0a8 6f3d e041 31bd fa9a 8dbd 97f4 053d
000002c0: 0880 923d 1dd8 92be 3a37 b13a e986 f0bc
000002d0: 4648 5339 295c 13bd d0bf e43d 9b2a 1abd
000002e0: d2ad 603d f8e0 8dbb 3d25 fc3c b451 963d
000002f0: d20e c3bd d31f b13d cee6 053e c035 fabd
00000300: fe04 efbd dbb1 d9bd 49b0 07be 1cd0 df3c
00000310: 892e 0c3d 7ed9 9dbd b86c 66bd 9e01 743d
00000320: 84ca 0ebd 9ff1 063e 18ba 503b f4a0 14bd
00000330: 65aa ea3d 9b3d 5dbb f94a c2bd fefe 88bd
00000340: 5411 97bd 6194 e0bc 1732 42bd 7fc0 063d
00000350: ed53 5b3d 1890 1bbd 765f 35be d5b7 743d
00000360: d49c 5c3c 63be 513d 1a2b c2bd 8cd5 68bc
00000370: 4072 eebd 384c 17be de00 913d 3af9 18bd
00000380: 8ee4 eabc be4a 0bbc 6444 1e3e 9095 db3c
00000390: b167 aa3d f3ec ebbd c4d5 9d3d 8991 91bd
000003a0: bba1 063e 4920 15bd 8514 05bd ff36 69bd
000003b0: 31d9 21be 4b90 373d fb30 c63d 8154 d23d
000003c0: dec4 e1bc 61b7 bd3d f9da 813d ac80 19bc
000003d0: 9bfb d73c cd1a a33d 4736 26bd e74d c23d
000003e0: d1b3 a6bd 176a 873d c6cd 273d 2f90 6a3d
000003f0: 9742 0cbe e3be 31bd dda7 dabd 3a62 af3d
0.008791707 -0.10747702 0.0123599125 -0.016128175 0.03261989 -0.16650915 0.01710607 -0.011056931
0.20203051 -0.031084023 0.017621707 -0.006493481 0.17215483 0.022376025 -0.009216608 0.057206042
-0.06419252 0.12356694 -0.19714999 -0.01407778 0.033304647 -0.052236874 0.023815725 -0.09950521
-0.09746297 -0.057792816 -0.14449929 -0.011831563 0.12617776 -0.1155412 0.05123084 0.020735318
0.10827118 -0.08983489 -0.055019494 -0.021620493 0.050926074 0.06498651 -0.06407233 0.059501965
0.109102234 -0.03550957 0.12603313 0.015645577 -0.041085742 0.09257942 -0.07225757 0.025044147
0.1232189 0.060630225 0.088723406 0.11648396 -0.01785329 -0.06567249 0.011709844 0.03078633
-0.039075512 0.13427554 0.04246921 -0.0641208 -0.019337405 -0.055287056 0.106371984 -0.0045552743
0.06446593 0.03392828 -0.08589493 -0.049877025 -0.16960394 -0.13281739 -0.10414339 -0.13040878
-0.14955945 -0.015062744 0.12185129 -0.105890036 0.040518414 -0.0015233286 -0.086867355 -0.10059967
0.12784617 -0.029578308 -0.16225533 0.05964171 -0.033037752 0.03410376 -0.17269832 0.07761464
0.12863395 -0.13599 0.011283083 0.07063827 0.01807655 -0.13209176 0.048637856 -0.06294417
0.106751725 0.055122495 -0.10694973 -0.15360226 0.1565118 -0.016529728 -0.041262474 0.07157279
-0.015362726 -0.119937465 0.0657454 -0.04159402 0.011641195 -0.12510164 -0.09150399 -0.050959308
-0.010523459 -0.049256727 0.070730045 0.07654724 -0.03681644 0.022512585 -0.053715248 -0.11678029
-0.12020442 -0.006594894 0.042480215 -0.120177 0.029580824 0.074746564 0.05862955 -0.12243774
0.034302928 -0.07219863 0.08954977 0.036773838 0.1392895 0.04351063 -0.07246018 0.037976533
0.07490672 -0.07064493 -0.1784554 0.12880461 -0.078127354 0.086891554 0.06244216 0.10028257
-0.0069793933 -0.08481469 -0.022334224 0.06782854 -0.018943366 -0.03974643 0.08634418 0.078710064
-0.024090223 0.041073617 -0.0587764 0.074737296 -0.1032037 -0.015456946 0.065123215 -0.1270584
-0.06865943 -0.059520684 -0.11027798 0.0699945 0.057358537 0.012795017 -0.028419068 0.07220144
-0.08280736 -0.14250927 -0.15998706 -0.1266023 0.058510482 -0.043275714 -0.06914325 0.032703962
0.07153326 -0.28680506 0.0013520487 -0.029361205 0.00020149452 -0.035976563 0.11169398 -0.037638288
0.054853268 -0.004329797 0.030779475 0.073398024 -0.09524311 0.08648648 0.13076326 -0.12217283
-0.11670874 -0.10629626 -0.13250841 0.027320914 0.034224067 -0.07707499 -0.056256026 0.059571855
-0.034861103 0.13178109 0.0031849202 -0.03628631 0.114582814 -0.0033758644 -0.09486956 -0.06689261
-0.07376352 -0.027414503 -0.04741105 0.032898422 0.053546835 -0.037979215 -0.17712197 0.05974563
0.013465125 0.051206958 -0.09480877 -0.01421107 -0.11642885 -0.14775169 0.070802435 -0.037347056
-0.028673436 -0.008501707 0.15455776 0.026804715 0.08320559 -0.11519804 0.07706788 -0.07107837
0.13147633 -0.036407743 -0.032490272 -0.056937214 -0.15805508 0.044815343 0.09677311 0.10270024
-0.027559694 0.092634924 0.06340594 -0.009369057 0.026365092 0.07964096 -0.040579107 0.09487515
-0.08139766 0.06612032 0.040967725 0.05726641 -0.13697277 -0.043394934 -0.10676549 0.08563657

fc3.bias f4 [10]
00000000: 4817 c3bd 6b2d 88bd d2ae 3ebc 7892 c03c
00000010: 8d75 983d a90a 4abd fcd6 adbc 5d5f 743d
00000020: 0b0b 9a3c a94c 4fbd
-0.09525925 -0.06649288 -0.01163836 0.023507342 0.07444296 -0.049326573 -0.021220677 0.059661258
0.018804094 -0.05061022
