models/trained/ConvNet2_6.pt (torch, 442402 bytes, 12 tensors)

conv1.weight f4 [8, 1, 3, 3]
000000 28 e8 57 bc ba 31 2d be 00 42 7d 3e 4c ef 6c bc
       -0.013177909 -0.169135 0.24732208 -0.01446135
000010 f1 72 0d bf c7 20 84 be 47 5f 02 3f 45 17 1b 3e
       -0.5525351 -0.25806257 0.5092663 0.15145595
000020 22 09 41 3c 4b f3 83 3e 5d 5c 3d 3e f0 ed 6e be
       0.011781963 0.25771555 0.18492265 -0.23332953
000030 16 cd 23 3e 6f 6e ce 3e bb 6b b9 3d f1 80 46 3d
       0.15996203 0.4031863 0.09053751 0.04846281
000040 e9 7d ee 3e ce 72 a4 3e a8 fc 4f be 9b ae 67 be
       0.46580437 0.3211884 -0.20311224 -0.226252
000050 c5 5e e0 bd 28 52 8e 3d 15 f0 4f be a0 49 75 be
       -0.10955576 0.06949264 -0.20306428 -0.23953867
000060 cf 13 84 3e 80 a9 12 bd 79 e0 85 be 14 48 8e bc
       0.25796363 -0.03580618 -0.26147822 -0.017368354
000070 20 cb 1c bf eb d7 1d be d6 46 ee be 99 a0 4c be
       -0.61247444 -0.15414397 -0.4653842 -0.19983138
000080 9f 3c 59 3e 4c 80 36 3e 1e 2b 01 3f 5d e6 03 3f
       0.21214531 0.17822379 0.50456417 0.5152338
000090 e4 6b 97 3d 84 1e 1a 3c ce ac ca be 77 d9 99 3e
       0.073936254 0.00940669 -0.39584965 0.30048725
0000a0 cf 95 c8 bd 5e 70 9a be 6a 34 68 3e 46 3d 9f 3e
       -0.09794199 -0.30163854 0.22676244 0.31101435
0000b0 73 41 70 3e ed 31 e6 bd 36 58 2a bf c0 ca e1 be
       0.23462467 -0.11239991 -0.6654085 -0.44099998
0000c0 ab f6 3b 3e a9 ea 46 bb 16 0e c9 bd c1 01 ec 3e
       0.18355815 -0.003035227 -0.0981714 0.46095088
0000d0 00 f2 c5 3e 45 9d 74 3e 8b 39 e3 3e 44 e6 ef 3d
       0.38661194 0.23888119 0.4437984 0.117138416
0000e0 e7 b8 c1 be 34 75 e5 3e a8 4d 14 3d 11 5a fc be
       -0.37836382 0.4481598 0.03620687 -0.49287465
0000f0 90 4d da 3e 25 24 8d be 24 61 b2 be 8a ab 02 3e
       0.426373 -0.2756664 -0.34839737 0.1276075
000100 04 71 cd 3e 9a b7 05 3f 15 81 a4 be e4 51 80 bd
       0.40125287 0.5223328 -0.32129732 -0.062656194
000110 ea 07 8f 3e 7d c3 cb be 96 96 14 bf af c0 13 bf
       0.27935725 -0.39797583 -0.58042276 -0.57715887

conv1.bias f4 [8]
000000 c7 cd 0f bd dc 8b 90 3e 3c c1 7e 3e 7b 12 bc bc
       -0.035108354 0.28231704 0.248784 -0.02295803
000010 82 91 79 3d 75 f8 96 bc 53 4c 0f bc c4 be 2c 3e
       0.060929783 -0.01842902 -0.008746224 0.16869646

conv2.weight f4 [32, 8, 3, 3]
000000 ea b0 4f bd 4c 87 f3 bc 32 b8 d5 bb 73 b1 80 bd
       -0.050705828 -0.0297276 -0.006522202 -0.06283846
000010 c5 00 2f bd 41 af c2 bc 68 b5 b6 bc 23 bd 21 bd
       -0.042725343 -0.023765208 -0.022303298 -0.039487015
000020 e5 51 11 bd c8 41 c8 bd 69 77 70 bd f6 64 a0 bd
       -0.03547849 -0.09778172 -0.05870763 -0.07831757
000030 2a de f3 bd 1f b0 fd bc 1b 3a e5 bc ef 04 a6 bd
       -0.11907609 -0.03096777 -0.027981808 -0.0810641
000040 6f 7b b1 3c f7 ca ca 3c ce 04 dc bc d9 9a 31 bd
       0.021665303 0.024754984 -0.02685776 -0.043360565
000050 2c f1 06 bd 66 4b e4 bc 90 ca 68 bd 9e 25 5b bd
       -0.032944843 -0.027867984 -0.056833804 -0.05350267
000060 41 75 2e bd 95 6f ac bd b9 17 6b bd cf 31 8f bd
       -0.04259229 -0.0841972 -0.05739567 -0.06991922
000070 69 52 ca bd fb 2c 16 be e8 5c cf 3c 69 31 1e 3e
       -0.09879 -0.14665596 0.025312856 0.15448536
000080 8e 2d 29 3e cc 52 fc 3d 78 c1 ab 3d 82 6e 2c bc
       0.16521284 0.1232048 0.083865106 -0.010524394
000090 80 c7 a9 bd 0c d1 76 bd 07 91 d5 bc 56 94 94 bd
       -0.08290005 -0.060257956 -0.026070131 -0.07254855
0000a0 6b cc 88 bb 87 50 b4 bc 32 fd 22 bd f4 93 35 bd
       -0.004174759 -0.022011055 -0.039792247 -0.044330552
0000b0 a7 a8 48 bd 96 98 9d bd 3f 17 83 bd 67 e6 65 bd
       -0.048988964 -0.07695119 -0.06400918 -0.056127932
0000c0 e3 0b 50 bd c2 1d b3 3d af c8 2d 3e b8 95 84 3c
       -0.050792586 0.0874591 0.16971086 0.016184673
0000d0 0e 9a ca 3c ac 73 e9 3c 90 b8 ce bd 87 ad 98 bd
       0.024731662 0.02849754 -0.10093796 -0.07454973
0000e0 3d 7c a4 bd c7 5b b2 bd 70 83 c1 bd b8 48 11 be
       -0.08031509 -0.087089114 -0.09448898 -0.14187896
0000f0 bf 6b 47 bc 42 fc c3 3b e6 97 c9 3b 89 2c ed 3c
       -0.012171685 0.005980999 0.006152141 0.0289519
000100 95 ce de 3d c0 20 1f 3e e4 80 33 bd 05 d2 81 bd
       0.10879246 0.15539837 -0.04382409 -0.06338886
000110 f3 35 d9 bd d7 a0 16 bc 93 72 b8 3d c9 9d f2 3d
       -0.10605993 -0.009193621 0.09006228 0.118465014
000120 fa 0b c2 bc 26 2e 8b bd 58 86 44 bd 9c 7a e5 3a
       -0.023687351 -0.067959115 -0.047979683 0.0017507854
000130 5f c5 2a bc 17 f2 d8 bb 21 63 9e 3d d2 05 fb 3d
       -0.0104230335 -0.0066206562 0.07733751 0.122569695
000140 58 e5 4e 3d 46 1e 7a bd d4 22 56 bc c0 e8 01 3e
       0.050511688 -0.061064027 -0.013069827 0.12686443
000150 22 45 a9 bd 53 87 7b bd 73 58 25 3e 6b 05 fd 3c
       -0.08265139 -0.061408352 0.16147022 0.030886373
000160 02 e7 0a be 73 98 5b bc 96 c5 b5 3c 35 c3 99 3c
       -0.13564685 -0.013403046 0.022188943 0.01876984
000170 cf 02 ad 3c c1 1c 27 3d c2 06 1f 3d e5 fa 94 3c
       0.021119503 0.040798906 0.038824804 0.018186042
000180 8f 63 62 3d d7 5e af 3d 6f 66 e8 3c ca 1e 58 bc
       0.055270728 0.08563011 0.028369157 -0.013190934
000190 84 6a fa bc e8 9a f3 bc c9 82 b3 bd 30 94 bc bd
       -0.030568369 -0.029736951 -0.0876518 -0.09207952
0001a0 7f d3 0d bd 9d cc 05 bd 21 19 ad bd e4 91 e2 bd
       -0.034625527 -0.032665838 -0.084520586 -0.11062983
0001b0 b2 d6 96 bd a1 a3 8b bd a2 75 7a bb ac 07 f8 bc
       -0.07365169 -0.06818319 -0.0038217087 -0.030277096
0001c0 39 d2 61 bd e1 4e 3d 3d 9d 0b c2 3d 6d ca 1d 3d
       -0.055132125 0.046217803 0.09474871 0.038523126
0001d0 07 37 84 3c 39 bb 8b bd 52 8f ef bd 4e f4 c1 bd
       0.01613952 -0.06822819 -0.11697258 -0.094704255
0001e0 cf 1c 8a bd 52 dc d4 bd 78 97 8d 38 f1 95 a9 3d
       -0.06743776 -0.10393585 6.751617e-05 0.08280552
0001f0 af 51 90 3d 32 bf 6d 3c d2 c1 89 3c 30 f0 03 3d
       0.0704683 0.014510917 0.016816054 0.032211483
000200 9f 18 96 3d 6a ae 0f 3d 34 cf b2 bb a4 76 29 3d
       0.07328915 0.035078444 -0.0054568294 0.04137291
000210 73 f9 c4 3c 52 54 8e bd d4 51 e3 bd 2c 5f a1 bc
       0.024044728 -0.069496766 -0.11099592 -0.019698702
000220 48 e7 53 bd b5 da 9f bd 39 28 c9 bb fc 61 cb 3d
       -0.05173424 -0.07805387 -0.006138828 0.099307984
000230 13 c6 99 3d 2c 78 80 bd a4 53 04 3e 71 d9 51 3e
       0.07508483 -0.06272921 0.12922531 0.20493104
000240 ee 0d 00 00 c3 0d 00 80 f4 0d 00 00 ce 0d 00 00
       4.997e-42 -4.937e-42 5.005e-42 4.952e-42
000250 56 10 00 80 b7 0d 00 80 ee 0d 00 00 f4 0d 00 00
       -5.86e-42 -4.92e-42 4.997e-42 5.005e-42
000260 bf 0d 00 00 14 08 97 b3 a1 7e be b4 fd 5c 13 b5
       4.931e-42 -7.032955e-08 -3.5482392e-07 -5.4897083e-07
000270 65 f8 51 b4 f6 31 6b b5 2a 9c a6 b5 35 bc 97 b4
       -1.9555007e-07 -8.7617025e-07 -1.2413414e-06 -2.826288e-07
000280 f8 0c 90 b5 fb 44 a0 b5 3d 36 16 0a 49 13 e4 0a
       -1.073261e-06 -1.1941005e-06 7.2324384e-33 2.1962856e-32
000290 90 3f 1a 8b 4c 1b 07 89 10 b2 f2 87 15 ae a3 88
       -2.970714e-32 -1.6262869e-33 -3.6516769e-34 -9.851132e-34
0002a0 16 ce 43 88 61 70 c0 06 13 59 4d 07 a1 f2 18 13
       -5.892293e-34 7.23875e-35 1.5448662e-34 1.9304723e-27
0002b0 cb 25 1e 97 6b 38 24 97 45 0e 4c 13 ab 49 40 96
       -5.1100255e-25 -5.3062467e-25 2.5755455e-27 -1.5532882e-25
0002c0 5d c1 04 97 ac 78 3c 12 46 77 97 94 f0 8c 46 91
       -4.289556e-25 5.947108e-28 -1.5294149e-26 -1.5662876e-28
0002d0 1b e8 98 1a b2 82 b5 a1 b7 55 92 a3 4c 32 bc 99
       6.3240713e-23 -1.2299632e-18 -1.5865653e-17 -1.9459059e-23
0002e0 9b 42 3d a3 43 85 a5 a4 4f 7a 52 9a 8a 1e 99 a2
       -1.0259815e-17 -7.17831e-17 -4.3525782e-23 -4.1503068e-18
0002f0 56 fe 6f a3 22 dc b6 8a de 34 8f 11 01 b0 f9 95
       -1.3010074e-17 -1.7608767e-32 2.2594004e-28 -1.00847984e-25
000300 94 79 df 0a 81 59 ea 90 4e 74 f9 13 30 2b 0e 0a
       2.1519851e-32 -9.243463e-29 6.2971122e-27 6.845174e-33
000310 5b 6d 57 0e cf cc 9f 8e ff 9e da 0e c9 d5 6c 19
       2.6553449e-30 -3.939375e-30 5.3894257e-30 1.22440876e-23
000320 1f 87 a4 9e 84 9e 26 91 44 2f 26 1b 62 f4 9b a1
       -1.742006e-20 -1.3143937e-28 1.374647e-22 -1.0567896e-18
000330 98 76 12 12 e8 14 0e 9c 81 9d 0b a3 fe 43 14 1b
       4.6215655e-28 -4.701088e-22 -7.568558e-18 1.2264243e-22
000340 f8 f2 48 96 8e f9 8f 12 82 80 ff 1a cf 2b d3 95
       -1.6232539e-25 9.086089e-28 1.05673144e-22 -8.529134e-26
000350 0c 58 fb 8f d1 81 80 9c f8 ce 87 15 55 9d 18 94
       -2.4784425e-29 -8.503886e-22 5.4852605e-26 -7.705067e-27
000360 c0 c1 51 3c 66 44 91 3b 18 4e f4 bb 63 b1 37 3c
       0.012802541 0.0044332026 -0.0074555986 0.011211726
000370 3e af b7 3c a9 35 77 3c 10 06 18 3d 43 63 1d 3d
       0.02242243 0.015088477 0.037115157 0.03842474
000380 c2 85 e1 3c ca ae 7f bd fb bf 96 bd bc c5 96 bd
       0.027529601 -0.06242255 -0.07360836 -0.073619336
000390 e6 6e 27 3b d4 f1 c7 bc 15 99 36 bd ae 17 88 bc
       0.0025548278 -0.024407305 -0.044579584 -0.016612854
0003a0 12 cc 75 3d ce e6 21 3b 9b b5 e4 3b 68 ed 3b 3c
       0.06000907 0.002470422 0.006979657 0.011470176
0003b0 81 ec 88 3c eb e2 90 3b ba 07 08 3d 00 34 06 3d
       0.016714336 0.004421582 0.033210494 0.032764435
0003c0 38 e6 18 bb 85 45 65 3c e9 42 01 3d 61 12 f2 3c
       -0.002333058 0.0139936255 0.03155795 0.02954978
0003d0 f5 dd 9c bc b0 3c 3a bd 50 c0 47 3d 1d 33 49 bc
       -0.019148806 -0.045468032 0.048767388 -0.012280253
0003e0 23 8d 4e bd 35 ca 60 3c 61 7d bc bc a3 9e 19 bd
       -0.050427567 0.013720085 -0.023009004 -0.037504803
0003f0 d4 5d 8a bc 94 43 cf bc fa 1b bc bc 93 3d 0c 3d
       -0.016890444 -0.025300778 -0.022962559 0.03423841

conv2.bias f4 [32]
000000 19 83 05 bd f5 a5 da 3c 02 59 16 ad c1 52 ff 3b
       -0.032595728 0.026690463 -8.5462765e-12 0.0077918475
000010 57 b0 47 bb bc e2 96 3c 26 f3 f4 bc b8 f3 1a 3b
       -0.0030470097 0.018418662 -0.029901098 0.0023643803
000020 1c cd b9 3c b9 3f e9 b9 b0 0f 25 bc a2 86 a6 bc
       0.022680812 -0.000444887 -0.010074541 -0.02032787
000030 07 9d 90 b5 25 b2 1d 3d 88 30 da 3b 7e 3c 82 bd
       -1.0774537e-06 0.03849997 0.0066586174 -0.06359194
000040 ff f6 be 3a b8 55 1d bd b3 d8 65 bc 90 73 cc bc
       0.001456946 -0.038411826 -0.014028716 -0.024957448
000050 5c b3 1f bd 9c fc 02 3e 15 4a ec bb 16 78 5a 3c
       -0.03898941 0.12791675 -0.0072109797 0.013334295
000060 27 0d 06 bc 8d 7a da 3c 64 6a 0e 3d f2 f4 2e 3c
       -0.008181847 0.026669765 0.03476943 0.010678517
000070 91 82 ef 3d 9d d4 9d bc c6 02 0e bc 9a be 2c 3b
       0.116948254 -0.019266421 -0.008667653 0.0026358725

conv3.weight f4 [64, 32, 5, 5]
000000 9e 73 03 37 6a 7d 8d 3c 94 ef 7a bb 57 c0 cd bb
       7.835128e-06 0.017271716 -0.0038289772 -0.006279032
000010 95 b3 ce 3b cf 1c 9d bc 21 b1 be bc 95 b0 f7 bc
       0.006308029 -0.019178776 -0.023277821 -0.030235568
000020 f9 21 ea bc 70 3c a2 bb f7 eb ae 3b 18 e7 b7 bc
       -0.028580653 -0.0049510524 0.005338188 -0.022449061
000030 75 46 0d bd 77 e6 63 bc dd dc b1 39 a8 f6 6b ba
       -0.03449102 -0.013909928 0.00033924627 -0.0009001293
000040 a1 79 ee 3a 0d ba 39 bc 0a e6 90 39 55 7a 5f bb
       0.0018194207 -0.011335862 0.00027637213 -0.0034100015
000050 b2 e7 71 bb 02 6c 6a bc 22 17 77 bc 20 50 29 bc
       -0.0036911783 -0.014307978 -0.015081199 -0.010334045
000060 59 7e 5a bc ae c6 62 ba bb de d4 bc 3a b3 3f bc
       -0.013335788 -0.00086508214 -0.025985112 -0.011700446
000070 10 72 be bb 72 d8 16 bc b1 1b 27 3b a8 ab 85 bc
       -0.005811937 -0.009206878 0.0025498683 -0.016317204
000080 33 c8 84 ba 2d 58 4c bc 52 1d 11 b9 4f a8 90 bc
       -0.0010130465 -0.012472195 -0.000138392 -0.01765838
000090 36 36 0f bd df bb 03 bc 30 7e 8f bc a1 68 54 bc
       -0.03496381 -0.008040397 -0.017516226 -0.012964399
0000a0 12 be b7 3c c9 74 49 3c 84 f9 d0 bb 42 ee 98 bb
       0.0224295 0.01229591 -0.006377401 -0.0046670744
0000b0 eb e8 bd bb ea 9c d6 3c f5 a1 96 3d ee 57 52 3c
       -0.0057955883 0.02619787 0.073551096 0.012838347
0000c0 ba 28 d6 3a 7e 23 b2 bb b2 17 00 00 76 10 00 80
       0.0016339042 -0.00543636 8.5e-42 -5.905e-42
0000d0 ae 0d 00 80 be 0f 00 00 ee 0d 00 80 12 10 00 00
       -4.907e-42 5.647e-42 -4.997e-42 5.765e-42
0000e0 b0 0d 00 80 92 0f 00 00 44 10 00 00 d3 0f 00 00
       -4.91e-42 5.586e-42 5.835e-42 5.677e-42
0000f0 79 20 00 00 14 0e 00 00 07 10 00 00 49 0f 00 00
       1.1649e-41 5.05e-42 5.75e-42 5.483e-42
000100 01 10 00 80 ba 0d 00 80 b4 10 00 80 72 0e 00 80
       -5.741e-42 -4.924e-42 -5.992e-42 -5.182e-42
000110 d7 0f 00 80 87 11 00 00 be 0d 00 00 3a 0f 00 80
       -5.682e-42 6.288e-42 4.93e-42 -5.462e-42
000120 ec 10 00 00 ad 0d 00 80 33 0f 00 80 9e 1d bd bb
       6.07e-42 -4.906e-42 -5.452e-42 -0.005771353
000130 99 e4 10 bb 2a 34 83 3b 6b ed 30 3b 37 ef a3 3a
       -0.002210891 0.004004021 0.002699698 0.0012507205
000140 79 43 c1 bb b1 fc 9e b9 e5 c0 90 3a b2 57 f9 ba
       -0.005897936 -0.00030324378 0.0011043815 -0.0019023328
000150 de ed d2 bb 9f 86 bb 38 cd 17 d5 b9 95 da af ba
       -0.0064370474 8.94193e-05 -0.0004064426 -0.0013416583
000160 8f 18 78 bb 98 94 31 3c 59 ae d2 39 04 00 bd 3a
       -0.0037856435 0.01083865 0.0004018422 0.001441956
000170 c5 59 01 bb e8 b1 8c bb 1f 5f 17 bb 36 73 b3 b9
       -0.0019737345 -0.004293669 -0.0023097468 -0.0003422738
000180 83 63 83 ba a2 8a 9d b9 fc d2 15 bb 03 0d ad 3b
       -0.0010024164 -0.00030048663 -0.0022861352 0.005281092
000190 d6 62 97 3a d7 5b 69 bb 88 fa 76 3a 32 d0 5f 3b
       0.0011549841 -0.003560772 0.00094214873 0.0034151194
0001a0 ae 80 01 3d 36 da 84 bb ac 51 cf bb 47 4c a3 3b
       0.03161686 -0.004054333 -0.0063268747 0.004983458
0001b0 17 7e 7b 3c ae 92 e9 3b 51 25 0b bc fd 92 9e bc
       0.015349886 0.0071280813 -0.008492784 -0.019357199
0001c0 4d f9 47 bc 6f 6a 4d bc 1b 96 68 bc 0f 95 2b 3a
       -0.012205434 -0.012537583 -0.014195944 0.0006545344
0001d0 5f 0f d4 3b 35 43 8c 3b 9e d4 bf bb 79 50 70 3a
       0.006471559 0.0042804726 -0.0058542034 0.0009167265
0001e0 00 82 0a 3c 00 b2 d1 3c 43 d6 82 3c 5a 57 3c bb
       0.008453846 0.025597572 0.015971309 -0.002873859
0001f0 ea fe 3c ba 4e b8 dd b9 cf ac 4e bb ab 81 c1 ba
       -0.0007209616 -0.00042289722 -0.0031536107 -0.0014763376
000200 00 14 44 3b 3a c6 d8 3b 22 fa b9 3a a7 8f 3c bb
       0.0029919147 0.0066154273 0.0014188925 -0.0028772147
000210 22 2f bd bb fa 0f 4d 3b 78 25 8c bb c9 0e 16 b9
       -0.005773441 0.003129004 -0.0042769276 -0.00014310623
000220 d4 22 95 ba 5e 16 bf bb d7 1d 9c bb 62 26 62 bb
       -0.0011378177 -0.005831524 -0.0047642994 -0.0034507741
000230 3f 0e 26 ba 79 e1 21 bb ff 6b 24 bc c7 6c 24 bc
       -0.00063345203 -0.0024701043 -0.010035514 -0.0100357
000240 29 1c 2a ba 05 7a 5c ba 4f 99 42 b9 c3 d1 e6 bb
       -0.00064891815 -0.00084105163 -0.00018558394 -0.0070440485
000250 2d cc bd bb dc 8b 8f bb 13 c5 cf bb e1 76 12 bc
       -0.005792162 -0.004380686 -0.0063406317 -0.008939476
000260 e4 9b 9a bb a2 f4 00 3b c7 14 10 3d 12 e3 e1 bb
       -0.0047182906 0.0019677063 0.035176065 -0.006893524
000270 28 5b 92 bb 7e 47 17 3b 2c ad 7c 3c 64 d2 bc bb
       -0.004466433 0.0023083384 0.015422147 -0.005762385
000280 b1 6e a7 bb 3c 61 1d bc 09 6a 67 bc 09 ab 45 bc
       -0.005109631 -0.009605702 -0.014124402 -0.012064704
000290 6b e6 87 bc d9 d3 bc ba fa 80 7a 3c 8d 3d 40 3c
       -0.016589364 -0.0014406397 0.0152895395 0.011733425
0002a0 00 15 f5 bb 7e 39 54 bc c3 ba be 39 e3 7d a7 3b
       -0.00747931 -0.01295316 0.00036378772 0.0051114424
0002b0 88 4b 4b 3c 38 87 a3 bb d9 91 c1 3b 65 dd 9b 3c
       0.012408145 -0.0049904846 0.005907279 0.019026468
0002c0 47 c9 38 3d 89 5d d4 3c dd 5b 5f bc 97 3e 12 bd
       0.045113828 0.025923507 -0.013632742 -0.03570422
0002d0 30 2b 4b bc 9b 7d ea 39 28 74 f9 3c be 96 ad bc
       -0.012400433 0.0004472554 0.030450895 -0.021190044
0002e0 a1 08 f4 bc e2 51 69 bc de 4a 80 bb 38 00 f2 3c
       -0.02978927 -0.014240714 -0.003915175 0.02954112
0002f0 0f 25 ab bc 1f 57 e8 bc b4 b9 d3 3b e2 94 95 3d
       -0.020891694 -0.028361855 0.0064613465 0.07303788
000300 a2 a8 70 3d 01 e5 8f bc 6c 80 b7 bc 37 7f 17 bd
       0.05875457 -0.017565252 -0.022400104 -0.036986556
000310 df cb 21 3b 23 e9 97 3d 32 85 06 3c 1f ec 3b 3c
       0.0024688167 0.07417514 0.008210467 0.01146987
000320 f2 2b 4b bb 58 70 31 3c 5d e0 90 3a bc 98 01 3a
       -0.0031001535 0.0108300075 0.0011053194 0.00049437187
000330 34 c4 3a bc 7a 8b 06 ba a1 5d 96 3b b4 61 0d bb
       -0.0113993175 -0.0005132478 0.004588798 -0.0021573128
000340 13 85 3c bc a1 96 8b bb 86 8f 82 ba 65 67 9e bb
       -0.011506337 -0.0042598997 -0.0009960986 -0.004834103
000350 ac 42 3d ba 6b 35 2f bc 0e b5 d7 3b 64 de d5 3a
       -0.0007219713 -0.010693888 0.0065828627 0.0016316888
000360 e2 76 01 3b b6 51 97 38 14 bf 15 3c 92 a7 94 3b
       0.0019754698 7.215461e-05 0.009139795 0.0045365775
000370 6b 85 96 3b f6 a1 21 bb bf 27 17 bb e0 50 05 bb
       0.0045935414 -0.0024663187 -0.0023064462 -0.0020342395
000380 74 03 13 bc f6 b0 7a bc e8 7d 0f 3b e4 36 69 3c
       -0.008972991 -0.01530098 0.0021895114 0.014234278
000390 bb 21 5f bb 1e 6d 8a bc 57 ba 36 b8 58 0d a9 3c
       -0.0034047205 -0.016897734 -4.3565724e-05 0.020636246
0003a0 f4 90 9c 3c 16 dd 8f bc 92 cf f6 bc 7f ed 09 39
       0.019112088 -0.017561477 -0.030128274 0.00013153812
0003b0 e8 89 8b 3c 46 93 92 bb cb f0 87 bb 02 9a 1d bd
       0.017033532 -0.004473123 -0.004148578 -0.03847695
0003c0 65 ff 54 bc be f9 13 3c 65 11 ab bc c7 26 c5 39
       -0.013000344 0.009031711 -0.020882318 0.0003760366
0003d0 18 05 11 bc b0 e0 b2 ba 00 73 b0 bb b0 b0 89 bc
       -0.008851312 -0.0013647284 -0.005384803 -0.016807884
0003e0 7f 2f 76 bc 09 f7 83 bb 1b 34 4b bc ce 8c 35 bc
       -0.015025972 -0.0040272516 -0.01240256 -0.011080934
0003f0 36 55 08 bc 95 e1 40 bc 8a e5 69 bc 7c f1 b8 3c
       -0.008321097 -0.011772533 -0.014275918 0.022576086

conv3.bias f4 [64]
000000 52 b0 71 bc 0c 54 08 bd 63 8f 9b bc 2d 89 72 bc
       -0.014751511 -0.03328328 -0.01898927 -0.014803213
000010 7b 2b 0e bd 97 ca bd bc c3 23 ee bc ec 8e ec ba
       -0.034709435 -0.023167891 -0.029069787 -0.0018047965
000020 6a 1c a3 bc 00 25 38 bc fc d0 6f b1 78 b8 cc bc
       -0.01991101 -0.01123929 -3.4897871e-09 -0.024990305
000030 68 17 c4 bc aa 07 ad bc b9 c6 2c bc 11 55 d2 bc
       -0.023936942 -0.021121819 -0.010545426 -0.025675328
000040 c2 9f 81 b4 0d 8f 32 bc fd 5f ea bc 28 de 2d ba
       -2.4144362e-07 -0.010898364 -0.028610224 -0.000663253
000050 c3 b5 da bc 7e ef 03 bd 75 88 86 b9 ba b5 c9 bc
       -0.026697999 -0.03221082 -0.0002566014 -0.024622787
000060 6b 3d 73 ba d6 bf 5e ba 7f 97 92 b1 67 b6 bd bc
       -0.00092788663 -0.0008497214 -4.2663824e-09 -0.023158265
000070 88 0b 36 bc 5e 9e 47 bc 4f 1a b8 ba 14 91 81 bc
       -0.011111148 -0.012183754 -0.0014045927 -0.015816249
000080 af d8 98 bc c4 0d 07 bb bd e0 6e ba 10 97 0a b7
       -0.01865801 -0.002060757 -0.0009112468 -8.260613e-06
000090 48 5b d4 bc 15 05 f0 bc 28 3d 3b bd eb 5c 8f bc
       -0.025922433 -0.029299298 -0.04571262 -0.017500361
0000a0 c8 9a 19 3d fa e1 82 bb 3e b5 b0 b9 61 5a ab 36
       0.037501127 -0.0039942237 -0.00033704372 5.1067186e-06
0000b0 56 eb 9e bc 80 ac 0c ba b3 c2 36 b2 45 58 8c bc
       -0.019399326 -0.00053662807 -1.0638064e-08 -0.017131934
0000c0 e2 86 7c b7 91 15 e1 bc 25 bb 01 bb 22 a1 d1 bc
       -1.5051775e-05 -0.027476104 -0.0019795385 -0.02558953
0000d0 f5 4a ec b6 09 06 01 bd c0 2b c9 bc 7b 46 96 b8
       -7.0420742e-06 -0.031499896 -0.024556994 -7.1656854e-05
0000e0 b1 9f 92 bc 2b aa 97 bc e4 80 09 ba 6a 08 f3 bc
       -0.017898412 -0.01851376 -0.00052453415 -0.029667098
0000f0 9b 34 35 bc 8b 6e c0 bc 9b 22 2c bd 2f bd d8 bc
       -0.011059905 -0.023490211 -0.04202519 -0.026457397

fc1.weight f4 [86, 576]
000000 69 e0 18 36 ff e2 b5 37 60 2a a2 b3 25 25 02 37
       2.278039e-06 2.1682585e-05 -7.551421e-08 7.757252e-06
000010 49 3c 05 38 97 ec e1 b4 c1 5e 9e 36 11 d5 fd 37
       3.1765816e-05 -4.2081658e-07 4.7197977e-06 3.0259167e-05
000020 51 38 40 38 c8 fb 07 36 f9 d7 b4 31 72 62 d6 b1
       4.5828816e-05 2.0263124e-06 5.2632427e-09 -6.2394117e-09
000030 a7 bf 63 b4 93 c5 b3 b3 aa 79 c9 b1 38 1b 35 b4
       -2.1210745e-07 -8.3712756e-08 -5.8637015e-09 -1.6866841e-07
000040 a4 5f 74 b3 29 e4 0b b0 f8 53 14 b2 a9 83 ab b3
       -5.689766e-08 -5.089214e-10 -8.633826e-09 -7.986757e-08
000050 02 ff d9 b4 5a 8b cb b1 30 fe a5 36 4e e0 ef b7
       -4.0604942e-07 -5.92392e-09 4.9469745e-06 -2.859547e-05
000060 dc df 4c b1 f4 58 0e 38 a8 fa de 37 46 ce f3 32
       -2.9813156e-09 3.3938282e-05 2.6581183e-05 2.8382726e-08
000070 81 b3 71 b3 49 b1 0c b4 db b2 a6 b1 f0 51 86 37
       -5.6275443e-08 -1.3103012e-07 -4.8515694e-09 1.60122e-05
000080 50 9d 88 37 e5 eb a2 32 3d 42 c3 36 b7 26 13 37
       1.6285718e-05 1.8966555e-08 5.819164e-06 8.770897e-06
000090 57 56 a3 34 7e 2f 1e b4 9a c9 1a b4 ba 13 9f 35
       3.0423936e-07 -1.4732174e-07 -1.441571e-07 1.1852164e-06
0000a0 7b 93 e9 34 eb 5e 81 30 89 34 b7 b8 57 73 85 b8
       4.3506938e-07 9.412963e-10 -8.7359054e-05 -6.363418e-05
0000b0 44 02 ef 37 34 22 73 37 3f 0b 52 36 c4 b1 b8 b3
       2.8492075e-05 1.4491892e-05 3.1298985e-06 -8.600503e-08
0000c0 13 fc 50 37 90 a3 c1 b4 27 cd ce b3 70 b7 36 37
       1.2456457e-05 -3.606806e-07 -9.6299395e-08 1.0890755e-05
0000d0 0e 9c 58 34 a2 b1 b2 32 05 d0 0e b4 4b 5b 0d b4
       2.017334e-07 2.0802705e-08 -1.3300458e-07 -1.316486e-07
0000e0 d7 46 03 b3 fa 87 55 b5 b6 52 3a b5 7c 18 a6 37
       -3.0565243e-08 -7.9546555e-07 -6.941076e-07 1.9800143e-05
0000f0 2e ae 2d b5 36 34 08 b5 ce f3 34 b4 9f 19 b1 b7
       -6.4700987e-07 -5.0739925e-07 -1.6852502e-07 -2.1111975e-05
000100 aa 17 64 b7 3d a6 66 b4 14 95 e1 b7 48 04 8b b7
       -1.3595369e-05 -2.1480896e-07 -2.689151e-05 -1.6572085e-05
000110 c9 24 1c b5 35 52 2d b8 f3 94 f4 b7 a9 9c 13 37
       -5.816806e-07 -4.1322975e-05 -2.9156427e-05 8.798358e-06
000120 06 74 90 34 d4 6b b2 b7 f2 d0 06 35 e5 9f 8b 30
       2.6906508e-07 -2.1269465e-05 5.0222945e-07 1.0159026e-09
000130 5e 33 40 b2 17 fb 13 b3 01 28 09 b4 12 05 98 b4
       -1.118755e-08 -3.445447e-08 -1.2773673e-07 -2.8315895e-07
000140 0a 45 6c b7 b6 0b bb a2 3b a9 0b a5 d2 76 c2 24
       -1.4082771e-05 -5.069885e-18 -1.2113666e-16 8.433538e-17
000150 53 5e 9e a4 ea df 3d 25 5a f8 7a a4 03 43 ce a3
       -6.868137e-17 1.6469002e-16 -5.442047e-17 -2.2362945e-17
000160 9b 93 9f 25 9d d5 d7 a5 b7 fb 83 a3 05 cc 9e a3
       2.7682125e-16 -3.7441305e-16 -1.4309654e-17 -1.72168e-17
000170 99 03 15 a1 f4 7f 7e 22 92 e5 59 23 3d de e2 a2
       -5.0487925e-19 3.4491157e-18 1.1812207e-17 -6.1492727e-18
000180 cc d1 a3 21 1d 9e 87 23 54 45 d2 a2 ff 77 cf b3
       1.1100842e-18 1.4703693e-17 -5.699402e-18 -9.661016e-08
000190 0f 9d 90 b8 c6 60 f9 36 d9 b5 28 2f a4 d7 48 38
       -6.8957095e-05 7.432044e-06 1.5344116e-10 4.7884547e-05
0001a0 1d ac 8d 36 26 ef 08 b4 c9 08 99 37 68 e5 9c b4
       4.222164e-06 -1.2752989e-07 1.8243112e-05 -2.922418e-07
0001b0 fa 9e 61 36 fd 89 17 32 30 ac 79 32 02 81 98 36
       3.362015e-06 8.820732e-09 1.45328585e-08 4.5449715e-06
0001c0 a7 32 68 b3 96 48 c0 b3 e9 e7 35 b3 d9 43 42 b3
       -5.4062777e-08 -8.9539e-08 -4.2353268e-08 -4.5230852e-08
0001d0 ef 6e 95 b4 8c 57 29 b5 fc b1 2f 36 88 b1 40 b5
       -2.7834128e-07 -6.3084804e-07 2.6180633e-06 -7.1783916e-07
0001e0 1c f8 09 32 36 e6 5f 37 fc 30 55 b5 fa ef 85 b3
       8.030863e-09 1.3345436e-05 -7.9419965e-07 -6.2369466e-08
0001f0 5d f4 a9 36 e8 ce d2 b4 06 0d 64 b8 8f 61 4e b8
       5.06504e-06 -3.9266092e-07 -5.4371565e-05 -4.9205086e-05
000200 98 9d 87 b4 99 3b 93 b7 e9 50 17 b4 c0 06 db b3
       -2.5260374e-07 -1.7551518e-05 -1.4092406e-07 -1.019921e-07
000210 38 3a fc 35 3f 7c 1e b5 5d 00 be b3 eb 00 b6 34
       1.8792407e-06 -5.904039e-07 -8.8476305e-08 3.390081e-07
000220 0a b0 dd 34 d6 7e c1 31 b8 79 0d b7 b9 67 82 b5
       4.1292543e-07 5.631459e-09 -8.432595e-06 -9.715942e-07
000230 b5 bc 21 38 8f 2c 38 b8 b2 5c 93 36 45 2f a2 38
       3.856114e-05 -4.3910517e-05 4.3917325e-06 7.7335666e-05
000240 32 5a 89 19 2f ad 24 1a 4d b9 08 9a 49 e5 e0 18
       1.4201898e-23 3.4054302e-23 -2.8273826e-23 5.813416e-24
000250 f1 5b 47 99 33 06 0e 99 a2 7b fc 99 e0 41 e7 18
       -1.0306626e-23 -7.34248e-24 -2.6106124e-23 5.9778617e-24
000260 7c 6b b3 98 1e 5c 3a b7 38 90 31 b7 57 a6 54 b8
       -4.6378947e-24 -1.1107912e-05 -1.0583601e-05 -5.0699655e-05
000270 bb 9f 55 b5 37 66 a9 b7 79 02 35 b7 3a a5 c9 b6
       -7.958112e-07 -2.0193967e-05 -1.0789016e-05 -6.0095017e-06
000280 03 8a 4f 35 a2 40 17 b8 a5 f6 be b2 69 f0 3d 33
       7.731434e-07 -3.60614e-05 -2.2231072e-08 4.4223643e-08
000290 c5 bd 65 33 9c 04 b9 b4 da 32 9a b4 5f 91 e3 b4
       5.3490812e-08 -3.446229e-07 -2.8721735e-07 -4.2387816e-07
0002a0 47 21 36 b5 e7 15 8c b5 51 34 3c 36 c9 4e 94 b2
       -6.784871e-07 -1.0437187e-06 2.8044635e-06 -1.7265295e-08
0002b0 97 a9 93 b2 1b 68 81 30 64 16 e9 b2 cd 06 15 b3
       -1.7190173e-08 9.415574e-10 -2.7134952e-08 -3.469795e-08
0002c0 c3 87 c7 b0 42 4b 35 af 4e 04 0b 30 74 2f a1 30
       -1.4517741e-09 -1.6488591e-10 5.057402e-10 1.1727779e-09
0002d0 ee 10 93 b3 f9 d8 d5 b2 b9 be a0 b3 69 0e c2 b1
       -6.8483004e-08 -2.4895131e-08 -7.485273e-08 -5.6477814e-09
0002e0 eb 32 41 b1 45 c8 34 31 8c de 7b b5 51 53 93 35
       -2.811414e-09 2.6307287e-09 -9.3828635e-07 1.0976602e-06
0002f0 25 74 de 37 c1 14 26 37 ea 9e 2f b4 a7 40 56 b4
       2.6518546e-05 9.899203e-06 -1.6355958e-07 -1.9953823e-07
000300 97 ee c6 37 86 3e 58 b1 d6 23 e9 b2 47 71 95 37
       2.3714541e-05 -3.1467677e-09 -2.7141066e-08 1.7814933e-05
000310 ec c4 44 b0 f3 aa 00 b4 60 77 23 a8 9f 37 3c a7
       -7.158423e-10 -1.198312e-07 -9.074203e-15 -2.6120393e-15
000320 eb 80 9f 28 80 10 da 28 c1 47 03 a7 3d e9 f8 24
       1.7708455e-14 2.4210018e-14 -1.82188e-15 1.07947977e-16
000330 3b 04 8f 27 76 3d 8f 25 be 76 0a 25 25 62 5f b4
       3.969506e-15 2.4848193e-16 1.2009823e-16 -2.0804198e-07
000340 57 2e 85 33 9f ce 93 b3 fb 30 00 32 fb c7 5d 36
       6.201724e-08 -6.882805e-08 7.4617175e-09 3.304797e-06
000350 22 41 bd 37 e9 a3 00 b5 e6 ff 11 b8 af 32 51 38
       2.2560886e-05 -4.7922236e-07 -3.4809018e-05 4.9876686e-05
000360 7e ae 13 a6 71 75 95 27 b1 56 02 a8 29 4c 9e 25
       -5.123735e-16 4.148314e-15 -7.235248e-15 2.746024e-16
000370 b5 e5 07 a6 3f ba 74 28 b9 87 4c a6 92 72 7c 24
       -4.7148845e-16 1.3585107e-14 -7.0960656e-16 5.4740834e-17
000380 87 19 6c a8 2b d8 ee a6 13 a5 08 a4 48 cf 63 26
       -1.3106167e-14 -1.657316e-15 -2.9630122e-17 7.9037364e-16
000390 c3 9c 1a a9 69 bb b6 a4 f8 da 58 b4 2f 90 ff a4
       -3.4330838e-14 -7.9247403e-17 -2.0196228e-07 -1.1083288e-16
0003a0 aa 82 84 a3 a8 13 f3 21 0d 04 a1 2d 24 9f 33 2d
       -1.4366807e-17 1.6471523e-18 1.830538e-11 1.0210308e-11
0003b0 20 54 00 2c e4 79 7c ab 3f da b4 ab d4 71 95 2c
       1.8236593e-12 -8.969754e-13 -1.2850345e-12 4.247472e-12
0003c0 f3 67 1b aa b3 e0 16 ab 37 fc b7 ab ae d5 e6 33
       -1.380283e-13 -5.360254e-13 -1.3072936e-12 1.0749078e-07
0003d0 5f e2 13 34 8a 57 f6 b6 c8 cc 2e b6 64 d6 d2 b7
       1.3772795e-07 -7.341562e-06 -2.6047219e-06 -2.5133784e-05
0003e0 5a dd 07 b4 65 da 9d b6 d9 7b 0a b8 44 41 c3 b6
       -1.2653382e-07 -4.704389e-06 -3.3017106e-05 -5.819051e-06
0003f0 03 a3 7f 33 cd c9 dc 36 9b f4 28 b6 4f 66 2d b4
       5.9520072e-08 6.5800036e-06 -2.517633e-06 -1.61491e-07

fc1.bias f4 [86]
000000 e5 03 8c 37 39 a8 eb b7 57 cb d0 bb ec c7 b6 34
       1.6691114e-05 -2.8092518e-05 -0.0063718962 3.4045604e-07
000010 0c b3 91 3b c0 25 8c bc 4b e9 9d 3c 24 14 11 3d
       0.004446393 -0.017107844 0.019276282 0.0354196
000020 5b 62 32 38 92 c7 2c 39 5a 62 57 bd e4 c4 ce 2b
       4.2530108e-05 0.00016477544 -0.05258403 1.4691828e-12
000030 29 36 3c 38 63 5e 83 3c a2 2a 55 ba 66 12 ad 3c
       4.4873133e-05 0.016036218 -0.0008131658 0.021126937
000040 37 ef 96 b7 66 d0 e1 3a ec e6 18 3c a5 06 e8 a2
       -1.7992787e-05 0.0017228245 0.0093324 -6.289076e-18
000050 c9 e5 0e 3d 32 f5 0a ba 81 62 66 3a 5a 63 4e bc
       0.03488711 -0.0005300819 0.0008788482 -0.012596929
000060 69 d0 4c b7 34 bc a0 3c 0f d3 8b bc ba 73 4c bc
       -1.2207872e-05 0.019620992 -0.017068414 -0.012478763
000070 41 a7 97 32 1d bc 1b bc 0f a3 02 bb 4f 0f 44 bb
       1.7654772e-08 -0.009505299 -0.0019933616 -0.0029916351
000080 80 a4 15 ba e5 86 3a 35 e0 6d 72 ba ff e3 96 bc
       -0.00057084113 6.9486697e-07 -0.000924794 -0.018419264
000090 f4 31 4d 3b b1 7f 25 38 70 30 fd bb 87 e7 f2 3b
       0.0031310292 3.9457987e-05 -0.0077267215 0.007412854
0000a0 4a e5 95 3c de 06 b5 3b 49 8a f8 bb 0f a2 a7 bc
       0.01829781 0.0055245003 -0.0075848443 -0.020463018
0000b0 cf 36 b7 b8 dd 9a 46 bb a5 83 38 3d 5e 5f 68 3b
       -8.736329e-05 -0.0030304708 0.04504742 0.0035457234
0000c0 3e 09 f0 35 14 ef f4 ba 87 2b 00 3b 29 f4 d5 3c
       1.7884083e-06 -0.0018686973 0.0019557194 0.026117401
0000d0 58 94 23 3d 95 67 c7 3a 62 4b 59 b8 58 59 9a a6
       0.039936393 0.0015213365 -5.1807037e-05 -1.0710113e-15
0000e0 fe 6a b2 3b 92 ab 0c 3a 52 e6 de 3c ab d0 9d ba
       0.0054448834 0.0005366142 0.027209435 -0.0012040337
0000f0 1c f0 98 3b 91 bc 6a b5 2c 98 70 29 b3 e8 ab b8
       0.004667295 -8.7446193e-07 5.3422693e-14 -8.197259e-05
000100 a3 95 e1 3c 67 bb 1c bc b8 33 d6 b9 77 9a 3a bc
       0.027537173 -0.009566165 -0.00040855794 -0.011389366
000110 f5 ec b6 ba aa 21 9a 3a c1 c4 db bc 23 21 45 bb
       -0.0013956117 0.00117593 -0.026827218 -0.0030079565
000120 9d af a1 bb 89 30 2f 36 22 de a3 32 9f da 7d 38
       -0.004934265 2.6105283e-06 1.9076712e-08 6.0523507e-05
000130 7a 0d e2 b8 ba f5 ff 36 1f aa 31 b1 95 e8 db 39
       -0.0001077903 7.6281985e-06 -2.5853593e-09 0.00041944222
000140 d2 81 4c bc f8 69 72 3c b3 c0 0b b8 1a 79 6a b7
       -0.012482123 0.014795773 -3.3319648e-05 -1.3975683e-05
000150 c8 e7 32 bc 58 5d 00 b9
       -0.010919519 -0.00012241805

fc2.weight f4 [64, 86]
000000 36 92 b6 bb 14 7a 16 bc fd 4f 1c bc b7 b6 84 b9
       -0.005571629 -0.009184379 -0.009540555 -0.00025313135
000010 10 3d f6 bb 12 3c 6a bb a4 a3 94 bc 62 de b5 3d
       -0.0075146034 -0.003574137 -0.018144436 0.08880307
000020 46 f1 d3 37 c7 b7 0a 3a 41 db b8 3c 59 7a 07 a0
       2.5265512e-05 0.0005291667 0.022565486 -1.1475426e-19
000030 b8 3b c6 b6 72 3c 43 3d 82 45 fb ba 9a 97 34 3d
       -5.907812e-06 0.047665067 -0.0019170495 0.04408989
000040 7e e4 c4 b7 54 e7 0a bc 0c 25 24 3e 93 b1 72 3a
       -2.347142e-05 -0.0084780045 0.16029757 0.0009258028
000050 36 a0 7f bd 03 49 87 3a fe 3a 27 ba a1 dc 3e be
       -0.06240865 0.0010321442 -0.0006379335 -0.18638851
000060 32 01 86 b9 bb bb fb bc 56 3f 9a bd fd 1c 7e 3d
       -0.00025559362 -0.030729165 -0.075316116 0.062039364
000070 c6 53 d6 bc 53 80 37 3c e5 c3 d5 39 de 5a 1a 3d
       -0.026162993 0.0112000285 0.0004077248 0.037684314
000080 ee 2a 11 bc f9 a3 12 ba 70 0b 9b bb 95 92 21 be
       -0.008860333 -0.0005593892 -0.004731588 -0.15778573
000090 7d f0 b9 bc 3c 3a 31 bb 88 79 6e 3c 1a 5e 67 3e
       -0.022697682 -0.0027042767 0.0145553425 0.2259449
0000a0 9f da c4 3d 6b 18 fa 3c 69 ea 03 bd b7 3e 24 bd
       0.09612011 0.030529222 -0.032205973 -0.040098872
0000b0 bb 22 99 b7 10 48 04 3e 90 b7 68 3d d4 b2 90 3b
       -1.8255194e-05 0.12918115 0.056815684 0.004415849
0000c0 f2 d6 bb 3c 4c 6f 9e bc 56 dc aa 3d 1d af a9 3d
       0.022929642 -0.01934018 0.08342807 0.08285353
0000d0 e1 21 8b 3d d8 8b ff bc 8d 5b ae 38 31 14 ec b6
       0.06793571 -0.031194612 8.314019e-05 -7.0356987e-06
0000e0 c8 f6 a0 bb 6c e2 61 3b 03 00 36 3e 12 b1 d4 ba
       -0.004912231 0.0034467233 0.17773442 -0.0016227087
0000f0 17 9a 7e bd 83 f9 3e b5 d9 d0 2c 3b 65 4d 85 b9
       -0.06215867 -7.1143603e-07 0.00263696 -0.000254254
000100 25 77 01 3d 75 5c ec bb 0a 26 a8 b9 ed 3e 33 bd
       0.031607766 -0.00721317 -0.00032071798 -0.043761183
000110 a0 d0 52 bd 61 c9 2d 3c c6 e1 e4 3d a3 4f 26 3d
       -0.05146849 0.0106070945 0.11175875 0.04060329
000120 90 5d 31 3d e8 20 18 36 15 3b 0a 38 1b d6 80 3c
       0.04330212 2.266892e-06 3.295679e-05 0.015727093
000130 15 9a bd 37 b3 09 06 35 fa bb 16 bc de c8 1c b9
       2.2602306e-05 4.9933004e-07 -0.009200091 -0.00014952148
000140 66 be 2e bd cf 58 25 3e fa 21 28 3c dc 7d 13 b8
       -0.042662047 0.16147159 0.010262007 -3.5164747e-05
000150 55 7b 12 bd 87 06 55 39 e4 fc a5 26 4c 1a 56 1e
       -0.03576215 0.00020315695 1.1517721e-15 1.1334504e-20
000160 73 c2 cd b3 59 d1 dc a7 81 13 84 b7 1a 20 d0 31
       -9.5814265e-08 -6.128924e-15 -1.5744708e-05 6.0572463e-09
000170 ad c0 72 b6 5a 6e e4 b7 10 ab 74 32 34 f1 35 a2
       -3.6172962e-06 -2.7231104e-05 1.4241564e-08 -2.4657766e-18
000180 f1 b9 1b ad be 4f 00 00 49 fd 87 31 bf b4 78 36
       -8.852017e-12 2.8606e-41 3.9578123e-09 3.7060088e-06
000190 ec 6a 77 ac 40 d6 c7 36 f5 c8 92 a9 76 0b 63 b6
       -3.5160165e-12 5.955604e-06 -6.518563e-14 -3.3832307e-06
0001a0 31 be 15 b8 1b 8a 12 9b 3b 26 20 b8 5b 60 90 b0
       -3.5701498e-05 -1.2121461e-22 -3.8182578e-05 -1.0504765e-09
0001b0 3c 2f b3 b4 db 68 00 b8 fe 28 e9 b2 e7 63 f2 b7
       -3.3375716e-07 -3.0615232e-05 -2.7143411e-08 -2.8895169e-05
0001c0 7d 82 dd b7 6c 80 72 b8 ea 1c 3d a8 22 df 68 b7
       -2.6406016e-05 -5.78169e-05 -1.0497877e-14 -1.388023e-05
0001d0 c9 d0 e5 aa 41 f2 f3 b7 8a 74 55 32 e4 b1 03 2b
       -4.0823445e-13 -2.9080666e-05 1.242473e-08 4.678742e-13
0001e0 ac 7f 11 36 12 56 fa b7 0b 6b 88 b7 b7 01 34 ae
       2.1680999e-06 -2.9842402e-05 -1.626231e-05 -4.0928785e-11
0001f0 04 38 9e b7 36 a1 39 38 6f 54 db b6 1a 77 fc b7
       -1.8861152e-05 4.4257577e-05 -6.536538e-06 -3.0096202e-05
000200 9e 47 00 b5 a0 70 19 38 26 a8 c1 af ba f8 bc b7
       -4.778793e-07 3.6582933e-05 -3.5225972e-10 -2.2527169e-05
000210 eb c1 ba b7 a7 1f 2e b7 d3 6c 85 ad ca e8 ed 34
       -2.2263228e-05 -1.0378578e-05 -1.5168677e-11 4.4314066e-07
000220 c3 0e 8e b7 e5 07 0d 38 11 be 7b b7 e6 a0 06 30
       -1.6934593e-05 3.3624372e-05 -1.5005019e-05 4.8977566e-10
000230 a9 23 de 2b 3b dc 83 9d da da a8 37 16 57 fb b4
       1.5783946e-12 -3.4903124e-21 2.0129071e-05 -4.6815757e-07
000240 b3 16 6d 37 b1 92 85 36 b6 e6 d3 b7 1f b4 7b ac
       1.4131586e-05 3.980786e-06 -2.5260593e-05 -3.5769233e-12
000250 c9 f3 ba 99 96 3a b1 b0 89 dc a5 b6 3c a5 fa 2b
       -1.9330413e-23 -1.2895096e-09 -4.943057e-06 1.780943e-12
000260 23 dd 29 2f 0c 43 4f b8 e2 bf 6b b6 29 00 10 34
       1.5449024e-10 -4.9415088e-05 -3.512942e-06 1.3411103e-07
000270 88 c3 82 b8 15 11 69 36 a0 73 7c 36 36 40 04 ae
       -6.2353036e-05 3.4729649e-06 3.7618229e-06 -3.0070356e-11
000280 ba d1 7c 0c c1 77 4e a6 95 8e f9 2a 44 aa ac 2d
       1.9476486e-31 -7.1632904e-16 4.4330221e-13 1.962975e-11
000290 15 72 13 26 7c 96 31 31 0a f0 86 38 f9 66 3b b7
       5.115548e-16 2.584243e-09 6.434329e-05 -1.1170044e-05
0002a0 d0 ee 55 31 55 11 21 b1 57 20 db b7 43 3c b6 27
       3.1131329e-09 -2.3438436e-09 -2.6121894e-05 5.0580484e-15
0002b0 5f d7 8c bc ed 5a 20 3c 22 39 0e bb a8 73 0f ba
       -0.01719254 0.009787303 -0.0021701534 -0.0005472251
0002c0 12 d8 e4 bc 69 e1 0b 3c 4c 3a 99 3d 06 61 c8 ba
       -0.027935062 0.008537629 0.07481822 -0.0015287704
0002d0 2c 1b f8 b7 d5 b1 ba 38 12 fb eb 3c 5e 58 5a 35
       -2.9576557e-05 8.902295e-05 0.028806243 8.133992e-07
0002e0 d5 0d b2 38 cb f7 ff 3d 2d e5 9d 39 ca de 12 bc
       8.490278e-05 0.12498435 0.00030116123 -0.00896425
0002f0 23 13 7e 37 8c 10 37 3d bf c8 81 3e f0 a0 f1 39
       1.5144035e-05 0.044693515 0.2534847 0.0004608701
000300 66 6c b1 bd 0d 75 e5 bb 6e 92 22 b9 9a b0 89 3c
       -0.086632535 -0.007002479 -0.00015504073 0.016807843
000310 db 56 a5 b7 7a 39 ec bd 45 66 31 be 1a d4 3f 3d
       -1.9709978e-05 -0.115344 -0.17324169 0.046833135
000320 f5 96 07 3b 4c 36 c9 bb 93 db b9 3a a7 b9 79 3d
       0.0020689343 -0.006140506 0.0014179818 0.060968067
000330 d3 c5 4d 3c e8 9e f9 39 52 52 4c 3b 5b b3 db bd
       0.012559372 0.00047611375 0.0031176996 -0.10727569
000340 da 58 ae bd 05 c3 7a ba e3 73 a0 3d 95 d8 ce 3d
       -0.08513041 -0.00095658033 0.07834604 0.100999035
000350 a3 fa 87 bb fd e1 07 3e 91 4e 3d bd be ee c2 bd
       -0.0041497513 0.13269801 -0.046217505 -0.09518193
000360 2f 14 eb 38 ae c0 b3 3d 11 3c 8f 3d 90 8a ae bd
       0.00011209433 0.08776985 0.06993879 -0.085225224
000370 4b 19 ec 3c 1b 07 7d 3c 3c 6c 8d 3d 30 99 6a 3d
       0.028820654 0.015443589 0.0690541 0.057274997
000380 11 13 ca 3a ad ff f9 3b 41 78 85 37 99 07 22 37
       0.0015417059 0.007629356 1.5910833e-05 9.657721e-06
000390 71 19 84 bc 4f bf c1 bb f0 94 4f be 9b a2 6c 3c
       -0.016125413 -0.0059126983 -0.20271659 0.014443065
0003a0 f1 0d cf 3d 7d 3a 9f b6 eb 6b 6d 3b 20 22 11 3a
       0.10110081 -4.745378e-06 0.0036227654 0.0005536396
0003b0 68 96 83 ba 39 a3 78 bb e4 5d 2b ba 53 9d 6d 3d
       -0.0010039331 -0.0037939085 -0.0006537123 0.058011364
0003c0 8d 04 45 bd c6 65 f4 bb cc e4 be bb d8 58 5e 3c
       -0.048100043 -0.0074584214 -0.0058256146 0.013570987
0003d0 18 34 8e 3c eb 60 3f 36 b1 b3 dc 38 5d f2 00 bb
       0.017358825 2.8517632e-06 0.000105238876 -0.001967571
0003e0 00 ab 58 38 a5 0a 2a 37 ae 24 7b bc 73 d2 ac b9
       5.165767e-05 1.0135268e-05 -0.015328569 -0.00032963193
0003f0 8b 03 25 3e d9 da 4f 3e 31 d2 8a 3a d3 36 a1 38
       0.16114633 0.20298328 0.0010591206 7.68729e-05

fc2.bias f4 [64]
000000 3f 1d 6e 3c 32 55 a8 37 38 93 06 3c ef e8 37 b6
       0.01453334 2.0066833e-05 0.008213811 -2.740471e-06
000010 fd b8 97 3c 02 e5 f8 bb e1 78 4a bc c9 27 a2 3b
       0.018520826 -0.0075956592 -0.012357921 0.0049485904
000020 45 72 14 bc 4f 52 9b ba c9 1f 36 b9 31 8b 09 3d
       -0.009060447 -0.0011850091 -0.00017368713 0.03358001
000030 b2 fd 89 3c 50 65 b8 ae 79 51 5b 3c 0a 91 d5 3b
       0.016844604 -8.385348e-11 0.013386124 0.006517534
000040 ff 28 d4 b4 d7 79 6d 3d f2 0a 7f bb 5d 90 43 ad
       -3.9517906e-07 0.057977524 -0.0038916436 -1.1116522e-11
000050 c0 6c bb b6 cb 3e 8f a8 24 d4 e3 3c 57 77 60 b5
       -5.5856945e-06 -1.5903421e-14 0.027811117 -8.3620165e-07
000060 b2 28 80 3c 95 4d 80 b9 d9 f1 d9 bb cb c4 e3 b7
       0.015644405 -0.00024471866 -0.006651145 -2.7152148e-05
000070 87 b6 0a 3d 03 41 46 b9 25 1b 3c bc b2 ed a2 3b
       0.033865478 -0.0001890697 -0.011481081 0.004972183
000080 b3 a4 b7 3c d2 64 8b bb 17 6d 30 3c 9b 37 9a bc
       0.022417402 -0.004253962 0.010768197 -0.018825343
000090 91 d3 37 3d f2 f3 8b b2 c6 e4 97 bc 4a 45 b7 3c
       0.0448795 -1.6292663e-08 -0.018541705 0.022371907
0000a0 e8 0d 00 00 4d e2 02 00 a9 ba 06 3d 8b 74 aa 3b
       4.989e-42 2.64852e-40 0.032892857 0.0052018813
0000b0 d3 d4 3d 3d d2 f4 14 3c 52 3a 86 38 cb 75 b2 b9
       0.046345543 0.009091573 6.400481e-05 -0.00034038568
0000c0 70 5a 78 92 49 db a3 bb c0 c1 db 3c 07 47 91 3c
       -7.8366475e-28 -0.005000506 0.026825786 0.017734064
0000d0 65 38 bd 3a e6 0d 00 80 c5 e6 18 9c 61 85 b2 3c
       0.0014436363 -4.986e-42 -5.0590844e-22 0.021792116
0000e0 d5 9d 0d 3c d3 c9 9d 3c d1 94 10 3b 60 16 c2 ba
       0.008643587 0.019261276 0.0022061358 -0.0014807694
0000f0 6c 9c 7e 3c 0a ec 40 bc ab 1b 54 ba 64 38 4d b5
       0.015540224 -0.011775026 -0.0008091281 -7.645051e-07

fc3.weight f4 [10, 64]
000000 de 6c 8c bd 9f 33 77 b7 58 29 6e 3e 34 54 73 37
       -0.06856702 -1.4734366e-05 0.23257959 1.4503534e-05
000010 de 0f 5e bd 50 a7 b3 bc e3 ca 28 bd 44 e8 45 3e
       -0.05421435 -0.021930367 -0.041209113 0.19326884
000020 ab 79 8e bc dd a5 aa bd e4 f3 be bc a1 6c 20 be
       -0.017392 -0.08332417 -0.023309655 -0.15666439
000030 1b 40 80 3e 69 ed 4f 2f 9d d3 45 3e 7d c9 4e be
       0.2504891 1.8910885e-10 0.19319005 -0.20194049
000040 29 0f 15 b8 d5 7d 65 bd 25 77 de 39 ba f7 fc a8
       -3.5538487e-05 -0.056028206 0.0004243191 -2.8085054e-14
000050 10 1b c8 b4 ac a7 ee 27 ff 71 14 3e 02 52 8e 36
       -3.7272594e-07 6.624006e-15 0.14496611 4.2414767e-06
000060 95 4f 23 be 79 ad 83 b8 61 34 ec 3d c9 ca 79 38
       -0.15948327 -6.2788786e-05 0.11533428 5.9555085e-05
000070 21 3c bc bd de 02 56 bb 78 94 d6 3d 63 a5 75 be
       -0.09191156 -0.0032655518 0.10477537 -0.23988871
000080 68 b1 46 3e 3f 81 59 be 89 0a a1 bd f2 1a 3b be
       0.19403613 -0.2124071 -0.078633375 -0.18271998
000090 c1 1d 93 3d d6 d1 12 32 6e 27 bd 3d 38 a9 9c bd
       0.071834095 8.54603e-09 0.09236036 -0.076494634
0000a0 24 5d 84 92 fa 11 b1 85 c1 ed b2 bc 8a 09 25 be
       -8.353332e-28 -1.6651604e-35 -0.021841886 -0.1611692
0000b0 be 8e ba 3d ef 37 55 3b ee 0f 4e be 1f fb 2f bb
       0.09109257 0.003253456 -0.20123264 -0.002685256
0000c0 9d 66 ca 33 8b 08 ff bc 3c 2f 38 bd 68 fc 72 3e
       9.425023e-08 -0.031132003 -0.04496692 0.23729098
0000d0 2a 9f 54 bc 80 45 12 2a 30 8c 20 21 c1 fc ca bd
       -0.012977401 1.2991518e-13 5.4395645e-19 -0.0991149
0000e0 a5 e2 26 be 8f 35 e9 3c 0a f9 e6 bd 6e d1 7b 3e
       -0.16297396 0.028467922 -0.11277969 0.2459161
0000f0 d8 0f 38 3e 2c 5a 1d be 4b f2 dd bd 0d a0 e7 b2
       0.17974794 -0.15366429 -0.10837229 -2.6964722e-08
000100 76 7e 5e 3d bf 04 e7 37 27 6a 31 be 72 bb 7f 35
       0.05431982 2.7539556e-05 -0.1732565 9.526767e-07
000110 2c 38 09 3e a3 c6 0b bd f2 6e ec bd 55 e3 83 be
       0.13400334 -0.03412498 -0.11544599 -0.25759378
000120 70 f8 fb bd 40 f4 16 bb 90 d2 3e bd 57 c0 1e 3e
       -0.12303245 -0.0023033768 -0.046587527 0.1550306
000130 01 90 dc bc ff 26 14 2f 68 46 fc bc 88 9a a2 bc
       -0.026924135 1.3474376e-10 -0.030795291 -0.019849077
000140 49 a5 e8 35 08 d6 a5 3e 82 86 ac bc eb fd 14 2b
       1.7333451e-06 0.32389855 -0.021060232 5.2932544e-13
000150 73 1d 84 b8 ea 72 85 28 e9 3c cc 3d d3 ba d2 37
       -6.299736e-05 1.4815802e-14 0.09972555 2.5120948e-05
000160 c5 18 6e 3d 25 f5 cc b9 e1 53 22 be ca 7d 50 38
       0.05812909 -0.0003909256 -0.1585231 4.9708215e-05
000170 61 e6 e6 3d 05 d2 1b 3c ea 23 5a bd 68 43 89 3d
       0.1127441 0.009510522 -0.053256907 0.0670231
000180 8c 42 00 bd 35 b1 12 be 9f b0 81 3d bd c2 6d be
       -0.031313464 -0.14325412 0.06332516 -0.23218818
000190 c3 1b d0 3d 56 66 e5 33 ca 85 68 be dd ed 66 3e
       0.10161545 1.0682258e-07 -0.22707286 0.22551675
0001a0 5b 0c 9e 9a a9 2b 6e 0b 7a cb c7 3e 37 86 eb bd
       -6.536723e-23 4.586998e-32 0.39022428 -0.11500209
0001b0 c4 f3 5e 3e 96 f9 1c bd aa 1a 57 bd 18 4c 11 3a
       0.21772677 -0.03832396 -0.052515663 0.000554265
0001c0 38 28 3f b7 ce 4a 27 bd 63 0a 50 3d f1 c6 15 3c
       -1.1393851e-05 -0.040842824 0.050791156 0.00914167
0001d0 6e 24 8f bb 6e 59 23 0a 78 1b 21 1b 11 63 1f 3e
       -0.0043683564 7.8649844e-33 1.3326483e-22 0.15565135
0001e0 75 93 c0 3d 4b 5e b2 3d 37 ce 81 3e 7d ee 14 be
       0.09403125 0.08709391 0.25352642 -0.14544101
0001f0 36 a1 be 3c 05 dc 98 bd ed a0 58 bb 56 82 a3 ad
       0.02327023 -0.074638404 -0.0033054904 -1.8588835e-11
000200 6b 08 d1 bd 64 19 2a b8 3d 09 be 3c e3 03 c7 37
       -0.10206684 -4.0554805e-05 0.023197765 2.3724459e-05
000210 91 8e b7 3d 2e 2c ae 3c d9 49 48 3e 50 c5 f8 bd
       0.08962739 0.0212613 0.1955942 -0.121470094
000220 67 2c 7b bc 85 c7 97 bd fc 8f 12 3d 4a 73 98 3d
       -0.015330411 -0.07411102 0.035781845 0.07443865
000230 e8 7f 28 3e 22 a2 43 ae b2 93 49 be a5 eb 85 be
       0.16455042 -4.448187e-11 -0.19685248 -0.26156345
000240 52 30 e3 b6 13 fd 59 3d 7d 94 3f 3b 8a af a3 ac
       -6.7707524e-06 0.053219866 0.0029232793 -4.6522274e-12
000250 b3 37 a3 b5 2e 14 76 a9 67 5e a1 3d da 99 b3 b7
       -1.2160657e-06 -5.4640476e-14 0.07879334 -2.1410106e-05
000260 82 51 2b be 27 4e a1 39 7d d5 5c 3d 32 65 82 ba
       -0.16730312 0.0003076654 0.053914536 -0.0009948371
000270 7d b2 50 be f1 6b f7 3a c5 c2 4e 3e d2 fe 61 3e
       -0.20380588 0.0018876774 0.20191486 0.22069862
000280 62 a1 88 be e9 64 6c be 5c a0 05 3e cc 36 03 bc
       -0.26685625 -0.23085369 0.13049453 -0.00800867
000290 57 c5 b6 be 4d 7c 7b 32 af fa f3 3b 9f d0 c5 3d
       -0.35697433 1.4638386e-08 0.0074456553 0.09658932
0002a0 87 24 24 b4 19 b8 6d 8a a6 4c e9 bc 14 44 a9 3c
       -1.5286979e-07 -1.144576e-32 -0.028478932 0.020662345
0002b0 c9 83 db bd 2f 47 5c bd 18 3d 95 bd cc 30 1b 3c
       -0.107184954 -0.053778823 -0.07287043 0.009472083
0002c0 0a dd ed b8 03 b1 54 3e 73 44 bf bd 5f 25 80 be
       -0.000113422124 0.2077065 -0.093392275 -0.25028512
0002d0 4b 95 d6 bc fc a6 0f a7 8c 41 7f a2 42 44 a8 bc
       -0.026194235 -1.993576e-15 -3.4593644e-18 -0.02054036
0002e0 7b ff 41 3e bb 45 e2 bd 59 75 73 be cc cc 3d 3e
       0.18945114 -0.11048456 -0.23775233 0.18535155
0002f0 ac 46 03 3e 1c a0 55 3d 87 d4 52 3e 1a 0c b1 b8
       0.12819928 0.052154645 0.20588885 -8.442272e-05
000300 3b 60 2e be 1f 32 49 b8 6e 8e 36 be 10 a9 ad 36
       -0.17028897 -4.7968813e-05 -0.1782777 5.1754832e-06
000310 68 73 2c 3e fa e9 8a bc 41 76 1c be 5b 29 36 3a
       0.16840899 -0.016957272 -0.15279485 0.00069489115
000320 8d 55 80 bd f1 a3 61 3e c0 dd 0c bd 60 36 65 bd
       -0.062663175 0.22035195 -0.034391165 -0.05596006
000330 e1 16 19 be db 28 38 b0 34 30 b4 bd 1f 87 c5 3b
       -0.14950134 -6.699687e-10 -0.087982565 0.0060280706
000340 55 9e 04 b7 ba da 39 be 35 4e a9 3a 02 9c cd 2d
       -7.904678e-06 -0.18149844 0.0012916984 2.3375083e-11
000350 6f b0 00 b7 25 00 af a9 9c fa 0f 3e 27 03 05 b7
       -7.670474e-06 -7.771586e-14 0.14060444 -7.928152e-06
000360 6a b6 1e be 31 a6 42 b9 e5 cb ab 3d 0a b9 cf 3a
       -0.15499273 -0.00018563193 0.08388499 0.0015847993
000370 90 02 c1 bd 79 0d 7c ba 66 9a 79 bd 88 10 08 3d
       -0.09424317 -0.00096150447 -0.06093826 0.03321889
000380 df 1f 8c bd d2 0b e3 bd 2e 36 20 3e 83 8e 1e 3e
       -0.068420164 -0.11086239 0.15645668 0.15484051
000390 6c be 58 3e 99 83 eb b1 c6 9d 33 3e 11 6d 52 bd
       0.2116639 -6.854361e-09 0.17540655 -0.051373545
0003a0 87 47 eb 32 ee 8f a0 8b 34 7c 92 3a 20 0a 36 bd
       2.7390127e-08 -6.184632e-32 0.0011175931 -0.04444325
0003b0 4a 5f 9f bd 0f 8f 39 bd de 5b 2a 3e 96 7e d7 bb
       -0.07781847 -0.045302447 0.16636607 -0.0065763695
0003c0 14 b0 83 ba 40 f7 35 be ba cd 4b be 93 44 c0 bd
       -0.0010046982 -0.177701 -0.19902697 -0.093880795
0003d0 83 77 b7 3d eb e7 18 a7 13 be 5f ba 04 90 17 bc
       0.08958342 -2.121996e-15 -0.0008535098 -0.009250645
0003e0 f0 e3 17 bd fb a8 9e bc 75 27 1c 3e 2e c9 0f be
       -0.037082613 -0.019367686 0.15249427 -0.14041588
0003f0 37 58 99 bd 52 25 66 3e fd 2c 6f bd dc 96 20 37
       -0.07487529 0.22475174 -0.058392514 9.571868e-06

fc3.bias f4 [10]
000000 8a 1b c8 3c b4 95 a4 3d 80 29 23 bd 9c 8f 9c bc
       0.024427194 0.08036366 -0.0398345 -0.019111447
000010 26 ec f3 bb 66 3e 5e bb ca 8d b1 bc ab 1a ae 3c
       -0.0074439226 -0.0033911704 -0.021674056 0.02125295
000020 98 60 10 bc c0 27 40 bc
       -0.008812092 -0.011728227
