models/trained/ConvNet3_5.pt (torch, 437732 bytes, 8 tensors)

conv1.weight f4 [16, 1, 3, 3]
00000000: 1b34 78be 5e72 b63d d627 c23e 92b4 903e
00000010: 7128 ce3e e97e 47bd a45f a33d 7d99 bbbe
00000020: 8572 ddbe b8df b53d 7d22 92bc 3754 94be
00000030: 8d0c cd3d d639 983e bcd1 ab3e c3b6 eebd
00000040: c889 6ebd 05be 95be 7297 683e 23e3 8fbe
00000050: 103e a1be 1a8a ecbd ed3b 95be 2b17 3e3d
00000060: f103 b2be cab5 13be 1fc5 813e 1cb7 763d
00000070: 30d7 e4be a99e edbd 2261 6f3e b0db 043e
00000080: 8b0d cc3d 2abf 6abe 584b bd3e 5d9b fcbd
00000090: 5196 a03c 437a 9abd c344 673e d5f1 32bf
000000a0: d795 b43e 68f8 a63e cd5c 0abf 11c7 163e
000000b0: 7fd5 863d 5e22 78bd fb77 e63e 6bdd 833e
000000c0: 919f 7abe aa52 d03c 5cbe 273e 4d5a 6fbe
000000d0: 5fa1 ffbe f858 c0be b22f e3be 0b7d 50bf
000000e0: ac15 93bd a1d2 0f3f d614 bf3d d199 b7be
000000f0: ff5e 363c 2d4a d83e 27f1 223e 0aca 3e3f
00000100: 7d94 39be 8c1f edbe 5a53 083e 6749 12bf
00000110: 962d c5bd a98c 09bf 5067 c2be 1f13 a8bd
00000120: 2de0 8f3e 2d44 b33d 3940 91be 751b bb3d
00000130: 6c55 b03e c927 26bf 4f12 6a3b 45ea f83e
00000140: 7474 b3be 36ec e53e 5758 143e 6a96 8b3e
00000150: da75 a7be 1f76 f7be e972 09bf f851 dfbe
00000160: d35a cf39 df15 3f3e 4a62 10bf 5843 bbbe
00000170: caf0 b13e 8d04 6a3e 3f9d e83e a385 5d3e
00000180: 95f7 9b3c 6f3a f8be 5226 a2be bd81 04bf
00000190: b1c5 d1be 6c16 dc3e c160 22bd 531a 6c3c
000001a0: 1e5c d63e a280 b03c 1bca 70bc 7c53 67bd
000001b0: 732b 553e 9316 9d3e 5c9b f43c e9e5 8ebc
000001c0: cecb c73e 2702 44be 9ebd 0fbf 4d9e e3be
000001d0: 724e fd3d 0414 c63d 92c4 26be f4dc 06bf
000001e0: 82b5 443e a574 33be f366 b13e 214e a13e
000001f0: 592d fb3d a2e1 4a3d 0517 93be 59a3 74be
00000200: bca6 043f d3ca 4cbe 4cd9 c0be cae0 003e
00000210: b1d4 9e3d d0ca 59be 52d9 0c3a 7e53 7dbe
00000220: f1bb 363e 2b4f bd3e 6930 e3bd 8a36 2fbf
00000230: aebe b93e 6f1d 98be 61c5 adbe b0c5 37bf
-0.24238627 0.089085326 0.37921017 0.28262764 0.4026523 -0.048705015 0.079772264 -0.3664054
-0.43251434 0.088805616 -0.01783871 -0.289705 0.100121595 0.29731625 0.33558452 -0.11655953
-0.058236867 -0.29246536 0.22714022 -0.2810298 -0.31492662 -0.11549778 -0.29147282 0.046408813
-0.34768632 -0.14424816 0.25345704 0.06023322 -0.44695425 -0.11602528 0.23376897 0.12974429
0.099635206 -0.22924486 0.36971545 -0.12334321 0.019602926 -0.07542851 0.22584824 -0.69900256
0.3527057 0.32611394 -0.5404785 0.14724375 0.0658369 -0.06057965 0.45013413 0.25754866
-0.24474932 0.025430042 0.1638121 -0.23374291 -0.49927804 -0.37567878 -0.44372326 -0.814408
-0.07181868 0.5618077 0.09330146 -0.3585954 0.011131047 0.42244092 0.15912305 0.7452704
-0.1812305 -0.4631313 0.13313046 -0.57143253 -0.096278355 -0.53730255 -0.37969446 -0.08206772
0.2810072 0.08753238 -0.2836931 0.091360964 0.34440172 -0.6490446 0.003571648 0.48616233
-0.35049784 0.44906777 0.14486824 0.27263194 -0.327071 -0.48332307 -0.53690964 -0.43617225
0.00039549786 0.18660687 -0.5639998 -0.36574817 0.3475402 0.22853298 0.4543247 0.2163301
0.019038955 -0.4848208 -0.3166986 -0.51760465 -0.4097114 0.42985857 -0.039643053 0.014410573
0.41867155 0.021545712 -0.014696623 -0.0564761 0.20817356 0.30681285 0.029859237 -0.017443614
0.39022678 -0.19141446 -0.5614871 -0.4445671 0.12368478 0.096717864 -0.16285923 -0.526809
0.19209865 -0.17524965 0.34648857 0.3150492 0.12264509 0.049531586 -0.287285 -0.23890437
0.51816916 -0.19999246 -0.37665784 0.1258575 0.077554114 -0.21268773 0.00053729594 -0.24738881
0.17845131 0.36974463 -0.11093218 -0.68442595 0.3627829 -0.29709956 -0.3393965 -0.7178602

conv1.bias f4 [16]
00000000: 10cc bcbe e17f 2abe 4007 f13d 6cfa bbbd
00000010: d9a9 36be 8750 95be b6c9 323d afc7 32be
00000020: fd18 12be e6ee 06be 4769 5dbe 5a8b 7abe
00000030: d662 f8bd cc82 a8be 03fb d5bd aa70 99be
-0.36874437 -0.16650344 0.11768961 -0.091786236 -0.17838229 -0.29163 0.043649398 -0.17458986
-0.14267345 -0.1317707 -0.21622191 -0.24467221 -0.121282265 -0.3291229 -0.10448267 -0.29968768

conv2.weight f4 [32, 16, 3, 3]
00000000: 8d4c 08bd 4de4 cfbd 4abb 983d 4658 72bc
00000010: f989 b7be a46a 2fbe 8027 0bbe bde7 9cbc
00000020: 66db d7bd 909a de3d e2e3 8cbd 3bd2 3f3d
00000030: 2031 24be 411a f0bd 91ca 7cbc 81e3 23bd
00000040: e6c4 16be c345 dd3d 658a 07be fa3c 383d
00000050: 7430 17be 7867 b8bd 2162 143e 7ad0 0fbe
00000060: ea47 043d 9a33 f13d d3e9 9a3d 97b3 d4bd
00000070: e205 21be ffa3 c33d 568b 3bbe 546a 0cbe
00000080: addb d53d 9585 d1bd 9d75 b7bc 3e13 e73d
00000090: 2957 9abd 95df a43c 1464 853d 490d 81be
000000a0: 27ac 0d3e 204b 84bd 5cfa 94be 2b9d 373e
000000b0: 747c b93c 9fb5 c63d 6e50 c3bd 52e2 8cbe
000000c0: c3aa c43c c43c 5fbe 5b1b dfbe e300 90be
000000d0: 0199 34bd 0c53 a0bd 07ba 79be 2054 25be
000000e0: fe25 a5be 2a61 4dbd 4c6c 7a3d 3513 babd
000000f0: 3821 663d e266 e03c 7322 a23d b78f a83d
00000100: 34a2 03bd 0743 a5be bc48 9a3c 533d 853c
00000110: 09a3 b13e b940 a4bd df76 8dbe d311 903e
00000120: 8801 86bc 50aa 99be 4a99 9f3e 9015 a5bb
00000130: e42b 99bd c9e4 a33e 0c4b a0be c187 54be
00000140: e43e e43d 8196 203e c147 cf3d bd33 dabe
00000150: d25b b93d 32c7 44bd 52ed 8ebe adbc 9ebd
00000160: 08d7 01bf fe01 b9be 7199 49bd 3689 c43e
00000170: b55f c6be cd57 b8be 11e8 673e d7d2 30bf
00000180: ebca 96be fd4a 9a3e b51a a0be 93b4 b53d
00000190: 4f09 453d 2af1 64be 672c e1be 60cd 483e
000001a0: 2e8e a3be 8e3a c9be 716d 773e d119 36be
000001b0: fd84 2a3e 5250 3d3e 1f74 e6be b8b4 e23c
000001c0: 9418 503e 3b32 b8bc 9565 fe3e 5c9a 4fbd
000001d0: f88a b83d b154 80bd 3dd2 7dbe 4f6f 8ebd
000001e0: eb86 7fbe 3ae9 93be b5c8 563e 4c13 7bbe
000001f0: 0dca d9bc 4840 4a3e 46dd 853d 8cab a7bc
00000200: e2cb 50bd 94ac adbd 5fc5 5e3e bc32 23be
00000210: 56ac 38be f7ee c13e 80f4 57be 8490 aa3d
00000220: 31d2 bbbe 6e7b 18bd f0fd 20be e775 3abd
00000230: ee2b 3ebf fa31 57be 8ad7 263e cef6 67be
00000240: 3643 cdbb 43a1 323e 0b92 52bd bd4f 03be
00000250: 1015 27be 3a15 b33d 13d6 75be 1034 bdbc
00000260: 344e 473e f036 5e3e 9a3e 903e c37a eb3c
00000270: 512d cd3b d8d9 b9bd 6113 a9bd e9a9 0abf
00000280: c70c dfbd b9ec 033e 7118 1cbe 8a5b b7be
00000290: 8e28 46bf 4b52 3cbe 8d04 5dbd 9ece eebe
000002a0: 30a9 743d f338 bebd 05e2 c8be 1748 3a3e
000002b0: 7b7f a83e 0da9 dc3d 360e 3abe 8317 a2bc
000002c0: c847 cbbd e18d d2be 176a 24be 027b 373d
000002d0: e6e7 a93d 0ecc d43d 3ff8 a83d 9168 be3d
000002e0: 4abe 8b3d 2d29 663e 7b54 03be e4ca 983e
000002f0: 376c 063e aa43 d43e cb40 eb3e f793 4ebe
00000300: 3035 8e3e ac98 be3d 9b3d e9be abe1 e43d
00000310: a51e 8fbe 46f4 5dbd e727 903e 5e58 ee3d
00000320: bb2b 14bd 9c69 a0be 5e85 f5be 6471 62bf
00000330: 3887 90be 31aa 97be 0ec6 c4be ae45 bfbe
00000340: b883 e1be 1449 76bf 5a2f f2bd 6a03 b0be
00000350: ca21 88bf 39ee 63bd b651 59bd 1ef5 033f
00000360: c5a9 6fbb 649f 20be 9a43 74be 2c42 603d
00000370: e9fa a8be c6d3 e0bd 9ee9 eabe f378 c3be
00000380: b034 563e 6ea7 d63d f386 3c3e 32f3 d6be
00000390: 4a8d 703d 6376 c13d 9a3c bebe 8329 2c3e
000003a0: d73d 553b 07b0 3ebe 71fb c83d 9d59 883e
000003b0: abe9 973e 1126 9bbe c666 2fbe 8880 a1be
000003c0: f4e6 32bf 5d95 a53e 9c95 f63e e11c 2fbd
000003d0: de95 6ebc 7d2e 023e df28 c0be 50da 5dbe
000003e0: 8047 9039 12cd 4ebe d0a7 973e d502 8f3e
000003f0: 7362 a33d 67e4 c93d 30ea f13d 6373 613e
-0.03327613 -0.10150967 0.074575976 -0.014791554 -0.35847452 -0.17130524 -0.13589287 -0.01915347
-0.10539894 0.10869324 -0.06879403 0.04683135 -0.16034365 -0.117237575 -0.015429155 -0.040011887
-0.14723548 0.108043216 -0.13236387 0.044980027 -0.14764577 -0.0900411 0.14490558 -0.14044371
0.032295145 0.1177742 0.0756413 -0.103858165 -0.157249 0.09552764 -0.18314871 -0.13712436
0.104422905 -0.10230557 -0.02239495 0.11282967 -0.07536156 0.020126143 0.06513229 -0.25205448
0.13835202 -0.064596415 -0.2909726 0.17931049 0.022642352 0.0970261 -0.09536825 -0.2751642
0.024007207 -0.21800524 -0.43575558 -0.28125677 -0.04409123 -0.0782834 -0.2438737 -0.16145372
-0.32255548 -0.05014149 0.061138436 -0.09085695 0.056184024 0.027392808 0.07916727 0.082305364
-0.03213711 -0.322777 0.01883351 0.016264593 0.34694698 -0.08020157 -0.27629754 0.281386
-0.016358152 -0.3001275 0.31171638 -0.005037971 -0.074790746 0.32010487 -0.31307256 -0.20754911
0.11144808 0.15682413 0.10121108 -0.42617598 0.090507165 -0.04804153 -0.27915436 -0.07750831
-0.50718737 -0.36134332 -0.0492186 0.38385934 -0.38744894 -0.36004487 0.2264712 -0.69071716
-0.2945169 0.30135337 -0.31270376 0.088723324 0.04810458 -0.22357622 -0.4397919 0.19609594
-0.31944412 -0.39302486 0.24162842 -0.17783286 0.16652294 0.18487671 -0.45010468 0.027674064
0.20321876 -0.02248489 0.49686876 -0.050684318 0.09010881 -0.062661536 -0.24787231 -0.06954824
-0.24953811 -0.28888875 0.20975001 -0.2451908 -0.026585603 0.19751084 0.06536345 -0.020467542
-0.050975688 -0.08480182 0.21754979 -0.15937322 -0.18034491 0.37877628 -0.21089363 0.083283454
-0.366838 -0.037227087 -0.1572187 -0.045522597 -0.7428578 -0.21015158 0.16293159 -0.22652742
-0.0062641157 0.17444329 -0.05140881 -0.12823386 -0.16316628 0.08744283 -0.24007444 -0.023096114
0.19463426 0.21700644 0.2817276 0.02874506 0.0062615057 -0.090747535 -0.08255649 -0.5416551
-0.10891109 0.12883271 -0.15243699 -0.35812026 -0.7740563 -0.18390767 -0.053959418 -0.4664201
0.059731662 -0.09288206 -0.3923494 0.18191563 0.3290976 0.107744314 -0.18169484 -0.019786602
-0.099258006 -0.4112387 -0.16056095 0.044795044 0.08296184 0.10390483 0.08250474 0.09297288
0.06823404 0.22476645 -0.12825195 0.29842293 0.13127218 0.41457874 0.4594787 -0.20173632
0.27774954 0.093064636 -0.45554814 0.11175855 -0.27953067 -0.054188035 0.28155443 0.116379485
-0.036174517 -0.31330574 -0.47953314 -0.8845427 -0.28228164 -0.29622033 -0.38432354 -0.3735785
-0.44045806 -0.9620526 -0.11825438 -0.34377605 -1.0635312 -0.05564711 -0.05305644 0.51545894
-0.0036569696 -0.15685803 -0.23853913 0.054750606 -0.3300393 -0.109778926 -0.4588136 -0.38178214
0.20918536 0.104811534 0.18410854 -0.41982418 0.058728494 0.094464086 -0.3715561 0.1681271
0.003253808 -0.18621837 0.09813584 0.2663087 0.29670462 -0.3030248 -0.17129049 -0.31543374
-0.69883657 0.32340518 0.48161018 -0.04275215 -0.014562098 0.12713046 -0.37531182 -0.21665311
0.00027519092 -0.20195416 0.29620218 0.27931848 0.07977762 0.098580174 0.11812246 0.22016673

conv2.bias f4 [32]
00000000: 38f8 12bc 2bb9 7abd 0bab d5bc 13ca a4bc
00000010: cda5 d3bc 06f6 27be f5c7 bdbd 2336 8cbd
00000020: 7c00 07be b23e e9bd 3b40 1fbe a5bc 98bd
00000030: fb2d 64bd 988b 02be 3edb d73c 4989 26be
00000040: aae7 633c dadb 05be 6347 4c3b e810 bcbd
00000050: a822 37be e4ae 83bd e1f0 f7bd 5b71 16bb
00000060: 829c 8839 645b b03d 07fa c93c 4def be3c
00000070: 0bbb 99bc 8c81 873d b645 8bbc 79f3 ab3d
-0.008970313 -0.061211746 -0.026082536 -0.020115888 -0.025835896 -0.16402444 -0.092666544 -0.06846263
-0.13183779 -0.11388911 -0.15551846 -0.07457856 -0.055707913 -0.12748563 0.02634966 -0.16263308
0.0139102135 -0.13072148 0.003117048 -0.09182912 -0.17884314 -0.06429842 -0.12106491 -0.0022955749
0.0002605655 0.086111814 0.024655355 0.023307467 -0.018765947 0.06616506 -0.017001014 0.08396048

fc1.weight f4 [128, 800]
00000000: fbe9 c13d d771 d5bd 434c 1bbd a3aa 0dbd
00000010: deeb 62be 5f07 8b3d 82b9 03be 53a5 26bc
00000020: 24a4 5abd 8d14 bf3d 0031 033d 8204 b03d
00000030: a8f6 1e3e 0616 f63c 31be 053e f489 bcbd
00000040: bef5 b23d a8d9 123d edc0 ecbd cc5e 103d
00000050: 7897 0d3d 89c6 963d c5ee 523d 9ffe c33d
00000060: fc84 fd3c 7612 adbc 5d4a bbbd 046d 413e
00000070: af0c 0e3e 25ce cabb 90a4 e63d ce81 f4bc
00000080: f3d8 8bbb 862d a43c c56d 433d 6d96 a53d
00000090: ce1c 4cbc f298 f53c df43 9fbc 932d 283e
000000a0: 4029 b23d 9fb8 60ba 192f 7c3d 16ca 06be
000000b0: f47e b7bd 867c 183d 010c 933d fa32 0f3e
000000c0: b36d ffbd a8b1 0cbe deb2 42be a3ac bdbe
000000d0: 54fc aabe 7283 97bc 35d9 1d3e 4a77 103d
000000e0: 02b5 0dbc c1a1 7f3c 94bc 063e 1850 97bc
000000f0: 35e1 8cbd a3b0 e5bd b681 7e3c 952d 0e3d
00000100: df4d 5ebd 96ca 06be 1101 e0bd d5b6 ed3c
00000110: bed6 cebd e8a6 88be a8e3 c33c 5ed8 09bd
00000120: 0e4e 4ebd 99cc 5fbe 2267 80be f6d1 febc
00000130: 69b8 5d3c 21c2 f73d 2d99 f3bc 12ed a4bd
00000140: 6b17 a4bb c021 bcbb 78bc 45bd 809f 4d3d
00000150: c257 d8bd 9e56 3e3d 4646 2bbd 970d 0abd
00000160: 134a b53d 864c 2cbd b54f e8bc c790 f33c
00000170: 60f1 573d 218a 4f3c 8487 c43d f3d0 0c3d
00000180: 9e7d e4bd b9b9 07be 8f20 62bd 4051 bc3d
00000190: 32ab a8bb 6136 01be da26 113d e25c 383e
000001a0: 978c 9a3e f25d 9fbd ad8a b5bc 68fc 5ebe
000001b0: cf33 58be 64d9 2c3d 1a3c d5bd 8ce7 d9bd
000001c0: 1e63 aebe ae5a 34bd a10c 48bd 8a1b 503d
000001d0: 7200 38be 1b76 efbe 49a2 74bd 6687 4c3d
000001e0: ce0e 533d 6108 69bd 5d61 74bd 7412 773d
000001f0: 098f 1fbc dcd7 7cbd 4ecd 46bd 7710 983b
00000200: 58ae 48bc eb52 f7bb cfe8 fe3d b84c 32bd
00000210: 9661 e63d 5056 5a3e 2dc3 c13c 93b2 7fbd
00000220: 23b8 ae3d 7d31 eb3d b9ed 903d 297a 7f3d
00000230: 2113 a2bd b8bf 4c3d a60c 223b 0ab7 573b
00000240: 9dc0 143c cfd5 1bbd 817f b83d c2ae d33d
00000250: 162c 843c 3b46 1cbe a5ed 9f3d 5d77 183d
00000260: 8c10 a43d 0916 98bd 5a11 e2bd 317b 8e3d
00000270: dce4 8abe 6fed 6ebe 8cf3 03be 04f3 b2bd
00000280: ee49 763d 7e3e 90be eae5 48be 721f d33d
00000290: 03c0 39bd 1b8b 68be a835 2ebe c4dc 8abd
000002a0: 0b9c da3d 6fe0 f8bd d54b bcbd 79d8 c8bd
000002b0: 5784 83bd 4f6e 2bbe 35d8 a5be a414 43bd
000002c0: 85c6 f4bc 3cec 6a3d 5acd 403e dfd9 7a3e
000002d0: 0a94 10bd 674c 103c 853b 0e3d bf94 9f3d
000002e0: 3bd0 1d3e 0118 74bc 32f9 d23c 9eb6 333b
000002f0: 5e0e 92bd fa57 dc3c 9de8 a0bd 1835 9a3c
00000300: f5b3 7bbc aa02 283c 6870 c5bc 3132 123d
00000310: e85a c5ba cf8a febc f34e 91bd b393 c73c
00000320: c78e 31bc 5992 b838 f280 7abd a0d1 95bd
00000330: bca0 59be 01a7 753d 92f6 a13d 3f9b cdbd
00000340: d854 8fbd 6246 c3bc 75a3 8c3d 84ca a23d
00000350: c26c 063e 76a1 f3bc 1f26 90bc 4420 673c
00000360: 56b4 3a3e 2d9e df3d 47a5 52bd 15bb 963d
00000370: 7b29 7bbd 50f0 21bd 1cc8 e73c cc20 603e
00000380: 8dba 6a3e 676b 54bd c607 4fbe 2719 cd3c
00000390: f0a9 fa3d f00b 023e c26a 24bc 45c1 413d
000003a0: 358f d33d 6022 fc3d a254 283e 19d6 23be
000003b0: 4f48 aa3d 6e64 973d cd79 283c c7f8 c03c
000003c0: 2fd9 0abe fb2c 613d 1040 013c 0015 a3bd
000003d0: 5792 01be 7670 77bd ddd7 4c3b 1234 b6bd
000003e0: 5e12 d6bd 1fc5 fbbc 54bc 47be fe3e 0bbe
000003f0: 3fe2 d5bc f9b7 633d 90d4 7bbd 9526 3e3d
0.09468456 -0.10422104 -0.037914526 -0.03458656 -0.22160289 0.06788515 -0.12863734 -0.010171252
-0.053379193 0.093300916 0.032029152 0.0859461 0.1552378 0.030039798 0.13060834 -0.09206
0.08738278 0.035852104 -0.11560235 0.035246655 0.03456828 0.07362086 0.05149724 0.095700495
0.030947201 -0.021126967 -0.09145043 0.18889242 0.13872026 -0.006189125 0.112618566 -0.029847052
-0.0042678057 0.020041239 0.047712106 0.08085332 -0.012458039 0.029980157 -0.019441543 0.16423635
0.08699274 -0.00085724326 0.061568353 -0.13163027 -0.08959761 0.03722813 0.07180024 0.1398429
-0.12472095 -0.13739645 -0.19013545 -0.37045774 -0.33395636 -0.018495295 0.15414889 0.035270013
-0.008649113 0.01560253 0.13157874 -0.018470809 -0.06878892 -0.112153314 0.015533855 0.03471144
-0.054273482 -0.13163218 -0.109377034 0.029017845 -0.100995526 -0.2668984 0.023912266 -0.03365361
-0.050367408 -0.21855392 -0.25078684 -0.031105977 0.013532736 0.12097574 -0.029736126 -0.0805303
-0.0050076745 -0.005741328 -0.04827544 0.05020094 -0.105636135 0.046469323 -0.041815065 -0.033704367
0.08852019 -0.042065166 -0.02835832 0.029732121 0.052720428 0.01266721 0.0959616 0.034378957
-0.11156772 -0.13254441 -0.05520683 0.09195185 -0.005147361 -0.126184 0.035437442 0.18004182
0.30185387 -0.077815905 -0.022160852 -0.21775973 -0.21113513 0.042199507 -0.10411854 -0.10639867
-0.34059995 -0.04403179 -0.04884017 0.050807513 -0.1796892 -0.46769795 -0.05972508 0.049933814
0.05152779 -0.056892756 -0.059663165 0.060320333 -0.009738692 -0.061729297 -0.048535638 0.0046406346
-0.012248598 -0.0075477264 0.124467485 -0.043530196 0.11249082 0.21321988 0.023652637 -0.06242616
0.08531215 0.114840485 0.07076592 0.06237236 -0.07913805 0.049987525 0.0024726777 0.0032915496
0.009079126 -0.0380457 0.090086944 0.10336067 0.016134303 -0.15261166 0.07808999 0.03722321
0.080109686 -0.07426078 -0.11038466 0.06957091 -0.2712773 -0.23332761 -0.12885875 -0.08737758
0.0601291 -0.28172678 -0.19618955 0.10308732 -0.045349132 -0.22709315 -0.17012656 -0.06780389
0.10674294 -0.12152182 -0.09194151 -0.09806914 -0.06421726 -0.16741298 -0.32391515 -0.047627106
-0.029879818 0.057354197 0.18828335 0.24497174 -0.03529743 0.008807278 0.03472473 0.07792043
0.15411465 -0.014898301 0.025753591 0.002742208 -0.071316466 0.02689742 -0.078568675 0.018824145
-0.015362729 0.010254541 -0.024101451 0.035692398 -0.0015056999 -0.031072048 -0.070951365 0.02436242
-0.010837263 8.801063e-05 -0.061158128 -0.073153734 -0.21252722 0.05997372 0.07908358 -0.100393765
-0.069986045 -0.023837272 0.068671145 0.07948783 0.13127425 -0.029740077 -0.017596303 0.014106814
0.18232855 0.109188415 -0.051427152 0.07359902 -0.061318856 -0.03953582 0.028293662 0.21887511
0.22922726 -0.05186024 -0.20217809 0.025036408 0.12239444 0.12699866 -0.010035219 0.047303457
0.10330049 0.12311244 0.16438535 -0.1599964 0.08314573 0.07392202 0.010282946 0.023556126
-0.13559411 0.054974537 0.007888809 -0.0796299 -0.1265348 -0.060409985 0.0031256594 -0.088966504
-0.10452722 -0.030733643 -0.19505435 -0.13598248 -0.02610886 0.055595372 -0.061482012 0.046423513

fc1.bias f4 [128]
00000000: 8165 47bd d075 ef3d fa1f be3c 6de3 9aba
00000010: 150b 0ebd 7091 e6bc 8867 f73c d88f 3cbc
00000020: 70c9 81bd e234 6dbd f00b 80bd 308d 70bd
00000030: ebe2 0f3e 4a0c bfbd a47d 9ebc f473 323d
00000040: b885 3dbd 80e8 4dbc 66e0 d2bc a15f 47bd
00000050: 6ff0 cfbb 5633 58bd 1461 72bd 892e 603d
00000060: 8efa 723c 1b90 58bd c227 283d 4053 93bc
00000070: dc28 1ebd 08c6 9a3a 40f3 e03a c889 0e3c
00000080: 197d 1fbc cd8d 4bbd 8ace 19bd 8ff7 5dbc
00000090: 752b 613c 833b 4fbc 5e90 873d 4e96 5f3c
000000a0: b437 053d 5c34 12bd 28d5 5bbd 0816 9a3c
000000b0: 7ded 0cbd 4c04 11bd dd64 26bd 17b5 163c
000000c0: e0d8 243c 019d a6bc be35 75bd 73e9 1ebc
000000d0: dccc 77bd 25b6 abbc 8784 7a3c a15f a3bd
000000e0: f9a0 08bd 8ffe 5abd 2518 283e e3ad 153c
000000f0: 6cff 003d 66ce 373d e7d1 a43c fd8d 67bd
00000100: 7b1b 80ba c6c4 30bc b307 12bd d981 62bd
00000110: 87f5 37bd 2ebe 103b 76c5 153c 5d34 b93d
00000120: ac06 adbb b49b 86bc 6d6c 20bd f536 403d
00000130: 9433 c23b 5ba6 2ebd 6534 d8bc 14bc bdbc
00000140: 8e73 58bc 6693 b7bd fb7a 173d 92d8 543d
00000150: aa71 4abd 8c32 4bbd ed98 8dbd ed2b 61bd
00000160: f738 673d 9ccd 18bd fa67 28bd 4596 cbbc
00000170: 6f2b d5bc 536c ebbc 4ce5 10bd 41c1 fe3c
00000180: 836b f83b 8623 d6bb 5829 033e 212e 83bd
00000190: 025b 93bc fb54 ccbc e04b cbba ff41 113b
000001a0: 4a8f 55bd 0d4c 6fbd d179 cb3d c2ed 45bc
000001b0: c345 cdbc df7a f8bc 4e1b 34bc edfc 12bd
000001c0: 95b8 1d3c d98b 25bd 3b69 2cbd bcb5 1d3d
000001d0: 9632 72bd 26f9 debc 68c2 023d f839 5b3d
000001e0: f20c a7bd 2d60 803b fb31 19bd 1ac6 9f3b
000001f0: 4ce1 cabc 07b3 32bc b1d8 1b3c dae9 173c
-0.048680786 0.11692393 0.023208607 -0.0011817046 -0.034678537 -0.028145522 0.030200735 -0.011508904
-0.06337249 -0.05791176 -0.06252277 -0.058728397 0.14051406 -0.09328516 -0.01934702 0.043567613
-0.046270102 -0.012567639 -0.025741767 -0.048675183 -0.0063458006 -0.052783333 -0.059174612 0.05473188
0.014830245 -0.052871805 0.04105354 -0.017984033 -0.038613185 0.0011808285 0.0017162338 0.008699842
-0.009734415 -0.04969578 -0.037550487 -0.013547792 0.013743271 -0.012648466 0.06619333 0.013646675
0.032523826 -0.035694465 -0.05367008 0.018809333 -0.034406174 -0.03540449 -0.040623534 0.009198449
0.010061473 -0.020338537 -0.059865706 -0.009699213 -0.060498103 -0.020960877 0.015290386 -0.07977224
-0.03335664 -0.053465422 0.1641546 0.009135696 0.03149359 0.04487457 0.02011962 -0.056531895
-0.0009773815 -0.010789102 -0.035651874 -0.055299614 -0.044911887 0.0022086012 0.009141317 0.09043191
-0.0052803364 -0.016431667 -0.039165903 0.04692741 0.0059265587 -0.042639118 -0.026392171 -0.023160972
-0.013211144 -0.08963661 0.036982518 0.05196435 -0.049424805 -0.049608752 -0.06913934 -0.05497353
0.05645081 -0.03730546 -0.041114785 -0.024851928 -0.026021687 -0.028738176 -0.035374925 0.03109801
0.007581176 -0.0065349964 0.1280874 -0.06405283 -0.017987732 -0.024942866 -0.0015510283 0.002216458
-0.052138604 -0.058422137 0.09935344 -0.012080612 -0.025057679 -0.030332027 -0.010992838 -0.03588574
0.009626527 -0.040416572 -0.042092543 0.038503394 -0.059130274 -0.027218413 0.03192368 0.05352208
-0.08156766 0.003917715 -0.03740118 0.0048759105 -0.024765633 -0.010906941 0.0095121125 0.009272063

fc2.weight f4 [10, 128]
00000000: b098 0b3e 11de 51be 392d 213e f1a7 843c
00000010: c34e d53c 751a afbc b00d 713e 5d3c 513c
00000020: 8ba9 9dbe 4dc4 a7bc 3585 73be a364 143c
00000030: 8611 5d3e 18fd 3cbe 438c 8cbc 84e0 9abb
00000040: 9ddf ce3c a636 993c a56e cf3d 25f8 283d
00000050: 3c47 da3a eada 833c f6ca ebbd 7d55 b33b
00000060: 07ea a2bd 7fe0 793d 92ef fd3b 83b7 07bd
00000070: 8889 1d3d 4f51 243c f0ee 83be e26f 6abe
00000080: 6464 1c3d 48f4 e83b 2970 99bb 1ba3 56bd
00000090: 45dc 7f3d aae9 913d 3159 3e3e 724b 12be
000000a0: 5673 3dbd 24f4 923d f031 b2bc 7ec7 14be
000000b0: 40e5 193e 5c09 babd 13e7 1bbd 3ada 8a3d
000000c0: a23a 303e 5c3f acbc 057c 773d edab 5cbd
000000d0: 7e37 92bb 4220 17bd f156 da3d 73b6 64bd
000000e0: 7364 b9bb 58d4 483d c462 9f3e 23a1 d43d
000000f0: a88e c63d 5ee9 2dbe d414 15be 6170 0ebd
00000100: 06a5 753d 7f6d 693d ca48 253b c6f8 64bd
00000110: abd7 503d be69 b6bd d0d4 fe3d 5452 18be
00000120: 30ff b7bd 985d 313c 4303 24bd 6092 ba3d
00000130: ba99 70be bb0a 463d 51ef 233d 68fa 2d3d
00000140: 4ff5 50bd 0ab3 a83c 86ba 31bc 9734 ab3c
00000150: 93cd f33c c8e2 983b 0779 84bc 2331 a2bd
00000160: 82a7 19be 7e6c 003d a9ff 82bd 5ed0 5e3d
00000170: 0f16 883c 58e1 10be 9790 053d 7641 d73d
00000180: 7912 493d 6627 b9bc a514 cb3d 4ba1 2b3d
00000190: b9cb 4ebe 8323 78bd 7a91 3abd 47a2 b63d
000001a0: dd21 9ebd 014f 023d 058d a6be 5bc0 933d
000001b0: 494f 25be b655 7bbc 9ce4 63bd 986b 853d
000001c0: 9488 f7bc 235c 103c fec4 b6bc c7d5 4b3e
000001d0: 3014 733d 91d6 c4bd 0a33 30be cb78 51bd
000001e0: f52d 02be a78e b23c 4a89 bdbd 7081 fb3c
000001f0: cc4a 10be 33e2 29bc 6cc3 97bc 06c4 933d
00000200: 0bb1 3dbd a23a aa3d 81b9 5ebe 8290 573d
00000210: a160 173d b231 2dbb 8e70 d43d 0d85 59bd
00000220: 0cc7 c9bd 4ccd f83c 4db7 41be f0f3 903c
00000230: c3f7 403e fb8a d9bc ae9b a33d 266d 913d
00000240: 5a93 e43c fe8f 693d 8752 8dbd 12fc 1e3c
00000250: 5b5e 59bd 8b8f 33bd d854 30bd e926 d83d
00000260: c26f d73d 5cda 7abe 6fb5 8f3b 3204 aabd
00000270: 91dd 0f3c 0bcf aabb 2976 be3d 6b50 1a3e
00000280: f4e2 6ebd 22ec 673d e30c 98bd b1df e13c
00000290: fb0d 0cbc 4d59 91bc 2701 153e 4214 853c
000002a0: 93ed 133e 08a2 8dbe fdb3 cd3c cabc c13d
000002b0: 32ad cdbd a36c 8f3d d309 b0ba 1d91 c6bd
000002c0: 5460 a6bd 83a5 81bd 107f 5bbd 2752 05be
000002d0: 535c 4dbe b2af 68bc 7ca3 39be f75d 42be
000002e0: 831e 03be 4f16 e1bc 8ef3 d73e 746d 0abe
000002f0: 2f64 863d 3949 123e db4a 233d 158b 513d
00000300: 97ff 823c 089a a4bb 82d4 843c 1304 9fbd
00000310: 473f 08bd d5b1 2abc eb24 28be abad 683e
00000320: 3a73 b4bd 0fd6 373d 5a7a c3bd a915 103e
00000330: 182f 2b3e 28e2 3bbd 7aad 21bd c558 5bbe
00000340: e0db b23d 69d4 85bd 276a 903d d4c0 4e3e
00000350: 9840 a83a 1302 fabc a23e 46be 6e58 5f3d
00000360: 98a4 183d 7109 f0bd 47ba b4bd cf1d 423d
00000370: fc50 543d 1a58 07bd e368 12bd aa7d 60bd
00000380: 9a2c 033d 9131 31bc 297a 0b3e 67c7 b1bc
00000390: f604 163d 6913 0cbd ed60 b4bc d24e 27be
000003a0: 41d3 8abd d709 17bc b5b3 873e 932f 8bbe
000003b0: 0ceb 863d 414c adbd 57e9 8dbd 9551 473d
000003c0: 2fd1 84bd 0f02 5cbd 2868 c93c eb5f a33d
000003d0: 8714 8cbd c777 0d3c b270 9d3d 2902 b13d
000003e0: c270 273c 52f5 1abc 6479 3f3b 21f4 f0bd
000003f0: b3de 12be 0bf0 c2bd 754d 76bd 5fd6 91be
0.13632464 -0.20494868 0.15739907 0.016193362 0.026038533 -0.02137492 0.23540378 0.012770739
-0.30793414 -0.020479346 -0.23781283 0.009057197 0.21588716 -0.18455923 -0.017156726 -0.0047264714
0.025253111 0.018702816 0.10128526 0.041252274 0.001665331 0.016095597 -0.11513321 0.0054728375
-0.079547934 0.06100511 0.0077495063 -0.033133995 0.03846124 0.010029151 -0.25768232 -0.22894242
0.038181677 0.0071091987 -0.00468256 -0.052401643 0.062465925 0.07124646 0.18588711 -0.14286593
-0.04625257 0.071754724 -0.021752328 -0.14529225 0.15028858 -0.090838164 -0.038062166 0.06779905
0.17209867 -0.021026306 0.06042101 -0.0538749 -0.0044621816 -0.036895998 0.10661114 -0.05583806
-0.0056577264 0.04903063 0.3113004 0.10382297 0.09695178 -0.16983554 -0.14558727 -0.03477514
0.05997183 0.05698919 0.0025220388 -0.05590131 0.050986927 -0.089068875 0.124429345 -0.14875156
-0.0898422 0.010825537 -0.040042173 0.0910995 -0.23496142 0.048350077 0.04002315 0.042475134
-0.051015195 0.020593185 -0.010847693 0.0208991 0.029761111 0.0046657063 -0.016170992 -0.07919528
-0.15005305 0.031353466 -0.063964196 0.054397933 0.01661208 -0.14148462 0.032608595 0.105105326
0.049089883 -0.022601794 0.09916047 0.041901868 -0.20194902 -0.06058074 -0.045548894 0.08917671
-0.07721303 0.031813625 -0.32529464 0.07214423 -0.16143526 -0.015340259 -0.05563794 0.065146625
-0.030216493 0.00881103 -0.02231073 0.19905768 0.059345424 -0.09611238 -0.1720697 -0.051140588
-0.12712844 0.021796538 -0.092547014 0.030701369 -0.14091033 -0.0103688715 -0.018525802 0.07215123
-0.04631142 0.083119646 -0.21750452 0.052628048 0.036957387 -0.0026427326 0.103730306 -0.053105403
-0.09852418 0.03037133 -0.1891758 0.017694443 0.18844514 -0.026555529 0.07988678 0.071008965
0.027902294 0.057022087 -0.069005065 0.009703653 -0.0530685 -0.043838065 -0.043049663 0.105542965
0.10519363 -0.2449736 0.0043856422 -0.083015814 0.008780853 -0.0052126697 0.09299881 0.1506974
-0.058321908 0.05662168 -0.07424333 0.027572485 -0.008548255 -0.017742777 0.14551221 0.016245011
0.14446096 -0.27662683 0.02511024 0.09459837 -0.100428 0.07003143 -0.0013430662 -0.09695647
-0.08123842 -0.06330397 -0.053587973 -0.1301962 -0.2005475 -0.014202045 -0.1812877 -0.18981157
-0.12804608 -0.027476458 0.42178005 -0.13518316 0.06562077 0.14285745 0.03986631 0.05115803
0.015991015 -0.005023245 0.016214613 -0.07764449 -0.03326347 -0.010418375 -0.16420333 0.22722499
-0.0881104 0.044881877 -0.09544821 0.14070763 0.16717184 -0.045869976 -0.03947208 -0.21420582
0.08733344 -0.06534655 0.07051497 0.20190746 0.0012836633 -0.030518567 -0.1935983 0.054527692
0.037266344 -0.11720551 -0.08824592 0.04739171 0.051835045 -0.033043005 -0.03574456 -0.054807343
0.032024957 -0.01081504 0.13620819 -0.021701528 0.036625825 -0.0341982 -0.022018874 -0.16338661
-0.06778575 -0.009218655 0.26504293 -0.27184734 0.065878004 -0.0846181 -0.06929272 0.048661787
-0.06485211 -0.0537129 0.024585798 0.07977279 -0.06839853 0.008634514 0.076875106 0.0864299
0.010219755 -0.009457903 0.0029216642 -0.11765314 -0.14342766 -0.09518441 -0.060132463 -0.28483865

fc2.bias f4 [10]
00000000: 4e93 d93c 166c f03b 52c1 ccbd 6f0a b8bd
00000010: e3ac 4ebd 459f d3bc d114 9cbd f84a 5bbd
00000020: 9c5d 263c e3b5 92bb
0.026559498 0.0073371036 -0.099978104 -0.08986365 -0.050457846 -0.025832782 -0.07621158 -0.053538293
0.010154154 -0.004477249
