models/trained/ConvNet1_1.pt (torch, 442274 bytes, 14 tensors)

conv1.weight f4 [4, 1, 5, 5]
000000 06 8b 05 3d 6d 13 14 3e 1b e0 9a 3d 19 63 5f 3e
       0.032603286 0.14460535 0.07562276 0.21815147
000010 7e c3 87 3d 58 1a 53 be ae 79 50 bd 63 47 be 3d
       0.06629084 -0.20615518 -0.050897293 0.0929096
000020 c4 e5 ad 3c 74 52 a4 3c cc 70 35 3e b0 60 8a 3e
       0.021227725 0.020058848 0.1771881 0.27026892
000030 91 36 32 3d d6 b0 43 3c 81 89 3f 3e 8d 5c 77 be
       0.04350907 0.011944016 0.18704797 -0.24156399
000040 12 92 84 3e d8 4e bc 3e f9 a1 07 bd 94 b9 0a 3e
       0.25892693 0.36778903 -0.033113454 0.13547355
000050 e7 8c 8c be 54 ad 24 3e 06 f2 0d 3e ed 68 98 3e
       -0.2745125 0.16081744 0.13861856 0.29767552
000060 e0 06 38 3e c7 c7 46 be 4f d8 08 3e 4a 4a d9 3d
       0.17971373 -0.19412147 0.13363765 0.10609873
000070 7a f3 0b 3e 0b c9 68 be 6d cb c6 bd 1b 85 a5 bd
       0.13667098 -0.22732942 -0.09706769 -0.080820285
000080 1d 95 74 3e 36 a5 27 bc 3d 37 0a be c6 ee 8a bd
       0.23885007 -0.01023226 -0.13497634 -0.06783824
000090 1a a3 fe 3d d5 d9 8c 3e 8f 61 42 3e 95 6f 45 3e
       0.12433453 0.27509943 0.18982528 0.19280846
0000a0 f1 ff d4 bd fc 2b 95 bd 71 3a a5 3e 43 db a3 3e
       -0.104003794 -0.0728378 0.3227115 0.3200322
0000b0 26 b8 37 3e 64 07 a9 3d a9 e8 cf 3d 6b 47 f9 bd
       0.17941341 0.08253363 0.10151798 -0.12171825
0000c0 13 2b bd bd 0f 98 90 3d b7 07 2a be 21 3c 60 bd
       -0.092367314 0.07060253 -0.16604505 -0.054744843
0000d0 7c 7c 04 3e cc 5a 8b 3d 0b a9 cb 3d 53 7e f2 bb
       0.12938112 0.068044275 0.09944352 -0.007400313
0000e0 d4 73 0e 3d 11 70 74 3e 03 67 a7 3e 3d ff 8f 3e
       0.03477843 0.23870875 0.3269578 0.2812442
0000f0 97 1f 45 bd 70 ed 1b 3e 56 21 96 3e 79 6b 85 3e
       -0.04812583 0.15227294 0.29322308 0.26058558
000100 23 bd e2 bb 4f f0 3d 3e cd 8d e3 3d 95 e5 b5 3d
       -0.0069195195 0.18548702 0.11111031 0.0888168
000110 5a be b2 bd 03 98 29 3d 9c 78 f4 3d fd 41 35 be
       -0.08727713 0.041404735 0.11937067 -0.17700954
000120 16 22 b1 be a7 59 63 be f7 e0 98 3d 64 91 e9 bd
       -0.34596318 -0.22202168 0.07464784 -0.11404684
000130 83 8c f7 3d e2 17 25 3e 99 dc 28 be 60 c9 42 be
       0.12087347 0.16122392 -0.16490401 -0.19022131
000140 c1 bc fe bd 6a bb 80 be 8f 99 47 be ee 7b 87 be
       -0.12438346 -0.25142986 -0.19492172 -0.26461738
000150 fa c1 fa bd cc 93 9b be 61 5c 1a be c7 ae 52 bd
       -0.12244029 -0.30386198 -0.15074302 -0.051436212
000160 82 6d bb be 89 cb e5 bd c1 7d c3 be 04 83 d0 bd
       -0.36606985 -0.11220462 -0.3818188 -0.10181239
000170 fa bd cd bd 51 eb 82 be 65 6d a6 be ea 5d 4f be
       -0.10046001 -0.25570157 -0.32505336 -0.20250669
000180 05 3d 63 be 6d 99 ca be ec 96 c6 be ff 13 bd be
       -0.22191246 -0.3957018 -0.3878702 -0.36929318

conv1.bias f4 [4]
000000 9d e2 38 3e 8e ed 97 3d 6a d0 22 3e 8d 56 40 3d
       0.18055196 0.07418357 0.15899816 0.04695754

conv2.weight f4 [8, 4, 5, 5]
000000 17 66 a4 bc 27 aa 72 3d e5 65 ac 3d 00 58 cf 3b
       -0.020068211 0.0592443 0.08417872 0.006327629
000010 e4 11 a1 bb 5c fb f9 3d 9c 23 85 3d 91 3a a9 3b
       -0.004915463 0.12206146 0.065009326 0.0051644524
000020 b3 52 2e 3d d3 23 62 3d 22 4b b6 3d a4 13 d6 3d
       0.042559337 0.055209946 0.08901049 0.10452965
000030 eb 0a 19 3d 76 f8 05 3e ee 05 18 3e a9 63 a1 bd
       0.037363928 0.13083062 0.14846012 -0.07880337
000040 28 3d 83 bd 3a 45 9f bc 26 b7 a5 bd 7d cd b3 3d
       -0.06408149 -0.01944219 -0.080915734 0.08779428
000050 aa 2d 2b be 18 e4 d6 bc d4 52 29 3c ee b5 aa bd
       -0.16716638 -0.02623181 0.010334689 -0.083354816
000060 c2 ba ca bd e8 b7 eb 3d e8 a6 24 3e 47 2e 5b 3d
       -0.098989025 0.11509687 0.16079295 0.05351093
000070 10 62 81 bd 43 ae 4c bc a3 20 39 bd 58 ee 41 3e
       -0.06317532 -0.012492719 -0.04519714 0.18938577
000080 21 f8 10 3e 1c 9d fe 3d c6 6b 08 bd 6a 1f 9c 3d
       0.14157154 0.1243231 -0.033305906 0.07623179
000090 ba d6 dd 3d 65 52 58 3e b0 33 6e 3e fa 00 44 3e
       0.108319715 0.21125181 0.23261905 0.19140998
0000a0 1d a1 0c 3d ed 88 83 bd 26 a4 8c 3d 8c c5 3c 3e
       0.034333337 -0.06422601 0.06867246 0.18434733
0000b0 5e a5 15 3e a9 41 db bd 01 8f 3a 3d 57 6f 10 bc
       0.14613864 -0.10705883 0.045546535 -0.008815608
0000c0 68 00 1c 3d 12 9c 54 3d 46 81 7f 3c 6d 96 ed bc
       0.038086325 0.051906653 0.015594786 -0.029002393
0000d0 07 f5 a9 bc d8 62 86 bd ae cb 42 3c e9 b4 d8 3d
       -0.020746721 -0.06561822 0.011889381 0.10581381
0000e0 60 17 2e 3e ca ea bb 3d ac 2d aa bd af 50 f8 bd
       0.17001104 0.09175642 -0.083094925 -0.12124764
0000f0 9b 11 cf 3d 32 cf 0a 3e fd 7a 3c 3e 8c f5 b1 3d
       0.1011078 0.13555601 0.18406291 0.086894125
000100 0e 69 62 bd 6a 08 0e 3e 28 0b b2 3c 6d 97 47 3e
       -0.05527597 0.13870397 0.021733835 0.19491358
000110 c0 59 42 3e 12 1a 7b 3b db 67 33 bd d1 0e 44 3c
       0.1897955 0.00383151 -0.043800216 0.011966423
000120 22 c1 b6 3d e9 e9 5f 3e 5b a2 0f 3e 17 10 7a 3d
       0.08923556 0.21866573 0.14026777 0.0610505
000130 8a 78 45 3c c2 ea ff bb 2d 44 e8 bd ba 49 b8 bd
       0.0120526645 -0.0078099677 -0.113411285 -0.08998437
000140 6d 3f e0 3d 83 9c a6 bb fd 35 67 bd 00 70 2e be
       0.109495975 -0.0050845756 -0.05644797 -0.17034912
000150 a4 95 c1 bd 19 0a 8e 3d 51 e6 ef 3d 9c 70 01 3d
       -0.0945237 0.0693552 0.11713851 0.031601533
000160 25 39 64 be d8 a1 01 be ff e3 84 3d 16 d8 0c 3b
       -0.22287424 -0.12659395 0.06488799 0.0021491102
000170 cc 96 bd 3d 62 6d 08 be e2 41 c7 bc e6 bf 21 3e
       0.09257278 -0.13322976 -0.024323408 0.1579586
000180 5a af 6b 3e fc 15 ca 3d 6c 30 7b 3a 6c d6 ce bc
       0.2301611 0.098674744 0.00095821056 -0.025248729
000190 69 e6 b1 3d fc c2 6f 3d 2c 05 7a 3c 76 16 ea 3d
       0.086865254 0.05853556 0.015260022 0.11430065
0001a0 d5 1c 01 bd f4 6f 8b 3d 8b 1c 69 bd 47 df d3 bc
       -0.031521637 0.06808463 -0.056911986 -0.025863303
0001b0 05 9c 95 3d e7 b1 cf 3d 7e d1 9b bd 02 5d 58 bb
       0.07305149 0.10141354 -0.07608317 -0.0033014421
0001c0 24 42 27 bc 41 ff ac bd 60 3b 80 bd a7 ac 66 bc
       -0.01020864 -0.08447123 -0.06261325 -0.014079249
0001d0 fb 0c 7c bc 51 1b b6 3c a6 bd bc bb 34 47 87 3d
       -0.015383954 0.022229822 -0.0057599125 0.06605378
0001e0 c7 ef 9d 3c ef de 17 be 0c 40 11 be a9 c9 ec bd
       0.019279374 -0.14831136 -0.14184588 -0.11561901
0001f0 91 8a c9 bc 0e b7 e8 bc f8 5d 3e 3d c5 75 01 3e
       -0.024602206 -0.0284076 0.046476334 0.12642582
000200 a1 12 d9 bc 77 ce da 3c 00 ab ad 3d ae ed a5 3a
       -0.02649814 0.026709778 0.08479881 0.0012659335
000210 8e a9 b0 3d fc b4 1f 3d bc 09 0e 3d 37 ed 4e bd
       0.0862609 0.03899096 0.034677252 -0.050519194
000220 a6 8c 0b 3e 7a c8 af 3d 32 de ea 3d 83 45 72 3d
       0.13627872 0.0858316 0.11468162 0.059148323
000230 45 1d 4c 3d a0 24 7d 3d 12 3a f3 3d b1 38 56 3d
       0.0498326 0.061802506 0.118763104 0.05230016
000240 cd cd f6 3d 04 e7 a6 bd 5f b4 72 bc 19 38 11 bd
       0.12050972 -0.081495315 -0.014813512 -0.03545389
000250 61 8a ac bd 16 cd 8f bd 4c 73 d3 3d 59 c1 93 bd
       -0.08424831 -0.07021539 0.103247255 -0.072146125
000260 62 39 64 3c c1 f4 b2 bd 3c ea f8 bd f5 e7 ab 3d
       0.013929697 -0.08738089 -0.12154052 0.08393852
000270 ee c1 2c bd 54 37 b9 3d ce 93 61 bb b7 01 2f be
       -0.042177133 0.09043756 -0.0034420374 -0.17090498
000280 28 9e 70 3d 14 0b 43 3d 36 f4 29 3e c8 0e 27 bb
       0.05874458 0.047617987 0.16597065 -0.0025490988
000290 d2 36 f6 3d 25 66 cb 3b 34 e2 cb 3d 15 61 fa 3d
       0.12022175 0.006207245 0.09955254 0.12225548
0002a0 42 bf 51 3e 5f 35 15 3e ec a3 16 bc df 2a 1a bd
       0.20483115 0.1457114 -0.009194355 -0.03763854
0002b0 66 e9 e3 bc 68 01 ed 3d 6b e2 04 3e f2 f2 f1 3d
       -0.027821254 0.11572534 0.12976997 0.11813916
0002c0 5c 4b 0c 3e 34 e9 89 3d c8 d7 40 3c c6 c8 89 3c
       0.13700622 0.06733933 0.011770196 0.016819369
0002d0 61 61 27 3e 90 f4 dd bb 75 66 b2 bd 1d 42 6b be
       0.16345741 -0.006773539 -0.087109484 -0.22974439
0002e0 e5 2a 40 be 40 92 0f 3e 53 1f ac 3a 33 6d 7e bd
       -0.18766363 0.14020634 0.0013131894 -0.06211586
0002f0 e0 6f 39 be 87 58 97 be 72 23 ce 3d 4f 32 8b 3c
       -0.18109083 -0.29559729 0.100653544 0.016991762
000300 0c 21 54 bd 14 64 09 bd 41 09 0a be 44 41 5c 3e
       -0.05178933 -0.033542708 -0.13480093 0.21509272
000310 a1 59 56 3e 65 f0 da 3d ad 03 f5 bc 5f 2a be 3c
       0.20932628 0.10690383 -0.02990898 0.023213563
000320 77 0b d9 bc 2e c6 4d 3d be 65 14 3e 56 fb ee 3d
       -0.026494725 0.050237827 0.14491937 0.11669032
000330 ba c0 bd 3d 8a 6c 6a ba 45 fd 8c 3c 12 47 d8 3d
       0.09265275 -0.0008942565 0.017210612 0.105604306
000340 4c 0b bb 3c b0 67 0f 3e bb bf f3 3c 43 3b 7a 3d
       0.022832535 0.14004397 0.02975451 0.061091673
000350 19 fe 4a 3c 77 68 48 bd ea 12 aa bc b6 ea b8 3b
       0.012389683 -0.04892775 -0.020760972 0.005643214
000360 bd b2 9a bd e1 bd 0b 3b 4f 8b ba bd dc d2 7b 3d
       -0.07553623 0.0021322893 -0.09108602 0.061480388
000370 fa 9e 24 bd 7c a9 82 bd ac c0 a8 3c 21 b2 09 be
       -0.040190674 -0.06379983 0.020599686 -0.13446857
000380 24 58 83 bd 15 17 7c bc 02 f3 f5 3d b5 71 40 3c
       -0.06413296 -0.015386363 0.12009241 0.01174586
000390 c1 3f 56 bd 56 13 a1 3c 05 f0 db 3d dd f8 97 3d
       -0.052306894 0.01966254 0.107391395 0.07420514
0003a0 55 3b 7f 3d 65 d9 85 3c 75 17 5d bd fc b9 01 3d
       0.062312443 0.016339013 -0.05397745 0.03167151
0003b0 f4 77 ad bd 00 3d 6b ba bc 14 8b 3d ac 13 79 3d
       -0.08470145 -0.0008973628 0.06791064 0.060809776
0003c0 d8 71 bd bd b4 e6 23 bd 25 ef 65 3d 04 c9 e7 3d
       -0.092502296 -0.040014938 0.05613627 0.113176376
0003d0 e8 bb 17 3e cf c8 7a 3d e8 56 39 3d 8f 14 15 3d
       0.14817774 0.061226662 0.045248896 0.03639656
0003e0 f7 a5 ab 3d e4 92 e5 3d cd de 4b 3e 39 f1 a1 bd
       0.08381265 0.11209658 0.1990921 -0.07907338
0003f0 cd df 07 3d ff 58 b7 bd 09 29 ae 3b f7 dc 98 bc
       0.033172417 -0.089525215 0.0053149504 -0.018660052

conv2.bias f4 [8]
000000 17 f8 2d 3c ab 5d 4d 3d dc cc d5 3d 84 a8 80 3d
       0.010618231 0.050138157 0.104394644 0.06282142
000010 7d db 3a 3d b6 37 69 3d 74 6f 03 3e 50 22 ce 3d
       0.045619477 0.056937896 0.12835485 0.10065138

conv3.weight f4 [16, 8, 3, 3]
000000 ff 83 1e 3e c0 9c 29 3e 73 98 06 3e 19 11 a3 3a
       0.1548004 0.16563702 0.13144092 0.0012441009
000010 f2 3c aa bc c5 82 4e 3e 61 73 be bd 64 b0 4a be
       -0.020781014 0.20167072 -0.092993505 -0.1979385
000020 53 5a f0 bc 57 be 14 3e 44 4d 79 3e a9 17 db 3d
       -0.029339945 0.14525734 0.24345881 0.10697872
000030 bb 44 1c 3e d1 f5 22 3e 79 9b 01 3d 0e 6c 06 be
       0.15260594 0.15914084 0.03164241 -0.13127157
000040 39 6f 31 be 85 33 ac 3d 19 2d e7 3d 71 24 2a 3d
       -0.17327584 0.08408264 0.112878986 0.04153866
000050 73 b2 84 3d 91 6d f1 bb 77 90 0f bd b6 e6 20 bd
       0.06479349 -0.0073677977 -0.03504988 -0.039282523
000060 32 2b 03 be 28 d5 c3 bc 05 9f e4 bd e0 47 0c 3e
       -0.12809446 -0.023905352 -0.11163143 0.13699293
000070 cc 28 21 3e 06 92 69 3d b2 a5 c6 bd c7 08 14 bd
       0.15738219 0.057024024 -0.096995726 -0.036141183
000080 5b 55 5a bd 04 d4 fc bd e1 b2 46 bd 69 90 ee 3d
       -0.053304058 -0.12345126 -0.048510436 0.11648638
000090 a3 95 b8 bc 2f a5 e9 3d 1d 19 2d 3e e5 81 cc bd
       -0.02253229 0.114084594 0.16904111 -0.09985713
0000a0 54 70 b4 bc 91 ef 20 3e 56 44 17 be 3d 84 aa bc
       -0.022026218 0.15716387 -0.14772162 -0.02081501
0000b0 35 99 84 bd 94 67 78 3d dc 8f 7d 3d f7 0a 37 3d
       -0.064745344 0.060645655 0.061904773 0.04468819
0000c0 d5 f1 9c bb 5a 5e 8a 3b ff 30 97 3d f8 72 0e be
       -0.004789571 0.0042226734 0.07382392 -0.13911045
0000d0 c0 6b 3b be a2 dc b2 bd d1 f0 4e bd 13 34 a9 bd
       -0.18302822 -0.087334886 -0.05052263 -0.082618855
0000e0 6b e6 72 3d 25 ae 9f bb 6d 77 c0 bb 74 1a 28 bc
       0.059301775 -0.0048730546 -0.0058736117 -0.010260213
0000f0 3f 54 0a 3e 2d 45 ad bd 9b d1 19 be d0 2b 0e 3d
       0.135087 -0.0846046 -0.15021364 0.03470975
000100 77 f6 51 3d 1b 0e fc bd 67 47 33 3e 63 34 81 3e
       0.051260438 -0.12307378 0.17507707 0.2523528
000110 0a 7d 40 3e 61 82 26 3e ef 20 8e 3d c7 08 a0 3e
       0.18797699 0.16260673 0.06939875 0.31256697
000120 b4 75 2d be 92 ed 02 bc f4 da fc bd be 65 d5 bd
       -0.16939431 -0.0079912115 -0.123464495 -0.104197964
000130 c2 15 22 3d b6 1a 34 bc 63 28 96 3d 74 37 a1 bc
       0.03957153 -0.0109926965 0.07331922 -0.019679762
000140 ad 1a f8 3d d9 5f 2b be 6f cf 65 bd c9 06 b8 3c
       0.12114463 -0.16735782 -0.056106027 0.022464173
000150 4e ef cb 3c e6 9c a6 bd b7 31 bb 3c 50 73 0b bd
       0.024894383 -0.08135395 0.022850854 -0.034045517
000160 87 28 3e bd a4 7f c0 3c 08 ec 9c bd c3 37 12 ba
       -0.04642537 0.023498364 -0.07662207 -0.0005577767
000170 75 e3 d4 bd 4a bb 78 bd 86 52 2e bd ff 81 4c bd
       -0.103949465 -0.060725488 -0.04255917 -0.04992866
000180 3e 52 88 3d 8f 23 0d 3e d3 4f 06 3d ab 92 9f 3d
       0.066563115 0.13783096 0.03279097 0.077916466
000190 c6 8a 5b 3d a3 1a 00 3e 93 7b c4 3c 19 34 5b bd
       0.05359914 0.12510161 0.023984706 -0.05351648
0001a0 2c 97 27 bd a2 88 ac bd e9 8b 7f bd 3b 53 eb bb
       -0.040915653 -0.08424498 -0.062389288 -0.0071815527
0001b0 4f 8b c6 3c 1a 1a d1 bd 95 b4 e8 bd 6d f4 a7 bc
       0.02423635 -0.102100566 -0.11362568 -0.020502293
0001c0 91 6f a2 3c ff b7 eb 3d 69 23 f7 3c 26 6d 99 3d
       0.01982859 0.11509704 0.030168252 0.074915215
0001d0 a2 98 4f 3d 42 9f 91 bd 84 eb dd bd 39 7c d1 3d
       0.05068267 -0.07110454 -0.10835937 0.10228772
0001e0 70 10 bb 3c 2f d8 f6 3d 9a a7 7d bd 78 7a 20 bd
       0.022834986 0.120529525 -0.061927415 -0.039179295
0001f0 f3 80 92 3d 2f 18 2b 3e eb 44 51 3d 55 3b 25 be
       0.07153501 0.16708444 0.051091116 -0.16135915
000200 a4 ed 69 bb dd 2c 21 bb 86 e0 21 bd ee ad 27 3b
       -0.0035694623 -0.002459339 -0.039520763 0.0025585848
000210 7c de 96 bc b1 13 4a 3d 7a c2 2d 3e 22 e6 c7 3d
       -0.018416636 0.049335185 0.16968718 0.09760691
000220 14 ec 95 3d 62 b2 c5 ba 81 fb 9d ba d2 2b 09 bd
       0.07320419 -0.001508307 -0.0012053103 -0.033489056
000230 e0 40 e8 3d c0 98 46 bd 01 b6 b3 3c 23 89 ae 3d
       0.11340499 -0.048485518 0.021937372 0.085222505
000240 fb 39 4d 3c 7f 9d ca bc 20 0e c0 3d 74 0a ea 3d
       0.012526031 -0.024733303 0.09377694 0.11427775
000250 aa 3b 76 bd 2c 25 94 bc 1b 92 22 3d de f6 c4 3d
       -0.060115494 -0.018084131 0.03969012 0.09617399
000260 b6 be f0 3d ee 41 aa bd 2e 97 d8 bd 16 98 38 3c
       0.11755125 -0.08313356 -0.1057571 0.011266729
000270 93 33 9f 3d 9e d2 d2 3d ad ec 1e 3d fe 52 96 bc
       0.07773509 0.10294078 0.03879993 -0.01835012
000280 a0 e0 87 bb 32 04 8d bc 5d 50 9a ba 1c 0d c1 bd
       -0.0041466504 -0.017213915 -0.0011773218 -0.094263285
000290 3e f8 31 3d 20 b2 8a 3d f7 48 f5 bc c0 17 e3 3d
       0.043449633 0.06772256 -0.029942019 0.11088514
0002a0 d0 89 bb bd 48 f4 08 be 09 bb 41 bd bf 78 1d 3e
       -0.09157145 -0.13374436 -0.04729751 0.15378092
0002b0 3e 15 4d be 4a dd b8 3d 97 34 4f 3d f5 72 23 be
       -0.20027635 0.090265825 0.050587263 -0.15961821
0002c0 ed df 0a bb 71 0f 07 be 41 09 cc bd d7 92 97 3d
       -0.00211906 -0.13189484 -0.099627025 0.07401054
0002d0 33 81 7d bd 7b d5 db 3c e8 82 df bc ff a9 3c 3d
       -0.061890792 0.026835194 -0.0272841 0.04606056
0002e0 86 5c bd 3d 47 90 5f 3d 75 6e 84 3d 18 dc 00 3e
       0.09246163 0.054580953 0.064663805 0.12583959
0002f0 60 7c 80 3c 6a e2 2a 3e d1 29 e3 bd 11 a9 13 be
       0.015684307 0.16687933 -0.1109196 -0.14419962
000300 ce 24 40 3e 9d 2c 11 bc c4 e4 a0 3d 6f 40 ff bc
       0.1876404 -0.008860734 0.078561336 -0.031158654
000310 3c 3e b7 bd 03 31 c0 bc da 33 5d 3e 9b 21 11 3d
       -0.08947417 -0.02346087 0.21601811 0.03543244
000320 fc c0 c4 bd 29 f0 4a 3e c7 d0 99 bd a0 ce 7e 3d
       -0.09607121 0.19818176 -0.07510524 0.06220877
000330 57 fe 07 3e 43 62 74 3d bd d3 05 3e ea 48 0a bd
       0.13280617 0.059664022 0.13069053 -0.033760943
000340 4b 0e af 3d b3 89 15 3e cb f2 f9 bb b5 7a ca bd
       0.08547648 0.1460331 -0.00762782 -0.09886686
000350 10 97 22 bd 33 13 45 bd ba 06 05 3d 8d cd d2 bc
       -0.039694846 -0.048114013 0.032477118 -0.02573278
000360 07 c4 1e 3e 16 f7 3d 3d 43 d7 01 bd 4d 3f da 3c
       0.15504466 0.046378218 -0.03169943 0.026641512
000370 12 69 15 3e f9 fe 09 3d e2 dd cb bd 2c cf de bd
       0.14590862 0.033690426 -0.0995443 -0.10879359
000380 04 08 23 3e e2 0f b3 3d 3c fa 92 3d 08 50 99 bd
       0.15921026 0.08743264 0.07176635 -0.07485968
000390 3b 78 2f bc b2 d3 17 3e 75 46 01 3e 38 69 14 be
       -0.0107098175 0.14826849 0.12624533 -0.14493263
0003a0 2d bc 82 bd dc 54 27 3e e3 bf 00 3e 4e ca 96 bd
       -0.06383548 0.16340965 0.12573199 -0.07362805
0003b0 62 9d c1 bc 81 18 78 bd 2b 59 6f bd 1a ba 2b 3e
       -0.023634616 -0.060570244 -0.058434647 0.16770211
0003c0 be 86 9c 3d e8 e8 78 3c 08 94 d5 3c 0e 29 9d bd
       0.076428875 0.015192248 0.026071563 -0.07673846
0003d0 44 0b 62 3d 9d 5d 0b 3e 37 d8 4a bd 0a 3f 11 bb
       0.055186525 0.1360993 -0.049522605 -0.0022162818
0003e0 58 d0 b7 3c 2f da 94 bd 7d bb 27 3d 15 34 cf 3b
       0.022438213 -0.07268178 0.040950287 0.0063233473
0003f0 93 99 2a bd a9 91 f9 bc 3d 04 64 3d 87 8c 49 bb
       -0.041650366 -0.030464964 0.055668104 -0.0030753927

conv3.bias f4 [16]
000000 38 b5 29 3d 90 9f f8 3d 31 a3 99 bc 2a bf 48 3c
       0.04143259 0.12139809 -0.018754574 0.012252608
000010 e1 f2 86 3d 69 37 ac bc c3 99 90 3b 6d f5 e0 3d
       0.06589294 -0.021022515 0.004412861 0.10984311
000020 ef 90 bf bd 7f 2c b5 3d 10 9d a4 3d 79 25 0c 3e
       -0.09353816 0.088463776 0.0803777 0.1368617
000030 f7 fe 8b 3c 18 e2 d1 3d 4a f1 cf 3d 90 62 b5 ba
       0.01708935 0.10248202 0.10153444 -0.0013838578

conv4.weight f4 [64, 16, 3, 3]
000000 2a ac ce 3c ab cc 79 3d 51 26 5d 3d f1 65 e0 3d
       0.025228579 0.060986202 0.05399162 0.10956944
000010 8b b3 e8 3c 05 c1 ca 3d f0 e6 de 3d 75 5b 2a 3e
       0.028405925 0.09900097 0.108838916 0.1663645
000020 77 49 ee 3d ab 93 a8 3d 8c 6f 9a 3c 62 68 28 3c
       0.11635106 0.082312904 0.018852018 0.010278793
000030 d9 e4 2d 3e 8e 01 4e 3d 39 30 5f 3d e9 9f d9 3d
       0.1698183 0.05029445 0.054489348 0.106262036
000040 d8 e3 09 3d 9a ee 30 bc 3c ff a7 bd 94 37 c6 bc
       0.033664554 -0.010799075 -0.08202979 -0.024196424
000050 4f 2c e4 3c 1c fe a0 bd 8c 0c d3 37 ed 1e cb 3c
       0.02785316 -0.078609675 2.5159003e-05 0.02479502
000060 33 da dd bd 39 bb f1 3c f4 a8 2e 3e e1 6a c0 3d
       -0.10832634 0.02950822 0.17056638 0.093953855
000070 d9 74 c7 bc 17 51 8a 3c b2 93 cb 3c fd 35 5b 3c
       -0.02434771 0.01688437 0.0248507 0.013379571
000080 56 be 83 bd c7 a9 26 bd c1 23 ba bd ad 93 4d bd
       -0.06432788 -0.040689256 -0.09088851 -0.050189663
000090 c8 68 e0 bd 1a a1 b6 bd 07 21 15 bd 73 14 05 be
       -0.109574854 -0.089174464 -0.03640845 -0.12996082
0000a0 22 8e 73 bd 16 8e 0c be 13 3b 1b be ea e9 86 bd
       -0.05946172 -0.13726076 -0.15159254 -0.06587584
0000b0 21 dd cb bd 46 0a 47 bd 10 86 92 bd 02 fd 22 be
       -0.09954286 -0.048593782 -0.07154477 -0.15916827
0000c0 4d 98 8e bd 8d 69 3d be 2c 5e 41 be 09 56 3d be
       -0.06962643 -0.18497296 -0.1888358 -0.18489851
0000d0 37 b2 8c be b3 a3 ed bd ed ef 0c 3d 18 eb 84 3d
       -0.27479717 -0.11603489 0.0344085 0.06490153
0000e0 7e b3 de bd f8 bd 0c bb f4 2d de bc a2 60 09 be
       -0.10874079 -0.0021475535 -0.027121522 -0.13415769
0000f0 58 da 59 3c 35 7e 3a be 17 17 1d be 41 d4 4f 3d
       0.013296686 -0.18212207 -0.1534084 0.05073953
000100 94 e5 8c bd 59 ca ce 3c 52 b6 88 3d 48 c9 e2 3d
       -0.06879726 0.025242971 0.066754 0.110735476
000110 0f 40 79 3d e0 52 57 3d 79 1e d2 bc aa 50 a5 bd
       0.060852107 0.05256927 -0.025649296 -0.08072026
000120 31 d6 c9 bc 76 ac bd bd f0 f1 1d 3d c1 15 8e bd
       -0.024638267 -0.0926141 0.038560808 -0.06937743
000130 1e a0 e1 bd ae 87 bf 3c 6b 0e 80 be e7 95 d9 bd
       -0.11016868 0.023380127 -0.25011 -0.10624295
000140 a9 0e 4a 3b 74 71 3d 38 5d 86 0e 3e af 07 dc 3a
       0.0030831492 4.5166773e-05 0.13918443 0.0016786958
000150 93 83 2e bd 0a c2 d5 3d d5 7d a2 3d 3d f3 a9 3c
       -0.042605948 0.10437401 0.07934157 0.020745868
000160 ba 88 17 bb f7 35 c2 bc 06 fc 74 bd a4 d6 a7 bd
       -0.0023122267 -0.023707373 -0.05981066 -0.08195236
000170 91 43 4f bd 5d c5 5c 3d 8f 6d f5 bc dd 58 9f bd
       -0.050601546 0.053899158 -0.029959468 -0.07780621
000180 91 8d bf bd 36 32 ec bd f9 af 0b 3c 72 13 d8 bd
       -0.093531735 -0.115330145 0.008525842 -0.10550584
000190 68 de cf bc a4 f3 29 3d a8 ac cc bd 49 a6 4b 3d
       -0.025374606 0.04149212 -0.09993869 0.04971913
0001a0 fb 98 fe 3c 7b f9 0c bd d7 a7 ac 3c 38 ca d2 bd
       0.031078806 -0.03441761 0.021076126 -0.102924764
0001b0 01 f2 0a bd 80 d4 c0 3b a4 f0 9f bd 75 a6 ba 3d
       -0.0339222 0.005884707 -0.078095704 0.091137804
0001c0 74 9b 1c bd ca b6 6f bd 6c 1c 86 be 8a 79 41 be
       -0.03823419 -0.05852393 -0.2619356 -0.1889402
0001d0 29 f3 16 be 0b 63 c2 bd fa 92 8e 3d e7 a0 bb bd
       -0.14741196 -0.09491547 0.06961627 -0.09161549
0001e0 6e 30 12 be fd 9b 8c bd 5f 6f 03 be ad a5 21 be
       -0.14276287 -0.0686569 -0.12835453 -0.15785857
0001f0 fc 7f 13 be 48 49 1f be 30 e8 aa 3c b4 76 62 3d
       -0.14404291 -0.15555298 0.020862669 0.055288985
000200 4d 25 d5 3d 8a ca 91 3d cb ed f4 3d 54 19 60 3d
       0.10407505 0.071187094 0.11959418 0.054711655
000210 6c 97 4a 3e f3 73 0f 3e 66 65 b9 3d 49 15 10 3e
       0.19784325 0.14009075 0.09052543 0.1407062
000220 44 25 0a 3e 96 c0 bf 3d 40 88 1a 3c a8 2b a3 3d
       0.13490778 0.09362905 0.009431899 0.07967311
000230 08 6b 94 3d 22 cc 20 3d b8 39 f4 3d 92 41 80 3d
       0.07246977 0.039257176 0.119250715 0.062625065
000240 c1 d6 39 3d b5 3c 08 3e 67 2a 8b bc de d1 a5 bc
       0.04537082 0.13304408 -0.016987992 -0.020241674
000250 74 bc 18 bd 82 47 77 bc 97 bd a5 3d 49 d5 80 3d
       -0.037289098 -0.015092732 0.08092802 0.06290681
000260 c1 81 a0 bd 86 bc cd 3c 1b 51 da bd a6 7e a9 bd
       -0.078372486 0.025114309 -0.10660001 -0.082761094
000270 a3 33 0e 3d c7 4f 84 3b 62 0c fb bc 03 23 3c 3d
       0.034717213 0.0040378305 -0.030645553 0.045931827
000280 4b 1b 10 3d ea af 9c bd 74 d9 b8 bd 44 f9 0e be
       0.03518228 -0.076507404 -0.09025851 -0.13962275
000290 c9 9c 50 3d c3 50 ed bd 47 cc 85 bd d6 dd 96 bd
       0.050930772 -0.1158767 -0.065331034 -0.073665306
0002a0 c4 9f a4 3d af 33 56 bd 00 de d1 bc f5 c9 9e 3d
       0.080382854 -0.052295383 -0.025618553 0.07753364
0002b0 a0 6e 95 3d 3f 7a cd 3d f2 2d ce 3d 9b 5f a0 3d
       0.07296491 0.10033082 0.10067357 0.07830735
0002c0 33 3e 19 3c 62 c8 25 3c d8 96 a5 bb ed a2 a4 bc
       0.009353208 0.010118576 -0.0050533824 -0.02009722
0002d0 c7 33 01 bd 6f 8b 62 3d 51 95 6d bc 40 09 a3 bd
       -0.03154352 0.055308755 -0.014500932 -0.07960749
0002e0 df a7 96 bd 08 25 99 bd 07 d8 92 bd 1f fa 8a bc
       -0.073562376 -0.07477766 -0.0717011 -0.01696497
0002f0 8f d9 6c 3c 37 53 53 3c fd 1d 92 3d 2b 1e 13 bd
       0.014456167 0.012898258 0.07134626 -0.035917442
000300 91 60 b9 bd af 28 83 ba a3 be bd 3d df a9 76 bd
       -0.09051622 -0.0010006631 0.09264877 -0.060220595
000310 e7 56 d6 bd b9 c2 9e bc d5 93 d1 3b 4d 04 29 3c
       -0.10465794 -0.01937996 0.006395797 0.010315967
000320 ca 66 8a 3d dc 93 35 bd a7 f0 76 3d d1 18 1f 3d
       0.06757887 -0.044330463 0.060288098 0.038842026
000330 db 70 ff bd e6 fc b1 3c 1b c9 18 3e db aa d2 3c
       -0.12472697 0.021727037 0.14920466 0.025716236
000340 27 b6 87 bc 12 56 47 3d ff 78 a5 3d d0 70 bf 3d
       -0.01656635 0.048666067 0.08079719 0.09347689
000350 1f 60 81 3c 82 62 a1 bc e8 e8 da 3d ae 75 82 3b
       0.015792904 -0.019700292 0.106889546 0.0039813137
000360 5d f5 84 bc 7a 5a 61 3d ba be 4b bd b4 09 7a 3d
       -0.01623028 0.055017926 -0.049742438 0.06104441
000370 dc ef cf 3c ab a9 77 bb db 5d 76 bd d2 41 29 3d
       0.025382929 -0.003779034 -0.0601481 0.041322537
000380 de 76 46 bc f6 c2 9d bd 6c ff 87 bd 90 5d ea bb
       -0.012113301 -0.077032015 -0.06640515 -0.007152267
000390 03 05 aa bd 87 0d 46 3d ca 13 ab 3d d2 86 e3 3d
       -0.08301737 0.048352744 0.08353384 0.11109699
0003a0 2c 46 4e 3d bc ca 1a bd eb bc 38 3d a7 76 f6 3c
       0.05035989 -0.037791 0.04510204 0.030085875
0003b0 e5 a4 04 3d a8 12 04 bc 75 b6 1e 3d 0b 87 12 bc
       0.03238382 -0.008061089 0.038748223 -0.00894333
0003c0 98 19 4e bd 6b 86 50 3d 42 bd 38 bd 75 58 da bc
       -0.050317377 0.05090944 -0.045102365 -0.026653508
0003d0 77 54 b7 3c 3d be 66 bd f8 5a 17 3d d6 ec 70 bd
       0.022379143 -0.05633377 0.03695199 -0.058819614
0003e0 bb b3 1f 3d e0 1b 9c 3d 60 15 e4 3c 32 2c 9c bd
       0.038989764 0.07622504 0.027842224 -0.07625617
0003f0 cc a2 9f 3d aa f7 e7 3d 64 9c 51 bc a3 24 8d bd
       0.07794723 0.11326535 -0.012793634 -0.068917535

conv4.bias f4 [64]
000000 c0 f7 1c bc e2 5e 8b 3d e1 fa 10 bd 97 17 88 3c
       -0.009580553 0.06805207 -0.035395507 0.016612811
000010 5c 5e 78 bd 9f a1 68 3d 71 65 95 3c a6 02 23 3d
       -0.060636863 0.05679476 0.018236848 0.039797448
000020 bb f9 41 3d cd 2b 8b bd b1 9a be 3c 43 ce 82 bd
       0.047357302 -0.06795464 0.023267122 -0.063869976
000030 be 51 48 bd 2a b1 bb bd 16 66 61 3d 77 71 0f bd
       -0.04890608 -0.09164651 0.055028997 -0.035020318
000040 8f 0b 20 3c 52 a6 9e 3d 4d bb f0 3c 16 1c 60 3d
       0.009768381 0.07746567 0.029386187 0.054714285
000050 1b 79 34 3d 02 65 7c bd 64 f1 67 bb fe 87 23 bd
       0.044060808 -0.061619766 -0.0035391683 -0.039924614
000060 89 63 fd 3c 5e 41 8e bd a0 f6 9f 3b 24 2b 86 3d
       0.030931251 -0.069460616 0.004881695 0.06551197
000070 88 70 aa 3d ab 64 af 3c c3 5e d8 3d c1 e6 00 bd
       0.08322245 0.021410307 0.10564949 -0.031470064
000080 da c7 fc 3b b7 0d ce 3c f9 7a a4 bc 72 b2 94 3d
       0.007714254 0.025153024 -0.02007817 0.07260598
000090 9c 08 0a bd 77 57 21 bd d9 6a ab bc ec 3f c0 3d
       -0.033699617 -0.039390054 -0.020924972 0.09387192
0000a0 77 19 95 bd f1 59 fc 3c 35 19 df bc 81 d5 9f 3d
       -0.07280248 0.030804606 -0.0272337 0.078043945
0000b0 74 99 87 3c 21 0e 9f bc 0d cc df 3c c7 2e c2 bc
       0.016552664 -0.019415917 0.027318979 -0.023703946
0000c0 61 41 42 bd 42 6c 65 3d 21 83 4f bd e0 28 b9 3d
       -0.04742563 0.056011446 -0.050662164 0.090409994
0000d0 7d 28 58 bd f4 0b 89 bd 02 1c 4c bc f4 95 b0 bc
       -0.052772988 -0.06691733 -0.012457849 -0.021555878
0000e0 a9 d0 a3 bc 17 d6 a7 bb dc bd 18 bd e2 a2 d5 3c
       -0.019996958 -0.005121957 -0.03729044 0.026078645
0000f0 3f 98 54 bd f3 0a a4 3d 44 e7 a1 3d 17 88 4e bd
       -0.051903006 0.08009901 0.079054385 -0.050422754

fc1.weight f4 [144, 576]
000000 19 29 69 bc 81 3e 89 bd 5f e4 67 bc 91 d0 7c bc
       -0.01423099 -0.06701375 -0.014153569 -0.0154305855
000010 65 fb 07 b8 27 f5 bf bc 67 08 be ba 76 99 73 3c
       -3.2420638e-05 -0.023432327 -0.0014498354 0.014868131
000020 82 44 a8 3d da 5c 95 bc a1 29 15 bd ab ce ab bd
       0.08216192 -0.018232752 -0.036416654 -0.08389028
000030 40 e9 75 3b b0 b6 d3 bc 30 3c 75 3d eb 92 7f bd
       0.003752306 -0.025843948 0.059871852 -0.06239597
000040 6e 1b 2f 3d c2 83 54 3d 7f 36 c2 bb 7a b2 c0 bc
       0.04275077 0.051883467 -0.0059269066 -0.023522604
000050 33 2d 88 bd 7d 98 f0 bc 78 eb db 3c c6 6d 41 bc
       -0.06649246 -0.029369587 0.026845679 -0.011805957
000060 d3 22 43 bd 02 04 6a 3b 98 fb ed bc 55 d8 3e 3d
       -0.047640633 0.0035707955 -0.029050633 0.04659303
000070 a6 4c 37 bc 76 a9 e4 bc 61 41 02 3d 31 7a 28 bd
       -0.011187708 -0.027912837 0.03180063 -0.041132156
000080 83 67 b0 3c bc 64 d0 3c 89 09 f2 bb 28 ae ee 3a
       0.021533733 0.025438659 -0.0073863906 0.0018209862
000090 b6 ea 1e 3d 7e 37 33 bd cc c5 0e bd 61 6b f0 bc
       0.038798057 -0.043754093 -0.034856603 -0.029348077
0000a0 23 12 c1 3b ac 57 0c 3d f8 84 a2 bc 50 63 a0 3c
       0.0058920546 0.034263298 -0.019838795 0.019578606
0000b0 1d b5 a4 3c a7 f5 2e 3a 57 dd 5f bc 8d c1 e6 bc
       0.020105893 0.00066741783 -0.013663611 -0.028168464
0000c0 ec 9f 18 bd f8 da 03 bb 5f ae 89 b9 44 b7 13 3b
       -0.03726189 -0.002011953 -0.00026260593 0.0022539655
0000d0 b9 25 9f bb b2 cf cd 3c 2b ae 19 3d 70 18 53 bd
       -0.004856792 0.02512345 0.037519615 -0.051536977
0000e0 03 41 53 bc 26 13 31 bb ec e2 cf bc 21 af 54 bd
       -0.012893918 -0.002701947 -0.02537676 -0.05192483
0000f0 41 dd cc 3c ee 19 30 3d 61 c7 fc 3c 18 17 f7 bc
       0.025007846 0.04299348 0.03085679 -0.03016238
000100 ec 41 07 bd 74 5e 1a bc 2f da c5 bc 20 9c 6a bd
       -0.033021852 -0.009421933 -0.02415189 -0.0572778
000110 16 e2 ad 3d dc ac ed 3c fa 0a 5a bd 07 62 90 3d
       0.08490388 0.02901309 -0.053233124 0.07049947
000120 99 8b 0f 3d 85 7b a0 3d 65 31 31 bd 7a b2 77 3d
       0.03504524 0.078360595 -0.043259997 0.060472943
000130 36 8c e3 3c 83 fc 62 3d ad 2c 43 3d 67 8f 58 3d
       0.027776819 0.055416595 0.047650028 0.052871134
000140 4f e2 3b 3d 06 6a 7e 3d 00 35 1f bd 14 32 42 bd
       0.04587012 0.06211283 -0.038868904 -0.04741104
000150 a1 8a c3 3b 84 21 0c 3d 2d 3f ec 3b e9 2d df 3c
       0.0059674536 0.03421165 0.0072096796 0.027243571
000160 e7 8e 2a 3c 68 5b 4a 3d 8a d0 6d 3d f2 95 36 bd
       0.010410047 0.049403578 0.058060206 -0.044576593
000170 d8 19 0e bb b6 d0 4b bc 90 82 cf bc b5 d4 08 3d
       -0.0021682885 -0.012439897 -0.025330812 0.03340598
000180 54 0d 7d 3c 9e ee a3 bc 06 48 85 3c c5 82 0a bd
       0.015445072 -0.020011242 0.016269695 -0.033816118
000190 6d be e5 3c 10 6a 6a bc d7 f5 1b 3d 86 94 51 3d
       0.028044904 -0.014307514 0.038076248 0.051167034
0001a0 ae f9 95 3d fe 8c 68 3d 8e 40 19 bd 84 d7 b9 3b
       0.07323013 0.056775086 -0.03741508 0.0056714434
0001b0 94 c5 5e 3b 5b 03 0f bd a9 26 26 bc e3 60 09 3d
       0.0033992277 -0.03491531 -0.010141053 0.033539664
0001c0 90 29 96 3b 6c 90 15 bd 6d 94 2d 3d 6a f7 0e bd
       0.0045825914 -0.036514685 0.042377878 -0.03490392
0001d0 b3 93 11 3d b9 42 a3 3d a9 3f 67 bc 86 1d b0 bc
       0.035541248 0.07971711 -0.014114299 -0.021498453
0001e0 cf 3e 06 3c 5e f9 2f 3b 17 66 30 3d 44 fd 31 3c
       0.008193686 0.0026851515 0.04306611 0.010863606
0001f0 41 5b 93 3c 7c ef 6b 3d dd 2c de bc 41 2a a2 bc
       0.01798785 0.057601437 -0.027121002 -0.019795539
000200 7b bb c4 3c b7 39 f8 ba 23 a2 09 3d 4e 39 d0 3c
       0.024015179 -0.0018938099 0.03360189 0.02541795
000210 54 96 14 bb eb b3 42 3d 93 73 c4 bc da 12 30 bb
       -0.002267261 0.047534864 -0.023980891 -0.0026866705
000220 9c fa 0f bc b7 8c bf bc c7 29 2b 3c 4e bd 37 3d
       -0.008787777 -0.023382528 0.010446972 0.04485827
000230 e2 ab de 3c e5 3c 8a 3c 2b 87 30 bc 4c 41 23 bb
       0.02718157 0.01687474 -0.010774414 -0.0024910746
000240 c3 5c 41 bc b0 e3 01 3b 97 68 35 3d c9 f1 3a 3d
       -0.011801901 0.001981955 0.044289198 0.04564074
000250 b7 d6 98 3d 59 c4 96 3d c9 65 44 3b 3e b3 98 3c
       0.074628286 0.07361669 0.0029967895 0.018640157
000260 9b ab 85 bd 9c f0 88 3c 1e 2b 90 3c 10 43 89 bb
       -0.06526872 0.016716294 0.017598685 -0.0041889027
000270 40 c9 04 bc d9 81 5f bc 20 5c 40 bc af ae 06 3d
       -0.008104622 -0.013641798 -0.011740714 0.032881435
000280 5f b4 87 bc 5e d8 87 bc 90 58 06 39 33 6b aa 3c
       -0.0165655 -0.016582664 0.00012812228 0.02080307
000290 a8 8a 42 bd f7 db 5c bd e1 7b 23 bd 95 91 9a ba
       -0.047495514 -0.053920712 -0.039913062 -0.0011792654
0002a0 12 b6 a2 bc 56 ae 4c 3d 3c 28 31 bd 1a 93 ea 3c
       -0.019862209 0.049970947 -0.04325126 0.028634597
0002b0 e4 25 7f bc 02 cf ac 3c 03 4c 23 bc e5 ad 4b bd
       -0.015572999 0.021094803 -0.009966853 -0.049726386
0002c0 d6 9a 9b 3c cf c0 05 3d 0d b5 0f 3c ea 51 64 bd
       0.01899473 0.03265458 0.008771193 -0.05574218
0002d0 30 96 43 3c e1 85 ad bc 2a e9 78 3d 89 4d 9d 3c
       0.011937663 -0.021182002 0.060769238 0.01920201
0002e0 9e ae 42 bd 1b 8b 1c bd fe 21 6f 3d 07 ea fa bc
       -0.04752981 -0.0382186 0.058382027 -0.030629171
0002f0 7f 4d 74 3b 19 d5 75 3d 3e d3 f7 bb 37 c4 1c bd
       0.0037277637 0.06001768 -0.007563024 -0.038273063
000300 1b c9 62 bc ca 9c f6 bb de 12 d6 3c b6 47 96 3b
       -0.013841893 -0.007526015 0.026132043 0.0045861853
000310 ee 9d 8f bb 19 33 13 3d b7 8d 86 bd 68 1d e4 3d
       -0.0043828404 0.035937402 -0.06569999 0.11138421
000320 90 f4 33 3d 96 51 5c 3d 9a 8c 47 3d bd e9 da 3d
       0.043934405 0.053788744 0.048718072 0.10689113
000330 a8 1e 0b 3d bd e7 70 3d 2b 66 a4 3d f5 6d 64 3c
       0.033964783 0.058814753 0.080272995 0.013942231
000340 45 1f 92 3c 98 32 6e bc cd de 99 bc d4 11 ff bc
       0.017837176 -0.01453843 -0.018782998 -0.03113643
000350 a1 a9 34 3d 88 56 54 bb 48 70 2f bd af b1 80 bc
       0.044107083 -0.003240021 -0.04283169 -0.015709726
000360 b4 f6 2d bb d9 11 8e bc 02 b2 09 3c 12 a5 6a bc
       -0.0026544752 -0.017342495 0.008404257 -0.014321582
000370 e5 49 1d 3c 15 69 7a bc 32 6b 68 bd 25 38 07 bd
       0.009600137 -0.015283843 -0.056742854 -0.033012528
000380 cc b3 32 3d 77 dd 30 bc 20 c9 2f 3c d3 99 71 bc
       0.0436285 -0.010794989 0.010729104 -0.014746147
000390 d0 bc 78 39 77 93 16 3d 5b 7d 9c 3c 57 a5 b8 3a
       0.00023721461 0.036761727 0.019102743 0.0014087361
0003a0 23 48 e1 3b b7 51 5b 3d 7b 54 96 3d 89 70 88 bb
       0.0068750544 0.053544726 0.07340332 -0.004163806
0003b0 c5 cf 14 bd 78 8a 2a 3d 5b 72 75 3d e5 94 4a 3c
       -0.036330957 0.04163596 0.05992351 0.012364601
0003c0 d7 81 a4 bc 8d 6e 31 3c df 71 9f 3d 7e 0e cf 3b
       -0.020081444 0.01082958 0.07785391 0.0063188663
0003d0 7d d6 9c bb 37 94 12 3d de c0 05 bd 5c b9 f1 3b
       -0.004786311 0.03578588 -0.032654636 0.007376833
0003e0 a3 ba 13 bd 9c 89 53 bb 0b 4a bd 3c 6d 33 07 3d
       -0.036066663 -0.0032278067 0.023106596 0.033008028
0003f0 57 c3 36 3d bc 64 f0 bc 33 c9 5b bd 4e 6a 3f bd
       0.044619884 -0.029344909 -0.053658675 -0.04673224

fc1.bias f4 [144]
000000 81 32 9d bc 5a f2 c7 ba 65 a8 0c 3d 5a e9 bd 3b
       -0.019189121 -0.0015254722 0.03434028 0.00579564
000010 2a 30 21 bd 0c b2 8c b9 00 a4 a5 3c b0 02 97 3c
       -0.039352573 -0.00026835536 0.020219803 0.018433899
000020 4c 39 16 bd de f7 9d bc 60 df 48 bd 71 2c ca 3c
       -0.036675736 -0.019283231 -0.049041152 0.024679394
000030 13 43 32 3d 95 a2 eb b9 5c 96 f7 bc 15 a7 ed bc
       0.043521 -0.00044943826 -0.030223064 -0.029010335
000040 3f 12 90 3b 8e e3 2a bd 5a 9b 07 3d b5 0f 19 bb
       0.0043967064 -0.04172092 0.03310714 -0.002335531
000050 20 13 33 3c 6c 9f 1b bd 2e 7c 41 3d 50 9d 3c 3c
       0.010929853 -0.037993833 0.047237568 0.011512116
000060 a5 8a 14 3d 06 c1 18 bd b6 93 1e bc 72 06 03 bd
       0.036265034 -0.037293456 -0.009678772 -0.03198857
000070 6b 0b 05 bb f6 63 c4 bc 3f ad 27 bc b3 ea e7 bb
       -0.0020300995 -0.023973446 -0.010234176 -0.007077539
000080 9d b4 6d 3c 76 0a 97 3c 9e 2a 64 3d 3b 7d 0c 3d
       0.014508394 0.018437605 0.055704705 0.034299117
000090 a9 4b 12 3c d0 0d 87 3b a6 3f ad bc 43 e4 85 bb
       0.008929172 0.0041215196 -0.021148514 -0.004086049
0000a0 58 f4 61 3c 1f 31 59 3d 1b bc 64 3b 9f 28 dc 3c
       0.013791166 0.05302536 0.0034902159 0.026874838
0000b0 64 bd 64 3c a3 33 e4 3c 6a 7b e9 3c 90 85 4a bd
       0.01396117 0.027856654 0.028501231 -0.04944378
0000c0 05 fc 3d bc 84 ea b3 bc 19 cd 3a 3d 44 b4 f9 bc
       -0.011595731 -0.021962412 0.045605753 -0.030481465
0000d0 80 5e 0e 3d cf 61 52 3d 71 18 1b 3d b1 32 df 3c
       0.03475809 0.05136281 0.037865106 0.027245851
0000e0 c8 25 0f 3d c9 da 34 3c 02 0d 34 3d 14 f1 01 bd
       0.03494814 0.011038491 0.043957718 -0.03172405
0000f0 96 61 ff bc 07 3e 14 bd 47 fb e5 3c 93 c2 b5 bc
       -0.031174462 -0.036191966 0.02807392 -0.022187507
000100 c3 85 38 3d 2f fa ce 3c c0 c6 d6 bc 16 0b 82 3c
       0.04504944 0.025265781 -0.026217818 0.015874427
000110 8f 40 29 3c 2d 9a c0 bb f0 48 ce 3c 8e d1 2d bd
       0.010330333 -0.005877754 0.025181264 -0.042436175
000120 ba ae 10 3d 20 d9 80 bb 13 d8 45 3d 76 50 b1 bc
       0.035322882 -0.0039321333 0.048301768 -0.021644812
000130 46 bb e2 3b 37 98 9b bc 58 78 09 bd a0 a0 0b 3c
       0.0069192974 -0.01899348 -0.033562034 0.008522183
000140 a5 e8 b9 3c 90 72 14 bd 2c 6a cb 3c cd 78 4a 3d
       0.022693941 -0.036242068 0.0248309 0.04943161
000150 6b 16 93 39 3a 2f d1 3c e3 f3 e2 3c e2 05 e4 bb
       0.00028054728 0.025535215 0.027704185 -0.006958709
000160 ec 7e 1c 3d db 1e 43 3c 58 d1 59 bc 85 10 dd 3b
       0.03820698 0.011909212 -0.01329454 0.006746354
000170 dd 73 fb 3b 23 ed 9e bc a8 e0 79 3d 28 31 54 3c
       0.007673724 -0.019400185 0.061005265 0.012951173
000180 32 6f 89 3c 28 7e 41 bc 75 41 80 3c f5 40 ca 3b
       0.016776655 -0.011809863 0.015656212 0.0061722943
000190 94 57 06 bd a9 b2 1e 3d 55 9e 33 bd a1 4f 22 bd
       -0.032798365 0.038744602 -0.04385217 -0.03962672
0001a0 d3 d9 1f 3d b8 00 d0 bc a0 31 33 3d c9 67 54 3d
       0.039026093 -0.025390968 0.043748498 0.05185679
0001b0 69 75 21 bc 73 90 e1 bc a6 f1 03 bc 3c d7 ec bc
       -0.009854653 -0.027534699 -0.008053219 -0.028911225
0001c0 20 ea 3b bc 1c 4c 84 bc 2e 29 2e 3d 66 77 36 3d
       -0.011469394 -0.016149573 0.04251974 0.04454746
0001d0 a2 9d b7 bc 6b 63 dd bc 3a 38 1f bd cb a1 55 bc
       -0.022414032 -0.027024945 -0.03887198 -0.013039063
0001e0 b4 e0 b4 3c ff ef c0 3c 88 8b 40 3d 78 0a c6 bc
       0.022079803 0.023551939 0.047008067 -0.024174914
0001f0 fb 7f 04 bc 0e 0b 02 bd f4 6e 9c bc 73 b0 26 3c
       -0.008087154 -0.031748824 -0.019095875 0.010173905
000200 5e 0a 08 3d d6 a3 4b 3d cc 10 18 bc 15 2c 54 3d
       0.033213012 0.049716793 -0.009281348 0.051799852
000210 aa 2f 0d bd 9e 46 cf bb 7e 9d 25 3d 49 de 13 bd
       -0.034469284 -0.006325557 0.0404334 -0.03610066
000220 cc 9e 92 bc b4 d5 04 bd a4 05 66 bb 30 26 41 3d
       -0.017897986 -0.032430366 -0.0035098577 0.04715556
000230 4f 73 32 3d 80 23 02 bd 4d 4c 0f 3c b9 e3 84 3c
       0.043566998 -0.031772137 0.008746219 0.016221868

fc2.weight f4 [96, 144]
000000 c1 fe 66 3d 9c df 4e 3d 15 e0 2a 3d aa 6c 05 3d
       0.056395296 0.05050622 0.041717608 0.032574333
000010 2f 06 8c 3d 57 8d 87 bd 38 8d 79 bb 67 e3 38 3d
       0.06837117 -0.06618755 -0.0038078558 0.045138743
000020 56 4b 0c ba 1f d2 b8 3c 91 25 51 3d 4b fe cb bc
       -0.0005351802 0.022561131 0.051061217 -0.02490153
000030 2b 5b 90 bd 5e 12 7c 3d 4c f3 5b 3d fd 25 af bd
       -0.07048639 0.061540954 0.053698823 -0.085521676
000040 ea 14 ac bd bb b2 22 bd d5 f4 16 3c 42 35 9d 3b
       -0.084024265 -0.039721232 0.009213646 0.0047976086
000050 ca 6c 50 3d ee d2 38 3d b8 e9 a3 bc f6 69 15 3c
       0.050885 0.045123033 -0.020008907 0.009119501
000060 32 62 d8 bd 6d d3 b2 bd 8c 0f 9d 3d f3 80 9b 3d
       -0.10565604 -0.087317325 0.07668981 0.075929545
000070 30 4f f1 3c 33 f7 a0 3d 02 1c 7e 3b eb 2b 34 bd
       0.029456705 0.078596495 0.0038774018 -0.043987196
000080 22 b4 aa bb ec 26 3e 3d 1f 36 22 3d cb bf 99 bd
       -0.005209462 0.046423838 0.039602395 -0.07507285
000090 71 6a 98 bc 19 da 5b bd 5b 51 6f 3d c9 ec 99 bd
       -0.018605443 -0.05367479 0.058427196 -0.07515866
0000a0 63 59 5c 3d 63 05 c1 bd 9e 7c 8e bd 87 a3 72 bd
       0.053796183 -0.094248556 -0.069573626 -0.059237983
0000b0 18 31 f5 3c 03 08 ec bc 39 6b 21 3d e0 ce 7a bd
       0.029930636 -0.028812414 0.039408896 -0.061232448
0000c0 5d f3 b9 bd 56 21 5a bd 7a 5c 9c bc 7f e1 22 bd
       -0.09079621 -0.053254448 -0.019087065 -0.03976583
0000d0 1d 63 66 3d c0 4d 94 bb 2f b1 bb bc 4a 0c c8 bd
       0.056246866 -0.00452587 -0.022911636 -0.09767969
0000e0 56 77 3b bd 2e 20 ac bd 59 fa 00 bd 19 9e 8b 3d
       -0.045768104 -0.08404575 -0.03148875 0.06817264
0000f0 3c 1b a3 bd d8 ea aa bd 34 32 8d bd 0d a5 fa 3c
       -0.07964179 -0.08345574 -0.06894341 0.03059628
000100 0e c6 02 bb ce f1 8f bd 7b 56 b0 bc 68 ae c4 bc
       -0.0019954476 -0.070285425 -0.021525612 -0.024008945
000110 a2 37 3b bd 8b cf 91 3c 9c 27 d1 bd 18 bd 5c bd
       -0.045707352 0.01779916 -0.10212633 -0.05389127
000120 be 24 12 3d 1a 2d a8 bd f3 27 d7 bb 3c 24 97 bd
       0.03567957 -0.082117274 -0.0065660416 -0.07379958
000130 73 d0 a2 bd 58 de bc bd 53 12 24 3a d7 32 cc bc
       -0.07949915 -0.09222096 0.0006258834 -0.024926586
000140 2c 06 22 bc 08 98 f7 3c b4 30 03 3d 5e 4a c7 3c
       -0.009889167 0.030223861 0.03202887 0.024327453
000150 4a 34 b7 bd 67 ab 0f bc d0 54 0e bd e0 22 87 bd
       -0.0894552 -0.008768893 -0.034748852 -0.06598449
000160 45 30 67 bd e4 8c 9f 3c be 93 84 3d bf 25 41 3d
       -0.056442518 0.019476362 0.06473492 0.047155138
000170 7a c0 a4 3c 16 e7 9b bc 9e 01 da 3b 44 9f 9c bd
       0.020111311 -0.019031089 0.006653025 -0.07647565
000180 43 e0 ec bc 48 43 03 bd 58 b7 64 3d 83 6c 92 bc
       -0.02891553 -0.032046586 0.055838913 -0.017874008
000190 ea 0c 6a 3d 75 99 8b 3b be 22 6f 3d 50 af 41 bd
       0.057141222 0.004260237 0.058382742 -0.04728633
0001a0 c1 24 28 3d 93 29 54 bd cd f1 a8 bd 65 75 cc bc
       0.041050676 -0.05179746 -0.08249245 -0.024958322
0001b0 7d 01 aa bd 69 2e 88 3d 5f 0c 42 3b 95 e7 b9 bc
       -0.08301065 0.06649477 0.0029609425 -0.022693435
0001c0 d2 7e 93 3d d1 2c 04 bd f9 4d 47 bc 61 32 d2 3c
       0.072019234 -0.032269303 -0.012164586 0.025658788
0001d0 bb a4 a9 3c 29 63 28 bc 4f 57 9b 3d b7 91 a9 bd
       0.020708432 -0.010277548 0.07585012 -0.08279746
0001e0 09 e9 b7 3c 90 ab a7 bd 0b fb f8 3c 84 cb 15 bd
       0.022449987 -0.0818702 0.030393144 -0.03657104
0001f0 47 ac ec 3c 4b 37 c5 bc f5 90 38 bd 7b df d1 bd
       0.028890742 -0.024074217 -0.045060117 -0.10247704
000200 b7 22 67 bd fd a8 75 3d c5 40 9d bd 80 d3 2f 3d
       -0.05642959 0.059975613 -0.076783694 0.04292631
000210 2b ba 3e bd ad 22 51 bc 27 0a b2 bb 6a a5 a0 bd
       -0.046564262 -0.012764615 -0.005433339 -0.0784405
000220 ca b2 b8 bd a2 ab 0c bd 29 96 7b bc 0a 3a 5e bd
       -0.09018476 -0.03434337 -0.015355625 -0.05425457
000230 23 5e 76 bd 10 91 a2 3d ac 5d 1a 3c 69 f6 93 bd
       -0.06014837 0.07937825 0.009421747 -0.072247334
000240 ec 1f 3c 3d b0 26 5b 3d 2b a6 b4 bd 22 b6 03 bc
       0.04592888 0.053503692 -0.088207565 -0.008039029
000250 09 e7 17 3d 6b e3 35 bd fb da 99 bd 02 ba 9a 3d
       0.037085567 -0.044406336 -0.0751247 0.075550094
000260 db e8 ea 3c e4 2a f9 3c 06 75 bc 3d 3e 65 7b bd
       0.028675487 0.03041596 0.09202008 -0.06137585
000270 72 1a 60 bd ec 66 f0 bc 20 be 7c 3d c6 6a 17 bd
       -0.05471272 -0.029345952 0.061704755 -0.03696706
000280 02 71 11 3d 46 43 ac bc d6 7b 8f bd 6e 50 ac bc
       0.035508163 -0.021028172 -0.07006042 -0.021034446
000290 ec 7b 4b bd 98 43 80 3d e0 07 86 bc 53 2f 8c bc
       -0.049678728 0.062628925 -0.016361177 -0.01711241
0002a0 c4 50 91 bd f4 0f 2e bd 26 cd ac 3c c9 de d6 bb
       -0.07095483 -0.042495683 0.021093916 -0.00655732
0002b0 84 e8 a8 bd 43 1d a1 bd a5 ee e7 3b 0c 09 01 bd
       -0.08247474 -0.07866909 0.007078009 -0.03150277
0002c0 99 ee 59 bb 62 45 86 bd ce f1 9c 3d b5 64 9f 3c
       -0.0033253788 -0.065562025 0.07663308 0.0194572
0002d0 19 0c a1 bd f5 9d 33 3d 0b a0 fa b9 30 1e 6b 3d
       -0.078636356 0.04385181 -0.00047802957 0.057401836
0002e0 f3 56 6c 3d 7f 89 e1 bc ed 7e 6d 3d 98 9b c0 3b
       0.05770011 -0.027531384 0.057982374 0.005877923
0002f0 df 30 3f bd b9 f5 65 3c 16 38 97 3c 48 c9 41 bd
       -0.046677466 0.014035636 0.018459361 -0.047311097
000300 a5 16 50 3d a3 97 f2 ba 15 78 e9 bc c8 f2 2e bd
       0.050802846 -0.0018508326 -0.028499642 -0.042712003
000310 bb 07 38 bd 3a 60 0c 3d c3 74 dd ba cc 14 a6 bd
       -0.044929247 0.034271456 -0.001689576 -0.081094354
000320 92 d2 b6 3d ed fb 65 3c 30 e4 88 bd 20 d3 c0 3d
       0.08926882 0.014037115 -0.06684148 0.09415269
000330 0e 8c 12 bd 64 44 a0 bc 35 2f ac bd 12 ab 00 bb
       -0.035778098 -0.019563861 -0.084074415 -0.0019633216
000340 be 9f 9f bd 9d 92 7c 3c df 27 d9 3b ec f0 94 bd
       -0.0779414 0.015415815 0.0066270675 -0.07272515
000350 ef 9a ce 3c 48 91 1d 3d b2 c2 5a bd e6 62 49 bc
       0.025220362 0.03846863 -0.053408332 -0.012291646
000360 38 b8 34 bd eb d8 52 bc ac 29 ba 3b 1d 7e a6 3d
       -0.044120997 -0.0128691 0.005681237 0.08129523
000370 ae 24 a1 3d de 30 f6 3c 1b dd ae 3d b1 62 a4 3c
       0.07868324 0.030052599 0.08538266 0.020066591
000380 cd 52 80 3d 35 5d 13 3d 53 58 02 bd eb 5f 15 3d
       0.06265793 0.03597756 -0.031822514 0.036468428
000390 7c 93 3a bc 2e 25 a2 bd f1 88 8f 3d 30 dc 12 bc
       -0.011387702 -0.07917248 0.070085414 -0.00896363
0003a0 8f 3e 5b 3d 13 04 1d b9 be f8 ca 3b 80 dd c3 3d
       0.053526457 -0.00014974205 0.006194203 0.09563732
0003b0 e5 db ae 3d b0 55 37 bd 6a 9a 29 3d 78 f6 08 bd
       0.08538035 -0.044759452 0.041407026 -0.033438176
0003c0 45 69 4f 3b 7a 03 f1 bc 06 a3 08 bd 5a 82 84 3d
       0.003164844 -0.029420603 -0.033358596 0.06470175
0003d0 1c 7d e2 3d ee 04 a3 bb 4b 2d 79 bc fb 4c 59 bc
       0.11059019 -0.004974953 -0.015208553 -0.0132629825
0003e0 2c b8 20 3d c5 73 79 bd 25 15 a7 bd 2c ff a7 3c
       0.03923814 -0.060901422 -0.0815833 0.020507418
0003f0 24 ed 11 bd 4f 89 96 bc 94 1f 50 bc 2d 58 96 3d
       -0.035626546 -0.01837602 -0.012702841 0.07341037

fc2.bias f4 [96]
000000 d2 dd c0 3b 06 70 b7 bc 98 e4 3d 3d b6 6f 4c 3c
       0.005885818 -0.022392284 0.046360582 0.012477806
000010 ee 6e a7 3c f2 1f 92 3d 2a 9b 93 bd 9c c8 81 bd
       0.020438638 0.07134999 -0.072073296 -0.06337091
000020 d7 15 76 bd ca 86 7b bd 37 a2 8c 3d c2 a5 a4 3d
       -0.06007942 -0.06140784 0.068668775 0.08039428
000030 8e f8 fc 3c 34 dd 2a 3d 07 d0 76 3d fa c8 a9 3c
       0.030880239 0.041714862 0.060256984 0.020725716
000040 15 ef 97 3b 6a 6e 5e 3d 14 93 57 bd a1 c4 72 ba
       0.004636655 0.054304518 -0.0526305 -0.00092608674
000050 4d f0 86 3d 89 3e d8 bc 63 75 94 3d 29 4a 92 bd
       0.065888025 -0.026397007 0.07248952 -0.07143051
000060 bb a1 97 3d de f5 25 3d 58 6f 85 bd ec cb 91 3d
       0.074038945 0.04051768 -0.06515378 0.07118973
000070 28 aa a1 bd f1 cf 3a 3d dc 6d ae bc 9a 97 b6 3d
       -0.07893783 0.045608465 -0.02129262 0.089156345
000080 fa ce 27 bd 52 32 20 3d 81 39 16 bc e7 16 83 bd
       -0.040968873 0.03911049 -0.009168983 -0.06400853
000090 ba 22 8b 3d ce d0 54 bc 63 8e 31 3d e7 2c 1a 3d
       0.06793733 -0.012989236 0.04334868 0.03764048
0000a0 f8 88 b0 3d fc 7d 84 3d d7 ed 47 3d ed 53 c6 3d
       0.08619875 0.06469342 0.048810806 0.09683976
0000b0 72 2d 91 bd df da b1 bc 94 7a 2f 3d bd 25 6d 3c
       -0.07088746 -0.021710811 0.04284151 0.01447433
0000c0 1f aa a5 bd d0 4f 55 bd 73 23 c5 bb e0 98 7a 3d
       -0.08089089 -0.05207807 -0.0060161888 0.06118095
0000d0 9e b8 d7 bc 89 b7 28 bd 66 06 13 b9 42 30 92 3c
       -0.02633315 -0.041190658 -0.00014021396 0.017845277
0000e0 3d c2 9c bc be e7 45 bd 43 79 83 3d a2 71 b4 3d
       -0.019135589 -0.04831671 0.06419613 0.08810736
0000f0 11 a5 b2 3c 47 3f 91 bc e7 cf b2 bc a2 69 1d 3d
       0.021807225 -0.017730368 -0.021827651 0.038430817
000100 20 25 bc 3c 4e cb 31 3d a7 2e 7d ba 7e b0 24 bd
       0.022966921 0.043406777 -0.0009658136 -0.04020738
000110 2e cf 42 3c ff 42 4e bd 1d 5f ab 3c e4 cc f6 3c
       0.011890216 -0.05035686 0.020919377 0.030126996
000120 3f a3 8e bc df 64 b5 3d fb df 09 bd c8 d9 98 3d
       -0.017411826 0.0885713 -0.03366087 0.074634135
000130 1b 74 a5 bd 80 87 ab 3d 93 70 1e bd 9c 92 8d bd
       -0.08078786 0.08375454 -0.038681578 -0.06912729
000140 cd 64 2d 3d bc 13 2a bd a0 fe 9d 3c 35 6f f6 3c
       0.04233246 -0.041522726 0.019286454 0.030082325
000150 11 c9 97 bd 17 fd 7f bd ae 37 94 3c cf f3 8b 3d
       -0.07411397 -0.062497225 0.018092956 0.06833612
000160 37 b4 4a 3d 3b de 5e 3c 21 2f a2 bd e6 b1 a2 3b
       0.049488273 0.013602789 -0.079191454 0.004965055
000170 60 13 94 3d ed 60 8d bd 51 7c ee bb 6c 59 f2 3c
       0.07230258 -0.06903253 -0.0072780033 0.029583655
