models/trained/ConvNet4_4.pt (torch, 441826 bytes, 14 tensors)

conv1.weight f4 [16, 1, 7, 7]
0.08162557 0.123933755 0.16923065 0.09686492 0.07161259 -0.022294544 -0.015027541 0.0065481826
0.057667363 0.092193134 0.023019481 0.07099033 0.046375517 -0.031132715 0.08885381 0.17206518
0.052227598 0.19533087 0.16781703 -0.016725872 -0.16895111 -0.116227865 -0.035512324 0.11976523
-0.04403572 -0.15892005 -0.30362415 -0.45258304 -0.18866923 -0.04968946 -0.15216294 -0.19859917
-0.4255445 -0.31404644 -0.11432412 -0.24267347 -0.24696885 -0.37311947 -0.34087202 -0.23830172
0.06702211 -8.781634e-05 -0.45176095 -0.22740078 -0.04073057 0.011437669 0.10456174 0.0373832
-0.0133568905 -0.207451 -0.14681421 -0.17200464 -0.058772255 -0.038616024 -0.10554521 -0.021963254
-0.07610659 0.00030986784 -0.17329644 -0.26383063 -0.124303125 0.11433351 0.06953804 0.13749675
-0.07740532 -0.013756419 -0.17292254 0.15373762 0.13338538 0.09451842 0.15136445 -0.04445724
-0.073195435 -0.047649726 0.20810796 0.20303454 -0.06886866 -0.084307104 -0.07212564 0.1190871
0.12814677 0.03377814 0.12377307 0.06476509 0.038334616 0.023287658 0.091870494 -0.052275464
-0.053589165 -0.09352326 0.05524085 -0.13899235 -0.11164521 -0.062280573 0.06066433 0.1015876
0.097910784 0.08888361 0.15232868 -0.070800535 -0.112657756 0.1412413 0.15090643 0.054030117
-0.18452674 0.120696664 -0.063814566 -0.02844641 0.0052536842 0.12574321 -0.0024331089 -0.1511205
-0.055058546 0.0131125925 -0.07907938 -0.10542616 0.12533693 0.16476218 0.04115944 -0.08507524
0.15622792 0.022496922 -0.1501668 -0.1587426 0.027384551 -0.055747695 -0.11123785 0.11249181
0.04673834 -0.21702978 -0.09060891 0.036246996 0.098704524 -0.16182722 -0.028502988 -0.052208435
0.02791956 -0.009508381 0.05570447 -0.053536687 0.11110975 -0.04249156 0.10134691 0.1899602
0.038308587 -0.08828672 0.012262374 -0.038162157 0.036742505 0.1845264 0.13858476 0.18055238
0.03505844 0.19341595 -0.027621789 -0.021106275 0.056664992 0.028312221 0.16898291 0.12209886
0.2050938 -0.063347176 -0.016843492 0.04305266 -9.03607e-05 0.12443148 0.06515602 0.15122762
0.014779096 -0.051123478 0.029463777 -0.023353817 -0.020539578 0.049211767 -0.03666934 -0.111900404
-0.12336369 -0.22710729 -0.29699525 -0.13317232 -0.20894322 0.12314682 -0.1515037 -0.0110602295
-0.13264547 -0.09892287 -0.21310581 -0.07496463 0.02569274 -0.054547273 0.11589168 -0.013202586
0.010556026 -0.058002017 -0.039386936 -0.011408293 -0.04464372 -0.040786646 0.14507125 0.104043014
0.20253485 0.12905946 -0.01798137 -0.002783674 0.06919977 -0.021695849 -0.120407514 -0.07626797
0.03841711 -0.024011774 0.105812974 -0.14369813 -0.16206913 -0.15364783 -0.11388216 -0.094076954
0.12994927 0.012320799 -0.14125463 0.081265226 0.052887827 -0.023498358 0.15956528 0.034039848
0.01005531 -0.07623625 0.15545936 0.120292686 -0.041008808 -0.0301652 -0.12419184 0.05219673
0.14720786 -0.03423389 -0.12597555 -0.08105123 -0.11553443 0.076165296 0.06327904 0.08594272
-0.029800193 0.111183554 0.07843341 0.0043014255 0.071802355 0.1895799 -0.12945576 -0.03386334
0.11152593 0.008702512 0.1918174 0.0899991 -0.039328925 -0.15160094 -0.105611324 0.04502054
00000000: 4f2b a73d fbd0 fd3d cd4a 2d3e 1d61 c63d
00000010: 9fa9 923d 0ca3 b6bc 1336 76bc 2392 d63b
00000020: 9d34 6c3d c1cf bc3d 5a93 bc3c 6163 913d
00000030: 41f4 3d3d 090a ffbc fdf8 b53d db31 303e
00000040: 9bec 553d d104 483e 3ad8 2b3e b204 89bc
00000050: 8501 2dbe e008 eebd 5f75 11bd 7947 f53d
00000060: cd5e 34bd f0bb 22be a074 9bbe f7b8 e7be
00000070: 8232 41be 2d87 4bbd 9ad0 1bbe 955d 4bbe
00000080: f8e0 d9be b2ca a0be c422 eabd 657f 78be
00000090: 67e5 7cbe 8409 bfbe c786 aebe 5e05 74be
000000a0: e342 893d 0a2a b8b8 364d e7be c0db 68be
000000b0: 19d5 26bd 1065 3b3c 7724 d63d 201f 193d
000000c0: dcd6 5abc 096e 54be 7756 16be fc21 30be
000000d0: 2dbb 70bd d62b 1ebd 1628 d8bd 48ec b3bc
000000e0: c6dd 9bbd c275 a239 9f74 31be cf14 87be
000000f0: a392 febd b027 ea3d f669 8e3d f3cb 0c3e
00000100: ae86 9ebd 9a62 61bc 9b12 31be 656d 1d3e
00000110: 2d96 083e e092 c13d 48ff 1a3e cb18 36bd
00000120: 7de7 95bd 5c2c 43bd 411a 553e 49e8 4f3e
00000130: 030b 8dbd 34a9 acbd 9cb6 93bd f0e3 f33d
00000140: e838 033e f25a 0a3d bc7c fd3d 8fa3 843d
00000150: c204 1d3d c2c5 be3c 9926 bc3d cc1e 56bd
00000160: 5080 5bbd 1f89 bfbd 3b44 623d 0354 0ebe
00000170: 3ea6 e4bd ea19 7fbd 297b 783d 290d d03d
00000180: 7385 c83d 9c08 b63d 0dfc 1b3e dfff 90bd
00000190: 1cb9 e6bd 8fa1 103e 3787 1a3e af4e 5d3d
000001a0: 94f4 3cbe d02f f73d 36b1 82bd 7208 e9bc
000001b0: 1927 ac3b d4c2 003e cb74 1fbb 55bf 1abe
000001c0: 1285 61bd 33d6 563c 5ff4 a1bd ace9 d7bd
000001d0: 5358 003e 6bb7 283e cd96 283d ed3b aebd
000001e0: 36fa 1f3e 774b b83c 53c5 19be 6c8d 22be
000001f0: 9155 e03c b257 64bd abd0 e3bd 1b62 e63d
00000200: b470 3f3d 0e3d 5ebe 2a91 b9bd bb77 143d
00000210: 9925 ca3d 09b6 25be 197f e9bc 83d8 55bd
00000220: 90b7 e43c 0ac9 1bbc 5f2a 643d 4949 5bbd
00000230: 828d e33d a10b 2ebd f88e cf3d ed84 423e
00000240: 77e9 1c3d abcf b4bd 20e8 483c ec4f 1cbd
00000250: 4f7f 163d 7df4 3c3e 2ae9 0d3e b9e2 383e
00000260: 7099 0f3d d50e 463e 1747 e2bc 11e7 acbc
00000270: 8d19 683d 08ef e73c db09 2d3e f80e fa3d
00000280: 1c04 523e 2abc 81bd 5dfb 89bc fc57 303d
00000290: 0880 bdb8 efd5 fe3d 8570 853d 6adb 1a3e
000002a0: 0524 723c da66 51bd 055e f13c 8150 bfbc
000002b0: 9e42 a8bc 4792 493d 9732 16bd 0a2c e5bd
000002c0: 1aa6 fcbd d08e 68be c30f 98be 535e 08be
000002d0: 36f5 55be 6634 fc3d c923 1bbe f735 35bc
000002e0: 37d4 07be 1398 cabd 6938 5abe 0e87 99bd
000002f0: 9579 d23c f66c 5fbd 9e58 ed3d a94f 58bc
00000300: 2ff3 2c3c 8693 6dbd 3254 21bd d9e9 3abc
00000310: 55dc 36bd e60f 27bd 8f8d 143e 8114 d53d
00000320: 4c65 4f3e 2a28 043e ab4d 93bc 4d6e 36bb
00000330: 9cb8 8d3d 7ebb b1bc 3798 f6bd 6232 9cbd
00000340: 425b 1d3d 57b4 c4bc 79b4 d83d 9a25 13be
00000350: 73f5 25be db55 1dbe 0d3b e9bd 6bab c0bd
00000360: 6c11 053e 2ddd 493c 0ea5 10be 626e a63d
00000370: e8a0 583d a17f c0bc 1565 233e 5e6d 0b3d
00000380: 07bf 243c c021 9cbd bd30 1f3e 035c f63d
00000390: daf8 27bd 021d f7bc 4b58 febd 3dcc 553d
000003a0: a8bd 163e d638 0cbd bcff 00be 30fe a5bd
000003b0: 519d ecbd 8dfc 9b3d 7198 813d bd02 b03d
000003c0: 891f f4bc 34b4 e33d b2a1 a03d f9f2 8c3b
000003d0: 1d0d 933d 3c21 423e 0d90 04be 49b4 0abd
000003e0: b567 e43d fb94 0e3c c86b 443e 7351 b83d
000003f0: 5e17 21bd 473d 1bbe c04a d8bd 7567 383d

conv1.bias f4 [16]
0.0011243144 0.09508695 -0.04565571 -0.018048096 0.12763935 -0.018714285 0.17009546 -0.028599642
0.1426325 0.03556141 0.008908617 0.06062163 0.023296982 0.07482807 -0.05135955 0.05164906
00000000: bb5d 933a f2bc c23d 7b01 3bbd 9ad9 93bc
00000010: e4b3 023e b34e 99bc 812d 2e3e cc49 eabc
00000020: 410e 123e d7a8 113d 73f5 113c 634e 783d
00000030: 50d9 be3c 763f 993d 645e 52bd f78d 533d

conv2.weight f4 [32, 16, 5, 5]
-0.038960323 -0.027585054 -0.03164717 -0.02503649 -0.04240576 -0.050254107 -0.038876656 -0.021393402
-0.017778045 0.0007119051 0.02600336 0.044383954 0.051145293 0.042265043 0.03715629 0.093053125
0.04423067 0.06214712 0.038696695 0.011305338 0.11147307 0.08456619 0.059118584 -0.001073374
-0.025342118 -0.049757153 -0.042982362 -0.063626125 -0.037350833 -0.031978626 0.0019492947 -0.043281287
-0.015078131 -0.026173986 0.019581974 -0.034857154 -0.010152986 -0.008247559 0.058247276 0.050810106
0.018052932 0.028969493 0.033287324 0.018198231 0.032783333 -0.03129317 -0.027603323 -0.055106085
-0.010876255 -0.012778436 -0.0474029 -0.024442062 0.025256516 -0.0053256997 0.020524796 -0.06680535
-0.06036824 -0.037651654 -0.015940217 -0.03699198 -0.021762935 -0.017448934 -0.0125640165 -0.008106514
-0.03612554 0.034794938 0.0012709029 0.022650188 0.027222274 0.020965185 0.06573983 0.045625843
0.048931163 0.043167494 0.0055889357 0.003277234 -0.052091237 -0.042920552 -0.051422324 -0.010445328
-0.016629219 -0.059221935 -0.07835433 -0.07021046 -0.010021382 0.026304694 0.0024507882 -0.023763772
-0.0063292165 0.018519094 0.039747857 0.061897546 0.0068670157 0.050436925 0.03348181 0.10069679
0.07912617 0.07443557 0.02502574 0.03465047 0.03716429 0.053660233 0.068488106 0.016834257
0.08140667 -0.032667313 0.006235373 0.036841698 0.037903473 0.026556782 -0.012622053 -0.03606514
0.0065287766 0.0067653465 0.026286919 -0.04477241 -0.0362763 -0.051199436 -0.061230086 -0.04667263
-0.03472911 -0.018398955 -0.023455728 -0.02796505 -0.019748742 0.072894864 0.039817117 0.0674289
0.014829049 -0.018519258 0.06656282 0.07945985 0.055280007 0.038943503 0.021486232 0.009333078
-0.012147959 -0.005042554 0.04096851 0.056868058 -0.0758028 -0.102822274 -0.08794717 0.002771282
0.010401185 -0.03863717 -0.022854833 -0.02892702 -0.027860252 -0.02950363 -0.05290813 -0.014768823
-0.010449489 -0.013945754 -0.07484528 -0.0047897743 0.008724109 0.013690856 -0.010926452 -0.050348025
-0.0059863264 0.02559083 0.010146009 -0.031221 -0.02738721 -0.0015362262 -0.025242284 -0.0366226
-0.037848078 -0.036023207 -0.030399667 -0.02356697 -0.020143738 -0.02604233 -0.012209831 0.02537357
0.047103297 0.021566924 0.01663386 0.0055924198 0.048333246 0.048748128 -0.001534873 0.041338246
0.036265552 -0.04477901 -0.03221303 -0.006587044 -0.013049323 -0.011241954 -0.032543384 -0.010366505
-0.04128482 -0.032980107 -0.027942263 0.01303581 -0.01418073 0.026645647 -0.047664452 -0.06635011
0.04343683 0.07274013 0.049734823 0.07950704 0.073247746 -0.012437329 0.0026999656 0.06694825
-0.008420884 0.0069325594 -0.04466153 -0.03882181 -0.0051332675 0.021123083 -0.024010712 -0.05688948
-0.039162632 -0.027587598 -0.04538895 0.019304778 0.0112016965 -0.016104985 0.00647019 0.024308963
0.016063176 -0.010146762 -0.0045899223 0.00143583 -0.031670667 -0.023719287 -0.0013100082 -0.00050769316
0.021755273 0.015427321 0.0028503607 0.018375494 0.028915493 0.062486142 0.018802566 0.04488192
0.061638504 0.062474452 0.025939029 0.04800441 0.017999971 0.018534333 0.032459766 0.056747846
0.08758836 0.08504241 -0.0018939573 -0.0045252475 -0.014948779 -0.0438566 -0.016372358 0.00049267354
00000000: dc94 1fbd 0dfa e1bc 77a0 01bd 5319 cdbc
00000010: aab1 2dbd 40d7 4dbd 213d 1fbd 3741 afbc
00000020: 43a3 91bc 249f 3a3a 0005 d53c f3cb 353d
00000030: ba7d 513d 1c1e 2d3d 3231 183d a392 be3d
00000040: 382b 353d fa8d 7e3d 6d80 1e3d 063a 393c
00000050: fe4b e43d 0a31 ad3d 5426 723d 74b0 8cba
00000060: 469a cfbc 28ce 4bbd 460e 30bd 6a4e 82bd
00000070: 30fd 18bd 05fc 02bd 7a7f ff3a b847 31bd
00000080: 440a 77bc d46a d6bc 606a a03c 60c6 0ebd
00000090: b658 26bc c520 07bc b294 6e3d 421e 503d
000000a0: bee3 933c 6e51 ed3c 4a58 083d 7514 953c
000000b0: d147 063d 442d 00bd 5d20 e2bc ebb6 61bd
000000c0: 5232 32bc a55c 51bc 8b29 42bd b83a c8bc
000000d0: c1e6 ce3c 3583 aebb 9e23 a83c 3ed1 88bd
000000e0: b044 77bd 9f38 1abd 0f95 82bc e784 17bd
000000f0: 2f48 b2bc 11f1 8ebc 4ed9 4dbc 2fd1 04bc
00000100: 60f8 13bd 2385 0e3d 6d94 a63a e38c b93c
00000110: 3f01 df3c 2ebf ab3c 9ba2 863d 2ae2 3a3d
00000120: 0b6c 483d 66d0 303d 6423 b73b ddc6 563b
00000130: 9f5d 55bd 76cd 2fbd 37a0 52bd e222 2bbc
00000140: 003a 88bc b392 72bd 3c78 a0bd 80ca 8fbd
00000150: b930 24bc f17c d73c 679d 203b 3eac c2bc
00000160: 5165 cfbb 5bb5 973c a6ce 223d 4888 7d3d
00000170: b404 e13b f396 4e3d 3924 093d 1e3a ce3d
00000180: e70c a23d ad71 983d c802 cd3c a7ed 0d3d
00000190: 9539 183d d5ca 5b3d 7e43 8c3d ffe7 893c
000001a0: 8ab8 a63d 29ce 05bd 1a52 cc3b 52e7 163d
000001b0: ac40 1b3d 9c8d d93c bacc 4ebc 0ab9 13bd
000001c0: 59ef d53b d7af dd3b aa57 d73c 4663 37bd
000001d0: 7596 14bd 80b6 51bd 66cc 7abd cd2b 3fbd
000001e0: 1c40 0ebd 68b9 96bc 3a26 c0bc f616 e5bc
000001f0: 1dc8 a1bc e749 953d 4617 233d 2a18 8a3d
00000200: 8af5 723c b3b5 97bc 1652 883d d9bb a23d
00000210: 4a6d 623d 3983 1f3d e503 b03c c4e9 183c
00000220: 3c08 47bc 023c a5bb 99ce 273d 7bee 683d
00000230: 803e 9bbd 7c94 d2bd a51d b4bd 669e 353b
00000240: bb69 2a3c 0242 1ebd 0f3a bbbc 5cf8 ecbc
00000250: 2f3b e4bc 99b1 f1bc 32b6 58bd eff8 71bc
00000260: 5534 2bbc bb7c 64bc 7b48 99bd 8af3 9cbb
00000270: 91ef 0e3c 9d4f 603c dd04 33bc bb39 4ebd
00000280: f228 c4bb dca3 d13c 723b 263c 2fc3 ffbc
00000290: 245b e0bc 335b c9ba e8c8 cebc 9401 16bd
000002a0: 9606 1bbd 128d 13bd b908 f9bc 850f c1bc
000002b0: 7b04 a5bc b956 d5bc be0b 48bc 3cdc cf3c
000002c0: 63ef 403d 1ead b03c bc43 883c 9e40 b73b
000002d0: 15f9 453d 1eac 473d cb2d c9ba 4b52 293d
000002e0: 308b 143d 326a 37bd cff1 03bd 21d8 d7bb
000002f0: d4cc 55bc 2c30 38bc 364c 05bd 46d8 29bc
00000300: 451a 29bd 2616 07bd 2ce7 e4bc 2694 553c
00000310: 4b56 68bc f947 da3c cd3b 43bd 91e2 87bd
00000320: d1ea 313d c7f8 943d beb6 4b3d 96d4 a23d
00000330: ea02 963d f0c5 4bbc e8f1 303b 2a1c 893d
00000340: bff7 09bc 862a e33b 02ef 36bd 9e03 1fbd
00000350: f834 a8bb 510a ad3c 1db2 c4bc f204 69bd
00000360: ff68 20bd 63ff e1bc c3e9 39bd 0e25 9e3c
00000370: 5287 373c 9aee 83bc e303 d43b 9723 c73c
00000380: ec96 833c 9b3e 26bc 0f67 96bb 7632 bc3a
00000390: 1ab9 01bd f34e c2bc 95b4 abba b616 05ba
000003a0: 1d38 b23c e0c2 7c3c 1ecd 3a3b 3488 963c
000003b0: 2fe0 ec3c 78f1 7f3d d707 9a3c 1bd6 373d
000003c0: a878 7c3d 36e5 7f3d 167e d43c 46a0 443d
000003d0: ad74 933c 50d5 973c 88f4 043d 6e70 683d
000003e0: 8761 b33d b72a ae3d a93e f8ba 8748 94bb
000003f0: b9eb 74bc faa2 33bd 531f 86bc c326 013a

conv2.bias f4 [32]
0.021423189 0.036646057 0.07571836 -0.022278784 0.0022833298 0.010703962 0.0115184225 0.009992326
0.049553815 0.03927267 -0.020605443 0.050232597 -0.0013671038 0.022666464 0.04674636 -0.042205323
0.0063742916 0.0072893267 -0.008488244 0.0249164 0.039583396 -0.041545294 -0.024496041 0.004905963
-0.0017588392 0.01758796 -0.00723938 0.023580952 -0.0024928902 0.019604813 -0.013871981 0.026025385
00000000: af7f af3c 2d1a 163d 3a12 9b3d ff81 b6bc
00000010: eba3 153b ac5f 2f3c c4b7 3c3c dab6 233c
00000020: f1f8 4a3d 61dc 203d bfcc a8bc b2c0 4d3d
00000030: 6430 b3ba 05af b93c 1c79 3f3d 7ddf 2cbd
00000040: 6fdf d03b 4edb ee3b 4712 0bbc 7a1d cc3c
00000050: 3322 223d 662b 2abd ecab c8bc 33c2 a03b
00000060: da88 e6ba a014 903c 5238 edbb d72c c13c
00000070: c25f 23bb 469a a03c 4e47 63bc 3033 d53c

conv3.weight f4 [64, 32, 4, 4]
-0.0797733 -0.048142266 -0.012921204 -0.012764303 -0.016289975 0.0021341415 0.012571639 0.0076033017
-0.0011896797 0.012042765 -0.0117607685 -0.019730734 0.038076125 -0.0032440806 -0.02071669 -0.047463328
-0.08150102 -0.050041158 -0.040910933 -0.03554024 -0.06305755 -0.022593966 -0.02065922 0.002637558
-0.056785155 -0.015973333 -0.032986753 -0.006103698 -0.034809455 0.016348546 -0.0073923552 0.007058076
-0.10286134 -0.009489027 -0.0018931745 -0.025131445 -0.041955374 0.0057377787 -0.03692288 -0.043316256
-0.0045594666 0.0160574 -0.019633988 -0.022000344 0.07684907 0.009599663 -0.0054308493 -0.054957323
0.014857179 0.038834218 0.00725587 0.023655808 -0.012010254 -0.025556413 -0.050383452 -0.032698456
-0.013647377 -0.0034810079 -0.021979585 -0.025343021 0.009219737 0.017423563 -0.0043497686 -0.014061193
-0.04110338 -0.0073659713 0.010594524 0.007766783 -0.042028695 -0.026136734 -0.0041651246 -9.516147e-05
0.017637394 -0.0030416988 -0.0050100144 0.01981687 0.0067858603 -0.02130535 -0.015652502 0.01914435
0.019671867 0.043214925 0.0238013 -0.001387181 0.0016487951 0.027489385 0.009759611 -0.015169687
-0.020868497 0.008414625 0.0040463074 -0.006745652 -0.03207934 0.0023743939 -0.027414788 -0.04264846
-0.048079986 -0.04629493 -0.056388605 -0.034230195 -0.028071094 -0.011698271 -0.018882308 -0.027729826
-0.015551671 -0.036963347 -0.014845648 0.009017701 0.009839524 0.035625756 0.047233883 -0.036000412
0.10634864 0.08383901 0.090040565 0.13244191 -0.025673421 0.00950101 0.03486781 0.04950633
0.023833366 0.055274233 0.074706525 0.04725708 -0.024191821 0.009460593 0.02483632 0.0155235175
-0.03522626 0.008265746 0.039330576 0.029005976 -0.06668563 -0.006643818 0.026754795 0.0029320682
0.008631343 0.046493996 0.038911935 0.0077371025 0.06020544 0.0346599 0.01692601 0.022606684
-0.09047967 -0.07525711 -0.07026312 -0.021179806 -0.043810688 -0.022134457 -0.022060407 0.03678193
-0.030858438 -0.0019989354 0.01757293 0.06951392 0.05153244 0.03976023 0.04557126 0.090757824
0.009816098 -0.012199436 -0.03525733 -0.05995633 0.030955771 -0.005466047 -0.016345475 -0.020219719
0.009499061 0.0027277402 0.016118946 0.010260482 0.002096704 -0.0009436492 0.009836783 0.02534824
-0.025428561 0.010906332 0.02258162 0.060433235 -0.014910886 0.0042573484 -0.007752152 0.00090681517
-0.0031782645 0.025196692 -0.011685556 -0.051780116 0.04982288 0.01015386 -0.013056772 -0.027318886
-0.036493998 -0.043235213 -0.04354232 -0.028761603 -0.029660776 -0.0048080604 -0.013037513 -0.006326944
-0.01827902 0.0029877152 0.0024767218 0.005474851 0.012696996 -0.025942868 -0.024553284 0.009061123
-0.054445833 -0.0058626123 0.027663032 0.036285195 -0.0552852 -0.009218229 0.0064165844 -0.0005393916
-0.012199901 -0.0030711573 -0.027271295 -0.018068455 0.06468413 0.046730585 0.015914729 0.03354686
-0.07419805 -0.037066214 -0.019870754 -0.037255097 -0.072620325 -0.036012188 0.003502807 -0.017057458
-0.036174744 -0.034420982 -0.02095706 -0.030369002 -0.034348015 -0.03650963 0.00253597 -0.02976943
-0.052554805 -0.021364389 0.017568585 0.036972184 -0.047420286 -0.01534007 0.0015067415 -0.004525427
-0.055336356 -0.029467165 -0.01952656 -0.03204419 0.00037564046 0.008664142 0.0040993136 -0.008830693
00000000: 2f60 a3bd d330 45bd 75b3 53bc 5e21 51bc
00000010: 8e72 85bc f4dc 0b3b 47f9 4d3c 1e25 f93b
00000020: 07ef 9bba 044f 453c 3db0 40bc 59a2 a1bc
00000030: b6f5 1b3d a49a 54bb 0cb6 a9bc e868 42bd
00000040: 02ea a6bd f5f7 4cbd 3992 27bd a592 11bd
00000050: 5124 81bd fb16 b9bc 863d a9bc e1da 2c3b
00000060: 8d97 68bd 82da 82bc 1e1d 07bd 8801 c8bb
00000070: 5c94 0ebd 63ed 853c 923b f2bb 6f47 e73b
00000080: f7a8 d2bd dd77 1bbc 6524 f8ba 76e0 cdbc
00000090: 66d9 2bbd fa03 bc3b 723c 17bd 636c 31bd
000000a0: 9467 95bb cf8a 833c 75d7 a0bc 113a b4bc
000000b0: 0c63 9d3d e847 1d3c 44f5 b1bb ee1a 61bd
000000c0: 866b 733c a110 1f3d a6c2 ed3b d3c9 c13c
000000d0: a8c6 44bc af5b d1bc e15e 4ebd d1ee 05bd
000000e0: 3f99 5fbc 9f21 64bb 880e b4bc 2b9c cfbc
000000f0: 610e 173c dcbb 8e3c 8188 8ebb eb60 66bc
00000100: 055c 28bd 3f5e f1bb a894 2d3c 7f80 fe3b
00000110: 4826 2cbd b41c d6bc 997b 88bb 6d91 c7b8
00000120: 4c7c 903c 3d57 47bb 0c2b a4bb fd56 a23c
00000130: ec5b de3b 8f88 aebc ad39 80bc 9dd4 9c3c
00000140: e526 a13c 2202 313d f2fa c23c 12d2 b5ba
00000150: 621c d83a 6b31 e13c c7e6 1f3c 478a 78bc
00000160: 69f4 aabc 7fdd 093c e396 843b a10a ddbb
00000170: a065 03bd b89b 1b3b fa94 e0bc 27b0 2ebd
00000180: 85ef 44bd c19f 3dbd bdf7 66bd f634 0cbd
00000190: 5af5 e5bc 1baa 3fbc 12af 9abc a929 e3bc
000001a0: 70cc 7ebc e166 17bd 293b 73bc fbbe 133c
000001b0: f435 213c 50ec 113d 5178 413d 2b75 13bd
000001c0: 51cd d93d c9b3 ab3d 3067 b83d da9e 073e
000001d0: 1151 d2bc 20aa 1b3c 8cd1 0e3d 26c7 4a3d
000001e0: 313e c33c 3c67 623d bcff 983d a490 413d
000001f0: ed2d c6bc 9a00 1b3c 8a75 cb3c 5a56 7e3c
00000200: 6949 10bd 0d6d 073c 1919 213d f19d ed3c
00000210: 7a92 88bd 63b4 d9bb df2c db3c f127 403b
00000220: 7a6a 0d3c 7d70 3e3d 1f62 1f3d 8587 fd3b
00000230: fb99 763d 8af7 0d3d 6aa8 8a3c a731 b93c
00000240: 684d b9bd 6620 9abd 1ce6 8fbd 4681 adbc
00000250: d672 33bd 5253 b5bc 07b8 b4bc a6a8 163d
00000260: d6ca fcbc 9200 03bb 1bf5 8f3c 505d 8e3d
00000270: ae13 533d 9fdb 223d eea8 3a3d 3ddf b93d
00000280: b3d3 203c 25e0 47bc fd69 10bd c594 75bd
00000290: f596 fd3c 871c b3bb f2e6 85bc d3a3 a5bc
000002a0: f3a1 1b3c e3c3 323b e10b 843c 951b 283c
000002b0: db68 093b 3a5f 77ba 752a 213c 1da7 cf3c
000002c0: 8f4f d0bc 79b0 323c 17fd b83c d788 773d
000002d0: ca4c 74bc 3a81 8b3b c405 febb 56b7 6d3a
000002e0: 6e4a 50bb 4b69 ce3c c674 3fbc 6317 54bd
000002f0: 1413 4c3d 605c 263c 12ec 55bc dbcb dfbc
00000300: bb7a 15bd 6817 31bd 6f59 32bd 749d ebbc
00000310: 28fb f2bc ef8c 9dbb 4b9b 55bc 4152 cfbb
00000320: e2bd 95bc 8bcd 433b 7f50 223b 6166 b33b
00000330: 1007 503c 2386 d4bc f823 c9bc 1b75 143c
00000340: 9802 5fbd 281b c0bb 959d e23c c99f 143d
00000350: bc72 62bd 0e08 17bc 3642 d23b f565 0dba
00000360: 18e2 47bc 7845 49bb 0d68 dfbc 4c04 94bc
00000370: 1d79 843d 9268 3f3d 9b5f 823c 6f68 093d
00000380: 26f5 97bd bed2 17bd fec7 a2bc cd98 18bd
00000390: f7b9 94bd 8481 13bd 5a8f 653b 15bc 8bbc
000003a0: f82b 14bd 04fd 0cbd 24ae abbc 6ac8 f8bc
000003b0: 81b0 0cbd 1f8b 15bd 8432 263b 05df f3bc
000003c0: b543 57bd 5f04 afbc feeb 8f3c 2570 173d
000003d0: c63b 42bd eb54 7bbc db7d c53a 084a 94bb
000003e0: 60a8 62bd 2065 f1bc 2af6 9fbc c540 03bd
000003f0: 9cf1 c439 0cf4 0d3c 8953 863b 9cae 10bc

conv3.bias f4 [64]
0.0039499635 -0.0006231726 -0.0029429507 -0.04029926 0.0039622784 -0.014357634 0.02923711 -0.007438752
0.009974853 -0.015779013 -0.008182075 -0.005979855 0.006833883 0.0036207505 -0.0048357705 0.018145384
-0.0015446534 -0.010270531 -0.0074165384 -0.015421335 -5.327577e-06 0.026649341 0.026227843 0.010826036
-0.02528829 -0.0150971925 -0.017995821 -0.009316256 -0.010476962 0.027844384 -0.018374749 0.024053462
-0.021740623 -0.015486833 -0.009761824 0.03831654 -0.012092098 -0.022654673 0.01197982 0.028240768
0.014455259 -0.026526263 -0.005762535 0.032830175 0.013563535 0.012696402 0.0067974124 0.022471175
-0.0031325677 0.024440063 -0.0034662043 0.017191594 -0.0007193714 0.006429586 -0.0073218443 -0.015072798
-0.009176619 -0.004072239 0.005248658 0.007243706 0.020054962 -0.011859241 0.0012258255 0.009341606
00000000: b26e 813b 685c 23ba 85de 40bb d610 25bd
00000010: 00d6 813b 483c 6bbc aa82 ef3c c6c0 f3bb
00000020: 916d 233c fd42 81bc 1c0e 06bc a9f2 c3bb
00000030: c4ee df3b 1d4a 6d3b 6275 9ebb a1a5 943c
00000040: f875 caba bb45 28bc 6f06 f3bb c4a9 7cbc
00000050: 8ac3 b2b6 b84f da3c c6db d63c b05f 313c
00000060: 6329 cfbc 375a 77bc f96b 93bc 36a3 18bc
00000070: 90a7 2bbc e819 e43c a486 96bc c40b c53c
00000080: 6419 b2bc 7cbc 7dbc 0ff0 1fbc cef1 1c3d
00000090: ef1d 46bc 4b96 b9bc 0247 443c 2f59 e73c
000000a0: c0d5 6c3c 9b4d d9bc a6d3 bcbb ef78 063d
000000b0: 9739 5e3c 9204 503c d4bc de3b 7815 b83c
000000c0: c44b 4dbb 8736 c83c 4229 63bb 63d5 8c3c
000000d0: 3394 3cba 47af d23b 15ec efbb e6f3 76bc
000000e0: 8859 16bc 6b70 85bb effc ab3b 9c5c ed3b
000000f0: 4e4a a43c 434d 42bc e1ab a03a 890d 193c

conv4.weight f4 [128, 64, 1, 1]
0.07046941 -0.015712846 0.12018056 -0.021065649 -0.02794655 0.11312105 0.06779417 -0.14830884
-0.015341069 0.0110987555 -0.19234072 0.053198885 0.013645208 -0.097147994 0.00019513078 0.04759242
-0.009983911 0.12934561 0.070853576 -0.17587475 0.00067483675 0.064757295 0.14730495 -0.057138566
-0.0230588 -0.18035498 0.05006066 0.09310129 -0.16457923 0.069803976 -0.01883745 0.069854505
-0.0075532054 -0.1693854 0.082828656 0.06880215 -0.024743633 -0.024814691 0.057165537 0.07225255
0.08332702 -0.18711726 0.07662922 0.046357453 0.014394865 0.050059684 0.20420085 0.012418026
0.12521961 -0.012803415 0.113917276 0.05705558 -0.0070124874 0.022295319 0.0436978 -0.021944026
0.07925011 0.025202774 0.024095522 0.11231526 0.062517695 -0.0021796934 0.030583253 0.039736554
0.106364466 -0.037409864 -0.046758495 -0.0014642627 0.020546611 0.017025419 -0.09740958 -0.011214044
-0.06745416 -0.01613872 -0.011142884 0.054429993 0.06720644 -0.0092937965 0.009154424 -0.05341359
-0.0036080806 0.009610212 0.08821299 0.016002044 -7.2399496e-05 0.07783971 -0.07477451 -0.02107193
0.12625903 -0.083212964 0.02562664 -0.01536194 -0.03394576 -0.106857784 0.052175723 -0.080380924
-0.059700437 0.02323488 0.09494663 -0.080862075 -0.02444441 0.033364873 -0.08645414 -0.09201356
0.09588653 -0.043209746 -0.017315838 -0.052298155 0.14362906 -0.040645853 0.03311829 0.108500145
0.027747935 -0.04558598 -0.016412243 -0.09923797 -0.08227865 0.122499876 0.015595558 0.12496042
-0.0024313868 0.06560541 0.06829602 0.06236019 -0.08827602 -0.06745439 0.055929285 -0.046508715
-0.0009677629 0.020281836 0.03960032 0.013593944 0.018704109 0.05591822 -0.08658016 0.032970153
-0.021422759 0.04956744 -0.0074579394 0.0880819 0.10418156 0.037359446 0.05562464 0.044725817
0.0014727138 -0.011967507 0.007149903 0.041913707 -0.00045666302 0.07140911 -0.054726545 0.07611519
0.15934946 -0.007940536 0.008257914 -0.015409156 -0.053615917 -0.08191326 -0.06417264 -0.0002653317
-0.03372259 0.05303401 0.020331804 -0.01580431 0.073791355 0.038284555 -0.04355233 -0.078352265
-0.0015923523 -0.028698977 0.031323873 0.05921073 0.12403268 0.057148352 -0.009034308 0.15556267
-0.017612617 0.03304747 -0.006695905 -0.07955801 -0.034660198 0.037182074 0.003155162 0.01953146
0.079254 0.00845023 0.08633862 0.018880842 -0.070593454 -0.008695531 0.0670532 0.024438644
-0.03848208 0.012036195 0.05753977 -0.0046922727 -0.0012243727 0.030563518 -0.004076976 -0.024124192
0.00354821 0.05641866 -0.0582748 0.015322167 -0.024004718 -0.034000147 -0.021854874 -0.021942595
-0.0017044463 0.13272072 0.016297596 -0.06386592 0.00033950564 0.071633734 0.041336335 -0.031815585
0.004339591 -0.066358685 0.10862754 0.060947508 -0.06984651 -0.004869422 -0.0014617105 0.0005771606
0.055395592 -0.0741892 -0.0017170664 -0.010033495 -0.028738096 -0.017937582 -0.035747983 0.022367591
0.031063227 -0.06454858 0.020633092 0.0028174391 0.063613884 -0.016355773 0.10558045 0.077935055
0.07699522 -0.03202472 0.05317571 0.024034232 -0.033272274 -0.032330874 0.015171155 -0.008606208
0.039891854 -0.0458995 0.08300965 0.08379738 -0.010184865 0.03357219 0.013979486 0.009324518
00000000: 4452 903d 3ab8 80bc 3a21 f63d de91 acbc
00000010: 2af0 e4bc 02ac e73d abd7 8a3d 46de 17be
00000020: 1b59 7bbc 8ed7 353c f7f4 44be 13e7 593d
00000030: 2790 5f3c 87f5 c6bd 059c 4c39 45f0 423d
00000040: 8f93 23bc 2d73 043e ae1b 913d 8318 34be
00000050: 87e7 303a 799f 843d 1cd7 163e 210a 6abd
00000060: cfe5 bcbc faae 38be 680c 4d3d e4ab be3d
00000070: 7587 28be 63f5 8e3d ff50 9abc e10f 8f3d
00000080: e180 f7bb 5e73 2dbe 12a2 a93d 24e8 8c3d
00000090: 29b3 cabc 2e48 cbbc 6926 6a3d 25f9 933d
000000a0: 5ba7 aa3d ab9b 3fbe c8ef 9c3d 50e1 3d3d
000000b0: 71d8 6b3c 620b 4d3d 071a 513e fa74 4b3c
000000c0: 9239 003e 6ac5 51bc 764d e93d 1db3 693d
000000d0: 02c9 e5bb aca4 b63c 77fc 323d f5c3 b3bc
000000e0: e24d a23d 0c76 ce3c f963 c53c 8b05 e63d
000000f0: 4709 803d 30d9 0ebb bb89 fa3c ccc2 223d
00000100: 9dd5 d93d 163b 19bd d685 3fbd 81ec bfba
00000110: 5e51 a83c e478 8b3c ad7e c7bd 1cbb 37bc
00000120: 6825 8abd 5935 84bc a590 36bc fcf1 5e3d
00000130: 88a3 893d 0245 18bc 70fc 153c 35c8 5abd
00000140: 8c75 6cbb 2774 1d3c 03a9 b43d b816 833c
00000150: 2fd5 97b8 6d6a 9f3d 6123 99bd 0a9f acbc
00000160: 0c4a 013e 8f6b aabd f6ee d13c a5b0 7bbc
00000170: b60a 0bbd 41d8 dabd 36b6 553d c19e a4bd
00000180: 7288 74bd 1357 be3c 6173 c23d 049b a5bd
00000190: a53f c8bc 9ba9 083d de0e b1bd 9b71 bcbd
000001a0: 2860 c43d b4fc 30bd f2d9 8dbc 9736 56bd
000001b0: 7f13 133e 447c 26bd 0ba7 073d 5335 de3d
000001c0: a34f e33c 5db8 3abd f872 86bc 473d cbbd
000001d0: b581 a8bd 37e1 fa3d 8384 7f3c 40eb ff3d
000001e0: e757 1fbb 215c 863d c9de 8b3d 666d 7f3d
000001f0: 0fca b4bd 8725 8abd 1b16 653d ec7f 3ebd
00000200: 78b1 7dba 1826 a63c f233 223d 22b9 5e3c
00000210: 5c39 993c 810a 653d f050 b1bd b60b 073d
00000220: c87e afbc 3a07 4b3d bb61 f4bb 4864 b43d
00000230: 245d d53d 3806 193d aad6 633d 6b32 373d
00000240: 1308 c13a 5d13 44bc bc49 ea3b b5ad 2b3d
00000250: 466c efb9 f13e 923d f128 60bd 48e2 9b3d
00000260: 812c 233e 0619 02bc 344c 073c af76 7cbc
00000270: 5d9c 5bbd 24c2 a7bd f26c 83bd 381c 8bb9
00000280: b320 0abd 313a 593d e28e a63c 0a78 81bc
00000290: ec1f 973d 44d0 1c3d ee63 32bd 2777 a0bd
000002a0: 7ab6 d0ba 1e1a ebbc 764d 003d f386 723d
000002b0: d904 fe3d 6414 6a3d a204 14bc d24b 1f3e
000002c0: 5648 90bc c95c 073d 5269 dbbb 4fef a2bd
000002d0: daf7 0dbd 3b4c 183d d6c6 4e3b 7100 a03c
000002e0: ec4f a23d d572 0a3c 4dd2 b03d ffab 9a3c
000002f0: 4d93 90bd b377 0ebc 3053 893d 8d33 c83c
00000300: 639f 1dbd 7633 453c d2ae 6b3d a3c1 99bb
00000310: 217b a0ba 5860 fa3c 2798 85bb 19a0 c5bc
00000320: 1689 683b 4117 673d 8fb1 6ebd d409 7b3c
00000330: 8ba5 c4bc bd43 0bbd fe08 b3bc f5c0 b3bc
00000340: ba67 dfba f1e7 073e 8982 853c 23cc 82bd
00000350: adff b139 b5b4 923d 4a50 293d 0f51 02bd
00000360: 2133 8e3b 10e7 87bd 1e78 de3d 18a4 793d
00000370: b00b 8fbd ac8f 9fbb de96 bfba 984c 173a
00000380: 7de6 623d 82f0 97bd 300f e1ba 8763 24bc
00000390: 286c ebbc d6f1 92bc 7a6c 12bd 3d3c b73c
000003a0: 4f78 fe3c 0c32 84bd bb06 a93c c9a4 383b
000003b0: ff47 823d 8bfc 85bc 903a d83d 6a9c 9f3d
000003c0: abaf 9d3d 5a2c 03bd c6ce 593d 70e3 c43c
000003d0: 8248 08bd 616d 04bd 7090 783c 0d01 0dbc
000003e0: a465 233d 1d01 3cbd f700 aa3d f69d ab3d
000003f0: 6cde 26bc fe82 093d 370a 653c ddc5 183c

conv4.bias f4 [128]
0.14976971 0.14075665 0.049303796 0.046867236 0.10703535 0.02938623 0.10307258 0.016107203
0.040298153 0.102252655 0.13056004 0.10170784 0.042315606 0.015584166 0.1764904 -0.016913055
0.058713593 0.12672345 0.050638743 0.122121096 0.037802935 -0.006008313 0.11132581 0.04166034
0.10256473 0.00038919708 0.06098691 0.025032457 0.08516651 0.031315938 0.029761478 0.014160124
0.18611823 0.11692527 0.14005607 0.13757174 0.06804033 0.06881288 0.21854073 0.061123
-0.01338606 0.09647451 0.048367314 0.0925577 0.17008124 0.07264296 0.0796325 0.14641604
0.0703127 0.033141192 0.08430265 0.03051938 0.112947874 0.17378487 0.043583717 0.051089864
0.051321425 0.0015203154 0.14046486 0.021971757 0.073018305 0.0921806 0.07161274 0.01964782
0.0031902567 0.09811926 0.06853031 0.02068934 0.07996758 0.0043653212 0.06083193 0.004375969
0.35482296 0.047819052 0.049479317 0.03333368 0.054231692 0.012511845 0.15489015 0.026312074
-0.001372516 0.058762003 0.0152196735 0.033048388 0.08438865 0.041393913 0.1950767 0.14109431
0.06598516 0.02217262 0.058027055 0.17582798 0.19502336 0.07164563 0.035214268 -0.0021848711
0.03260792 0.029208926 0.14324681 0.094885305 -0.020025024 0.006422284 0.09636273 0.019915743
0.07635263 -0.049004007 0.08222113 0.13595232 0.061783936 0.22023213 0.18376619 -0.027008295
0.04829321 0.03881463 0.05114185 0.22499904 0.10330039 0.051139966 0.055737574 0.032594696
0.15435869 0.08013561 0.037404392 -0.0031023028 0.15591 0.041992176 0.06890546 0.08630034
00000000: 3b5d 193e 8322 103e c7f2 493d dcf7 3f3d
00000010: 5935 db3d 64bb f03c b817 d33d 41f3 833c
00000020: ad0f 253d d769 d13d 88b1 053e 334c d03d
00000030: 2153 2d3d bb54 7f3c e6b9 343e 3f8d 8abc
00000040: aa7d 703d cbc3 013e 926a 4f3d a01a fa3d
00000050: 40d7 1a3d 62e1 c4bb c9fe e33d 08a4 2a3d
00000060: 750d d23d 260d cc39 69cd 793d de10 cd3c
00000070: c76b ae3d 2445 003d 58ce f33c ddff 673c
00000080: c795 3e3e 8476 ef3d dc6a 0f3e 9bdf 0c3e
00000090: bb58 8b3d c4ed 8c3d 24c9 5f3e 1c5c 7a3d
000000a0: 3451 5bbc 6e94 c53d ce1c 463d e48e bd3d
000000b0: c729 2e3e d5c5 943d 5d16 a33d 16ee 153e
000000c0: 1b00 903d 0fbf 073d dea6 ac3d c703 fa3c
000000d0: 3751 e73d a9f4 313e d784 323d 9b43 513d
000000e0: 6a36 523d 5245 c73a 05d6 0f3e 1dfe b33c
000000f0: 9f8a 953d 2fc9 bc3d b3a9 923d 77f4 a03c
00000100: a013 513b c0f2 c83d 9f59 8c3d b17c a93c
00000110: 0bc6 a33d f80a 8f3b e72a 793d 4a64 8f3b
00000120: 5bab b53e e9dd 433d d3aa 4a3d e688 083d
00000130: 0d22 5e3d 7bfe 4c3c 869b 1e3e 6b8c d73c
00000140: ffe5 b3ba 6db0 703d f05b 793c bf5d 073d
00000150: f5d3 ac3d aa8c 293d 30c2 473e 077b 103e
00000160: 3a23 873d 5ba3 b53c c7ad 6d3d 400c 343e
00000170: 34b4 473e f2ba 923d d63c 103d 0e30 0fbb
00000180: e28f 053d 8f47 ef3c 4baf 123e 3a53 c23d
00000190: 850b a4bc 0672 d23b d359 c53d 5726 a33c
000001a0: c55e 9c3d 6db8 48bd 8d63 a83d 1637 0b3e
000001b0: 2711 7d3d 8884 613e 342d 3c3e 8040 ddbc
000001c0: 1acf 453d 17fc 1e3d 1e7a 513d 2666 663e
000001d0: 288f d33d 2478 513d 154d 643d 0482 053d
000001e0: 3410 1e3e 241e a43d 5935 193d 0150 4bbb
000001f0: dfa6 1f3e fdff 2b3d 4e1e 8d3d 3cbe b03d

conv5.weight f4 [256, 128, 1, 1]
0.015111206 0.022663478 0.01633179 0.039350737 -0.056180708 0.01139206 -0.012200605 0.05114634
0.008155361 -0.007534881 0.05783884 -0.0060042245 0.040905584 0.033561837 -0.006924822 -0.012256513
0.025003415 -0.029120786 -0.02299845 -0.050819773 -0.022036914 0.07526757 0.0041560433 0.073686026
0.008438527 0.016176032 -0.003875953 6.780104e-05 -0.031897925 -0.019364139 -0.014344508 -0.008660444
-0.009044312 -0.0027815842 0.008655364 0.01909119 -0.004958538 0.0113661755 -0.027187623 0.029267818
-0.039720684 0.035312504 0.03313559 0.0052192616 0.036271773 -0.0075244354 -0.021461144 0.014148389
-0.008068665 0.01981678 -0.025001775 -0.0051453672 -0.0368415 -0.031718664 -0.016156618 0.0060818153
0.019558068 -0.013904703 -0.025205405 0.024725635 0.02366108 0.05176469 -0.034941558 0.02383816
0.00042216908 -0.021459028 0.034093827 -0.026410777 0.041048337 0.0018957991 0.04598219 -0.015058937
-0.026909946 -0.016678113 0.062210817 -0.008679334 0.037996143 -0.009687633 0.0069552623 0.019805154
0.018079784 -0.021462487 -0.021361142 0.005836233 -0.04218007 0.011386711 -0.009618213 0.0007227348
0.036938757 0.08278327 0.0051161842 -0.035241507 -0.035836644 0.050508022 -0.013977863 0.014784928
0.017327093 0.04496251 -0.0019173468 -0.011076377 0.008324027 0.032279618 -0.0083961 -0.010947575
-0.004964952 0.031306118 -0.02040735 -0.028811108 0.004995841 -0.048958044 -0.033514183 0.010764195
-0.0074389796 0.0010113972 0.014663259 -0.023257717 0.028214019 0.009325142 0.020435674 -0.009916902
0.021860559 -0.0009551462 0.050331783 0.0046501257 0.02170556 0.06754126 0.0016037796 -0.018198721
-3.64298e-18 -6.7817147e-19 -1.1916497e-18 -1.9357598e-18 -1.2199538e-18 -1.993214e-18 -7.3610234e-19 -1.5834953e-18
-1.4501787e-18 -3.1090284e-19 -1.4880547e-18 -1.041245e-18 -1.3191511e-18 -8.825796e-19 -3.889139e-19 -1.0098741e-18
-3.7057606e-19 1.1324162e-18 -5.2985576e-19 -1.4669491e-18 -8.1796996e-19 -2.8660692e-18 -1.2946254e-18 -1.9422136e-19
-1.3371868e-18 -9.782763e-19 -1.6038807e-19 -1.4351815e-19 -1.1775429e-18 1.2414887e-18 -1.0534112e-18 -6.443771e-19
2.0989274e-19 -6.62927e-19 -9.669234e-19 -8.077013e-19 1.3947969e-18 -1.3955919e-19 6.0916236e-18 7.049567e-19
-8.683905e-19 1.4394797e-18 5.685992e-19 -1.7379834e-18 4.2420885e-19 1.1278241e-18 -1.0877839e-18 4.1616467e-19
-9.088553e-19 -1.1627372e-19 -8.320323e-19 -1.0336676e-18 -7.841783e-19 7.680637e-19 2.0370195e-18 5.5780775e-19
-9.761555e-19 -4.974143e-19 3.1932336e-19 -7.103812e-19 2.84736e-18 4.1254886e-19 -7.0935173e-19 -3.6235632e-19
-7.3297353e-19 -3.555739e-20 3.2655734e-18 -8.125929e-19 -1.1133991e-18 -1.3061514e-18 1.381968e-18 7.8010856e-19
5.8214854e-18 -9.999124e-19 -1.0097805e-19 7.838355e-20 -2.3122255e-19 -1.5377932e-18 8.774277e-19 -1.4425706e-18
-8.452052e-20 -9.127141e-19 -6.153767e-19 1.4222757e-19 -4.611919e-19 -2.9165871e-19 -3.6121235e-19 -1.7894698e-18
-9.177915e-19 -2.790601e-19 -8.4279814e-19 2.2117364e-18 2.2635149e-19 4.0651225e-19 6.141741e-20 -1.105883e-18
-5.2496066e-19 -1.4568083e-18 1.3176951e-18 6.0604096e-19 -1.2189416e-18 -6.916173e-19 -9.188018e-19 -8.137558e-19
-6.030804e-19 -1.6216292e-18 -1.3465308e-18 1.003035e-18 3.0081404e-21 9.276752e-19 2.2103137e-18 -1.7634858e-18
-8.777087e-19 6.7189146e-19 6.494793e-20 -3.131822e-19 -1.4383647e-18 7.4781897e-20 -8.96009e-19 -6.259018e-19
3.2585492e-18 -3.214e-19 3.4506056e-18 -1.2871359e-18 -2.3396644e-20 -2.1953096e-18 -1.1743736e-18 -5.7363626e-19
00000000: fe94 773c c2a8 b93c 3fca 853c 3d2e 213d
00000010: be1d 66bd c3a5 3a3c 0ce5 47bc d37e 513d
00000020: 109e 053c 2ae7 f6bb 6be8 6c3d 16bf c4bb
00000030: 9d8c 273d 2378 093d 9ee9 e2bb 8bcf 48bc
00000040: f6d3 cc3c b78e eebc 3f67 bcbc 6528 50bd
00000050: c286 b4bc e225 9a3d 6b2f 883b b3e8 963d
00000060: bf41 0a3c 9983 843c b303 7ebb 6830 8e38
00000070: 66a7 02bd 8ba1 9ebc 3a05 6bbc 89e4 0dbc
00000080: 982e 14bc 3d4b 36bb 3acf 0d3c 2165 9c3c
00000090: 3b7b a2bb 3239 3a3c 94b8 debc 10c3 ef3c
000000a0: 28b2 22bd d8a3 103d 2fb9 073d 5706 ab3b
000000b0: b691 143d 8a8f f6bb 48cf afbc a5ce 673c
000000c0: 6f32 04bc cd56 a23c 86d0 ccbc 789a a8bb
000000d0: 1de7 16bd 6eeb 01bd e25a 84bc f749 c73b
000000e0: 3e38 a03c 8dd0 63bc 917b cebc 6a8d ca3c
000000f0: e2d4 c13c 3607 543d e11e 0fbd 3f48 c33c
00000100: 9356 dd39 d8ca afbc f8a5 0b3d 6a5b d8bc
00000110: 4d22 283d 767c f83a d257 3c3d c2b9 76bc
00000120: 3f72 dcbc 8aa0 88bc c5d0 7e3d c433 0ebc
00000130: d8a1 1b3d e1b8 1ebc f8e8 e33b 6b3e a23c
00000140: 0e1c 943c 19d2 afbc 90fd aebc df3d bf3b
00000150: 02c5 2cbd 548f 3a3c b695 1dbc e975 3d3a
00000160: 184d 173d 468a a93d aaa5 a73b 6659 10bd
00000170: 72c9 12bd 80e1 4e3d 6803 65bc 7c3c 723c
00000180: 8cf1 8d3c 9c2a 383d 7c4f fbba b179 35bc
00000190: 8061 083c a237 043d cc8f 09bc 755d 33bc
000001a0: 09b1 a2bb d83a 003d 512d a7bc 4605 ecbc
000001b0: 27b4 a33b 3b88 48bd 2b46 09bd 4e5c 303c
000001c0: afc2 f3bb dc90 843a 2a3e 703c f886 bebc
000001d0: 1621 e73c 7bc8 183c b768 a73c 807a 22bc
000001e0: ea14 b33c c762 7aba b328 4e3d 1560 983b
000001f0: dccf b13c 1253 8a3d ea35 d23a 7c15 95bc
00000200: f966 86a2 3029 48a1 41db afa1 78d5 0ea2
00000210: 8d08 b4a1 bf12 13a2 5242 59a1 c3ae e9a1
00000220: 3402 d6a1 4f86 b7a0 1e99 dba1 20a9 99a1
00000230: 1fac c2a1 ea3e 82a1 0293 e5a0 f707 95a1
00000240: dfbf daa0 791d a721 c562 1ca1 c57b d8a1
00000250: 106c 71a1 847a 53a2 910d bfa1 ce4b 65a0
00000260: 7d55 c5a1 3c5e 90a1 525a 3da0 b36f 29a0
00000270: 50c6 ada1 1e36 b721 c074 9ba1 c22f 3ea1
00000280: 30cc 7720 59a9 43a1 55b1 8ea1 2f64 6ea1
00000290: f0d5 cd21 2dc3 24a0 c2bd e022 0611 5021
000002a0: de26 80a1 016e d421 24d2 2721 943d 00a2
000002b0: a168 fa20 fd6f a621 5087 a0a1 07a9 f520
000002c0: 951f 86a1 9345 09a0 9592 75a1 dc8a 98a1
000002d0: d672 67a1 41b1 6221 364e 1622 c3a2 2421
000002e0: 1d0e 90a1 90cf 12a1 c87e bc20 e3aa 51a1
000002f0: 1c19 5222 9f86 f320 1a5d 51a1 bde5 d5a0
00000300: ea55 58a1 3fea 279f f0f4 7022 c9d5 6fa1
00000310: 074f a4a1 01c1 c0a1 46f1 cb21 563f 6621
00000320: 60c6 d622 9f8f 93a1 7c6d ee9f f313 b91f
00000330: 5d7d 88a0 2ff0 e2a1 487c 8121 c7e2 d4a1
00000340: 8591 c79f 5db1 86a1 8da0 35a1 a5e9 2720
00000350: ad1e 08a1 382a aca0 de38 d5a0 210a 04a2
00000360: 2f71 87a1 5fba a4a0 07c0 78a1 8532 2322
00000370: 459d 8520 65f6 ef20 8c04 911f 1433 a3a1
00000380: e8f0 1aa1 a9fc d6a1 1d75 c221 29df 3221
00000390: 50e2 b3a1 2021 4ca1 5a97 87a1 a62d 70a1
000003a0: 77ff 31a1 6b4f efa1 7fb6 c6a1 9705 9421
000003b0: e649 631d 94e6 8821 a517 2322 4e1f 02a2
000003c0: e686 81a1 af4e 4621 9d5a 991f c2de b8a0
000003d0: e243 d4a1 e292 b01f 433a 84a1 cebb 38a1
000003e0: 4170 7022 98b8 bda0 199c 7e22 9ff2 bda1
000003f0: 9df9 dc9e 3afc 21a2 954e ada1 bb4e 29a1

conv5.bias f4 [256]
0.012392521 -1.6318974e-18 0.025045235 0.06754809 0.017270535 -0.008094942 0.22087033 0.0286938
0.012124629 0.00744555 0.024767675 0.040385123 0.036664315 0.01861589 0.013778933 0.004025013
0.015272532 0.005115755 0.035613585 0.04390329 0.009160746 -0.002736956 0.03858878 0.03722927
0.0066398527 -0.011347972 -0.0025706505 0.006552959 0.042439334 0.008297564 0.011330171 0.047296353
0.06630051 -0.013595262 0.2354005 0.022418737 0.020417674 0.010170032 0.021604247 0.058996525
0.010279686 0.014616657 0.0083117625 0.023156831 0.21996333 -0.001897183 -0.011117426 0.028599713
0.04655812 0.014957932 0.0052104243 0.042029325 0.058104273 0.015822407 0.044004105 0.08344325
0.04340374 0.0036454892 0.014269791 0.022149771 0.017075837 0.027863253 0.036959987 -2.8425837e-09
0.03763923 0.04149337 0.0045704213 0.00940176 0.018889321 0.08365452 -8.355302e-08 0.01045977
0.030580545 0.06485572 0.0020192624 0.018593315 0.025096849 0.007749 0.015094972 0.0071049463
0.016932666 0.021020217 0.020521263 0.03568178 0.017519135 0.06044133 0.01661073 0.042583197
0.04039404 -9.676948e-21 0.012457329 0.008415064 -0.007722415 0.060621463 0.016990952 0.0027967333
0.02916125 -0.0012742598 0.03680145 0.006605922 0.05203847 0.0047693015 0.03595321 0.016631326
0.0015068654 0.020112805 0.016011031 0.017662207 0.03614282 -0.0015212892 0.048202954 0.006474028
0.0047632833 -1.6806015e-09 0.023107223 -0.0005852497 0.008949979 0.014250469 0.002147546 0.058878634
0.041230593 0.013370153 0.016589133 0.010387291 0.016139356 -4.532303e-05 -0.010592502 -0.006557599
0.050325576 0.030978464 0.004773002 -0.015319901 0.008190537 -0.007321592 0.026132686 0.007063719
-0.00037696178 0.03808836 0.06576177 -0.009867546 0.059870202 0.013592586 0.026238404 0.017011767
0.012516737 -0.009526444 0.031028012 0.025262589 0.020565616 0.01667661 0.004297169 -0.0025898903
0.013685216 0.014140871 0.037033882 0.015687061 0.044757783 0.06781675 0.0385293 0.037829667
0.014542149 0.030026894 0.059441242 -0.005423883 0.093440376 0.022850815 0.018440278 -0.0018969874
0.017816344 0.03675486 0.027345523 0.041355237 0.0029762094 0.032538034 0.03416405 0.012592126
-0.004177669 0.034781136 0.11329153 0.04698638 0.018651972 0.0297473 0.039956123 0.013949659
-0.0029536695 0.017098926 0.048033454 0.06435046 0.02280156 0.01173311 0.015717506 0.06199575
0.023614587 0.01551182 -0.0017691883 0.034191422 0.07069192 -0.011278934 0.025593083 0.022199478
0.11786637 0.018649641 0.051694803 0.01168012 0.014335843 0.04364042 0.032171268 0.029199757
-0.00046596865 0.07731391 0.010632387 0.023759795 0.034651484 -0.0070239445 0.015394186 0.0091311075
0.015295835 0.007877579 0.046838745 0.022867106 0.0049095554 0.0072218203 0.014016255 0.016899016
0.0251752 0.013496959 0.009898397 0.036225464 -0.016447952 0.007825578 0.041849274 0.0057602767
0.024933487 0.028417164 0.07116995 0.034374848 0.009255983 0.014123429 0.1025849 0.028366666
0.01762178 0.008402937 0.05655053 0.0023758395 0.01734564 0.026886951 0.032772142 0.024741683
0.021080017 0.058283318 0.009106637 0.010499436 0.024080357 0.024557402 0.012891807 -0.004116776
00000000: 000a 4b3c 57d3 f0a1 aa2b cd3c a756 8a3d
00000010: f07a 8d3c a6a0 04bc d52b 623e 430f eb3c
00000020: 61a6 463c cdf9 f33b 94e5 ca3c df6a 253d
00000030: 522d 163d 5a80 983c 09c1 613c 42e4 833b
00000040: a439 7a3c 10a2 a73b 8ddf 113d f0d3 333d
00000050: f416 163c 815e 33bb 450f 1e3d b87d 183d
00000060: 1f93 d93b d8ec 39bc 5c78 28bb 34ba d63b
00000070: ded4 2d3d 82f2 073c 2ea2 393c d2b9 413d
00000080: 90c8 873d a9be 5ebc d40c 713e 80a7 b73c
00000090: f742 a73c 35a0 263c 64fb b03c 57a6 713d
000000a0: 216c 283c b47a 6f3c 0f2e 083c 65b3 bd3c
000000b0: 113e 613e e6aa f8ba dd25 36bc f249 ea3c
000000c0: bab3 3e3d 1d12 753c 35bc aa3b f126 2c3d
000000d0: bffe 6d3d fe9d 813c a63d 343d 4be4 aa3d
000000e0: 1fc8 313d 29e9 6e3b d7cb 693c 7073 b53c
000000f0: a0e2 8b3c 7a41 e43c 5b63 173d 4357 43b1
00000100: 982b 1a3d f4f4 293d 79c3 953b d709 1a3c
00000110: c7bd 9a3c 1053 ab3d c26d b3b3 755f 2b3c
00000120: 0d84 fa3c 13d3 843d 9a55 043b 0251 983c
00000130: e897 cd3c 53eb fd3b e750 773c 9cd0 e83b
00000140: 60b6 8a3c 9732 ac3c 351c a83c 0f27 123d
00000150: 4a84 8f3c 5491 773d 3a13 883c b86b 2e3d
00000160: 3974 253d d9ca 369e d319 4c3c 56df 093c
00000170: 500c fdbb 364e 783d 9c30 8b3c 6649 373b
00000180: 93e3 ee3c 1005 a7ba 1ebd 163d 7d76 d83b
00000190: 4a26 553d cd47 9c3b ac43 133d 6b3e 883c
000001a0: 0382 c53a 9cc3 a43c 9129 833c 55b0 903c
000001b0: 7e0a 143d ff65 c7ba 7670 453d 1524 d43b
000001c0: 5115 9c3b e9fa e6b0 5c4b bd3c 716b 19ba
000001d0: efa2 123c cd7a 693c d8bd 0c3b b92a 713d
000001e0: 69e1 283d 7c0e 5b3c efe5 873c 752f 2a3c
000001f0: af36 843c 3c19 3eb8 2c8c 2dbc 21e1 d6bb
00000200: 3122 4e3d 8cc6 fd3c d866 9c3b 5200 7bbc
00000210: 9a31 063c f7e9 efbb 3714 d63c c576 e73b
00000220: f4a2 c5b9 8a02 1c3d 1bae 863d 7dab 21bc
00000230: 753a 753d 70b3 5e3c ecf1 d63c 435c 8b3c
00000240: 0013 4d3c cd14 1cbc 752e fe3c 7df3 ce3c
00000250: 3979 a83c 639d 883c 44cf 8c3b 26bb 29bb
00000260: f537 603c 1daf 673c d7b0 173d 2782 803c
00000270: f053 373d 82e3 8a3d e6d0 1d3d 48f3 1a3d
00000280: 3242 6e3c f6fa f53c a978 733d d4ba b1bb
00000290: ab5d bf3d a231 bb3c 1110 973c 56a4 f8ba
000002a0: 95f3 913c 448c 163d b803 e03c 1c64 293d
000002b0: 820c 433b 9a46 053d 9aef 0b3d 344f 4e3c
000002c0: d4e4 88bb aa76 0e3d 6405 e83d ca74 403d
000002d0: 05cc 983c 9cb0 f33c 08a9 233d 1c8d 643c
000002e0: 5a92 41bb 0c13 8c3c babe 443d 2dca 833d
000002f0: 56ca ba3c 3b3c 403c 00c2 803c 41ef 7d3d
00000300: 6173 c13c 4a25 7e3c 1ce4 e7ba 4e0c 0c3d
00000310: edc6 903d 47cb 38bc 96a8 d13c aedb b53c
00000320: ec63 f13d 22c7 983c eebd 533d f95d 3f3c
00000330: e2e0 6a3c 4cc0 323d 05c6 033d 5434 ef3c
00000340: 414d f4b9 c156 9e3d 7733 2e3c e7a3 c23c
00000350: b7ee 0d3d 1e29 e6bb e537 7c3c a49a 153c
00000360: 629b 7a3c f610 013c fcd9 3f3d cc53 bb3c
00000370: 56e0 a03b 05a5 ec3b 6fa4 653c ce6f 8a3c
00000380: 393c ce3c 5922 5d3c e32c 223c 2761 143d
00000390: dbbd 86bc da36 003c 256a 2b3d b4c0 bc3b
000003a0: 5041 cc3c 1dcb e83c 8dc1 913d a4cc 0c3d
000003b0: 68a6 173c f465 673c 0818 d23d 3661 e83c
000003c0: 8d5b 903c 79ac 093c 87a1 673d f9b3 1b3b
000003d0: 7218 8e3c 0642 dc3c 153c 063d 12af ca3c
000003e0: 00b0 ac3c 7dba 6e3d 0134 153c d405 2c3c
000003f0: 2b44 c53c 9b2c c93c 2838 533c 05e6 86bb
