models/trained/ConvNet1_4.pt (torch, 442274 bytes, 14 tensors)

conv1.weight f4 [4, 1, 5, 5]
000000 f8 cf b5 3d 73 b9 38 3e 3e 74 b5 3e e5 8b 88 3e
       0.088775575 0.18039493 0.35440248 0.2666923
000010 49 7a 0d bd c8 05 a5 bd 5b c8 79 3e d5 da de 3e
       -0.03454045 -0.08057743 0.24392836 0.4352633
000020 ae 19 d1 3e f1 a6 74 3e fb e5 94 be fb 69 8b 3d
       0.40839905 0.23891808 -0.2908171 0.068073235
000030 d7 24 d4 3d c4 79 70 3e 4d bd 40 be a6 c1 90 be
       0.10358589 0.2348395 -0.18822213 -0.28272742
000040 eb 3c 7c bd 00 bb 9e 3d 6b 82 e5 3d b8 df 2e be
       -0.061581533 0.07750511 0.11206516 -0.1707753
000050 6b a0 8d bd e9 1b 28 be 68 1f 95 bb b2 88 5a 3e
       -0.06915363 -0.16416897 -0.004550863 0.21341208
000060 c8 17 2b bd e0 51 07 bd b8 c9 ea bd f7 ad 1c be
       -0.041770726 -0.033037066 -0.11464256 -0.15300737
000070 ee 37 fc 3d 30 4e c5 3d 21 bd a8 3d f8 29 43 bd
       0.12315355 0.09634054 0.082391985 -0.047647446
000080 47 18 81 3d 26 c9 85 bd 36 5e 3f bc 49 04 76 ba
       0.06303459 -0.06532507 -0.0116801765 -0.0009384794
000090 40 b8 49 3e 95 15 61 3e 27 23 a5 bd c8 28 40 be
       0.19699192 0.21980889 -0.080633454 -0.18765557
0000a0 9a cf ca 3c 8f ba a0 3e e5 c8 df 3e d2 f7 86 3c
       0.024757195 0.31392333 0.43707958 0.016475592
0000b0 03 7f 4b 3d 17 8a f7 3c ca 32 a1 3e ec 17 83 3e
       0.049681675 0.030217214 0.3148406 0.25604188
0000c0 7c 73 86 bd 9f b3 0c 3e ab b1 20 be e8 8e 6a 3d
       -0.06564996 0.13740395 -0.15692775 0.057265192
0000d0 48 23 53 3e 84 ba 9d 3c 72 2b e1 bd dd 7a d6 bd
       0.20618927 0.019253977 -0.10994615 -0.10472653
0000e0 8b b6 61 3e 95 dc b3 3e 89 ec d0 3e bd a2 90 3e
       0.22042291 0.35129228 0.40805462 0.2824916
0000f0 2b b5 32 3e 25 b1 a6 3e c6 c3 e7 3e 3f 27 99 3d
       0.17451923 0.32557026 0.4526655 0.07478189
000100 ad 4a 52 3d 27 db d7 bd ba 55 98 3d 29 61 9f 3d
       0.051340748 -0.10539847 0.07438226 0.07782204
000110 64 d4 bf bd 31 01 61 bd 60 45 43 3d 87 07 47 be
       -0.09366682 -0.054932777 0.047673583 -0.19436465
000120 fc 38 4d be b0 68 16 be 46 38 85 3d da 09 9f 3d
       -0.20041269 -0.14688373 0.06504874 0.07765551
000130 1a b2 dc bd 93 2e c3 3b af 35 23 bc 5e 7e 03 be
       -0.10776158 0.00595648 -0.00996153 -0.12841174
000140 0c b5 3a 3c 66 77 a1 3e 54 75 08 3e ab d4 62 3b
       0.011395704 0.31536406 0.13326007 0.0034611623
000150 c4 cf a3 be 1c 97 5a 3e 53 f1 be 3e 6b db be 3e
       -0.3199445 0.21346706 0.3729349 0.37276778
000160 dd fb 1d 3d b7 3f 96 be 0f 55 a5 bb 3c 41 82 3c
       0.038570274 -0.29345486 -0.00504554 0.015900247
000170 5b 5c 85 3e 84 db 92 3c c0 04 7e 3d 42 33 f6 3c
       0.26047024 0.017926939 0.06201625 0.030053739
000180 6b 8a 12 bc 99 17 01 3e cc b5 d5 3c ee f9 cd 3d
       -0.008944134 0.12606658 0.026087664 0.10057436

conv1.bias f4 [4]
000000 29 8a ea 3e 80 f3 bb 3e 00 e9 b8 3e ab ef 74 3e
       0.45808533 0.36709213 0.36115265 0.23919551

conv2.weight f4 [8, 4, 5, 5]
000000 94 4f 52 3c d6 e2 8e bd 35 78 cc bb 9d 82 6a bd
       0.012836356 -0.06976859 -0.0062399157 -0.05725347
000010 fd a8 45 3c 9e b7 6c bd b3 7d 7c bd d7 5c 97 bd
       0.012064216 -0.0577923 -0.061643314 -0.07390755
000020 5b 60 93 bd 58 c8 05 bd 2c 72 98 bc d6 ba 8b bd
       -0.07196113 -0.032661766 -0.018609129 -0.068227455
000030 dd aa 34 bb cd af a4 bc ae 0a 07 bd ec d2 88 3d
       -0.0027567663 -0.02010336 -0.03296917 0.06680855
000040 52 fe 4b 3d ba d1 a5 3d d8 e2 8f 3d ab ec db 3c
       0.049803086 0.08096643 0.07025689 0.02684625
000050 dc 23 fe 3d 67 37 04 3e 78 68 f2 3d 69 95 9d 3d
       0.124091834 0.1291176 0.11836332 0.07694513
000060 79 74 92 3d bd 30 aa 3d 3e 0b be bc b0 82 0d bc
       0.07151122 0.08310077 -0.02319872 -0.008637115
000070 bf 1c a0 bd 6b d5 7b 3d 83 63 86 3d 46 64 e8 3d
       -0.07817983 0.061482828 0.06561949 0.11347251
000080 c5 3e cf 3d 0f fa 2f 3d cb 3b 21 3e c1 17 8b 3d
       0.10119394 0.042963084 0.15745465 0.0679164
000090 26 2c b5 3d 0c 11 17 3e 95 46 31 3e 35 0d 2d 3e
       0.08846311 0.14752597 0.17312081 0.1689957
0000a0 51 b8 1e 3d a0 3e 2c 3d 54 ab 1e 3e 83 57 29 3e
       0.038749997 0.04205191 0.15495044 0.1653729
0000b0 2f ab d7 3d 04 fc ae 3d 99 17 97 3d ee 53 49 3c
       0.105306976 0.08544162 0.07377548 0.012288077
0000c0 db da 4b 3d e1 51 b6 3b 76 de 2e 3c 23 2a 8d bd
       0.049769264 0.00556396 0.010673156 -0.068928026
0000d0 fc 69 8f bd 46 15 91 bd 0b 4f 45 bd 29 f5 fd bb
       -0.07002637 -0.07084136 -0.048171084 -0.0077501726
0000e0 59 19 d7 bd 17 c3 de bd 06 79 42 bc 4a 7f 44 bc
       -0.105028816 -0.10877054 -0.011869675 -0.011993239
0000f0 ed 06 cf bc 4e d5 1c bd e5 e1 ef bb 3b 97 96 3d
       -0.025271857 -0.03828936 -0.00732063 0.07353064
000100 75 77 1e 3e 6a e4 aa 3d 52 d4 52 3d 24 ce 0c 3e
       0.15475257 0.08344348 0.051472016 0.13750511
000110 76 8a a8 3d a1 7a de 3d a2 6f 10 3e db 14 24 3e
       0.08229534 0.10863233 0.14105085 0.1602358
000120 96 a2 1d 3e 1b d3 04 3e d7 b5 c4 3d 8a e2 05 3d
       0.15394053 0.12971155 0.09604996 0.032686748
000130 48 79 2b 3d 11 8c 4e 3c 36 71 b8 bd 2a 76 3f bd
       0.04186371 0.012606637 -0.09005968 -0.04674355
000140 8b bf bc 3d 83 07 ac 3d 78 2e 23 3d 1e 9b a5 3b
       0.092162214 0.0839987 0.039839238 0.005053892
000150 78 e3 6f 3c d3 b6 38 3d eb 62 14 3d 57 0b 86 3d
       0.014641635 0.04509623 0.036227148 0.06545132
000160 68 11 3c bb 34 67 8f 3b 5e 38 5d 3d 1b 64 af 3d
       -0.0028696898 0.0043763164 0.054008834 0.085640155
000170 59 e4 87 3d 94 2e 09 3e d4 61 a1 3d 81 32 44 bd
       0.06635351 0.13396674 0.07879987 -0.047899727
000180 e7 0c 4c 3d 5b 17 c7 3d 59 08 b5 3d a9 e8 d5 3c
       0.049816992 0.097212516 0.08839483 0.026111918
000190 f4 07 e6 bc 6b a7 bd 3d a0 b8 71 3d b5 79 a1 3b
       -0.028079964 0.09260448 0.059013963 0.0049278387
0001a0 78 dd b2 bd c2 af 26 3d f0 4c 90 3d a3 e5 9e 3d
       -0.08733648 0.04069496 0.07045925 0.077586435
0001b0 a9 23 53 3d 97 bd 6a bd cc e4 03 3b 6a e6 93 3d
       0.05154768 -0.057309713 0.0020125387 0.07221682
0001c0 bf ce fe 3d 02 72 fa 3d a7 db 29 3d ea 44 0c 3d
       0.124417774 0.122287765 0.041469242 0.03424541
0001d0 ee 1b 74 3c 3c 27 a3 3d 36 6d 4b 3e 08 f9 df 3d
       0.014899237 0.07966468 0.1986588 0.10936171
0001e0 b6 c2 83 bd 85 b9 87 bd b5 48 8e bb b3 91 49 3d
       -0.064336225 -0.06627182 -0.0043421634 0.049211215
0001f0 63 de cc 3d af 17 39 3d b0 de 51 3d ab b0 d1 3d
       0.100033544 0.045188602 0.051237762 0.10238775
000200 ea e9 b6 3d ef 9e da 3d d9 52 86 bd c7 1f 50 bc
       0.08931334 0.106748454 -0.06558771 -0.012702889
000210 b0 69 af bc c1 87 e7 3d 97 f7 b6 3d c7 56 5c bc
       -0.0214127 0.1130519 0.08933943 -0.013448424
000220 d4 5c 7e bd 17 43 96 bd d5 ff 42 3d b4 3d b2 3d
       -0.062100247 -0.07337015 0.04760726 0.08703175
000230 ca ea a6 bd 00 3b 31 bd f1 be a0 bd c2 85 a6 3c
       -0.08150251 -0.043269157 -0.07848919 0.020327453
000240 cb 76 22 3d b9 99 2c bd 4c ad 63 bd cd f7 ff bd
       0.03966407 -0.04213879 -0.05558519 -0.12498436
000250 c0 ff f7 bd 28 33 20 bc 99 29 cc 3c 45 77 9c 3d
       -0.12109327 -0.009777822 0.024922179 0.07639936
000260 ad 7c 46 bd 54 ea 34 bc 14 b3 ce bc 99 97 24 3d
       -0.048458744 -0.011042196 -0.025231875 0.040183637
000270 55 0b df bb 06 cc 99 3d 1b b9 ab bc f3 ef e2 bb
       -0.006806771 0.075096175 -0.020962289 -0.006925577
000280 2c 2f d3 bb 7c 17 2b 3d 32 bc 94 3c 33 ed 03 3d
       -0.0064448323 0.041770443 0.018156145 0.032208633
000290 ae f0 3b 3d fd fa 25 bd 75 89 4d bc cb 65 84 3d
       0.045883827 -0.040522564 -0.012544979 0.06464728
0002a0 3e 00 9f 3c 64 c9 d9 3d 2c bf c5 bd 20 91 3a bd
       0.019409295 0.10634115 -0.09655604 -0.04554856
0002b0 5d 69 cc 3c 31 29 04 3d 82 f3 77 3d 6e 4e 71 3d
       0.024952585 0.032265846 0.06053496 0.058912687
0002c0 18 5e ca 3d be e6 fa 3d 5c 90 ab 3d 02 2c 0f bd
       0.09881228 0.12251042 0.08377144 -0.03495408
0002d0 52 18 0b 3d 40 51 d3 3d b3 bd 23 3e d8 09 19 3e
       0.03395874 0.103182316 0.15990333 0.14945161
0002e0 84 a8 39 3d 8f b1 74 bd 33 bd b4 3b c1 ff 88 3d
       0.045326725 -0.059739646 0.0055157184 0.06689406
0002f0 96 6b 1b 3e df 46 ba 3d e5 2d 15 bd a1 d4 0d bc
       0.1517776 0.09095549 -0.03642072 -0.008656652
000300 e3 09 f8 3c c0 30 91 3d 9b a0 aa 3d ba 57 8e bd
       0.030278152 0.070893764 0.08331414 -0.06950326
000310 f8 d9 7f bd ad 85 25 bd 34 e4 7c bc 5d c9 4a 3d
       -0.06246373 -0.040410686 -0.015435267 0.04950844
000320 b7 ec 2b bc 2e bd a2 bd fc 5a 07 be 0a 90 be bd
       -0.010493449 -0.079462394 -0.13218302 -0.09304817
000330 2c ca e0 bd 45 62 42 3d b4 5f 16 bc a5 4a 3f be
       -0.10976061 0.047457 -0.009178091 -0.18680818
000340 49 49 13 be 20 8c d2 bd 29 28 58 bd c9 ca 3b 3d
       -0.14383425 -0.10280633 -0.052772675 0.045847688
000350 0d 8c c3 bd 0b ed 1b bd 70 19 ec bc d2 43 f5 3c
       -0.09548197 -0.03806786 -0.028820723 0.029939566
000360 52 8b 90 3d e4 14 b9 3c d4 53 ae 3a 28 62 f3 3d
       0.07057823 0.02259297 0.0013300129 0.11883956
000370 4c b4 07 3e 73 ab a6 3d b5 28 06 3e 56 1d 39 3d
       0.13252372 0.0813817 0.13101466 0.045193993
000380 4f 42 bb 3d b9 ba 01 3e 93 bd bd 3d 9f 8a ae 3d
       0.09143507 0.12668885 0.09264674 0.085225336
000390 a4 e7 09 3d 75 0e 98 3c 7e cc 93 3d 2e b8 84 3d
       0.033668175 0.018561581 0.07216738 0.06480442
0003a0 1b 99 fe 3c 24 a8 05 3e bf 42 a4 3d ea 7d 3b 3d
       0.031078866 0.13052422 0.08020543 0.045774378
0003b0 fd f8 46 3d 2b bc a3 3c 46 c4 b4 3d 99 2a 10 3e
       0.048577297 0.019987186 0.08826499 0.1407875
0003c0 27 85 6a 3d ff dd 3b 3c 46 95 10 3d 22 33 0c 3e
       0.05725589 0.011466502 0.03529861 0.1369138
0003d0 65 18 10 3e ca 90 83 3c d8 93 0e bc c2 a3 39 bd
       0.14071806 0.016060252 -0.008702241 -0.045322187
0003e0 00 26 8a 3d 72 8a 94 bd e5 56 e8 3c ca d5 90 bd
       0.06745529 -0.07252969 0.028361747 -0.07072027
0003f0 74 1e 2c be 6f b9 04 be 56 39 b9 bd e7 4b 5f bb
       -0.16808492 -0.12961362 -0.09044139 -0.003407234

conv2.bias f4 [8]
000000 30 84 d8 3c f3 90 a6 3a e7 c9 79 3b f4 b4 b3 3c
       0.02643022 0.0012707993 0.0038114728 0.021936871
000010 d0 65 44 3d be 49 ad 3b 26 bc 8d 3c 0c 2e c6 3c
       0.04794866 0.005288332 0.01730163 0.024191879

conv3.weight f4 [16, 8, 3, 3]
000000 29 b8 bc bc 3a a0 8c 3d 3d d4 08 3e d5 4a 47 bc
       -0.023037033 0.06866498 0.13362212 -0.012163837
000010 76 4d 4f 3d 17 35 36 3d 07 df 7c 3d 7d cd 12 bd
       0.050610982 0.044484224 0.061736133 -0.0358405
000020 bd c6 57 bd 38 a9 45 3d d3 79 1d 3d 84 1a ba 3d
       -0.052679766 0.048257083 0.03844626 0.09087089
000030 ab 09 74 3d 93 db 87 3d a9 ad cf 3d a9 4d 0e bd
       0.059579533 0.06633677 0.10140545 -0.03474203
000040 1a 9d f5 3a 0c 42 a1 3d d3 8d 4a 3d c9 52 a1 bc
       0.0018738837 0.078739256 0.04945166 -0.019692795
000050 51 83 09 3e 04 c1 98 3d 29 14 87 3d c0 97 15 3d
       0.13429 0.0745869 0.06595642 0.036521673
000060 82 6d 86 3c 23 0c 98 bc f1 d0 15 be d4 2d 8e bd
       0.01640964 -0.018560475 -0.14630486 -0.06942335
000070 c6 99 89 bd b6 d1 87 39 87 1e 60 bd 89 2c c9 3d
       -0.06718783 0.00025905453 -0.054716613 0.098229475
000080 41 c5 b5 3d 9f d6 92 bd 22 17 a1 3d 3f 2e ca bd
       0.08875514 -0.07169842 0.0786574 -0.09872102
000090 67 b0 18 3e 28 88 65 3c f4 e8 43 bd 78 4c 3f 3e
       0.14911042 0.014009513 -0.047829583 0.18681514
0000a0 21 9b d4 3d 72 39 63 3d c6 c7 84 3b e0 a2 e6 3d
       0.10381151 0.055474706 0.004052135 0.11261535
0000b0 c1 e6 52 3e 90 5b ee bc ac 9f 8c 3d 6b a3 d2 3c
       0.20595838 -0.029096395 0.068663925 0.02571269
0000c0 b8 79 83 bd 45 25 3f 3d 53 83 59 bd eb ec e6 3c
       -0.064197004 0.046666402 -0.053103756 0.028189143
0000d0 bd 4d c4 bd ff 42 70 bc d5 5a 82 bd fd 9a 64 3b
       -0.0958514 -0.014664411 -0.06364981 0.003488242
0000e0 b4 49 9e 3d 36 1f ec 3b 4f 7f 1b bb ca 79 71 3d
       0.077289015 0.007205869 -0.0023727005 0.058954038
0000f0 f4 a6 1e bd 21 1e 8e 3d 29 9a 87 bd 32 0c 7c bd
       -0.038733438 0.069393404 -0.066212006 -0.061535068
000100 f9 c5 c8 bd 54 77 33 3d 1a 39 db bc 36 fe 38 3d
       -0.09803385 0.043814972 -0.026760627 0.04516431
000110 1a 62 4c 3d 33 a4 d8 bb 67 20 30 bd 89 e0 09 bd
       0.049898244 -0.006611371 -0.04299965 -0.0336614
000120 07 05 6d 3d 4a ea 14 3c 45 72 45 bd 7a 74 31 bc
       0.057866123 0.009089062 -0.04820468 -0.010830993
000130 80 14 b5 3d 5d 52 e0 bc 08 45 a9 bd f3 b4 f0 3a
       0.08841801 -0.027383024 -0.0826512 0.0018364474
000140 4a f9 64 bc 32 17 a9 3c 74 63 63 bd 3d 06 f6 3c
       -0.013975451 0.020640943 -0.055514768 0.030032272
000150 33 31 84 3d b1 8c c4 bb 41 e8 a6 bc de a1 c2 3d
       0.064546965 -0.005998217 -0.02037442 0.0950353
000160 c8 1e c0 3d ff 09 7d 3d 4e 0e d9 bc fb 85 b5 bc
       0.09380871 0.06177711 -0.026496079 -0.022158613
000170 4d 30 6c bd af bc 40 3d 6c 8f 96 3d 6e d2 4b 3c
       -0.05766325 0.047054943 0.07351574 0.012440307
000180 f8 86 dc bd e7 d3 13 3d 8d b5 51 3d 0a 0d 64 bd
       -0.10767931 0.036090758 0.05119853 -0.055676498
000190 1d 70 49 3d 4d 81 10 3d ca 69 60 ba 9e ef f4 3c
       0.049179185 0.03527956 -0.00085606857 0.029899415
0001a0 7b 4d d1 3c d9 cd f2 bd 0c 06 a9 3b cd 63 5a 3d
       0.02554964 -0.118556686 0.0051581915 0.053317834
0001b0 70 60 b7 3b 78 fa 88 3c 3b 0c 29 3a 20 28 b3 3c
       0.005596213 0.016720995 0.0006448661 0.021869719
0001c0 31 a0 35 bd 4e 65 4f bd a1 98 6f 3c 1e 9d 06 bd
       -0.044342224 -0.05063372 0.014623792 -0.032864682
0001d0 ed 24 4b 3c d8 e8 8e bd 37 13 21 bd 8c 28 5e 3d
       0.0123989405 -0.06978005 -0.039324965 0.054237887
0001e0 7e 82 96 3d 20 dc bc bc a5 cb 13 3c 04 b4 f5 3b
       0.07349108 -0.023054183 0.009020721 0.007498266
0001f0 fb f3 94 3d df b7 c2 bc 62 fc f7 3c 4a 56 0b 3d
       0.07273098 -0.023769317 0.030271713 0.03401784
000200 e5 07 64 bd 72 77 f0 3c d2 fd 84 bc 63 b7 77 3c
       -0.05567159 0.029353831 -0.016234312 0.015119406
000210 d0 3b f8 3c cf b4 5b 3c 66 15 08 bd fc 2b f0 bc
       0.030301958 0.013409807 -0.033223532 -0.029317848
000220 02 97 60 bd c7 94 51 bd 75 37 16 3d 05 6f dc ba
       -0.054831512 -0.051167276 0.03667398 -0.0016817754
000230 e9 8a 7f bc 58 0b c8 3d a7 51 24 3c 23 26 c4 bd
       -0.015597084 0.09767789 0.010029233 -0.095775865
000240 94 fc c2 3c 2f a3 11 bd 9e 82 f2 bd 12 d3 e2 3b
       0.02380208 -0.035556015 -0.118413195 0.006922134
000250 d6 22 03 3e c7 c0 fe 3d a8 af cb 3d eb 63 53 3e
       0.12806258 0.12439113 0.09945613 0.20643584
000260 29 4d 83 3d a3 c4 7d bd b1 f1 9e bd 75 60 29 bd
       0.064112015 -0.061955106 -0.07760943 -0.041351754
000270 c8 39 0e 3d f7 2b 8a 3d a7 e7 1d bd 27 ca 11 3e
       0.034723073 0.06746667 -0.038551 0.14237271
000280 68 b3 fe 3d 01 df be bc ed 19 bd bc f6 b3 a2 bc
       0.12436563 -0.023299696 -0.023083651 -0.019861203
000290 b5 d3 03 be 80 d0 fc 3c 9e 6d 2a 3e db 3f 8e 3d
       -0.12873729 0.03086114 0.16643378 0.06945773
0002a0 47 2e 18 3e 23 cc 16 3e ad 17 22 3e 57 27 b9 3d
       0.14861403 0.1472631 0.15829344 0.090407066
0002b0 ff 80 90 bd 07 94 6f bc a3 72 80 bd a2 eb 28 bd
       -0.07055854 -0.014622695 -0.06271865 -0.041240342
0002c0 4e a2 88 bd 5a 32 8c bb 25 a2 b1 3c 69 b9 5b 3e
       -0.06671582 -0.0042784633 0.021683762 0.21457447
0002d0 c0 05 56 bd 9f 30 cf 3d 8a b6 e3 3d b0 45 b4 bd
       -0.052251577 0.101166956 0.11118801 -0.08802354
0002e0 ca 29 03 be f4 5d 13 be 0d a3 45 3d 29 0b 6c bd
       -0.1280891 -0.14391309 0.0482512 -0.05762783
0002f0 87 1c a1 38 6f fb 28 bd 99 28 b2 bd 6e e4 f4 bc
       7.682392e-05 -0.04125541 -0.0869915 -0.02989408
000300 c4 ae 53 3d 4c bc 14 3d 72 e8 96 3c fa c0 98 3d
       0.05168034 0.036312386 0.018421385 0.07458682
000310 12 51 48 3e 9e 1a 25 bd 5c 45 00 3d 20 bb bc bd
       0.19562176 -0.040308587 0.031316146 -0.09215379
000320 4f 6a 31 bd ac d6 3a 3d 86 72 84 3d fa d0 30 bb
       -0.043314274 0.045614883 0.06467156 -0.0026980028
000330 ce 3a bc 3d 5d 13 60 3e d0 30 0b 3e 8b e4 3b bc
       0.091909036 0.21882387 0.13592839 -0.011468063
000340 5b 91 87 bc 4b 3e 6d 3d 4d 50 cf bb 07 b5 ac 3c
       -0.016548803 0.057920735 -0.0063267113 0.021082414
000350 19 88 88 bc 82 b2 3c 3b 40 dc b2 bb 51 07 f0 bd
       -0.016666459 0.0028792922 -0.0054583848 -0.117201455
000360 18 fc 51 3c 11 65 07 bc 48 9f f9 bc 26 51 82 3d
       0.0128164515 -0.008263842 -0.030471459 0.06363134
000370 77 07 39 bd 0d 22 f2 3c b2 49 76 bd 77 b8 b4 bd
       -0.045173135 0.029557252 -0.060128875 -0.088242464
000380 54 55 64 3c 64 f1 83 3d 6c 65 e5 3c b1 26 29 bd
       0.013936359 0.06442526 0.028002463 -0.041296665
000390 cd 11 01 3e bd e5 67 bc ca 2e 9c 3d c2 6e e0 3d
       0.12604447 -0.014153895 0.07626112 0.109586254
0003a0 8b 62 05 3e 43 db 0d 3e 5d dd 9d bd e4 af 89 3b
       0.13025872 0.13853173 -0.07708237 0.004201876
0003b0 65 77 39 3b 30 ce 04 be 98 fd 9a bc 36 d3 71 3d
       0.0028299924 -0.1296928 -0.018919751 0.059039317
0003c0 f2 c7 34 be 0a f7 8a bc 40 79 b2 3c 6f 9e fd bb
       -0.17654398 -0.0169635 0.021786332 -0.007739834
0003d0 c5 f0 9f 3d 1a d8 ce 3c 34 b8 43 3d 6d f2 90 3d
       0.07809595 0.02524953 0.04778309 0.07077489
0003e0 e8 c4 9e bb 7b ca e8 3d c2 ef e4 3d 53 aa aa bd
       -0.0048452504 0.11366745 0.11178543 -0.08333268
0003f0 1f 8c 9b bd af a7 9a bd 6d 68 fe 3a 7d 7b fc bd
       -0.07595085 -0.07551514 0.0019409783 -0.12328241

conv3.bias f4 [16]
000000 d3 ec 80 3d 40 c3 16 3d c1 59 d5 3b ef 80 8c 3d
       0.06295171 0.0368073 0.0065109436 0.0686053
000010 c7 6a 8c bd a9 02 4e 3b 6c 22 14 3d fd 9e 85 3d
       -0.06856304 0.003143469 0.03616564 0.06524465
000020 dd c9 71 3d 76 4a 8d 3d de 66 ae 3c 00 87 03 bd
       0.059030402 0.06898968 0.021289285 -0.032111168
000030 e1 b8 10 bd c0 af 9e 3d 71 63 ca bb 02 29 d9 3c
       -0.035332564 0.077483654 -0.006176405 0.026508812

conv4.weight f4 [64, 16, 3, 3]
000000 f2 6c d3 bc 64 8d 5c 3d 2d 7a 54 3d a9 bb 40 3d
       -0.025808785 0.053845778 0.05187433 0.047053967
000010 88 95 87 3b ed d4 44 3b 9c 8a 37 bd 5e 30 0b bd
       0.0041376986 0.003003414 -0.044809923 -0.033981673
000020 7d ea 9b ba b1 8f db 3c 85 67 0d 3d 5f 3c a0 ba
       -0.0011895444 0.026801916 0.034522552 -0.0012225023
000030 a7 d2 84 3b f0 8b 21 3d 45 60 86 3c a8 a2 ff bb
       0.004053432 0.039440095 0.016403327 -0.0078013726
000040 92 08 e8 bb b1 4e fa bb 93 d2 c1 3a 87 2b 18 3d
       -0.0070811 -0.0076387753 0.0014787487 0.037150886
000050 73 6e d1 bc f2 62 bb 3b 13 6d a5 bd b2 c6 97 3c
       -0.025565362 0.0057185823 -0.08077445 0.018527362
000060 97 24 2c ba a6 02 74 bd 11 76 a5 3d e3 4b 4b bd
       -0.00065667316 -0.05957284 0.0807916 -0.049632918
000070 89 d6 d7 bc a7 63 87 bc 87 2d a5 3c 5f f0 91 3d
       -0.026347416 -0.01652701 0.02016331 0.07125925
000080 d7 45 3a 3d 22 43 c6 3d 50 d8 a0 3c a5 2e ff 3c
       0.04547676 0.09680773 0.019634396 0.031150172
000090 2c e4 eb 3a 16 3d 85 bc 35 1d 94 3c df 8c f5 3b
       0.0017997078 -0.01626448 0.018080333 0.0074936
0000a0 75 a0 ea 3c f3 9f f6 3c 1d a7 ad 3d e6 94 86 3c
       0.028640965 0.030105567 0.0847914 0.016428422
0000b0 38 5e 02 bd f4 f4 84 3c 16 c3 7f 3d 63 23 1f 3c
       -0.031828135 0.016230084 0.062441908 0.009713027
0000c0 25 49 43 3d 4e 94 cf bc 98 6a 67 bd a6 a0 58 bd
       0.047677178 -0.025339272 -0.05649814 -0.05288758
0000d0 9b 91 8d bd 10 30 db bc 24 15 6b bd c4 e9 09 3c
       -0.06912538 -0.026756316 -0.05739321 0.0084175505
0000e0 0b 13 52 3a 71 61 56 3d 15 8e 46 3d 43 f2 54 bd
       0.0008013702 0.05233902 0.048475344 -0.05198885
0000f0 f8 9c e9 bc 46 3a 70 3d 30 4b 33 bd 1c 3e 54 bd
       -0.028517231 0.058649324 -0.043772876 -0.051817045
000100 64 b7 56 bd e1 57 81 bc 22 70 ff bc df 44 6b bc
       -0.05242099 -0.015788974 -0.031181399 -0.014359682
000110 90 e7 2d 3d e3 2c bb 3d 83 fa 15 bc 3e 59 6a 3c
       0.042457163 0.09139421 -0.009153965 0.014303504
000120 3f 47 76 bd 51 51 c0 bc 05 e7 b5 3c bd e9 31 bd
       -0.06012654 -0.023476275 0.022204885 -0.0434358
000130 35 59 de bc 7c d5 35 bd 9d db 75 bd 55 22 d5 bd
       -0.027142147 -0.044393048 -0.060023893 -0.10406939
000140 b1 0b a2 bd 83 6c eb 3c 89 eb f0 3c 43 a5 45 bd
       -0.07912386 0.028738266 0.029409187 -0.04825331
000150 cd fd fd bc 0e ec fd bc 33 d2 b7 bd b5 99 43 bd
       -0.03100481 -0.030996349 -0.08975639 -0.04775401
000160 64 5a 91 bd 9e 5a 1f bd a4 62 29 3d bf 7e 72 bd
       -0.07097319 -0.03890478 0.041353837 -0.059202906
000170 c1 a3 cb bc 96 42 33 bd dc 24 21 bd cf be 2c 3c
       -0.024858357 -0.043764673 -0.039341792 0.010543539
000180 b2 df 93 bd 8d c0 24 bc a5 d6 d4 3b ac 39 2c 3d
       -0.07220401 -0.010055673 0.006495314 0.042047188
000190 f0 99 30 3d f4 b4 3a 3d f3 b0 5c bb a1 ca 01 bc
       0.043115556 0.045582727 -0.0033674806 -0.007921846
0001a0 f0 47 b9 3b 92 a0 0b 3c d5 cb b2 bc f5 2a 33 bd
       0.0056543276 0.00852217 -0.02182571 -0.04374214
0001b0 eb c3 58 bb e2 a6 e2 bc c2 a1 72 3d ff bc a2 bc
       -0.003307576 -0.027667467 0.059236296 -0.019865511
0001c0 96 0f b9 3c 81 e1 ec 3b a8 a8 93 3d 5f 20 ac 3c
       0.02259044 0.0072290306 0.07209903 0.02101153
0001d0 2e c9 09 3d 57 f2 ba bc f3 3e 51 bd 60 de 6f bd
       0.033639126 -0.022820635 -0.051085424 -0.058561683
0001e0 f4 74 4e bd 59 f6 21 bd 8b c8 a6 3c 1f ba c6 bc
       -0.050404504 -0.039541576 0.020359298 -0.024258671
0001f0 f3 64 8c 3d 17 36 9e 3d 8c 49 22 bc 21 93 11 3d
       0.06855192 0.077251606 -0.00990523 0.035540704
000200 54 41 f2 bb 43 ea a1 3d 39 c5 27 bd 39 3e dd bb
       -0.0073930416 0.0790601 -0.04095957 -0.0067518023
000210 ce 89 0b bc da de 1f 3d 28 21 8d 3d aa 34 9a 3c
       -0.008516742 0.039030887 0.0689109 0.01882394
000220 36 fd 7f 3d f2 29 45 bc e6 24 cd 3a 62 5a 60 bc
       0.06249734 -0.012033926 0.0015651255 -0.013693424
000230 a5 61 35 3c 8b 89 3d 3d 48 ea 8e b9 53 31 c1 bc
       0.011070644 0.04627375 -0.00027258904 -0.02358309
000240 6c b1 5a 3d af 35 29 3c 35 05 ea bc c1 d0 90 3c
       0.05339186 0.010327741 -0.028566936 0.017677667
000250 68 d4 02 bc c0 c6 21 3d 94 0a 29 bd 54 b0 c1 bc
       -0.007985212 0.039496183 -0.041269854 -0.02364365
000260 d1 45 69 3d e0 ff 73 bc 1b cc 0b 3b 88 34 90 3b
       0.056951348 -0.014892548 0.0021331373 0.0044007935
000270 ae 2b b4 bc 10 00 90 bc 11 81 4f bb 87 ed a3 bc
       -0.021993484 -0.017578155 -0.0031662623 -0.020010723
000280 2e 9a 0f 3d f0 97 4d 3d 63 05 d2 bc c1 66 12 bd
       0.035059147 0.050193727 -0.025637334 -0.035742525
000290 58 c8 68 3c 53 47 05 be 6b 88 38 3c 42 a7 ca bc
       0.014207922 -0.1301549 0.011262993 -0.024737958
0002a0 8f 01 28 3c 83 b5 99 3c b5 8f 6c 3d d8 73 99 3b
       0.010254278 0.01876331 0.057754237 0.004682999
0002b0 ee b4 d0 3c 57 9e 83 bd cb f4 6a bd eb e9 86 bd
       0.025476899 -0.06426685 -0.05736236 -0.06587585
0002c0 46 12 22 bd 38 a0 78 bd cd 83 34 bd 01 f9 1d 3d
       -0.03956821 -0.06069967 -0.044071008 0.038567547
0002d0 01 3d 8e bc db fa 18 bb 7f ec 05 bd 9c c4 31 bd
       -0.017363073 -0.002334288 -0.032696243 -0.043400392
0002e0 5c 33 c5 bc 07 8e 31 bd a6 dc a9 bc 4a dd ed bc
       -0.024072342 -0.04334834 -0.020735096 -0.029036183
0002f0 84 1c 0e bd 61 d2 93 bc 3e 59 82 bd 1d a5 83 3c
       -0.034695163 -0.018044652 -0.06364678 0.016069943
000300 d4 76 87 bd b9 a5 c1 b9 a4 f0 a8 3d cf 38 28 bd
       -0.066144615 -0.00036935302 0.082490236 -0.041069802
000310 df ad 1a 3d c6 4d b1 3d 1a 7f 09 3c 4d 40 c5 3c
       0.037763473 0.08657412 0.00839212 0.024078513
000320 78 3a d9 3a ee 7b 43 bc 7e bd 0a bd f9 77 e9 3b
       0.0016573211 -0.011931403 -0.03387212 0.0071248976
000330 d6 64 6c bc 0f 69 a3 bc 7e a2 5e 3d b2 dd fd bc
       -0.014428338 -0.019947557 0.054354183 -0.030989502
000340 8e 6f 8e bd 84 03 94 bd b8 10 18 bd 63 e2 86 bd
       -0.06954871 -0.07227233 -0.03712532 -0.065861486
000350 26 3c 17 bd 48 6f c0 bd ad 50 9e bd 6f 7f 90 bc
       -0.036922596 -0.09396225 -0.077302314 -0.01763889
000360 b7 63 23 bc 38 ad 4f bc b0 5f 0e 3c 6d bd 5c 3d
       -0.009972504 -0.012675576 0.008689806 0.053891588
000370 93 d9 b2 bb 9b 06 cf b9 de ab a9 bb d4 9f 3d bc
       -0.005458066 -0.00039487038 -0.005177959 -0.0115737505
000380 9f 37 2c bd 23 0c 64 bc 06 ea 9f bc 18 8e 26 3b
       -0.042045232 -0.013918909 -0.01952077 0.0025414284
000390 93 20 69 bd 04 6c b5 bd 66 91 14 bd ab f2 cc 3b
       -0.05691583 -0.08858493 -0.036271475 0.006254514
0003a0 f3 3e 36 3d a1 fc ce bc 8e bf 45 bd 31 c0 71 bd
       0.044493627 -0.025266947 -0.048278384 -0.05902118
0003b0 ee 46 8c 3d b4 da 1e bc 51 fd 9f 3d c7 ef c8 3d
       0.06849466 -0.009695698 0.07811988 0.09811359
0003c0 23 ff 81 3d 04 a4 98 3c e0 30 a6 bc 6c b7 ad bc
       0.063474916 0.018632896 -0.020286977 -0.021205626
0003d0 36 8a 7d bd 93 21 91 bd 9d d7 58 bd 5d 2f 92 bd
       -0.061899386 -0.07086482 -0.05294 -0.0713794
0003e0 c6 10 22 bd 9d c3 57 3d d6 cd 89 3b 25 53 8f bc
       -0.039566778 0.052676786 0.0042054458 -0.017495701
0003f0 5a 27 d7 bc 55 46 4a 3c 54 cf d2 3c fa fc 3e bd
       -0.026263881 0.01234587 0.025733627 -0.046627976

conv4.bias f4 [64]
000000 4a 65 b0 ba 2a 41 91 bc 45 11 ad bc 97 87 4f 3c
       -0.0013457921 -0.017731268 -0.021126399 0.0126666045
000010 46 b5 8a ba 78 82 81 ba 8b 87 87 bc 3c 28 d0 8b
       -0.0010582588 -0.0009880802 -0.016544124 -8.0179224e-32
000020 15 b2 b6 3c 9d cc 14 bc 7f b4 94 bc 45 f2 4d 3c
       0.022301713 -0.009081987 -0.018152473 0.012569969
000030 70 e3 fe bb be 03 13 bc a2 51 21 bc 38 9d c0 bb
       -0.0077785775 -0.00897306 -0.009846123 -0.005878117
000040 f7 26 c0 bb 5f e7 0a bb 02 ae 27 bd c3 39 3c bc
       -0.00586402 -0.0021195037 -0.04093743 -0.011488381
000050 2a 73 29 bc be 59 04 bb 12 87 de 3c df 31 12 ba
       -0.010342399 -0.0020195092 0.027164016 -0.00055768894
000060 8a 89 4a bb 16 b9 fc 3a 02 42 74 3c a7 63 8e 3b
       -0.0030904734 0.0019281234 0.014908316 0.0043453756
000070 c1 f7 ea bb c2 95 1b bc cf b0 8d bc a8 50 04 bb
       -0.007170648 -0.009496154 -0.017296223 -0.0020189676
000080 46 13 50 3b ec c1 6d 3b 4e 9a 82 bc dc 5c 24 bd
       0.003174977 0.0036278917 -0.015942719 -0.04012762
000090 94 7a 30 bc 17 7f 32 bc 46 5b 69 bb 4f a0 a6 bc
       -0.010771412 -0.010894558 -0.0035607382 -0.020340113
0000a0 dd 15 79 bb a4 fc dd bb 1d 83 17 3c 31 8a 16 bb
       -0.0038007416 -0.006774502 0.009247568 -0.0022970552
0000b0 f0 29 c7 bb b6 80 8f bc fd 5b e9 3b 5f 0a 28 bc
       -0.0060779974 -0.017517429 0.0071215616 -0.010256379
0000c0 cc 29 87 bc e6 46 a9 3a 64 09 2d bc 65 f8 93 bb
       -0.016499422 0.0012914806 -0.010561321 -0.004515695
0000d0 bd 9d a0 3b 11 6a 05 bc 11 d8 75 bb f5 49 07 bd
       0.0049016164 -0.008142964 -0.0037512819 -0.033029515
0000e0 c9 ec 20 3b 3a c1 f0 3a eb 0e f6 39 7a b7 91 bc
       0.0024555197 0.0018368133 0.0004693189 -0.017787684
0000f0 77 cf 4b 3c 4f 8e 16 bd 02 13 fe bc c5 c7 6d bc
       0.0124396 -0.03675681 -0.031014923 -0.014512961

fc1.weight f4 [144, 576]
000000 9d 7d 18 82 fa a6 73 85 84 23 f6 84 48 d5 84 83
       -1.1203246e-37 -1.1456474e-35 -5.7866938e-36 -7.80723e-37
000010 17 e1 a1 8e 4d 4d bb 0c 3a fc 06 86 f5 5d 5b 13
       -3.9906318e-30 2.8858436e-31 -2.5387906e-35 2.768801e-27
000020 f0 26 fe 86 f0 06 5e 04 d4 5b 4d 86 cc cb 2a 06
       -9.5601394e-35 2.609916e-36 -3.862368e-35 3.2123173e-35
000030 ab 20 d8 86 5e 4b 10 94 e1 23 8a 06 ae 6d d7 03
       -8.129817e-35 -7.285006e-27 5.196255e-35 1.26617455e-36
000040 ea 7f 33 8e 98 1c 9f 05 eb 77 a6 04 f6 79 e7 04
       -2.2125042e-30 1.4962792e-35 3.913654e-36 5.4419842e-36
000050 5b 90 f8 03 d6 e4 77 85 bb 88 83 86 12 c3 10 0e
       1.4609272e-36 -1.1655915e-35 -4.947763e-35 1.7843293e-30
000060 35 02 64 05 7b 12 22 95 89 77 4d a5 17 60 4b 84
       1.0720914e-35 -3.2730218e-26 -1.7821416e-16 -2.3906658e-36
000070 57 8a f2 84 3a ca 1b 82 93 c5 44 03 58 9f 9b 85
       -5.702097e-36 -1.1445638e-37 5.7826027e-37 -1.4634664e-35
000080 98 c9 12 86 38 64 fe 84 9f c1 f2 86 8f 5b 84 85
       -2.7607656e-35 -5.980715e-36 -9.1314783e-35 -1.2446854e-35
000090 76 9c 06 84 34 11 b3 04 64 ba 3e 06 a7 39 2c 05
       -1.5823468e-36 4.2098496e-36 3.5871966e-35 8.09799e-36
0000a0 8b 27 b3 88 8b 45 3b 86 20 78 07 06 53 67 9f 06
       -1.0782467e-33 -3.5221883e-35 2.5478932e-35 5.9960974e-35
0000b0 9f c1 e1 05 e6 8a 5b 04 c8 92 ce 84 b1 b0 29 84
       2.1230023e-35 2.5807105e-36 -4.8565165e-36 -1.9946987e-36
0000c0 83 af 1f 06 f1 23 6d 85 28 50 dd 84 25 d0 4a 85
       3.0033522e-35 -1.1150288e-35 -5.2030462e-36 -9.5362245e-36
0000d0 e8 37 ba 05 7b d4 22 86 f3 3d 09 05 56 bd 9a 05
       1.7511893e-35 -3.062492e-35 6.453087e-36 1.4551641e-35
0000e0 f4 ee ad 06 80 63 fd 05 a9 53 60 95 bc 32 58 11
       6.542648e-35 2.3828556e-35 -4.5302436e-26 1.7055029e-28
0000f0 aa 88 59 85 71 79 67 05 9e d0 23 03 1a 01 00 80
       -1.0228392e-35 1.0883873e-35 4.8140876e-37 -3.95e-43
000100 ba 0d 00 80 4f 10 00 00 27 0e 00 00 13 27 00 80
       -4.924e-42 5.85e-42 5.077e-42 -1.4017e-41
000110 4a 0e 00 00 f7 07 00 00 0c 0e 00 80 1b 0f 00 80
       5.126e-42 2.857e-42 -5.039e-42 -5.419e-42
000120 f6 56 34 86 29 1d 8a 9a 4f 56 67 1b c0 a1 40 06
       -3.3918126e-35 -5.712257e-23 1.913576e-22 3.6230022e-35
000130 d5 22 40 13 ed ba b8 a6 bc 31 1a 85 9c 17 91 05
       2.425098e-27 -1.2818231e-15 -7.25018e-36 1.3644407e-35
000140 a4 7d 09 86 cf d1 d4 04 0b 67 b3 05 20 6a c4 83
       -2.5859142e-35 5.003364e-36 1.6870931e-35 -1.154421e-36
000150 92 be 47 05 87 08 ef 0e b7 9d 8b 85 13 43 13 06
       9.391937e-36 5.892626e-30 -1.3129432e-35 2.7696905e-35
000160 70 83 cb 93 c5 18 21 03 c1 a8 9e 04 be a2 f3 05
       -5.137401e-27 4.734208e-37 3.7300597e-36 2.2911392e-35
000170 ba e8 d8 05 cf 39 28 86 57 aa 64 87 2c aa a5 84
       2.0398033e-35 -3.163976e-35 -1.7202872e-34 -3.894759e-36
000180 80 3f 1b 86 a6 ab f1 0c eb 8c 50 05 76 3e a0 85
       -2.9198912e-35 3.7235236e-31 9.8059955e-36 -1.5069272e-35
000190 af 94 be 86 3e 03 c2 05 22 a9 3e 06 e8 0d 88 88
       -7.168853e-35 1.8244863e-35 3.5859287e-35 -8.188472e-34
0001a0 c2 c7 1d 06 63 90 04 05 16 00 1c 86 2a 33 26 86
       2.9675177e-35 6.23313e-36 -2.9340402e-35 -3.125872e-35
0001b0 af a6 ec 84 a7 ad 95 85 09 6e ba 05 62 24 09 05
       -5.5636408e-36 -1.4075682e-35 1.7531776e-35 6.4483915e-36
0001c0 a0 d9 8c 85 41 ef 8a 06 6d f7 ae 04 32 b0 69 86
       -1.324548e-35 5.226138e-35 4.1134428e-36 -4.3951877e-35
0001d0 d9 08 bf 05 df f5 6c 03 98 e2 88 85 2f f8 32 85
       1.7964804e-35 6.9636413e-37 -1.2872616e-35 -8.415104e-36
0001e0 0b 41 44 05 76 b7 b8 91 8c f8 be 86 08 f9 8f 85
       9.227822e-36 -2.9143148e-28 -7.1835263e-35 -1.3539135e-35
0001f0 b9 f2 0e 1d 35 39 08 07 87 73 3e 85 71 10 b6 02
       1.8919028e-21 1.0248314e-34 -8.954976e-36 2.6751933e-37
000200 ea d5 5f 85 ca 04 f3 05 95 54 78 8a 39 f6 44 1a
       -1.05246994e-35 2.285337e-35 -1.1956674e-32 4.0730747e-23
000210 42 5e e4 05 e7 3e 8f 9e a6 6d 4d 95 c6 12 36 02
       2.1475642e-35 -1.516673e-20 -4.1485918e-26 1.3376636e-37
000220 e2 22 8e 84 2b 5f 56 85 34 5d 19 85 3b 76 0d 0b
       -3.3416074e-36 -1.0079711e-35 -7.211144e-36 2.724456e-32
000230 b9 90 a7 0c 50 e0 9c 85 8f 49 7d 09 c8 70 69 85
       2.5817526e-31 -1.4752569e-35 3.0488354e-33 -1.0976322e-35
000240 0f 81 cc 84 67 c1 1e 84 6b 6e 8a 05 f9 d3 a7 84
       -4.807869e-36 -1.8661617e-36 1.3018019e-35 -3.9456177e-36
000250 25 90 94 86 12 d0 6f 85 9b 2b c7 04 88 85 75 07
       -5.5883214e-35 -1.12759425e-35 4.682472e-36 1.8470993e-34
000260 41 3f 9b 06 9d 51 d3 02 e1 7d 2c 85 a3 2e f2 84
       5.8397463e-35 3.1050507e-37 -8.1105214e-36 -5.6936756e-36
000270 20 6a ed 85 ba c1 b1 05 f9 f4 95 86 8f 82 d3 84
       -2.2326357e-35 1.6716164e-35 -5.6407526e-35 -4.972576e-36
000280 02 03 72 0f 36 f1 47 86 5f 42 35 84 59 ee c2 06
       1.19321005e-29 -3.7604954e-35 -2.1306924e-36 7.332491e-35
000290 68 15 67 06 2a 1f 9f 85 d9 9b 72 86 0d 89 bb 07
       4.3461998e-35 -1.4963736e-35 -4.562964e-35 2.8217184e-34
0002a0 89 00 3c 86 99 54 75 86 06 4d 51 86 64 e1 13 05
       -3.5359263e-35 -4.614153e-35 -3.936512e-35 6.9533045e-36
0002b0 f9 9e 9f 84 b5 1a f6 83 98 55 c6 84 1b 83 8a 86
       -3.7526714e-36 -1.4464712e-36 -4.662818e-36 -5.210247e-35
0002c0 35 c8 79 85 7b cb 87 05 81 07 2e 06 8a b2 97 84
       -1.1744696e-35 1.2770086e-35 3.2731276e-35 -3.566389e-36
0002d0 98 8f e6 04 70 61 36 86 ba e4 c8 03 4b 91 54 06
       5.420461e-36 -3.430198e-35 1.1807457e-36 3.9979513e-35
0002e0 e8 bf 14 07 3a 70 af 84 91 ce 5d 06 3b 98 1a 06
       1.1190679e-34 -4.1245366e-36 4.171724e-35 2.9076022e-35
0002f0 a2 7c 77 06 3e 73 56 83 84 10 9f 83 3b 1d 7e 85
       4.6547102e-35 -6.302124e-37 -9.348972e-37 -1.19483914e-35
000300 b4 2a 83 05 49 a7 cb 85 7b e6 01 86 e9 d0 5c 86
       1.2334867e-35 -1.9151479e-35 -2.4431534e-35 -4.1530884e-35
000310 22 a9 fe 94 7e e8 e1 05 ab b8 b8 85 37 8a 5a 0d
       -2.5714157e-26 2.1244302e-35 -1.7371113e-35 6.7342807e-31
000320 f1 c0 2b 8e 62 33 2f 03 2c 6b 35 8c 2b e5 11 8a
       -2.1170275e-30 5.1486862e-37 -1.3975984e-31 -7.024598e-33
000330 b9 3e 97 06 1b 20 0d 06 c3 94 c3 05 2c e6 c7 03
       5.689205e-35 2.654274e-35 1.8392358e-35 1.1749014e-36
000340 6f b0 12 85 f6 e9 a5 85 19 26 e1 85 ab 5f 18 06
       -6.897293e-36 -1.5602469e-35 -2.1172893e-35 2.8658308e-35
000350 05 84 11 07 45 ce 02 84 4e ad d1 86 b6 be 31 86
       1.0947385e-34 -1.537614e-36 -7.887171e-35 -3.3430112e-35
000360 ed db 11 85 e7 b2 80 85 d5 d9 42 04 d0 cc df 84
       -6.858261e-36 -1.210278e-35 2.2904614e-36 -5.261514e-36
000370 5b 11 a8 86 40 d5 60 05 15 00 3b 05 ff 9c 8d 90
       -6.322008e-35 1.0571597e-35 8.792713e-36 -5.5856585e-29
000380 be bb 21 83 40 4f 21 85 15 57 5a 91 be 0b 8f 91
       -4.7529165e-37 -7.5847395e-36 -1.7224002e-28 -2.2568659e-28
000390 70 17 bf 85 71 5b bd 0b 57 1c b8 9a ad 4c ba 84
       -1.7970163e-35 7.293774e-32 -7.61464e-23 -4.3798805e-36
0003a0 5d 01 89 84 23 a1 c8 06 d8 56 e7 84 a1 64 d2 06
       -3.2209797e-36 7.546841e-35 -5.4387592e-36 7.914108e-35
0003b0 0d 8f e0 0f 7a 24 94 04 d9 5f af 85 07 af 64 91
       2.2143207e-29 3.482813e-36 -1.649213e-35 -1.8039963e-28
0003c0 2e 0d 8c 85 e3 0f 50 86 64 57 3f 06 82 cc b3 84
       -1.3170378e-35 -3.9132124e-35 3.5987312e-35 -4.227051e-36
0003d0 58 58 01 06 d3 26 39 85 46 7e 0e 85 4a fb 3e 06
       2.4327108e-35 -8.705789e-36 -6.700001e-36 3.5919646e-35
0003e0 be 98 d2 85 ba 73 7e 05 37 5d 89 06 11 84 00 85
       -1.9804414e-35 1.1964278e-35 5.167064e-35 -6.042788e-36
0003f0 5b d4 1c 85 e9 ab 31 02 6c 73 82 02 f4 3f 57 85
       -7.374088e-36 1.3053242e-37 1.9168032e-37 -1.0120998e-35

fc1.bias f4 [144]
000000 c1 20 1a 85 5c 6e 22 bb 11 f4 3c 3c 97 e8 19 00
       -7.247061e-36 -0.0024785018 0.011532799 2.379325e-39
000010 27 3a 25 bc 06 bf 56 3b d4 0d 00 00 cd 0d 00 80
       -0.010084665 0.0032767667 4.96e-42 -4.951e-42
000020 c5 68 fe 3b 88 58 bf 3b 34 d5 53 3c ce 0e d5 3b
       0.0077639543 0.005839411 0.01292925 0.006502009
000030 cf d2 8e 3b e5 0d 00 80 71 93 6c 3c 06 79 69 bb
       0.0043586264 -4.984e-42 0.01443945 -0.0035625114
000040 96 10 0f 3a ec 0b 92 3b 76 d7 1c bb 76 0c 19 3b
       0.00054574886 0.0044569876 -0.0023932136 0.0023353375
000050 45 25 35 bb 35 54 0b 3c c2 11 e2 99 ae 0d 00 00
       -0.0027640623 0.008503963 -2.3375025e-23 4.907e-42
000060 50 2e be 3b 3d fd 47 ba b2 79 09 bc 81 17 0e 3b
       0.0058038607 -0.0007628983 -0.008390831 0.002168149
000070 37 7f cf bb a8 a8 99 3b e7 1c 5c b9 50 f7 2e 3b
       -0.006332304 0.004689295 -0.00020991602 0.0026697703
000080 02 44 b7 bb 3b 7c 29 3b 30 53 e1 3b 13 f0 2d bc
       -0.005592824 0.00258614 0.006876372 -0.01061632
000090 cc e8 ea 2c 90 ff 2f b9 ad 86 04 28 6a 66 16 bb
       6.6765257e-12 -0.00016784505 7.356675e-15 -0.0022949227
0000a0 67 47 1c bb 13 0e 00 00 b7 e7 a2 3b db 84 94 01
       -0.002384627 5.049e-42 0.00497147 5.455725e-38
0000b0 fb 0d 00 80 1e dc 9c bb a9 17 28 3b fb 47 9c 28
       -5.015e-42 -0.004786982 0.0025648868 1.7350696e-14
0000c0 a8 9b 0a 8b 47 18 36 ba dd 0d 00 80 b5 f0 94 24
       -2.6694936e-32 -0.00069463666 -4.973e-42 6.459254e-17
0000d0 b3 0d 00 80 cb d9 fd 3b 49 86 d0 39 a7 40 b9 bb
       -4.914e-42 0.00774691 0.00039772902 -0.005653459
0000e0 cd 2e e5 b2 c5 33 00 00 63 7c 31 3b 2b ad 05 b3
       -2.6680391e-08 1.8571e-41 0.0027082197 -3.112397e-08
0000f0 dd 0d 00 00 d9 b3 34 3c 24 df eb 3b 96 0a 27 bc
       4.973e-42 0.011029207 0.0071982313 -0.010195395
000100 25 f1 2c 3b 1d 73 0e 3b 84 0a bd a5 ab fb c2 3b
       0.002638885 0.0021736093 -3.27934e-16 0.0059504113
000110 84 97 2c b6 e3 0e 00 00 69 7f b3 3a 91 27 2a 3b
       -2.571819e-06 5.34e-42 0.0013694587 0.0025963525
000120 d9 29 3a 08 47 f5 85 bb f1 0d 00 80 7e 88 89 ba
       5.602153e-34 -0.004088077 -5.001e-42 -0.0010492948
000130 13 26 b7 3b df 0f 89 84 75 86 dd 3b c7 e2 c2 38
       0.0055892556 -3.222312e-36 0.0067604133 9.2928814e-05
000140 a1 d8 70 3b 75 b0 98 bb 75 d2 cb 3b 66 18 9f 22
       0.0036750215 -0.004659707 0.006220157 4.312287e-18
000150 fe f5 b1 b0 97 bc 50 3c 0c 8d 0b 3a 0f 7c 0f bc
       -1.294836e-09 0.012740276 0.0005323447 -0.008757605
000160 28 32 2b 3c d1 d4 d8 06 04 a4 ee 3b 31 4f 0c bb
       0.01044897 8.1562875e-35 0.007282736 -0.0021409506
000170 9f 21 21 3c df c0 eb 3b 14 06 b1 3b bb c9 3d 3b
       0.009834676 0.007194623 0.005402336 0.0028959352
000180 ef 35 96 bb 50 4d 21 bc d8 a8 45 3c d0 37 e8 3b
       -0.004584066 -0.009845093 0.012064181 0.0070867315
000190 45 67 a1 bb 8b 29 2b 3c f0 bb 2c 3b 0f 68 72 ba
       -0.0049256408 0.010446916 0.0026357137 -0.00092470733
0001a0 b1 6f f9 3b a8 9d 53 bc 4e 08 5b bb 16 92 5e bc
       0.0076121916 -0.012916006 -0.0033421698 -0.013584634
0001b0 13 44 cb 32 be 0d 00 00 5f 3a ec b9 e8 18 17 bc
       2.3663267e-08 4.93e-42 -0.00045056918 -0.009222247
0001c0 07 00 7f 3b 13 b9 dd 3a e8 be fc 3b b5 ca ba 3a
       0.0038909928 0.0016916118 0.0077131875 0.0014251085
0001d0 cf 0d 00 00 1e 5d 4e 12 df a5 b5 39 0b 0e 00 80
       4.954e-42 6.5116914e-28 0.00034646594 -5.038e-42
0001e0 27 5b 31 a9 20 87 02 80 65 72 2b 3b 43 e6 29 3b
       -3.9380957e-14 -2.32145e-40 0.0026160714 0.00259246
0001f0 b7 0d 00 00 68 e1 5c bb 13 98 11 bc dc 5e 05 26
       4.92e-42 -0.0033703689 -0.008886355 4.6272203e-16
000200 ff 0d 00 80 5c 9a aa 3a 49 74 d5 b8 fb 83 51 80
       -5.021e-42 0.0013015973 -0.00010178291 -7.486021e-39
000210 f1 5e 5c 3b aa ee 1c 3c 74 c7 30 b4 63 27 8a 3b
       0.0033625925 0.009578386 -1.6463838e-07 0.004216121
000220 85 fc 8a 3b 42 30 cb 3b 33 4c af 85 76 97 c8 bb
       0.0042415285 0.006200821 -1.6484912e-35 -0.006121571
000230 e7 0d 00 00 9d 20 9e 3b f1 a8 fa 2c 38 e6 7e 3b
       4.987e-42 0.004825665 7.1241836e-12 0.0038894545

fc2.weight f4 [96, 144]
000000 ff 7a fd 19 af 3b b5 3d 96 31 1b 3d 4b 4f 1f 37
       2.6209265e-23 0.08849274 0.037889086 9.4956e-06
000010 b0 09 ad 3d b4 27 70 3d 41 11 3c b7 98 8a 55 b7
       0.08449113 0.058631614 -1.12096905e-05 -1.2728058e-05
000020 71 7f aa 3c 43 ec 3a bc 12 83 d9 3d 1d 03 8e 3d
       0.020812722 -0.011408868 0.10620703 0.069341876
000030 0e 55 76 bc 37 e1 6d 3a 48 84 92 3d bd 56 be 3d
       -0.015034927 0.0009074392 0.07154137 0.09293888
000040 60 d8 9f bd 1f 3f 83 3c 5c 6d 8f bd 2e 44 88 3d
       -0.07804942 0.01602131 -0.070032805 0.06653629
000050 30 ef 39 3d f6 9b 07 3d 72 52 91 ba 61 10 9e 0c
       0.045394123 0.03310772 -0.0011087193 2.4353612e-31
000060 ed 92 9a bc cb 60 8d 3d 42 34 41 3c 6a 3a 52 3d
       -0.018868888 0.069032274 0.011792244 0.05132524
000070 fc 77 0c 3d c2 fe 13 3d fc 27 8f 3d 2c 93 82 bd
       0.034294114 0.036131628 0.06990048 -0.06375727
000080 0b 77 16 bd b9 d9 89 3d a9 b3 2c bd e9 b3 c1 bd
       -0.036734622 0.067309804 -0.042163525 -0.09458143
000090 c5 ce e1 30 9b be 51 3b 3e 2a 08 aa bb 85 06 bd
       1.6429672e-09 0.003200448 -1.2093882e-13 -0.03284238
0000a0 24 61 9f bd 16 de c4 b1 19 f0 07 b8 5c 70 63 b6
       -0.077822 -5.729599e-09 -3.2410117e-05 -3.3891038e-06
0000b0 f5 0d 00 80 52 da fa 39 d0 9e 1e bd b3 e9 5c b9
       -5.007e-42 0.00047846377 -0.038725674 -0.00021067895
0000c0 e1 b5 8e b5 2b 06 85 bc ef e4 4e 95 5c 94 a6 34
       -1.0632758e-06 -0.016238293 -4.1781965e-26 3.1027855e-07
0000d0 b5 fd b9 ba 27 00 0f 3d 8d 80 81 3d 32 7c 34 bd
       -0.001418999 0.034912255 0.06323347 -0.044063754
0000e0 77 27 99 b4 4d 6f 58 8c 95 d2 9b 3d b9 f3 03 b4
       -2.8527185e-07 -1.6673528e-31 0.07608525 -1.2288992e-07
0000f0 ca 0d 00 00 f7 c9 7b 3d e5 6e ee 3d db 05 a3 bc
       4.947e-42 0.061471906 0.11642245 -0.019900253
000100 2d 15 44 3d 82 54 87 bb 23 07 cf bb 23 cc ef bc
       0.047871757 -0.004129947 -0.0063179894 -0.029272145
000110 28 ac 63 39 45 b2 2c 36 ed 65 1c bc 57 8e 1c bd
       0.0002171254 2.5733764e-06 -0.009545785 -0.038221683
000120 40 89 cd bb 00 9d 97 3c 21 3f df 90 78 72 b6 bc
       -0.006272465 0.01850748 -8.8055256e-29 -0.02227138
000130 92 d5 cc 3d de 8e 43 bb 90 27 77 3d df 7b 67 3d
       0.10001673 -0.0029839794 0.060340464 0.056514617
000140 a5 13 f8 3c b7 bb 88 3a 66 c0 11 3d 6d 87 71 b6
       0.030282805 0.001043192 0.035583876 -3.5990627e-06
000150 85 ab 15 bb 17 95 f0 3c 17 b1 92 bd 90 bc 47 3c
       -0.002283783 0.029367967 -0.071626835 0.012190953
000160 2b 72 aa bc c4 f3 91 37 53 e5 a8 3b 93 42 da 3d
       -0.020806393 1.739886e-05 0.0051542907 0.10657229
000170 68 a7 83 bd b4 7c be 3c c4 31 f4 3c a9 d4 15 3d
       -0.064284146 0.023252822 0.029808886 0.03657976
000180 2f 21 b5 3c ed 00 fb 3c 6d 77 7d bc c5 69 90 3c
       0.02211055 0.03064009 -0.015470368 0.01762856
000190 dc 22 06 b9 4f cb f0 bc 1d 42 8a 3d 95 27 1f 3d
       -0.00012792222 -0.02939382 0.06750891 0.038856108
0001a0 5b 9c 17 3d 8b 27 c2 bd 3d 6e 58 bb 2b 66 9c bd
       0.037014347 -0.094801985 -0.0033024692 -0.076366745
0001b0 97 ba 4e 3b 83 7e a2 b8 58 3b cb bc 7a 52 ea bd
       0.0031544322 -7.7483266e-05 -0.02480857 -0.114415124
0001c0 6b 5e 87 bd de b7 81 3d 22 7a 58 3d 8d e5 3a bd
       -0.06609806 0.06333898 0.05285085 -0.045629073
0001d0 ba f7 d8 38 42 36 8b 34 ee 12 4e bd 86 9d c5 b8
       0.00010345825 2.5930245e-07 -0.05031102 -9.423033e-05
0001e0 86 4c e0 39 15 7f 2b 29 48 aa df 3c 56 c3 0f 3c
       0.00042781624 3.8079854e-14 0.027302876 0.008774599
0001f0 d3 0d 00 00 ca e5 e5 bc 1a c7 ea 3b 26 8b 21 bc
       4.959e-42 -0.028063674 0.007164848 -0.009859836
000200 b9 ca 06 38 7d f5 19 bd 76 dd df ba 67 19 46 35
       3.213689e-05 -0.03758763 -0.001707955 7.3797713e-07
000210 8a ff 5b 3d 1e 8f 2a bd 13 66 26 b6 9c 95 89 3c
       0.053710498 -0.041640393 -2.4795343e-06 0.016794972
000220 e6 96 bb 3a 50 95 69 3c fe f6 87 3b c9 6f 56 3d
       0.0014311939 0.01425679 0.004149317 0.0523527
000230 89 fd c3 a1 e5 a4 7b bc 7a 83 27 2f 55 26 f3 3c
       -1.3280824e-18 -0.015359138 1.5235271e-10 0.029681364
000240 8b c2 09 af 37 cb f1 3c b2 4a 0f 3d c2 17 45 b7
       -1.2529193e-10 0.029515846 0.034983344 -1.1747647e-05
000250 d4 01 50 3d d9 c3 14 bc da 7f c4 b4 c8 ea 38 b5
       0.050782993 -0.009079897 -3.660087e-07 -6.8886993e-07
000260 ba df c7 bc 09 7f 5a bb bd bb 7a 3b 7b 55 43 bd
       -0.024398673 -0.003333988 0.0038258873 -0.047688942
000270 10 fc 4c bd f6 8d 7b b2 ae 68 ab 3c 80 0e b7 bc
       -0.050045073 -1.4642401e-08 0.020923939 -0.022345781
000280 af dd 2f 3d 74 35 9b bd a2 23 73 3d 8b 99 6f bd
       0.042936023 -0.07578555 0.059360154 -0.05849604
000290 61 9b 94 bb 12 97 5d 3d 58 86 88 b9 d5 0d 00 00
       -0.004535124 0.05409915 -0.00026040035 4.962e-42
0002a0 55 eb 08 3c e7 27 81 3d 59 c0 3b 3d be 5b 1e 3c
       0.008356889 0.06306439 0.045837734 0.009665428
0002b0 bd 39 d6 3a 23 4f 87 bb c6 d8 ff 3c e4 11 21 3d
       0.0016344112 -0.004129307 0.031231295 0.039323702
0002c0 31 22 53 3c 20 c3 8b bc f9 9b 0f bd bf bb db 3b
       0.01288657 -0.017060816 -0.035060856 0.0067057307
0002d0 7a 2e 09 af 6e 05 5d 3d 53 b3 27 a9 c1 86 f1 3c
       -1.2476589e-10 0.053960256 -3.7236988e-14 0.029483201
0002e0 2b 0a da bc d0 83 c4 2c 81 af 39 3d 75 c9 6c 37
       -0.026616177 5.585289e-12 0.04533339 1.41136015e-05
0002f0 c0 0d 00 00 86 b9 8d bc d0 88 3f 3d e3 05 25 b5
       4.933e-42 -0.017300379 0.046761334 -6.1475856e-07
000300 2b 07 1c b4 f1 78 ae 3b 87 bb 5c 11 e2 19 49 b8
       -1.453124e-07 0.005324476 1.7412726e-28 -4.794624e-05
000310 9a 1b 01 39 39 62 61 3d f0 bb 72 bc af 2a 9a bd
       0.00012312681 0.055025313 -0.014815316 -0.075276725
000320 42 f1 85 34 e2 0d 00 80 d8 91 3e bd 18 c6 32 b3
       2.494872e-07 -4.98e-42 -0.046525806 -4.162402e-08
000330 1a 0e 00 80 be bf 70 3b f0 0a de bc 40 00 3e bd
       -5.059e-42 0.003673538 -0.027104825 -0.046386957
000340 59 ef ec bb a2 df c2 3c 70 e6 0c 3b ec 9e e5 3c
       -0.007230681 0.023788277 0.0021499656 0.028029881
000350 fb f9 cd ba ec 2e 36 b5 75 34 16 bb f9 cd a0 3c
       -0.0015714759 -6.7868564e-07 -0.002291945 0.019629465
000360 d0 2d 96 ba b1 02 ef bc b4 0d 00 80 b9 ad 23 3c
       -0.0011457745 -0.029176088 -4.916e-42 0.009990149
000370 33 74 f9 3c c3 cb 07 2e f3 a9 8c 3c f5 b9 ab bd
       0.030450916 3.0876423e-11 0.017170882 -0.08385078
000380 12 6a 0d 3d ce 48 0f bd b0 00 80 bd ca 21 ca 33
       0.034524985 -0.03498154 -0.06250131 9.412504e-08
000390 4b 19 aa bb d7 56 85 3d 0b 95 9e 3b 51 6a 87 bc
       -0.0051910034 0.06510704 0.0048395447 -0.016530188
0003a0 d1 fe 23 bc f1 06 81 b6 5b a2 6a 3d 66 9c c9 bc
       -0.010009483 -3.8453077e-06 0.05728374 -0.02461071
0003b0 e3 6e c2 3c a7 f9 85 3d 19 a0 c6 bc 4a a9 4f 3c
       0.023734516 0.06541758 -0.024246262 0.012674639
0003c0 2f a8 93 3c 47 e0 0c bd f5 bd 97 3d 86 54 ec bc
       0.018024532 -0.034393575 0.07409278 -0.028848898
0003d0 d9 6d 65 3d 96 f8 68 3d 75 1a 67 bc 80 86 f6 bc
       0.056012962 0.056877695 -0.014105429 -0.030093431
0003e0 26 e1 32 3d 24 3d 31 bd b2 ef 82 38 ed 19 15 3d
       0.04367175 -0.0432712 6.24353e-05 0.036401678
0003f0 29 09 c5 ba 02 60 81 36 05 0a 15 bd 87 d7 0a bd
       -0.0015032637 3.8556764e-06 -0.03638651 -0.03389695

fc2.bias f4 [96]
000000 59 04 c0 3c e9 fd 65 3b d7 84 c0 bb 03 b1 c4 3a
       0.023439573 0.003509397 -0.0058752107 0.0015006367
000010 06 cc 55 ba 8d 41 7a bb 61 4c 0f 3c 5b 1b 51 b3
       -0.0008155707 -0.0038186044 0.0087462375 -4.8686484e-08
000020 99 f5 56 3c b8 99 8f 3c 0f ee d9 3c de 0d 00 00
       0.0131200785 0.017529353 0.026602773 4.975e-42
000030 8c 41 cf 3c de c3 fa b5 3b 96 0a 2d 10 79 af bb
       0.02529981 -1.8683456e-06 7.87775e-12 -0.005355008
000040 c3 3f 9e 36 70 5e 4a 3c 47 78 c0 ba c6 10 1d bc
       4.71619e-06 0.012351617 -0.0014684283 -0.009586519
000050 e3 0e c8 ba 16 fd 0f 3c 87 4a 6e 3c 43 5f a2 ba
       -0.0015263226 0.008788368 0.014544136 -0.0012388009
000060 2a f3 9c bb 1b bd 5a ba b6 7f dd aa 72 fd 95 14
       -0.0047897296 -0.0008344219 -3.9346103e-13 1.5145122e-26
000070 23 08 b1 bb 82 fc 02 b9 fa 21 92 3c 41 2f ab af
       -0.0054025813 -0.00012491833 0.017838467 -3.1138295e-10
000080 6a 6d da 3b 58 f4 8b 3c f4 4b 02 bc 26 ab 42 bc
       0.006665875 0.017084286 -0.007952679 -0.011881625
000090 fd 9a 84 bb 4d 0e 48 3c de 30 70 3a cb 12 a8 bc
       -0.0040467964 0.012210441 0.0009162555 -0.020516774
0000a0 fb 29 c9 3b a0 10 f3 3b f5 40 2a b7 30 e1 8b ab
       0.0061390377 0.0074177533 -1.0147914e-05 -9.939046e-13
0000b0 bd e6 4c 3c ea 21 43 3b c9 70 8a 3c 67 44 2d 3c
       0.012506184 0.0029774853 0.016899483 0.01057539
0000c0 22 ea c8 31 0b df 8a 3b 59 f9 3c a6 99 1b 4d bc
       5.847384e-09 0.0042380146 -6.556353e-16 -0.012518787
0000d0 2a e5 89 bb d0 cf a7 bb f3 b4 73 3c 4a 01 c2 3c
       -0.0042082267 -0.0051212087 0.014874685 0.023682255
0000e0 08 a8 94 3c 2a 5f 0f 95 d8 f1 6f 3a 75 ba 8d 3c
       0.01814653 -2.895369e-26 0.0009153164 0.017300824
0000f0 e2 f1 6c bc 61 3b d4 3c 39 1f 2f 3c a2 46 bd 3b
       -0.014461966 0.02590722 0.010688596 0.0057762424
000100 b6 fb b3 3c 68 80 6e 3c c5 21 96 bb 3b bd 03 b1
       0.021970611 0.014556982 -0.0045816624 -1.9170574e-09
000110 8b 9c ac 00 ba c1 05 b6 5e e4 ac bb 48 1a 30 bc
       1.5851862e-38 -1.9931308e-06 -0.005276247 -0.010748453
000120 e3 0d 00 80 4e ab 3b 3c bc a7 19 bc 6c 8b 2d 3b
       -4.982e-42 0.011454416 -0.00937837 0.0026480807
000130 ed d0 3c 3b b0 44 72 3c ed 87 a1 15 e0 a5 18 3d
       0.0028811053 0.014786884 6.5241835e-26 0.037267566
000140 fb 50 8b af d5 de 1d 3c 34 0e 00 80 f9 1d 6c 3c
       -2.5341493e-10 0.009635647 -5.095e-42 0.014411443
000150 3f fe a6 3c 1d b5 86 bb 37 77 15 a7 11 e5 82 3b
       0.020384906 -0.004110946 -2.074253e-15 0.003994592
000160 1b 82 83 3b ed 55 17 3b 08 bb ca bb b2 a3 0e 3b
       0.0040133125 0.0023091987 -0.0061868466 0.002176505
000170 98 e7 b4 bb d6 cf 95 3c 45 35 a0 3c 9e 1a 71 bb
       -0.005520772 0.01828758 0.01955665 -0.0036789547
