models/model.pt (torch, 229115 bytes, 8 tensors)

conv1.weight f4 [16, 1, 3, 3]
00000000: 46a0 983e e196 0c3e ecdd aa3e 424c 053e
00000010: b0bc a83e f8b6 bcbe 9fd5 1bbf 26e2 ffbe
00000020: ad41 3dbe a533 8fbd 3878 ee3d 55da 8abd
00000030: 8051 503d e052 bc3e e9f4 dfbe 0b27 393e
00000040: 6c38 f33d 373d a6be dbf5 913e 1a74 693e
00000050: a544 a9bc 9f3b 9dbe cd6e 933e e254 0f3f
00000060: 672b 1cbf 86f5 5bbe d621 ffbe 03f8 cebd
00000070: 7fdf b53e 12d0 35be d979 873e e5f4 3f3e
00000080: 8aaa b9bc fcbc 0dbe 7c4e d73e 07ba 9abe
00000090: a24c 6d3e 5e1c 863d bde2 48bf cf2c db3e
000000a0: 44bc acbe 9ec8 3cbd fea9 d13e 1b6c 84be
000000b0: 56cb c6be dd45 07bf 40e6 04be 58fb e23d
000000c0: 2a4f de3e 86a2 c63e 8f2a ffbc daf7 093d
000000d0: 7626 0fbf d7f5 92be 95ea 41bf b988 6b3e
000000e0: 4af2 a63e 257d 9fbe 9efb 53be 6204 223d
000000f0: d111 1bbe b045 493d aefb ca3e ff86 5f3d
00000100: 379e fabe 516d f5be c3e6 ba3e bf62 d73e
00000110: 01bb a4be 7399 70bd 5065 073d 14ef 023f
00000120: c380 03bf 2290 9bbe 026b 1a3e 388e 32bd
00000130: 5315 033f 0ba9 c83d 1d39 b63e 6d3d ac3c
00000140: d21d 2fbf f700 c8be ebd5 0abe 6b7e 21be
00000150: c439 e3bd e594 27be 33aa 05be 63b1 623e
00000160: 2c1f 88be 7cd7 29be 9ff3 213d 273e 453e
00000170: 3e47 463e b35b 2d3e e56a 92be caee 963d
00000180: 223a 5a3d b21e 693e 2765 04bd 998f 03be
00000190: 02c7 bcbe 1374 cc3e f176 86bc 062b 1dbe
000001a0: 887e 953e 2944 243d b023 ebbe 1305 49bd
000001b0: 92a1 b7be a935 69be 6ae4 c23e 3bd4 103e
000001c0: 79db 44bf 639b 0dbe 3773 c83e 0779 883e
000001d0: 3645 f5be db1a 2e3e dff6 cbbc 9601 2f3f
000001e0: 5769 57bd 71e4 44bf ea35 f6be b388 623d
000001f0: c2ed 903e c380 833e 812f 683e 9128 04bf
00000200: 6687 07be 685a 57bd 9cef bf3d df5f 003f
00000210: 2dc9 56bd 30ee 14bd e8be 77be 2f98 6d3e
00000220: d566 83be c7d0 073f 9a6c 663d 7008 2a3e
00000230: f90e 003d 08bc 0e3e 977e a8be 2dcc 0cbf
0.2980978 0.1372943 0.33372438 0.13017371 0.32956457 -0.36858344 -0.60872835 -0.49977225
-0.18482085 -0.06992272 0.11644024 -0.06779925 0.050858974 0.3678198 -0.4374154 0.180813
0.11875996 -0.32468578 0.28507885 0.22798195 -0.020662615 -0.3070955 0.28795472 0.55988896
-0.61003727 -0.21480379 -0.49830502 -0.10105898 0.35522076 -0.17755154 0.2646015 0.18745764
-0.022664327 -0.13841623 0.42052066 -0.30220053 0.23173764 0.06548379 -0.78470975 0.42807624
-0.33737385 -0.04608976 0.40950006 -0.25863728 -0.38827008 -0.5284098 -0.12978458 0.11083096
0.43419772 0.3879587 -0.031148223 0.033683635 -0.5591806 -0.28703186 -0.7574857 0.23001374
0.32606727 -0.31150165 -0.20701453 0.03955496 -0.15143515 0.049138725 0.3964514 0.0545721
-0.48948833 -0.47934964 0.36504182 0.42067525 -0.32173923 -0.05874009 0.033055604 0.51146054
-0.5136835 -0.30383402 0.15079883 -0.04359266 0.51204413 0.097978674 0.3559045 0.021025384
-0.6840488 -0.39063236 -0.13558166 -0.15770881 -0.11095002 -0.16365393 -0.13053207 0.2213798
-0.26586282 -0.16586107 0.039538976 0.1926199 0.19363114 0.16929512 -0.2859718 0.07369764
0.053278096 0.22765616 -0.03232303 -0.12847747 -0.3687058 0.39932308 -0.016414138 -0.15348443
0.29198098 0.040104065 -0.45925665 -0.049077105 -0.35865456 -0.22774376 0.3806489 0.1414346
-0.7689739 -0.13828807 0.39150402 0.26654837 -0.47904366 0.17002432 -0.02489799 0.68361795
-0.052590694 -0.76911074 -0.48088008 0.055306148 0.28306395 0.25684175 0.22674371 -0.516244
-0.13235244 -0.052576452 0.09371874 0.5014629 -0.05243795 -0.036359966 -0.24193919 0.23202585
-0.25664392 0.53052944 0.056255914 0.16604781 0.03126428 0.13938916 -0.3290908 -0.5499905

conv1.bias f4 [16]
00000000: 5d7b 81be 084a a6be 16e2 8abe f346 183e
00000010: db4e 13bf d55b 0cbf 2f78 dcbe 3dae ecbe
00000020: 467f 03bf d35d 70be ae41 75bd 92a1 96be
00000030: 62d9 e1be df74 cbbe 47ba 35be 4798 2fbe
-0.2528943 -0.32478356 -0.27125615 0.14870815 -0.575422 -0.54827625 -0.43060443 -0.46226683
-0.5136608 -0.23473291 -0.05987709 -0.29420143 -0.44111162 -0.39737603 -0.1774684 -0.17147933

conv2.weight f4 [32, 16, 3, 3]
00000000: 26d1 c3b8 21e1 0038 ed8e 7ab8 0f66 a2b8
00000010: 28a8 b8b5 8128 0eae b79c b7ab eaeb b189
00000020: dd88 0000 2d49 64b9 ba49 d2b8 34cc f0b8
00000030: b0f9 97ba f0c7 bab8 22a4 bcb9 a054 313a
00000040: 9b3b abba 8e70 69ba 6df0 1cb4 d2e6 8535
00000050: 1a87 4bb6 c9b4 3034 fcc6 50b5 a0bd 24b2
00000060: 086c 25ab 5d8c a2a7 524a ed29 b622 90b9
00000070: 2efd 2c38 acdb 71b7 2615 b3b7 ca20 21ac
00000080: 2e6e 7510 f30e db2d 1b7a 0aa3 51a6 78ad
00000090: d806 b931 c994 eeb0 4fe1 9b9c 6083 e233
000000a0: 6445 9d07 988c 0080 be5b 71b1 b4e3 afa6
000000b0: 07f9 139d 248e 0db6 6666 ecb3 8016 24ae
000000c0: 0cd3 07b2 6d51 0000 2089 0080 447e bdb4
000000d0: b282 9cb2 f080 80b3 dd97 b7b0 61b3 daa9
000000e0: c193 0da5 385f afaa f912 138f 48ab 97ae
000000f0: 174d 16b5 abdb 59b5 f74b 49b6 608c 0000
00000100: 7e91 0080 cd89 0000 1d8f 0000 658d 0080
00000110: 79aa 0000 688a 0080 1189 0000 0a8b 0000
00000120: 3837 19ba d731 c7b6 ec60 79b4 c1ae bfb5
00000130: 2392 ab9b 6e5a 33a7 b292 07b9 88c2 cfb9
00000140: c038 5fba 07c6 fdb7 56e1 75b8 b920 adb8
00000150: f368 95b8 41dd b5b9 2546 89b9 2cc8 c5b8
00000160: 5892 75b9 5a50 5038 ae11 44bb 604a d639
00000170: 06ac 6fba 4665 84b9 86d8 b4b5 f4cf 6ab8
00000180: 799a fcba e729 6fb9 aac7 73ba 3bd7 89bb
00000190: ab02 dcb9 a56c 6f39 8687 58b9 0ae2 b6b5
000001a0: 1196 80b6 90bd 90af dd37 d5af 17b0 50b8
000001b0: 46cc 8ab9 2e4f a2b8 8ba5 87b8 8410 bbb8
000001c0: 7b3b e7b6 4784 00b8 eb13 a7ba 27da 13ba
000001d0: 459e ebb9 6f1f f9ab eeb1 8fa8 8dea 25a3
000001e0: 1a33 a0a2 799e 8d11 981a 81ae 457a 03ae
000001f0: e2ec ecb0 fa72 0db6 422c 81b8 ab36 3bb7
00000200: eff9 69b7 0d8f 5bb1 07ae 65ac 6368 a5ad
00000210: 82db a4a8 d9bf 8f17 2c70 03b4 ccc1 86bb
00000220: e44b efbb 081e 8ebb 13f3 c8bb aac6 71b8
00000230: ce89 96b7 c804 87b7 6798 75b1 ea7f 28b8
00000240: e5a3 51b6 0ca5 19b9 da82 beb9 3141 b4b7
00000250: 6bc3 acb7 ff30 8ab7 d521 5da1 18cd fc32
00000260: 9d10 ecb6 03ad 14bb 8cf2 f4bb 2a64 ec3a
00000270: a030 9ebb 20bb 71bb 2064 273a 35ca 9fba
00000280: 99a8 40ba 23d0 efbb 3eb8 b8b6 ea6a 51b7
00000290: cc4a c7b8 6dcc b7b7 45cf 5db6 c752 c5b4
000002a0: 7cb9 b4b3 38ff dbb1 3f56 1fb5 e88c 84b7
000002b0: 8c6f 0d3a 54f7 75b7 b167 e3b5 bf33 9bb9
000002c0: f6ee 2fb9 b8b2 67af f0dd deb9 8421 8db8
000002d0: 304b 0000 f55c 7cb5 7978 65b8 478b 0080
000002e0: d331 ddb4 646d f436 074b 7711 f221 f3b7
000002f0: 12a7 0cb7 5251 f5b6 c686 d037 0c24 d3b8
00000300: 7a80 e5ac 3320 8fb4 87d8 d9b6 6481 6fb6
00000310: 9412 aeb9 967d b6b7 b4c6 8db6 6844 9fb6
00000320: 377e 79b6 2371 a5b4 bf78 86b3 ddad 87b3
00000330: fb76 b738 75ba 2cba 0ef5 3cb7 749e 0000
00000340: f1bf 0300 668c 0080 fc89 0080 ae8a 0080
00000350: 518d 0000 8289 0080 5e89 0080 329c 0080
00000360: 6025 1ab9 6361 8a3a 4d05 3239 a81d a8b5
00000370: a858 31ba 7e30 83b9 7ac6 84bb 7690 eeba
00000380: 7d7a 16bb fb83 40ba b73f 37ba 4fb4 f7ba
00000390: 7b35 6bba 073d 9cb6 7c5a 193a 9382 3aba
000003a0: f5c0 71b8 319a e5ba d25d 44bc f384 00ba
000003b0: 4dd8 dbbb c1f1 17ba 67d8 28bc 0299 7fba
000003c0: 2da8 fabb b76d a2bb b51e 63bc 712c 75bb
000003d0: 0626 52bb 3124 9bbb 4ed2 4d39 52b6 9dba
000003e0: 7c1a 3bb9 f78e 34ba a625 d8ba 53af 82b9
000003f0: 15cf cbba 4935 b9ba 0377 abbb aec6 a5ba
-9.3372815e-05 3.0727246e-05 -5.9737755e-05 -7.743772e-05 -1.3758008e-06 -3.2323037e-11 -1.3046429e-12 -4.2833053e-33
4.9097e-41 -0.00021771035 -0.00010027313 -0.000114821276 -0.0011594798 -8.9064124e-05 -0.00035980443 0.0006764624
-0.0013064028 -0.00089050166 -1.4616099e-07 9.97645e-07 -3.0327997e-06 1.6457047e-07 -7.77756e-07 -9.589172e-09
-5.87697e-13 -4.5116215e-15 1.0537807e-13 -0.00027491682 4.1243788e-05 -1.4415866e-05 -2.134831e-05 -2.2897678e-12
4.840261e-29 2.4904056e-11 -7.506852e-18 -1.41340975e-11 5.3849867e-09 -1.7359066e-09 -1.031528e-21 1.0547842e-07
2.3663519e-34 -5.0436e-41 -3.5122265e-09 -1.2204783e-15 -1.9584032e-21 -2.1093374e-06 -1.10082325e-07 -3.7309267e-11
-7.906021e-09 2.921e-41 -4.9191e-41 -3.5295864e-07 -1.8220224e-08 -5.983918e-08 -1.3358165e-09 -9.712262e-14
-1.2279861e-16 -3.1152316e-13 -7.2513136e-30 -6.897111e-11 -5.5991535e-07 -8.115846e-07 -2.9995551e-06 5.0357e-41
-5.2193e-41 4.9434e-41 5.134e-41 -5.0723e-41 6.1154e-41 -4.9651e-41 4.917e-41 4.9878e-41
-0.0005844715 -5.9364643e-06 -2.3225192e-07 -1.4281469e-06 -2.8384016e-22 -2.4890262e-15 -0.00012929252 -0.00039627054
-0.00085152313 -3.0252164e-05 -5.8622412e-05 -8.255378e-05 -7.124422e-05 -0.00034687857 -0.00026182938 -9.430977e-05
-0.00023419538 4.9665898e-05 -0.0029917764 0.00040872674 -0.000914276 -0.00025252457 -1.3474062e-06 -5.598362e-05
-0.0019272111 -0.00022808426 -0.00092994666 -0.0042065657 -0.00041963658 0.0002283329 -0.00020649852 -1.3625843e-06
-3.8321673e-06 -2.632814e-10 -3.8784168e-10 -4.975506e-05 -0.00026473607 -7.73951e-05 -6.4681364e-05 -8.919931e-05
-6.891261e-06 -3.064077e-05 -0.0012747025 -0.0005640112 -0.00044940613 -1.7701239e-12 -1.5953354e-14 -8.994336e-18
-4.3422193e-18 2.2343544e-28 -5.870965e-11 -2.989455e-11 -1.7238586e-09 -2.1077562e-06 -6.159443e-05 -1.1158797e-05
-1.3946074e-05 -3.195001e-09 -3.2639462e-12 -1.8804685e-11 -1.8302854e-14 9.289588e-25 -1.2241134e-07 -0.004112458
-0.007302748 -0.004337076 -0.0061324923 -5.7643898e-05 -1.7945564e-05 -1.609548e-05 -3.5738823e-09 -4.017345e-05
-3.1238826e-06 -0.00014652702 -0.00036337116 -2.148803e-05 -2.0594996e-05 -1.6473698e-05 -7.492249e-19 2.9429927e-08
-7.035282e-06 -0.002268613 -0.007475203 0.0018035222 -0.004827574 -0.0036885217 0.0006385464 -0.0012191
-0.0007349342 -0.007318513 -5.505076e-06 -1.2482264e-05 -9.5029915e-05 -2.1910493e-05 -3.3052213e-06 -3.6754338e-07
-8.4156426e-08 -6.402754e-09 -5.935762e-07 -1.580124e-05 0.0005395345 -1.46607235e-05 -1.6942996e-06 -0.00029602458
-0.0001677832 -2.1072821e-10 -0.00042508496 -6.729647e-05 2.6972e-41 -9.4012586e-07 -5.4710054e-05 -4.9963e-41
-4.120071e-07 7.2845014e-06 1.9507984e-28 -2.8983664e-05 -8.383549e-06 -7.311036e-06 2.4858291e-05 -0.00010067978
-6.5228352e-12 -2.6659254e-07 -6.492311e-06 -3.568909e-06 -0.00033201708 -2.1754571e-05 -4.2252595e-06 -4.746533e-06
-3.7177358e-06 -3.0815963e-07 -6.261825e-08 -6.318053e-08 8.748282e-05 -0.00065890636 -1.12627295e-05 5.6842e-41
3.44362e-40 -5.0365e-41 -4.95e-41 -4.9749e-41 5.0695e-41 -4.9329e-41 -4.9278e-41 -5.6032e-41
-0.00014700508 0.0010557588 0.00016977378 -1.2525607e-06 -0.0006765225 -0.00025022397 -0.0040519806 -0.0018201012
-0.0022961192 -0.00073438854 -0.000699039 -0.0018898341 -0.0008972508 -4.656267e-06 0.000584997 -0.0007114794
-5.7638583e-05 -0.0017517266 -0.011985259 -0.00049026235 -0.0067091347 -0.0005796217 -0.010305501 -0.0009750278
-0.0076494426 -0.0049569267 -0.013862302 -0.0037410522 -0.003206612 -0.004734539 0.00019628668 -0.0012032485
-0.00017843576 -0.00068877585 -0.0016490712 -0.0002492616 -0.0015549386 -0.001413026 -0.005232693 -0.0012647712

conv2.bias f4 [32]
00000000: 496b 13bb 1f50 67bb 64bf 4b3c ffc1 39bd
00000010: 2494 3abd bbde f0bb de56 c2ba 5760 afbe
00000020: ecfe a6ba 46a7 dabc 5af4 74bc 1369 f6bb
00000030: 801a 53bb 6c2c 1ebb d05f bb3b 25f7 c539
00000040: 66db 7bbc 57ce 56bc 5432 6fbb 41bc babc
00000050: 53f4 e83a 72dc 9b3b 6bd1 b13d 2ffd 01bd
00000060: b032 f6bc d365 dfb4 7f06 34ba 52d1 87bb
00000070: 913f afbe c07c 16bb 7ee2 06bd 871b b5bc
-0.0022494367 -0.0035295559 0.012435768 -0.045351025 -0.045551434 -0.0073507703 -0.0014826914 -0.3425319
-0.0012740768 -0.02669109 -0.014950836 -0.00751985 -0.003221184 -0.0024135364 0.005718209 0.00037758905
-0.015372133 -0.013110719 -0.0036498504 -0.022794845 0.001777301 0.0047565037 0.086825214 -0.031735595
-0.030053467 -4.1611074e-07 -0.0006867423 -0.004144826 -0.34228185 -0.002296254 -0.032930844 -0.022107853

fc1.weight f4 [64, 800]
00000000: f290 0000 2289 0000 3b97 0080 1b94 0080
00000010: 8a97 0080 a58a 0080 1a8d 0000 fa90 0080
00000020: 0ba3 0000 d491 0000 0997 0080 2b91 0000
00000030: cb98 0000 a2ab 0080 4395 0080 0e92 0000
00000040: dfa6 0000 e2ad 0080 8d89 0000 8a8d 0080
00000050: ce97 0080 f992 0000 bd8a 0080 8e96 0080
00000060: 3e8c 0080 d996 0080 e78b 0000 af9c 0080
00000070: 9b93 0000 f693 0000 3fa1 0080 1f9b 0080
00000080: ba8d 0000 eb9e 0000 2f91 0080 0c8f 0000
00000090: 269a 0000 319b 0080 4a89 0080 aca5 0000
000000a0: 0d91 0000 a2a1 0000 9d92 0000 078b 0080
000000b0: 13aa 0080 6a8e 0000 0b90 0000 d1a0 0000
000000c0: 3a9b 0080 38a3 0080 8a04 a034 3ebc 6eb4
000000d0: 52e7 d8b3 1bed bbb4 c398 0939 28c8 07b3
000000e0: 8a5a 8434 1e4b c1b4 915f a638 22b9 32bc
000000f0: 9e03 0135 41b6 19b4 ab93 ca36 e908 4eb9
00000100: 88de 47bd 4c73 ad34 b2cf 7334 6f6a 7a32
00000110: ce3d 29bc b2a5 cdbc b2c9 2633 af88 e9b4
00000120: ab5f 12bc 3e6c f9bc 6321 1cbd 229c 0000
00000130: aca3 0080 808d 0080 81aa 0000 c08a 0000
00000140: 4bad 0080 ae8b 0000 f3aa 0000 1e8c 0080
00000150: 0c8f 0080 9d9f 0080 848a 0080 178a 0080
00000160: 2e8a 0080 a5a7 0080 898b 0080 318d 0000
00000170: a78a 0000 e888 0000 248a 0080 208e 0000
00000180: 298a 0000 119c 0000 309c 0000 418b 0080
00000190: 38a7 0080 9908 1b80 cf88 0000 443a 0300
000001a0: f0aa 0000 cd16 0300 d012 0200 f889 0080
000001b0: 0630 0080 16d2 0280 4b02 952e b9a0 0000
000001c0: bcfe b30c 2683 0200 e488 0000 6271 0300
000001d0: 0b1f 0000 7dad 0000 6b48 0180 f497 0380
000001e0: f062 0380 6660 0580 12ab 0100 96d9 0180
000001f0: 3b3f 0080 749d 0080 6394 0080 4fa1 0000
00000200: c9a0 0080 838c 0080 e796 0000 e7a1 0000
00000210: 2baf 0080 109b 0000 0b90 0080 eea1 0080
00000220: b490 0000 b1a6 0080 1d92 0080 248e 0000
00000230: 30a5 0000 27a9 0000 4799 0080 4190 0080
00000240: c28b 0080 4c94 0000 609b 0000 0c91 0080
00000250: 418e 0080 5b89 0000 d579 9d2d b293 56ae
00000260: 5daa 04b1 4760 c12b dbde e3a5 ce3d df27
00000270: ffbf a32c b251 432d b333 402a 7f4d 249e
00000280: 895a f1ab 59a1 f32b 68dc 96ab 9a8d 0000
00000290: 72cf a41e 8613 962b 9325 86ad f518 0c20
000002a0: c58f 0080 b993 0080 8e26 7d1e 87ec b120
000002b0: 8c7e a620 4d8b 0000 769c 0000 9cbc e4b8
000002c0: bcc2 c4bc 57e2 29bd 073c 12bd b2ac 4cbd
000002d0: d816 8cbb b394 1cbd 2c91 f1bc 23a2 15bd
000002e0: 388a 8bbc 39e0 8eb9 8e22 86bb ae28 6c3a
000002f0: f4f2 6abc 77ea 2abc 9906 99b5 37a1 06bc
00000300: 1082 20bc 8266 ebba 5b47 1ebd 9c9e 0636
00000310: 98f9 19ba 29bb adbc 563b 0cbc b072 deb9
00000320: b08b 0000 e388 0000 4892 0080 808a 0000
00000330: 4b8b 0080 7e90 0080 9492 0080 188c 0080
00000340: ed8a 0080 7f89 0080 6e8c 0080 3e8f 0080
00000350: d58a 0000 168a 0000 d488 0000 33bb 4fa4
00000360: 7e8a 0080 3d8b 0080 168b 0000 3e90 0080
00000370: d388 0000 a489 0080 1a8b 0080 388b 0000
00000380: 678d 0000 b799 0000 619c 0000 7189 0080
00000390: 978a 0000 5489 0080 919e 0080 a79b 0000
000003a0: c395 0000 1d9e 0080 baa3 0080 0999 0080
000003b0: 9595 0080 c494 0000 499f 0000 908f 0080
000003c0: 6e8c 0080 048e 0000 ae89 0080 ce96 0000
000003d0: 4795 0000 ba88 0080 eb89 0080 118d 0000
000003e0: e990 0000 d6a6 0000 230b 0080 16aa 0100
000003f0: b496 0000 7893 0000 d888 0080 7f7d f3b1
5.1997e-41 4.9194e-41 -5.4251e-41 -5.313e-41 -5.4362e-41 -4.9736e-41 5.0618e-41 -5.2008e-41
5.8489e-41 5.2313e-41 -5.4181e-41 5.2076e-41 5.4812e-41 -6.157e-41 -5.3545e-41 5.2395e-41
5.9862e-41 -6.2377e-41 4.9344e-41 -5.0775e-41 -5.4457e-41 5.2724e-41 -4.977e-41 -5.4009e-41
-5.031e-41 -5.4114e-41 5.0188e-41 -5.6207e-41 5.2951e-41 5.3078e-41 -5.7844e-41 -5.5647e-41
5.0842e-41 5.7009e-41 -5.2082e-41 5.1316e-41 5.5298e-41 -5.5672e-41 -4.925e-41 5.9432e-41
5.2034e-41 5.7983e-41 5.2595e-41 -4.9874e-41 -6.1011e-41 5.1089e-41 5.1673e-41 5.769e-41
-5.5685e-41 -5.8552e-41 2.9805625e-07 -2.223396e-07 -1.0100361e-07 -3.500398e-07 0.00013122246 -3.1614178e-08
2.4652792e-07 -3.6003706e-07 7.9332975e-05 -0.010908397 4.806151e-07 -1.4315539e-07 6.03726e-06 -0.0001964901
-0.048796207 3.230765e-07 2.2706698e-07 1.4576115e-08 -0.010329677 -0.025103424 3.8833328e-08 -4.3499082e-07
-0.008933942 -0.030447122 -0.038117778 5.601e-41 -5.8714e-41 -5.076e-41 6.1165e-41 4.9774e-41
-6.2166e-41 5.0108e-41 6.1325e-41 -5.0265e-41 -5.1316e-41 -5.7258e-41 -4.969e-41 -4.9537e-41
-4.957e-41 -6.014e-41 -5.0056e-41 5.065e-41 4.9739e-41 4.9113e-41 -4.9556e-41 5.0985e-41
4.9563e-41 5.5986e-41 5.603e-41 -4.9955e-41 -5.9987e-41 -2.482643e-39 4.9078e-41 2.96408e-40
6.1321e-41 2.83686e-40 1.9042e-40 -4.9494e-41 -1.7228e-41 -2.59036e-40 6.776143e-11 5.7656e-41
2.773263e-31 2.30718e-40 4.9107e-41 3.1618e-40 1.1136e-41 6.2236e-41 -1.17814e-40 -3.30017e-40
-3.10999e-40 -4.93759e-40 1.53204e-40 -1.6989e-40 -2.2683e-41 -5.6484e-41 -5.3231e-41 5.7867e-41
-5.7679e-41 -5.0406e-41 5.4134e-41 5.808e-41 -6.2838e-41 5.5626e-41 -5.1673e-41 -5.809e-41
5.191e-41 -5.9798e-41 -5.2416e-41 5.099e-41 5.9258e-41 6.068e-41 -5.4986e-41 -5.1749e-41
-5.0136e-41 5.3199e-41 5.5738e-41 -5.2033e-41 -5.1031e-41 4.9274e-41 1.7902938e-11 -4.8789146e-11
-1.9305368e-09 1.3740197e-12 -3.9529236e-16 6.1961942e-15 4.6540545e-12 1.1102607e-11 1.7070962e-13 -8.6981135e-21
-1.7149208e-12 1.7310971e-12 -1.0719316e-12 5.0797e-41 1.7449973e-20 1.066356e-12 -1.5250723e-11 1.1866719e-19
-5.1575e-41 -5.2993e-41 1.3401681e-20 3.0141487e-19 2.8205236e-19 4.9972e-41 5.6128e-41 -0.000109070184
-0.024018638 -0.04147562 -0.035701778 -0.049969383 -0.004275184 -0.038227748 -0.029488169 -0.03653158
-0.017033681 -0.0002725141 -0.0040934747 0.00090087473 -0.014340151 -0.010431877 -1.1401308e-06 -0.008217148
-0.009796634 -0.0017959627 -0.03864227 2.0059879e-06 -0.0005873679 -0.021207409 -0.008559069 -0.00042428588
5.011e-41 4.9106e-41 -5.2476e-41 4.9684e-41 -4.9969e-41 -5.1834e-41 -5.2582e-41 -5.0256e-41
-4.9837e-41 -4.9324e-41 -5.0377e-41 -5.1386e-41 4.9804e-41 4.9536e-41 4.9085e-41 -4.5044534e-17
-4.9682e-41 -4.9949e-41 4.9895e-41 -5.1744e-41 4.9083e-41 -4.9376e-41 -4.99e-41 4.9942e-41
5.0726e-41 5.5142e-41 5.6098e-41 -4.9305e-41 4.9717e-41 -4.9264e-41 -5.6883e-41 5.5838e-41
5.3724e-41 -5.672e-41 -5.8734e-41 -5.4899e-41 -5.366e-41 5.3367e-41 5.7141e-41 -5.15e-41
-5.0377e-41 5.0946e-41 -4.939e-41 5.4099e-41 5.355e-41 -4.9048e-41 -4.9476e-41 5.0605e-41
5.1984e-41 5.985e-41 -3.995e-42 1.52851e-40 5.4062e-41 5.2902e-41 -4.909e-41 -7.086498e-09

fc1.bias f4 [64]
00000000: 773b 82ba eeac 1f3e d9b8 23bd ddde 403c
00000010: f3cb bf3d c11b 93b9 7526 253e 831d 64bc
00000020: da77 dabd 72d0 e73d 2e3a fc3d 3e36 033d
00000030: a0ae 243d 2b3a 60b9 3ee9 a2b3 cca3 0000
00000040: 4b7e e1bd 17e9 96bd a257 66ac 83ff 8bbc
00000050: ed98 f0bb bfb0 efa4 18c2 223d df06 d73b
00000060: 6ac5 ddab 0759 ee3d ee97 85bb 5cf1 93bd
00000070: 6009 1ebe bae1 45ba f070 13bb 9a0c c43d
00000080: 2c8d b93d 2a49 333d 389f 34a7 375d a13b
00000090: fc96 8cb6 b800 03bc ea70 8aa5 dcb9 143e
000000a0: 588a 0402 d5ea 2b3d 7be9 9bb9 e8da 233d
000000b0: 94fc aabd 7620 a93d c519 29bd 6506 1dbc
000000c0: 12bc c9b5 2862 f7bd 27e7 693c fd7c 75af
000000d0: 0909 e3ba 9798 f73d bb33 d2bc f528 06be
000000e0: eb8f 76bc 7a6f 96bd 323f 10af 91b8 19a9
000000f0: 3316 95a2 a865 03b8 9f06 78bd 19ff 40bd
-0.0009935935 0.15593311 -0.039971206 0.011771885 0.09365072 -0.00028058703 0.16127951 -0.013923052
-0.10667391 0.11319055 0.123157844 0.03203415 0.040205598 -0.00021383974 -7.5861394e-08 5.8759e-41
-0.110104166 -0.07368677 -3.2733612e-12 -0.01708961 -0.007342449 -1.0394915e-16 0.039735883 0.0065620984
-1.5757788e-12 0.11638074 -0.0040769493 -0.0722377 -0.15433264 -0.00075485895 -0.0022497736 0.09572716
0.090601295 0.043770947 -2.506633e-15 0.004924442 -4.189902e-06 -0.007995777 -2.4015698e-16 0.14524025
9.737531e-38 0.041972 -0.0002973786 0.040003687 -0.08348957 0.082581446 -0.04128434 -0.009584044
-1.5030403e-06 -0.12079269 0.014276302 -2.2327025e-10 -0.0017321418 0.12089651 -0.025659433 -0.13101561
-0.015048961 -0.07345481 -1.3119175e-10 -3.413291e-14 -4.0410035e-18 -3.132751e-05 -0.06055319 -0.04711828

fc2.weight f4 [10, 64]
00000000: d887 43bc bd1f 143e c9c4 2abe a7b3 f7bd
00000010: 78c6 9abe 7c94 24be c497 fabd 8176 bb3d
00000020: 67b8 ac3c 29e0 0a3e 77ce a33e 2791 4cbe
00000030: 5c42 bf3d cdaf a9be 128b 0000 ed0a 8ebb
00000040: cdf3 45be 2c93 cebc 148c 0080 1e8b 4fbe
00000050: 0863 893e abcd 113c b92b 9e3e 5f43 9b3e
00000060: ad75 0480 fdb8 843e ca4e c53c 279f b13b
00000070: aeff acbe b4a3 a23c a059 5e3d 2f04 74b9
00000080: 8967 21bc 977a 2c3e 8e37 e3bd 754d b3be
00000090: 4caf babc 8882 31bd b5c0 eb3d 3940 c63d
000000a0: 027c 97bc 5206 19be 4b5f 423d 0357 e1ba
000000b0: 61aa cf3d c6a2 b3bc 5b39 61be a45f 703e
000000c0: 7633 6534 ce3f 89be 1573 2c3e fe81 b835
000000d0: 5f38 013d 6224 a6be 66cb ac3e 4c26 f2bd
000000e0: 91c9 9fbd 9d2f 023e cba1 9cac 5777 3380
000000f0: dd45 01a6 c50c 63be badf 323d 1319 abbe
00000100: 1ee4 a0be f4aa 913e 6ef3 7d3d 6f28 863e
00000110: bf3f ff3c 93e9 8abd 6ef9 123e dfcd 7bbe
00000120: d4c8 0bbe 357e a7bd 4e00 f6bd c396 abbd
00000130: 67a8 01be b927 fabd 8e89 0080 4bd5 2f3c
00000140: b457 acbc dbff bfbe 66ff 981a 3bc4 123e
00000150: 82cd 42be 66fe 243d e803 f53e ca92 f8bc
00000160: 65f1 08ad 5c9a 193e e844 783e 11c0 87be
00000170: 8863 98be 419c acbb 4648 343a 354f d43e
00000180: 689b 103f e6dd f43d 4aa4 eabc 386d a53d
00000190: f1ad 093c c195 873a 4b47 f6bd 7526 e53e
000001a0: 9a53 c937 3c51 b23d 8d02 b23b cd02 8e3d
000001b0: 5146 18be 6c38 43bd 9eff bd3d 4c77 eebe
000001c0: a129 ac31 deae 8cbe ac72 01bd e73a 7605
000001d0: 5d5f d63c 7448 993e 4c9d 3f3d 4a88 9ebd
000001e0: a560 6cbe 2905 76bd 678a 0000 11a3 92b1
000001f0: 61a7 0000 930f 04be b3db b13d 79d3 1bbd
00000200: 8c3e e1bd a5a0 44be 1156 2abe 1799 bcbd
00000210: 6fe1 b1bc b6dd b53e a55d 2fbe 4152 993e
00000220: 63f1 a03e ca19 133d 6497 dfbe 5e78 b6be
00000230: 9400 543e 2b7a 9e3e ca88 0080 871b 983b
00000240: b6ca 04bf 71e6 93bd 148c 0000 9442 5d3e
00000250: 8619 a33e 70e1 9fbd aa54 c8bd bcfc af3e
00000260: 3a9a 1080 9b8f 363e f002 10be fac3 b83d
00000270: f62d 9bbe ea1c 8c39 2462 16bd 0e74 873e
00000280: ff5e 93be bf1e 00be 41ce e43c bb5c a63e
00000290: 2b28 8bbc 01fa 543d f91f ddbd 9a58 49be
000002a0: 6364 43bd 43c4 f43d 333f 9d3a 167d 163e
000002b0: 1039 65bd 92a5 97be 9f95 47bd 9f5a 9bbd
000002c0: 538a 0080 6526 c53d b2b6 0dbf da89 0080
000002d0: 7033 9f3c 72fa 853e 616f 2c3e e289 f5bb
000002e0: 4fbb afbd ef44 8a3e eb8d 0000 fd88 0080
000002f0: 7689 0080 ca2d 3f3d 7af6 c5bd 474a 5cbe
00000300: b52e c23d 13fd 94bc a7b0 9c3d 63ba 27be
00000310: 7788 04be 3663 6fbe e6ce 84be f650 613c
00000320: 7b0a 38be c108 d9bd 9ebc 54bd 6114 d13e
00000330: 9c69 e2bd cd05 82be 6c80 0100 8915 863c
00000340: 540f 653e fe04 0c3c df8a 0000 10eb 23be
00000350: 6886 01be 9489 e3bc 79e6 2ebe 06bd 8d3c
00000360: 738b 0080 d547 7ebe cc4f f23d a844 87be
00000370: 8a13 1abe 0ef4 d6ae 1b18 fb3c 9e5e 0abc
00000380: 8380 afbc 391a 84be 93b3 ad3a 3a5f 953e
00000390: 20c6 1f3c dc23 e83b 59c5 143d 4b83 163d
000003a0: c833 503d d0cf e33d 18cc 5c3d 8c4a b3bc
000003b0: 8532 82be 8a8e f33c 56a1 08bf d52b fabd
000003c0: 108b 0000 97e8 603e ff01 913d b911 f9a9
000003d0: 7255 02bc 9979 58be 7579 193e a44f f1bd
000003e0: 168a 97be d17d dd3a db8a 0080 1289 0080
000003f0: 4e9a 0080 c67e 0f3d 08c5 b0be 2d7e b53e
-0.011934243 0.14465232 -0.1667663 -0.12094813 -0.30229545 -0.16072267 -0.12235978 0.09153462
0.021084024 0.13562073 0.31993458 -0.19977246 0.09338829 -0.33141938 4.9889e-41 -0.0043347985
-0.19331284 -0.025216661 -5.025e-41 -0.20267913 0.26833367 0.008899133 0.30892733 0.30324838
-4.09556e-40 0.25922385 0.024085421 0.0054205838 -0.33788818 0.01985345 0.05428469 -0.00023271212
-0.009851345 0.1684364 -0.110945806 -0.35020033 -0.022788666 -0.043337375 0.11511365 0.09680218
-0.018491749 -0.14943817 0.04745416 -0.0017192069 0.10139919 -0.021928202 -0.21994536 0.23473984
2.1346008e-07 -0.26806492 0.16840775 1.3746901e-06 0.0315479 -0.32449633 0.3374893 -0.11823711
-0.078021176 0.12713476 -4.4517493e-12 -4.726421e-39 -4.485055e-16 -0.2217284 0.043670394 -0.33417568
-0.3142404 0.2845074 0.06199973 0.26202723 0.031158326 -0.06782832 0.14352962 -0.24590252
-0.13650829 -0.08178369 -0.12011777 -0.08378365 -0.12661897 -0.12214608 -4.9345e-41 0.010732005
-0.021037914 -0.3749989 6.3278345e-23 0.14332668 -0.19023708 0.040281676 0.47854543 -0.030343432
-7.784305e-12 0.1500029 0.24245036 -0.26513723 -0.29763436 -0.0052676504 0.00068772247 0.4146668
0.5648713 0.11956386 -0.028642792 0.080774724 0.008403287 0.0010344313 -0.12025317 0.44755903
2.3999997e-05 0.087069005 0.005432433 0.06934128 -0.14870574 -0.04766123 0.09277271 -0.4657539
5.0105915e-09 -0.27477163 -0.0316035 1.1577683e-35 0.02616852 0.2993809 0.04678087 -0.07740839
-0.23083742 -0.060063515 4.965e-41 -4.2676978e-09 6.0044e-41 -0.12896566 0.086844824 -0.038043473
-0.10998258 -0.19201906 -0.16634394 -0.09208887 -0.02171394 0.35520715 -0.17125566 0.29945567
0.31434163 0.035913266 -0.4367019 -0.35638708 0.20703346 0.30952582 -4.907e-41 0.0046419534
-0.5187181 -0.072216876 5.025e-41 0.21607429 0.3185541 -0.07806671 -0.097817734 0.3437251
-1.524694e-39 0.17828219 -0.1406362 0.090217546 -0.30308503 0.00026724424 -0.036714688 0.2645573
-0.28783414 -0.12511729 0.02793038 0.32492623 -0.016986927 0.051996235 -0.10797114 -0.19662705
-0.047703158 0.119514965 0.0011996984 0.14696154 -0.055962622 -0.29618508 -0.048726674 -0.07585644
-4.9621e-41 0.09626464 -0.55356896 -4.9452e-41 0.019433707 0.26167637 0.16839363 -0.0074932436
-0.08580648 0.27005717 5.091e-41 -4.9142e-41 -4.9312e-41 0.046674527 -0.09666152 -0.2151271
0.09481565 -0.018187081 0.07650881 -0.16379695 -0.12942682 -0.2337769 -0.259391 0.013752213
-0.17972748 -0.10597373 -0.051937692 0.4083586 -0.110553 -0.2539505 1.37905e-40 0.01636769
0.22369128 0.008546112 4.9818e-41 -0.16007638 -0.12648928 -0.027775563 -0.17080106 0.017302047
-5.0025e-41 -0.24832089 0.11831626 -0.26419568 -0.15046516 -9.774946e-11 0.030651143 -0.00844541
-0.021423584 -0.25801256 0.001325237 0.29174215 0.0097518265 0.007084353 0.036321018 0.036746304
0.050830632 0.111236215 0.053905576 -0.021886133 -0.25429168 0.029731054 -0.5337118 -0.122153915
4.9886e-41 0.21963726 0.07080459 -1.1060896e-13 -0.007954942 -0.21140136 0.14987738 -0.11782768
-0.2959754 0.0016898458 -4.9812e-41 -4.9172e-41 -5.5354e-41 0.03503301 -0.34525323 0.35447827

fc2.bias f4 [10]
00000000: 79db 1b3d 7eae 053e ebb8 c4bd c820 aebd
00000010: ce89 06be 48e7 5abd cd26 43be 1fa3 0c3e
00000020: 803c e2ba ba7e 81bd
0.038051102 0.13054845 -0.09605583 -0.08502346 -0.13138506 -0.053443223 -0.1905777 0.13734101
-0.0017260462 -0.06322999
