models/model.pt (torch, 440347 bytes, 14 tensors)

conv1.weight f4 [16, 1, 7, 7]
00000000: 419c 673d 06d4 b33c 5d23 e5bc 6353 193d
00000010: 3f83 003e b999 03bd 000e 3abe f61d 423d
00000020: 1425 da3c 1083 213d af3f 913d 27a5 cabc
00000030: cde2 c8bc 6b88 4abe 062f f43d 5753 223c
00000040: 1216 d6bc 0204 c7bd 2d56 11bd d75f a0bd
00000050: 3365 2abe 3768 1bbd 402d a73c 0fb1 f33c
00000060: 095c 26be 52a2 a6bd 4b88 c6bd 35d7 d9bd
00000070: 096b b03d fbfe da3d e2fa 8e3b 446b 61bd
00000080: b774 25be 57fb 0bbe 38a2 0ebe 8f20 213e
00000090: e19c 933d e9ba e13d cd49 b8bb 146e b5bd
000000a0: dd16 55bd 352a 68bd 2f42 193e 79cb 963d
000000b0: 7c8b e13d 1c17 fbbd bd40 30be b3ab c3bc
000000c0: f392 a7bc 5a0c 05bf f040 81be 48c7 83be
000000d0: 4981 89be c6b9 2fbe a018 9cbd 49b8 02be
000000e0: e3c0 5cbe d2e3 7dbe 9236 81be ad88 2bbe
000000f0: 5c78 31be f6da bfbd 319a febd d230 d33d
00000100: 30b3 823d 745f 13bd b41c 2fbe 144f 79be
00000110: 614d 7cbe 3ddf 9ebe 86e0 70bc ba71 703d
00000120: d717 3b3d 0593 53bd 3c7f 20be 149f 26be
00000130: b888 f7be c34d 2c3c 4cd6 ad3d 01b1 01bd
00000140: 3417 b93d b809 643c 0568 723d 5a15 94be
00000150: 0961 7cbd 1eb8 0a3c 447d 88bd 3699 bb3d
00000160: 2685 b53d 8f36 df3d 24cd 80bd 9879 303d
00000170: 3185 37bc 6775 643c 2328 bd3d c2fe 953d
00000180: d549 a1bc 0539 83bd b9e4 92bd 4202 40bd
00000190: 4dd1 7bbc 9789 8ebd ac34 f9bd 0b8f 8ebd
000001a0: 0d97 713c dd84 dc3d 51cd 563e ef33 ff3d
000001b0: 7ae6 6d3c e19b fabd 83dd 8abd 8c57 743d
000001c0: a6c7 40bd 6f33 c13d d2a0 653e 7244 193e
000001d0: 9fce 373d b191 01be 7cf5 a2bc 13e1 48be
000001e0: 067f 06be 8c10 aabb 7940 6d3e 10b9 a53d
000001f0: 983e 29bd e4d2 89bd cc1e 85bd 3dd9 0fbe
00000200: 5319 c7bd 8833 903d e69e 393e 9cf8 91bc
00000210: 1be6 efbd 5848 dfbc 61ee 01be 2018 aabd
00000220: 9540 c53d 37d8 043e e115 5bbd 938e f63c
00000230: 5c65 34bd 1dfa 29be 42cc 2cbe a958 f83d
00000240: 6043 ec3d 609c e8bd 0419 dbbb 18b4 6bbe
00000250: 2e41 03be 9977 cfbd b8c9 15bd d603 a6bc
00000260: 1a63 593d 6a67 183d 9c4b 3bbe c228 b0bd
00000270: bf5a aabc 9c1e 2a3b 09fb debc 6fba b4bc
00000280: ba68 303d 4b42 33be 4295 0ebe c705 18bd
00000290: f815 3e3d a0d1 383d 98a9 b23d 1986 fb3d
000002a0: e76a 0fbe 23a7 60be 33e1 35be 9e32 8ebd
000002b0: 5d8b d23d 62f5 273e 1768 1b3e c415 2ebd
000002c0: a419 58be 0cb1 91be b58b 89be 1427 08bd
000002d0: 1ef8 e53d ec92 a83d c5d4 033d 2665 a1bb
000002e0: 0d12 4bbe ba97 abbe 4464 8fbe 17a8 24be
000002f0: 9e9b 07be 5ea8 44bd d0ef b33d e623 dc3c
00000300: 2476 22be af3b 4fbe 9513 30be 2ebc d1bd
00000310: 2bfa e5bd 10ff 9f3c 1390 503d e47c 003d
00000320: a99a a23d 0d0c 4fbc 9f1f 573e 6964 11bd
00000330: c84b d83d b0c0 313d fb4e da3c b7e7 c03c
00000340: acf1 49bd 34e4 5b3d a706 c33d 7436 84bc
00000350: d09c 45bb dc08 afbd ba83 dc3c b9ee bebc
00000360: 13b2 293e c660 4ebd 5e65 853d 8cee a2bd
00000370: bde5 07be a090 94bd acc4 e03d e33e 5a3d
00000380: 4ec5 11bb 9520 5fbd 5d6a 05be 6ca9 39be
00000390: 5b9e e5bd a01c e0bd ce81 6cbd 825f cb3c
000003a0: 234b 173e c7d4 843d 3866 35bc 799f 59bd
000003b0: 97d4 fbbc cfd9 acbd 78d6 12bc 3a41 1f3e
000003c0: 40af b43d 28d0 173d 5dca 0b3e 175f c03d
000003d0: 8976 e23d 5ccb 0abe 37e5 833d a5dc 963d
000003e0: 0ef2 993d 6595 8abd af0a d6bc 09b4 dcbd
000003f0: 17ff 18be 77c3 34bc e979 003e 1187 403e
0.0565455 0.021951687 -0.027970964 0.03743304 0.12550066 -0.032129023 -0.18169403 0.047391854
0.026629008 0.03943163 0.07092225 -0.024736954 -0.02452221 -0.19778602 0.119230315 0.009907565
-0.02613357 -0.09717561 -0.035482574 -0.0783078 -0.16640167 -0.037941184 0.02040732 0.029747514
-0.16246046 -0.08136429 -0.096939646 -0.106367506 0.08614165 0.10693165 0.0043634037 -0.055033937
-0.16157804 -0.13670097 -0.13929069 0.15735076 0.07207657 0.110219784 -0.005624032 -0.08858886
-0.052023757 -0.056680877 0.14966653 0.07363028 0.11012933 -0.12260267 -0.17212196 -0.023885584
-0.020455813 -0.5197197 -0.25244856 -0.25737977 -0.2685645 -0.1716071 -0.07621884 -0.12765612
-0.21557955 -0.24793938 -0.25236946 -0.16751356 -0.1733107 -0.09367935 -0.124317534 0.10312046
0.063818336 -0.035979703 -0.17100793 -0.24346572 -0.24638893 -0.31029692 -0.014701968 0.058702208
0.045677032 -0.05165388 -0.15673536 -0.16271621 -0.48346496 0.010516587 0.084881395 -0.031662945
0.09037629 0.013918333 0.059181232 -0.2892254 -0.061615977 0.0084667485 -0.066645175 0.09160082
0.08863287 0.10899078 -0.062891275 0.04308471 -0.011201189 0.0139440065 0.09236171 0.07323982
-0.019688526 -0.0640736 -0.07172532 -0.046877153 -0.015369725 -0.06959837 -0.121682495 -0.06960877
0.014745486 0.10767529 0.2097676 0.124610774 0.014520282 -0.12236763 -0.06780531 0.059653804
-0.0470654 0.09433638 0.2242463 0.14967516 0.044874784 -0.12653233 -0.019892447 -0.19617109
-0.13134393 -0.005189961 0.23169126 0.080919385 -0.04131946 -0.06729677 -0.06500015 -0.14047714
-0.09721627 0.07041079 0.18127021 -0.017818742 -0.11713811 -0.027256176 -0.1268859 -0.08305383
0.09631459 0.12973104 -0.053487662 0.030097282 -0.044041976 -0.16599317 -0.16874793 0.121262856
0.11536288 -0.11357951 -0.0066863317 -0.23017919 -0.12817833 -0.10130233 -0.036569327 -0.020265501
0.053073026 0.037208 -0.18290561 -0.08601524 -0.020795224 0.0025958186 -0.027219312 -0.022061555
0.043068625 -0.17505758 -0.13924125 -0.037114885 0.04640767 0.04512179 0.08723754 0.122814365
-0.14005624 -0.21938758 -0.17761688 -0.06943248 0.10280488 0.164022 0.15176426 -0.042501226
-0.21103531 -0.2845539 -0.268644 -0.033240393 0.11228965 0.08231148 0.032185335 -0.004925388
-0.19831105 -0.33514196 -0.28006184 -0.16079746 -0.13242957 -0.04801213 0.08785975 0.026872586
-0.1586538 -0.20237611 -0.1719497 -0.102409706 -0.112293564 0.019530803 0.05091865 0.031369105
0.07939655 -0.0126371505 0.21008156 -0.03549615 0.10561329 0.04339665 0.026648989 0.02354799
-0.049302742 0.05368443 0.09522753 -0.016139247 -0.0030153282 -0.08546612 0.02691828 -0.023307191
0.16571836 -0.05038526 0.06513475 -0.079556555 -0.13271232 -0.072541475 0.10975012 0.05328263
-0.0022242847 -0.054474432 -0.13028856 -0.18131036 -0.112118445 -0.1094296 -0.05774098 0.024825815
0.14774756 0.064858966 -0.011071734 -0.0531306 -0.03074102 -0.08439981 -0.008962266 0.15552226
0.08822489 0.037063748 0.13651414 0.09393137 0.11057765 -0.13554138 0.06440204 0.07366303
0.075168714 -0.06766776 -0.026128141 -0.107765265 -0.14941059 -0.011032931 0.12546505 0.18801524

conv1.bias f4 [16]
00000000: 1b35 36bd c3b1 a23c 7e53 13be a278 babd
00000010: 8cd5 2ebe 366b 8c3c eb55 7bbe bcd2 fdbd
00000020: d16a 03be 4a98 d1bd 0fdb 2bbe ce3d 18be
00000030: 200d 61bd c5ad 82be 6321 c5bd 4536 f5bd
-0.04448424 0.019860154 -0.14387318 -0.0910504 -0.17073649 0.017140966 -0.24544494 -0.1239371
-0.12833716 -0.10234125 -0.16782783 -0.14867327 -0.054944158 -0.255232 -0.09625509 -0.11973242

conv2.weight f4 [32, 16, 5, 5]
00000000: 7a95 1735 eaff 15b4 7fe3 02b7 12f8 67b7
00000010: 4c8d 18b9 2832 8cb3 83a1 ccb3 6c1f cdb6
00000020: aabb 5fb7 0ef6 11b9 442e 40b4 8a1f 8db4
00000030: 6cbd 35b7 ac98 bfb7 bf50 62b9 87c1 cd34
00000040: 0c6f b6b5 7d00 96b7 1b22 97b8 8217 f8b9
00000050: 2812 1b35 7d37 e1b5 2892 b2b7 f57f 17b9
00000060: f2d0 82ba a154 fdbb 099a b2bb 5702 7cbb
00000070: 81b5 51bb 23ba 80bb c738 e1bb f077 81bb
00000080: fbc2 14bb a1da d1ba 40d4 c6ba 2b31 9cbb
00000090: 8821 0dbb 1cad 5dba 7a77 f1b9 c88b afb9
000000a0: 8b42 7cbb cc81 90ba d4ed 84b9 8d06 95b8
000000b0: dc25 2bb8 6cca 1cbb 7cd0 10ba 2b2d 91b8
000000c0: c681 08b7 b467 1735 34e2 6934 24bc d8b4
000000d0: 0816 63b7 2241 93b9 079b e5ba 82bf 2734
000000e0: 7e21 0034 2118 76b8 6ca3 e8b9 21d5 e6ba
000000f0: bae6 7834 40e1 4034 5491 09b8 9529 1db9
00000100: 6c8d 3fba 4336 5634 4232 1533 19a8 acb5
00000110: 39e6 04b8 dfe2 53b9 a0a8 0333 c7ad a934
00000120: 9c97 4535 6d36 2eb6 eb8f b3b7 276f 60bb
00000130: 24fb 17bb 6d5f 8fba a7a4 5eb9 56b5 01b7
00000140: 5d7e 11bb 9358 e8ba 4269 6dba 59b5 eeb8
00000150: 9df8 31b5 3412 b3ba fcf1 b5ba b486 54ba
00000160: af9c bab8 9316 2935 87ef a1ba d077 9bba
00000170: 6f29 48ba f7ef 5bb9 1e83 3eb7 ccd4 aeba
00000180: c6aa aaba f5db 42ba 94d4 aeb9 93fb 77b8
00000190: 05f4 3bb5 309c 6fb6 c579 b0b7 dc5e b0b7
000001a0: e5ce eeb6 4836 2eb6 7294 b7b7 84cb bdb8
000001b0: 94ff 0ab8 b422 a4b6 8c7f 21b9 086b f7b9
000001c0: 22d6 1cba 4fc4 67b9 7165 bfb7 e643 c3b9
000001d0: f5e6 4eba b070 6fba 3b55 8ab9 9dff 83b8
000001e0: 3c17 88b9 e9d2 34ba d3d0 37ba 744f a2b9
000001f0: 4d01 03b9 4f44 8eb4 abfa 79b6 4d99 12b8
00000200: d256 46b9 9eb7 27ba c72b 0235 e202 02b5
00000210: 407f 0cb8 ecb4 8bb9 e2ab c7b9 1091 0d33
00000220: b6ef 67b8 64d9 8cb9 0309 cab9 da8e b5b9
00000230: 60cc f4b8 0c85 ccb9 1a43 02ba c3ff a0b9
00000240: 65b5 2cb9 8258 92b9 d15e a2b9 e6f5 cdb8
00000250: c9d9 75b7 1695 c8b7 1b5d fbb9 164b 87ba
00000260: 8511 8aba 0f5a 80ba b750 57b9 b405 baba
00000270: 6c21 3ebb 279b 56bb 7097 f6ba 3381 49b9
00000280: d58a 1cbb 2dca 9cbb 86ff 83bb 93a8 c7ba
00000290: f653 1cb8 5bd8 2ebb a38c 94bb 47e5 5fbb
000002a0: 55b9 1fba ef8b dfb7 004f 0cbb ad59 5ebb
000002b0: 71a8 f3ba 1e02 27ba ac96 d9b7 5ab7 0abc
000002c0: f26f 00bc f15a ddbb da4f c2bb d23c 89bb
000002d0: 4374 0cbc 6ce9 07bc a90f e9bb 753e c1bb
000002e0: 439e 12bb 3e59 0bbc ae81 0cbc 66e5 ddbb
000002f0: 1c51 69bb a59d 53ba 0b81 24bc c6ca 13bc
00000300: bb84 c7bb d48d b6ba cc58 06ba cfb4 27bc
00000310: ba4d 17bc 9040 4cbb 6886 88ba a9e3 90b9
00000320: d274 96b4 5a65 2bb4 1f10 0b31 740d 1bb3
00000330: cd79 5833 d273 43b3 d355 aab3 786f 5c34
00000340: 4022 c0b4 0c53 be34 d51c dc33 cf1d 2db4
00000350: d431 c7b4 250c 1735 cae1 e1b4 5910 11b4
00000360: 525a e1b4 2648 d0b4 93f1 60b6 8aa1 92b7
00000370: 7cda c4b4 2bd0 4e34 00c9 f634 1179 66b6
00000380: fd61 57b7 25f4 61b9 5d0d 25b8 f3aa 5f35
00000390: c08f ecb4 95d1 0634 9544 a7b8 8463 4835
000003a0: f5d7 eeb4 94ea 0834 cab4 a234 8fa3 4eb8
000003b0: 56f4 4735 620d ceb3 76ea 5c34 11eb 3cb4
000003c0: a287 96b8 5cdd 6035 79c4 f632 e137 7333
000003d0: 9c7e 7cb4 e492 57b7 c20a adb4 928b aa34
000003e0: 5acf edb3 9221 75b4 9d0c 21b4 94a6 5d35
000003f0: 8ffb 5b35 fdcc 8a34 0c07 47b5 1eac 3d35
5.64694e-07 -1.3969807e-07 -7.801572e-06 -1.3826431e-05 -0.00014548487 -6.5283814e-08 -9.528869e-08 -6.113134e-06
-1.333553e-05 -0.0001391994 -1.7898225e-07 -2.6286244e-07 -1.0832544e-05 -2.2840068e-05 -0.0002158312 3.8325035e-07
-1.3592376e-06 -1.788162e-05 -7.206594e-05 -0.0004731976 5.776842e-07 -1.6779956e-06 -2.1287313e-05 -0.0001444815
-0.0009980483 -0.007731036 -0.0054504913 -0.0038453543 -0.0031999054 -0.003928439 -0.0068732235 -0.0039510652
-0.0022699225 -0.0016010591 -0.0015169457 -0.0047666035 -0.0021534879 -0.0008456276 -0.0004605612 -0.00033482746
-0.003849181 -0.0011025011 -0.00025354198 -7.106094e-05 -4.0804836e-05 -0.0023924364 -0.00055242307 -6.922552e-05
-8.136447e-06 5.640279e-07 2.1782108e-07 -4.0370026e-07 -1.3535384e-05 -0.00028086553 -0.0017517515 1.5622757e-07
1.1933113e-07 -5.8673442e-05 -0.00044372247 -0.0017611125 2.3180738e-07 1.7963339e-07 -3.2798693e-05 -0.00014988177
-0.0007307145 1.9950043e-07 3.4737475e-08 -1.2863921e-06 -3.1685664e-05 -0.00020207044 3.0654178e-08 3.1605143e-07
7.360884e-07 -2.59597e-06 -2.140548e-05 -0.003424594 -0.0023190463 -0.0010938473 -0.00021232908 -7.73122e-06
-0.0022200563 -0.0017726592 -0.0009056517 -0.00011382503 -6.629942e-07 -0.0013662041 -0.0013881321 -0.00081072305
-8.898356e-05 6.2990256e-07 -0.001235471 -0.0011861268 -0.00076355686 -0.00020974861 -1.1355411e-05 -0.0013338565
-0.0013020865 -0.0007433289 -0.0003334625 -5.9123686e-05 -7.0018024e-07 -3.5704688e-06 -2.1037538e-05 -2.1025007e-05
-7.1170384e-06 -2.5959616e-06 -2.1884425e-05 -9.05013e-05 -3.313979e-05 -4.891621e-06 -0.00015401671 -0.00047191256
-0.0005982836 -0.00022103007 -2.2816212e-05 -0.00037243887 -0.00078926916 -0.0009133918 -0.00026384913 -6.2941785e-05
-0.00025957252 -0.0006897883 -0.0007012013 -0.00030958245 -0.00012493618 -2.6499262e-07 -3.72498e-06 -3.4951885e-05
-0.00018915095 -0.00063979055 4.849248e-07 -4.843297e-07 -3.3497112e-05 -0.00026646943 -0.000380843 3.2961054e-08
-5.529794e-05 -0.0002686485 -0.00038535157 -0.00034629443 -0.000116728945 -0.0003900904 -0.00049691054 -0.00030708135
-0.00016470773 -0.00027913233 -0.00030969692 -9.820964e-05 -1.4653845e-05 -2.3911281e-05 -0.0004794382 -0.001032206
-0.0010533786 -0.0009792465 -0.00020534066 -0.0014192373 -0.002901162 -0.0032746287 -0.0018813442 -0.00019216984
-0.0023886461 -0.0047848434 -0.0040282635 -0.0015232734 -3.7271493e-05 -0.002667925 -0.0045333668 -0.003416376
-0.0006092985 -2.6648833e-05 -0.0021409392 -0.0033927963 -0.0018589628 -0.000637086 -2.5938578e-05 -0.008466566
-0.00783919 -0.006755226 -0.005929929 -0.0041881585 -0.008572641 -0.008295398 -0.0071124625 -0.005897338
-0.0022372163 -0.008505164 -0.00857584 -0.006771731 -0.0035601323 -0.0008072502 -0.010040532 -0.009020513
-0.0060888208 -0.0013927766 -0.0005124926 -0.010235979 -0.00923484 -0.0031166412 -0.0010416033 -0.0002763544
-2.8024675e-07 -1.5962488e-07 2.0236326e-09 -3.6100985e-08 5.0402196e-08 -4.5507313e-08 -7.931853e-08 2.0529649e-07
-3.5787707e-07 3.5450682e-07 1.0249793e-07 -1.6122725e-07 -3.7102893e-07 5.6269556e-07 -4.20738e-07 -1.3510125e-07
-4.1975233e-07 -3.8795514e-07 -3.3519216e-06 -1.7479779e-05 -3.6666813e-07 1.9260976e-07 4.5967317e-07 -3.434314e-06
-1.2837813e-05 -0.00021548623 -3.935151e-05 8.332274e-07 -4.4063017e-07 1.2555968e-07 -7.975955e-05 7.465062e-07
-4.4488084e-07 1.2751326e-07 3.0306393e-07 -4.9266553e-05 7.448883e-07 -9.595057e-08 2.0574393e-07 -1.7594381e-07
-7.177821e-05 8.3768623e-07 2.8727515e-08 5.6628668e-08 -2.3515389e-07 -1.2849199e-05 -3.2231588e-07 3.1766518e-07
-1.10738895e-07 -2.2829616e-07 -1.4998882e-07 8.257132e-07 8.1949923e-07 2.5853652e-07 -7.414353e-07 7.065845e-07

conv2.bias f4 [32]
00000000: e723 54bc 7b8e edbd cbab 7ab8 5660 0ab0
00000010: 48de 3cbd 0b97 f6bd 0d3a 89b6 b5f0 1bab
00000020: a2f8 9b3c f08b c03d 1663 dd3c d3e7 5cbd
00000030: c258 35ab db3a 0b3d d279 11b4 e855 5cb4
00000040: 0511 47bd 478b 4bbb 1aea 2abd 8e86 aabc
00000050: 4e70 19b8 3e13 06ae 23c3 3dbd 3496 f0ba
00000060: 0b66 90bd 9a11 72bd 9a8d 2ebd b4b6 403e
00000070: bb45 09b9 3291 bfbc 0ef8 0999 0348 093e
-0.012948013 -0.115994416 -5.976464e-05 -5.034101e-10 -0.04611042 -0.12040528 -4.089676e-06 -5.540111e-13
0.019039456 0.09401691 0.027024787 -0.053932022 -6.4427294e-13 0.033991676 -1.3548495e-07 -2.0520349e-07
-0.048600215 -0.0031058358 -0.041727163 -0.020816114 -3.6582634e-05 -3.0485163e-11 -0.046328675 -0.0018355311
-0.07050713 -0.059098817 -0.04261551 0.18819696 -0.00013091315 -0.023384664 -7.132828e-24 0.13406377

conv3.weight f4 [64, 32, 4, 4]
00000000: 6605 1cb3 9088 4134 eebb 80b4 c861 3cb4
00000010: b314 c8b1 8a0f 9932 b054 8db4 945c d9b2
00000020: 9de2 3234 b940 50b4 807a 89b4 bc91 6934
00000030: 499a 15b4 a5c7 2334 9853 e8b3 bc82 1033
00000040: 5eb3 2dbd ff18 e73c 3681 ab3c 848f 02bc
00000050: b655 ba3c e9c8 4f3c 340a 2ebc 1d55 f0bc
00000060: 519e 803d c495 0fbd 35e6 d8bc 3ab8 f9bc
00000070: 3227 b3bc e919 b4bc 0c0d 5bbd aa23 07bd
00000080: 5d93 c818 858e 5e1e 99b0 3519 a069 0217
00000090: 7214 df1d 3eb2 6ea0 fff1 a598 99a8 d896
000000a0: 4842 1f24 d036 a4a0 02b7 2d18 94da 2e16
000000b0: b517 bf22 439c f79c a1b9 8797 b1c8 ca16
000000c0: bb0d 0000 b30d 0000 d30d 0000 d50d 0080
000000d0: dc0d 0000 f40d 0080 b10d 0000 520e 0080
000000e0: e20d 0080 d40d 0080 240e 0080 eb0d 0080
000000f0: c30d 0080 e00d 0080 f50d 0080 2a0e 0000
00000100: a9ee 203c 26ed 30bd 5bfb 4fbd e3f9 bf3d
00000110: 2db5 b6bc b895 b6bc c5a1 73bd 7f13 a8bc
00000120: 3257 34bd a466 943c 3f90 a8b9 270b 4ebc
00000130: 1bd8 65bd fed5 7abd 572d 5abd 9ad6 28bd
00000140: 13ab 323d 085a 0ebc 4b0e 22bd db8e 26bd
00000150: 68ad 48bd fda1 8abd a882 24bc 6448 8bbb
00000160: b74c 67bd 412f 34bd 3882 23bd 4cb0 af3d
00000170: 087c 41bd a1bf 34bc 9605 6ebc c4c1 783c
00000180: 1e8a 19aa d3fd b82a 8324 a72a cd63 0daa
00000190: 1abc 78aa 5c40 5baa 3ee9 a12a 728b 1828
000001a0: 0b9b 38aa 2d25 282a a600 02aa f554 26a9
000001b0: c8b3 82a9 6dc6 2529 5f25 eba9 297e ba28
000001c0: 7307 4e0f 31b3 128f 6d37 2c0c e65b 548a
000001d0: cf2e 000e 637b b28d 8bc9 548e 79ec 2e0c
000001e0: 907c ad8e c78b 1e0e c0f9 208d e7f9 9d0c
000001f0: 9873 2e8f d87c 370e f6df 2c0c beed 6b0a
00000200: 9c5e c83c fb54 38bc 600a 5abc 67b5 d7bb
00000210: 0a1b e7bc fb39 98bd f0fc 42bb 0894 3ebd
00000220: 1e02 a5bd 8bc2 0dbd 0be3 1f3d 5940 6dbd
00000230: d4d3 85bd dc03 41bd e26f a9bc e9d5 633b
00000240: a5e3 2ebd 7dff 0dbd ce7c a2bd aadd 9dbd
00000250: 1a49 9bbc f2af 6abd 013e bcbd 2a0c 23bd
00000260: d688 9fbd 8675 0bbe 4b69 f2bd 31e6 13bd
00000270: 4cb5 aebc 04d7 6fbd 33ca 5ebd b8a8 89bd
00000280: a65f 01bb fd58 8fbc de0a 43bd 8f0a 9abd
00000290: a2d8 8cbc 0431 8abb 7578 c2bc 72d2 593d
000002a0: 95ac 93bd afbe 91bc c971 18bd 5a2e 8e3d
000002b0: 0b43 c9bc c18b 10bd 8c85 94bc 4042 52bc
000002c0: 261b 8ab8 2668 7ab9 cff1 38b9 e719 c536
000002d0: db09 80b7 e6f5 0bb9 bc9f ea39 420b f239
000002e0: 3ac2 7a39 37b7 14ba fc32 7a39 47a7 293a
000002f0: a770 3639 a4f9 473a f09f 6e39 1a32 413a
00000300: f80d 0000 ce0d 0080 210e 0000 b40d 0000
00000310: f90d 0000 270e 0080 c90d 0080 dd0d 0000
00000320: 670f 0000 c70d 0000 240e 0080 e60d 0080
00000330: c10d 0000 000e 0080 d20d 0000 c90e 0000
00000340: fe89 0bbc a9ab e63c 0621 c43c 49dd ccbd
00000350: 484b 9c3d e73b 773d 272f 6e3d 5f64 ccbc
00000360: f174 043e 4f72 853d bd7f c63c 479c e2bd
00000370: 312d a03d d5c6 4d3c 892b 1ebd 5a47 90bd
00000380: bd0c 0080 e50d 0080 1b0e 0000 bb0e 0080
00000390: b70d 0000 b30f 0080 110e 0000 b50d 0000
000003a0: f40d 0000 a40e 0080 b60e 0000 550e 0000
000003b0: e90d 0080 b00d 0000 f50d 0080 290e 0080
000003c0: b10d 0000 0174 a403 7c61 0a92 9f12 3792
000003d0: c80d 0000 f8d7 2505 4584 1a10 466d cb8d
000003e0: d40d 0080 973b 9084 6356 9893 3eb0 2685
000003f0: b90d 0000 8bcc fd88 739f 8491 82d3 0980
-3.632649e-08 1.8024207e-07 -2.3978595e-07 -1.7544437e-07 -5.8231193e-09 1.781861e-08 -2.6324915e-07 -2.5304224e-08
1.6659983e-07 -1.9395056e-07 -2.560737e-07 2.1752834e-07 -1.3932835e-07 1.5253188e-07 -1.08185475e-07 3.3646515e-08
-0.042407386 0.028210161 0.020935636 -0.007968787 0.022745948 0.012682178 -0.01062255 -0.02933746
0.062801965 -0.035054937 -0.026476959 -0.030483354 -0.021869276 -0.021985011 -0.05347924 -0.032992996
5.1847587e-24 1.17820545e-20 9.393144e-24 4.2138583e-25 5.904875e-21 -2.021836e-19 -4.2895854e-24 -3.5003082e-25
3.453377e-17 -2.7818953e-19 2.2452121e-24 1.4124579e-25 5.1795755e-18 -1.6385482e-21 -8.77103e-25 3.2761514e-25
4.926e-42 4.914e-42 4.959e-42 -4.962e-42 4.972e-42 -5.005e-42 4.912e-42 -5.137e-42
-4.98e-42 -4.96e-42 -5.073e-42 -4.993e-42 -4.937e-42 -4.977e-42 -5.007e-42 5.081e-42
0.009822526 -0.043194912 -0.05077682 0.09373834 -0.022303188 -0.022288188 -0.059480447 -0.020517109
-0.04402847 0.01811535 -0.0003215093 -0.012575901 -0.056114297 -0.061239235 -0.053265896 -0.041220285
0.04362018 -0.008688457 -0.039564412 -0.04066358 -0.048993498 -0.06769178 -0.0100409165 -0.004250573
-0.056469645 -0.043990377 -0.03991911 0.08578548 -0.047237426 -0.011032016 -0.014527699 0.015182916
-1.3637049e-13 3.2861092e-13 2.9690494e-13 -1.2557941e-13 -2.2092086e-13 -1.9473437e-13 2.876119e-13 8.467932e-15
-1.6396274e-13 1.4934295e-13 -1.1546544e-13 -3.6933093e-14 -5.804347e-14 3.6809467e-14 -1.0442579e-13 2.0704862e-14
1.0158019e-29 -7.232867e-30 1.3267077e-31 -1.0224713e-32 1.5799756e-30 -1.0999801e-30 -2.6228057e-30 1.3475633e-31
-4.2767742e-30 1.9542304e-30 -4.960443e-31 2.4340085e-31 -8.601125e-30 2.2616602e-30 1.3317794e-31 1.1359553e-32
0.024459176 -0.01125073 -0.013308138 -0.006582904 -0.028211135 -0.07432934 -0.0029752813 -0.046527892
-0.080570444 -0.03460936 0.039034884 -0.057922695 -0.06534544 -0.04712282 -0.020683233 0.0034764952
-0.042697567 -0.03466748 -0.07933961 -0.07708295 -0.018955756 -0.0572967 -0.09191514 -0.039806522
-0.07789771 -0.1361905 -0.11836489 -0.0361082 -0.021326683 -0.058554664 -0.05439205 -0.06721634
-0.0019740849 -0.017498488 -0.047617786 -0.07521545 -0.017193142 -0.004217269 -0.023739079 0.053179212
-0.07210652 -0.01779112 -0.03721789 0.069424346 -0.024568101 -0.03528953 -0.018130086 -0.012833178
-6.5854096e-05 -0.00023880656 -0.00017637688 5.874073e-06 -1.5263378e-05 -0.00013347677 0.0004475097 0.00046166225
0.00023914213 -0.0005673053 0.00023860851 0.00064717646 0.00017398839 0.0007628447 0.0002275703 0.00073698314
5.011e-42 -4.952e-42 5.068e-42 4.916e-42 5.012e-42 -5.077e-42 -4.945e-42 4.973e-42
5.525e-42 4.942e-42 -5.073e-42 -4.986e-42 4.934e-42 -5.022e-42 4.958e-42 5.304e-42
-0.008516787 0.028158026 0.023941528 -0.10003144 0.07631546 0.06035986 0.058150437 -0.024950204
0.12935235 0.06515943 0.024230832 -0.11064964 0.078211196 0.012559612 -0.038615737 -0.07044859
-4.57e-42 -4.984e-42 5.06e-42 -5.284e-42 4.92e-42 -5.632e-42 5.046e-42 4.917e-42
5.005e-42 -5.252e-42 5.277e-42 5.141e-42 -4.99e-42 4.91e-42 -5.007e-42 -5.08e-42
4.912e-42 9.665687e-37 -4.366528e-28 -5.776757e-28 4.944e-42 7.79793e-36 3.0473042e-29 -1.2537148e-30
-4.96e-42 -3.3908962e-36 -3.845538e-27 -7.837653e-36 4.923e-42 -1.5274971e-33 -2.0924196e-28 -9.02394e-40

conv3.bias f4 [64]
00000000: b16f 4f3c 86ea 92bd 2829 9fbd 0c80 bbbb
00000010: 45f8 e5bc a76f 98bc cc30 16bd bdd3 e2bc
00000020: 6750 78bd ac7d cc3c 3519 c8bd 67d9 07be
00000030: 3675 56bd 423f c4bd 5d68 00be 88c4 e2bc
00000040: 7c39 3cbd 137f a7bd 8fb5 dabd be8a a4bd
00000050: 961d 01be 77ce b3bd 6eb7 d5bc 7d05 e7bd
00000060: 67ad 8a3d d08d 57bd d3c3 a4bd 0ca8 e03c
00000070: 39bc d2bc 66f3 cabd 31ab e1bd 0341 43bc
00000080: e2f1 50be ad2b 85bd c1b3 a9bd 2796 f3bd
00000090: e820 1cbd 733a a7bc 8069 b034 99a1 263d
000000a0: 60a7 c7bd 566e 92bb b59e 31bd 809c 8bbb
000000b0: f1e5 68bd aacc ebbb 3afc ddbc d7eb 89bd
000000c0: 7b96 b3bd 5a76 84bd c60f 10bd 8eed 283d
000000d0: 5b08 02bd 6e12 823c 9602 52bd cc0b 2fbd
000000e0: 4bc4 99bd 16ad 54bd 9ff0 02be 5f3f fbbc
000000f0: 4694 78bd 4cfb abbc ba32 c3bd 9dba 8fbd
0.012660907 -0.07173638 -0.07771522 -0.0057220515 -0.028072486 -0.018607927 -0.03666763 -0.027688855
-0.060623553 0.024962269 -0.09770433 -0.13266526 -0.052357875 -0.09582378 -0.12539811 -0.027681604
-0.04595326 -0.08178534 -0.10679161 -0.080342755 -0.12608942 -0.087796144 -0.026088443 -0.11280344
0.06771355 -0.052625477 -0.08045163 0.027423881 -0.025724517 -0.09909706 -0.1101898 -0.0119173555
-0.20404771 -0.06502471 -0.082862385 -0.11893874 -0.03811732 -0.020413613 3.2859316e-07 0.040681455
-0.09748721 -0.0044687195 -0.043364245 -0.0042605996 -0.056859914 -0.0071960287 -0.02709781 -0.06734436
-0.08768936 -0.06467886 -0.035171293 0.041242175 -0.03174625 0.015877929 -0.051271997 -0.04273586
-0.07508143 -0.05192288 -0.12787102 -0.030669866 -0.06068828 -0.020993851 -0.0953116 -0.070180155

conv4.weight f4 [128, 64, 1, 1]
00000000: f7dc 203c 40ec 69bc 0294 65bb 2ba0 c93b
00000010: 9879 8abc 00ea 64bc b874 94bc 009d 22ba
00000020: 588b 7fbc 4d09 043c 4721 8cbc 345f 90bc
00000030: f3ad 06bc 7f4d 563b 4388 d5bb 2c56 a33b
00000040: 02dd a7bc 4aa9 a3bb 5bdd 54bc 8caa aabc
00000050: c65a 60bc 7a0b 90bc 1b83 32bc fa56 a7ba
00000060: ca02 c43c bbc6 43bc 7ba1 143c 92d5 ee3b
00000070: e1b7 e13c d5a2 273c afb8 35bc bb6b 3bbc
00000080: 9957 a2bc 2853 70bc 212c 36bc a940 a3bc
00000090: 33a9 70bb 7744 3e39 7133 d633 7cc6 d63b
000000a0: 8b42 2a3a 7763 8a3c 40e3 98bc 5a9c 923a
000000b0: d55e aabb c96c 2ebc 6bca a6bc 0ef3 013c
000000c0: 2f8c 66bc fcb6 25bc 0ff4 2cbc de53 b239
000000d0: f78f 2ebc 09fa 603c 20c1 023c 2f64 8dbc
000000e0: 02b0 b7bc 3f3b da3b 98f8 f1bc ffb4 64bc
000000f0: 6dcd 81ba 23c3 973c 0f1c 00bd 13fb 51bc
00000100: d6d2 2abd a202 b2bc d400 c43c cb7c 6ebc
00000110: 403d b3bc 3401 b2bc 51e9 4ebc 4a4c a6ba
00000120: ef3a 6cbc b21d aa3c 2e35 7d3c f74e 073e
00000130: 8b4a cf3b 11ff a4bc 2001 49bb e7da 1fbb
00000140: d4fd 873b 74e2 08bd 52c8 9c3c 4d63 eb3c
00000150: bf93 803b cab3 61bc 7a8b 27bd 87be cb3c
00000160: a4e7 00bd 644d 0a3c 592c 8bbc ab6b 7cbc
00000170: 0320 41bc 8a48 ac3c 725a 2e3c f34f 31bc
00000180: c3d5 3a3d 192c 883c 50a1 d4bc b7e3 aabc
00000190: 2154 3d3d dccb 5bba adcf d8b4 17df 7e3c
000001a0: 8cc0 d7bc 4806 debc f220 8fbc be79 14bc
000001b0: b562 11bd 659d a93b 5828 fbbc a9d1 b7bb
000001c0: 6078 2fbc dafe f33c 915d 1ebc 35ff 14bd
000001d0: c0ec 3b3d ae9e 82bc 8f0f d93b a6f0 333c
000001e0: bace 653d da05 abbc a16c 163d a8a8 5ebc
000001f0: cc90 1c3d 2ff5 483c 7d31 3e3d b9b0 e13c
00000200: 4381 a0b8 3cc7 eeb8 4771 b338 f523 c338
00000210: 1f51 c9b8 b32c 2f38 1c26 e339 8c2b 70b8
00000220: 5f49 09b7 64ea b3b8 2ec4 9438 2a75 b7b8
00000230: a783 54b7 7297 85b9 407c 5d37 d558 aab7
00000240: fe16 87b9 6326 a538 8bbb 0b38 9f36 9bb8
00000250: 8b55 f1b7 c6ee 92b8 ec5b 29b5 5b7d 0fb9
00000260: 71a1 17b7 e3dd c8b8 11e8 2cb9 46fb 88b9
00000270: a511 bab8 99dd 56b9 6d9e 2e39 4a4f beb8
00000280: 39df 67b8 4d7c a9b9 7387 32b8 096d af38
00000290: fbf2 e9b7 a521 67b7 b1e4 3331 e1fd c5b8
000002a0: f998 cab7 8ec6 dfb7 ace9 ceb9 ac28 57b9
000002b0: 60a7 a3b9 0ac1 9cb9 3dfe 0839 9ec9 0eb9
000002c0: e036 3cb7 c079 37b9 f113 11b8 8f1a 1d38
000002d0: 460f 9238 8684 e5b8 a55a 03b7 554e 68b7
000002e0: 29b7 7836 1a72 08b9 95be 42b8 0c93 0fb7
000002f0: 8a6c 3935 d351 b9b8 df43 5bb8 ad2f f736
00000300: 1d31 2032 f36d f2b5 d71b 7bb4 533b 5933
00000310: 1088 7338 7436 9eb6 39d7 adb7 57dd 85b4
00000320: 68ac 4ab8 1edb ac34 2f1e 8db5 4221 7135
00000330: fcb8 26b1 c0fd e432 3d38 4eb4 1424 0cb7
00000340: d387 a837 5dde 3132 d44b 0ab8 4f14 f6b5
00000350: 950c 1bb8 ea15 05b8 1bf0 08b8 b667 5fb2
00000360: 0d3a 49b3 e6ee 88b7 4a50 57b8 6dd7 d6b4
00000370: e567 8337 9a47 c3b4 6c50 8935 f104 9bb8
00000380: fed6 1db8 40d4 3534 8e32 63b8 02fa 2134
00000390: 677f b535 a28d b7b2 3e4f d6ac 7284 d134
000003a0: 0c19 18b8 0e48 87b5 434a 74b8 125e 6c34
000003b0: 1d1b 03b9 08ab 36b7 a359 40b8 4e1a 2b33
000003c0: 8ceb 47b7 2c4a e9b7 0108 f235 d1c7 98b3
000003d0: 137e f0b8 baeb e9b8 00ec b834 9056 b5b8
000003e0: abb4 82b6 b5b9 bfb2 48ca 7f35 b724 13b9
000003f0: 7ee9 8ab7 b33e d8b4 8f18 9534 b938 0bb8
0.009818307 -0.014277518 -0.0035030846 0.0061531267 -0.016903684 -0.013971806 -0.018122062 -0.00062032044
-0.015597187 0.008058858 -0.017105712 -0.017623521 -0.008220184 0.00327 -0.006516488 0.0049846377
-0.020491127 -0.004994546 -0.012992228 -0.020833276 -0.013693517 -0.017583597 -0.010895516 -0.001276701
0.023927111 -0.0119492365 0.009071703 0.007288643 0.0275535 0.010231693 -0.011091395 -0.011439259
-0.01981716 -0.0146682635 -0.01111892 -0.019928293 -0.0036721944 0.00018145317 9.974509e-08 0.006554423
0.0006494901 0.016893132 -0.018663049 0.0011185512 -0.005199293 -0.010646054 -0.020360192 0.007931484
-0.014071508 -0.010114428 -0.010556235 0.00034013292 -0.010654441 0.013731488 0.007980615 -0.017259685
-0.022422794 0.0066598947 -0.029537484 -0.013959168 -0.0009903141 0.018525666 -0.03127676 -0.012816208
-0.041704975 -0.021729771 0.023926176 -0.01455612 -0.021879792 -0.02172909 -0.012628869 -0.0012687531
-0.014418348 0.020766113 0.015454574 0.13213716 0.006326025 -0.020141156 -0.0030670837 -0.002439195
0.0041501317 -0.033419088 0.019138489 0.028733874 0.0039238627 -0.013775775 -0.0409045 0.024871124
-0.03147091 0.008441303 -0.01698892 -0.015406529 -0.011787417 0.021030683 0.010641681 -0.010822284
0.045614015 0.01662259 -0.025955826 -0.020860536 0.04622281 -0.00083845644 -4.038424e-07 0.015556118
-0.02633693 -0.027102605 -0.017471764 -0.009062229 -0.035494525 0.0051762336 -0.030658886 -0.0056097102
-0.010709852 0.029784609 -0.009665863 -0.036376197 0.04588008 -0.015944805 0.006624169 0.010982668
0.056105353 -0.020876814 0.03672469 -0.0135900155 0.038224027 0.012265488 0.046433914 0.027550088
-7.6534714e-05 -0.00011385835 8.556485e-05 9.305022e-05 -9.599537e-05 4.176488e-05 0.00043325208 -5.7261015e-05
-8.182919e-06 -8.579044e-05 7.093731e-05 -8.7479435e-05 -1.2666837e-05 -0.00025480572 1.3201556e-05 -2.0306945e-05
-0.00025766337 7.874963e-05 3.3314845e-05 -7.40115e-05 -2.8769273e-05 -7.0062975e-05 -6.309117e-07 -0.00013684241
-9.03789e-06 -9.578073e-05 -0.0001648965 -0.00026127155 -8.872458e-05 -0.00020491182 0.00016652951 -9.074675e-05
-5.5282584e-05 -0.00032326803 -4.2564654e-05 8.36496e-05 -2.7888911e-05 -1.3776506e-05 2.6177924e-09 -9.440981e-05
-2.415151e-05 -2.667613e-05 -0.0003946548 -0.00020519149 -0.00031214487 -0.00029898464 0.00013064682 -0.00013617284
-1.121845e-05 -0.00017497595 -3.4589266e-05 3.745645e-05 6.9646674e-05 -0.00010944255 -7.829313e-06 -1.3846516e-05
3.7061493e-06 -0.00013012477 -4.6430698e-05 -8.557701e-06 6.9075816e-07 -8.8367284e-05 -5.227688e-05 7.366724e-06
9.324393e-09 -1.8062404e-06 -2.3386325e-07 5.0578205e-08 5.8062433e-05 -4.715106e-06 -2.0723428e-05 -2.4934226e-07
-4.832112e-05 3.2196925e-07 -1.0514103e-06 8.982789e-07 -2.426133e-09 2.6658086e-08 -1.9205704e-07 -8.35305e-06
2.0090409e-05 1.03533155e-08 -3.2972384e-05 -1.8334339e-06 -3.6966598e-05 -3.173008e-05 -3.2648542e-05 -1.30038895e-08
-4.6851756e-08 -1.632371e-05 -5.133477e-05 -4.001735e-07 1.5664797e-05 -3.6373677e-07 1.0230701e-06 -7.391896e-05
-3.7631944e-05 1.6934155e-07 -5.41681e-05 1.5085246e-07 1.352263e-06 -2.1368411e-08 -6.0910435e-12 3.902565e-07
-3.626295e-05 -1.0079254e-06 -5.8243295e-05 2.2013435e-07 -0.00012503234 -1.0887867e-05 -4.5859848e-05 3.9837964e-08
-1.1916167e-05 -2.7810303e-05 1.8032734e-06 -7.114398e-08 -0.00011467575 -0.00011154213 3.4444383e-07 -8.646876e-05
-3.8953344e-06 -2.2319776e-08 9.528926e-07 -0.0001403269 -1.655961e-05 -4.0278755e-07 2.7771281e-07 -3.319301e-05

conv4.bias f4 [128]
00000000: 2a6c a93d d390 6d3d f114 c7b8 770b 6db8
00000010: 46f7 803e af37 3fbb f1ce 163f d139 df3d
00000020: 929f 82b9 5466 183e 51a7 ccbb faa4 2a3c
00000030: 1cbe c6b9 6feb 9e3c 3522 d0b7 76c4 153e
00000040: 7868 1aba a4c5 2a3e ef0e 9bbd 30a3 c4bc
00000050: eca2 cc3e 213f bc37 d8dc bbba c750 b6b6
00000060: 5883 213e 86fc 0fb7 bd1c 4c3c 85a4 e1ba
00000070: 55dd d7ba 2b44 bf3d 4de4 fdb0 25b5 003f
00000080: 22ec 0fbb 415c 4aba ef13 cb3d 6b76 163b
00000090: 5c38 3e3d 1e21 4ebd 754b a3bb c32f 27a3
000000a0: 8cc2 73bd 167d 993b e338 adb7 6de6 793e
000000b0: 1551 b3b9 0091 a2bb dbd5 543e 600d fb3b
000000c0: ab25 57bb 3e3d 723b 3fb1 c2b9 51da 2a3e
000000d0: dc0e f23c c83f 8dbb 8a7e f6ba 75c5 d0bb
000000e0: 52c8 953a 0dde 8e3e 7026 b8b7 d64e 5bb9
000000f0: 5d31 5bbb 025a 70bb 3bc9 7aba 78a1 6f3d
00000100: 5139 923d 2b46 b1bb 968c 003e b68b a43e
00000110: 762f c03e 721b 10bc 0a35 6eb9 ba97 a0ba
00000120: 4891 243d 7cb9 ea3d eeee 76ba 2074 ef3c
00000130: 50ac a43a 9e13 afbb 92a2 01bb 1917 793e
00000140: 8931 88bd 1ce5 83ba 2ece 19bb 2b29 a5ba
00000150: c4b1 bb3d 971b fa3d 42d5 c43e 4154 df3e
00000160: 4e40 cfb9 e50b 093e e609 b5b9 59da cb3c
00000170: a914 ed3e 3691 1eb9 7adb 933c a7ad 7eb5
00000180: ff0b 4fb8 d1ca e0b9 455a 92b3 c029 f33e
00000190: 3652 64b9 d788 003c be00 df3d f2c7 6eba
000001a0: 0d6e 02b9 2c62 4d3e fb21 0fba 3a40 73ba
000001b0: daf1 84bb f7e1 07b7 8456 09b7 8921 86b8
000001c0: d998 c63d ee5d 9a3d 69d3 183a 459e 32ba
000001d0: 41a3 c1bc 2b58 213c db1c 9c3e e758 ceba
000001e0: 3fce 92b9 d3c9 7f38 8f60 12b9 2213 073b
000001f0: 7541 dcba ee35 183b c089 303d a10a ccb9
0.08272584 0.057999443 -9.49296e-05 -5.651588e-05 0.25188655 -0.0029177477 0.5890952 0.108996995
-0.0002491442 0.14882785 -0.0062455316 0.01041531 -0.00037907145 0.019399373 -2.4811461e-05 0.14625725
-0.0005890201 0.16676956 -0.07571208 -0.024003595 0.3996805 2.2440743e-05 -0.0014332784 -5.4334264e-06
0.1577276 -8.582259e-06 0.012458024 -0.0017215168 -0.001646916 0.09339174 -1.847306e-09 0.50276405
-0.0021960814 -0.00077194354 0.099159114 0.0022958766 0.046440467 -0.05032455 -0.0049833604 -9.063202e-18
-0.059511706 0.004684101 -2.0649697e-05 0.24404307 -0.0003420195 -0.004961133 0.20784704 0.0076615065
-0.0032828848 0.0036962773 -0.00037134622 0.16684844 0.029548101 -0.004310582 -0.0018806022 -0.006371195
0.0011427498 0.27903786 -2.1952408e-05 -0.00020914836 -0.003344617 -0.0036674743 -0.0009566729 0.058503598
0.071398385 -0.005409976 0.1255363 0.3213784 0.3753621 -0.008795606 -0.00022717207 -0.0012252249
0.040177613 0.114611596 -0.00094197586 0.029230177 0.001256356 -0.0053429147 -0.0019780737 0.24325217
-0.06650073 -0.0010062787 -0.002346884 -0.001260077 0.091647655 0.122122936 0.38443953 0.43618968
-0.00039530027 0.13383444 -0.00034530385 0.02488439 0.46304825 -0.0001512215 0.01804899 -9.487507e-07
-4.9363818e-05 -0.0004287572 -6.815075e-08 0.4749279 -0.000217744 0.007845125 0.108888134 -0.00091087737
-0.00012438763 0.20056981 -0.00054600806 -0.0009279285 -0.0040571513 -8.099239e-06 -8.18598e-06 -6.395864e-05
0.09697122 0.07537447 0.00058298424 -0.0006813745 -0.023637416 0.009847681 0.30490765 -0.0015743048
-0.00028000955 6.09847e-05 -0.00013959616 0.002061077 -0.0016804176 0.0023225504 0.04310012 -0.0003891783

conv5.weight f4 [256, 128, 1, 1]
00000000: 2ff6 cf3b 7520 e5ba a499 c6b7 9990 85b5
00000010: 5c29 963b 5f8a 9c3a 2fcb 4c3c 0868 99bd
00000020: ed96 5fba 8f06 5c3c 1fbc 41b9 b086 c0bd
00000030: a456 b938 2b2e 4f3b 860b 0e3a 7685 cebb
00000040: 95ab 283a ec04 8f3c be4b 91bd d744 b03a
00000050: ba0e a73d ed2b 60ba f67c 9e3a 5996 0b35
00000060: 0d91 a53c 05e4 9334 8724 8537 ca6b be3a
00000070: e27c 053b b744 743c 00f5 5030 374f 25bd
00000080: c9d6 44ba e201 2e38 1751 b2bd 1db1 84bb
00000090: 34be b4bc 7572 20bd d810 4f3c f2f1 29a2
000000a0: f911 293d ab04 e8b9 9f2c 42b8 fc5f 1e3d
000000b0: 2098 b63a 8abd 90bd 6e44 a33c 30ee 43bb
000000c0: 5be1 b13b 4639 89bc 12bf 64bb e624 6b3b
000000d0: fa08 88bc e16e a83b 00c6 703b ac2b 353c
000000e0: 9e29 b239 0a28 193c 594f e037 b61e 42ba
000000f0: bdcc 0239 2be4 8ebb 306e 2dbb ccaf c63b
00000100: e719 e1bb c756 17bb accd 903c fc41 d9bc
00000110: 38cc f33d 584b 0b3c 6f23 3139 55e0 383a
00000120: e0af 043c d162 5bbd 50af 29ba b7db 1ebc
00000130: 528a 283c db87 353c aee9 e6b8 ddb7 a0bb
00000140: 6594 0a3d 31c0 8cb9 e39b 6a3a 41e9 1a38
00000150: 9612 42bd 9963 f33c c247 13bd 6af6 513e
00000160: c2b9 1e39 1365 bfbb aaeb 90b7 8843 32bb
00000170: 734f 993d d9c9 cfb9 3f02 83bb 62e1 7db4
00000180: d9cd f1b6 646e f7b8 addf 0832 06f8 833c
00000190: cb6c 8038 9a0b f43b 05e0 2bbc 0521 92b8
000001a0: cf34 bdb8 daba 0a3c 9d1f 79b9 5d3a 7fb9
000001b0: 0c1d 54b8 6856 fdb5 e3e5 0cb7 491b 0fb8
000001c0: 667d 82bd 3baf 123d 0457 c3b8 9deb cd39
000001d0: 20c5 2b3e a59d 78bc 00aa 8fbc 183a 953a
000001e0: 72ba 1835 5b43 cf39 2ea5 2bb8 ff95 c3ba
000001f0: 0229 343b 8ebd 1a3c 55f4 20bc 5e63 84b8
00000200: 5edb 8c3c 3158 bcbc 8f15 32b9 36d7 f8b5
00000210: cb2b b23c d81b 0bbb ceb6 c53d 7dc2 a6bc
00000220: 5824 e739 0c95 5a3c f76e 19b9 d044 8bbd
00000230: 365e 4fb9 3983 ccbc 962d 8438 a59a 103d
00000240: 71c3 5d38 9e4b 433d ba03 3cbd 7b1b a6bc
00000250: ed6f d03b f3aa b63a 1d3a 56b9 a7a2 9235
00000260: db75 183d 373e 29b6 38ee 3dbb a67b f5b9
00000270: 75f6 0e39 04ad a63c 8e21 5db0 7fab 193e
00000280: acbe 46ba 3cca 5337 e8ec 11bd a5bd 363a
00000290: f079 44bc 4916 b3bb 541d b0bb a6a5 5c23
000002a0: b2d9 743c 7da6 84ba da89 8bb8 b406 16bb
000002b0: e232 db39 448d 693c 893e 803d 8e56 3f3b
000002c0: e46d a5bb 92a2 b2bb 2401 9dba c6e0 8c3d
000002d0: 0aa1 41bc ec2e 2dba 8ec6 96b9 7900 12bc
000002e0: de57 f439 b080 db3d 3c02 00b5 41c6 ed38
000002f0: 9295 41ba 0ab6 07bb 5de4 06bb 7f34 bfbc
00000300: 99c2 c33c 05b2 ff3a 6827 ee3c c64a e73d
00000310: e81a 55bc 97e7 8f3b 0ed8 bcb9 2546 8abb
00000320: 993c ae3b b686 1d3c 6cbc 0abb 422b 253c
00000330: 4174 a1bb f81f abba 8a6e 03ba eb39 593d
00000340: 3f4f fdbc 38d0 f6b9 95d1 d4b9 ffaf fdb9
00000350: a7f3 553d 283f 8ebc 1de2 c33d 30da 32bd
00000360: bf73 12b9 d209 0a3d 8904 a3b9 f132 3d3c
00000370: 9555 573d 4dc3 67b8 0b29 ab3b ab00 a532
00000380: 40df 0138 3c3d 53b9 e89c ffb1 7587 c33d
00000390: 274a 8b37 6b9c 39bb 26e7 ae3c f4ce 0d39
000003a0: 80ac f8b8 2160 8f3d ab45 84bb 0333 6e3a
000003b0: b6e8 e43a 191d b9b5 8835 c0b6 2ed6 59b7
000003c0: 0b0e 37bd 9582 123c a34d 8eb8 8c46 a8ba
000003d0: 8c5f 46bd 21de 3f3b d478 4c3d 413f 41ba
000003e0: d628 b438 c834 65b9 fe79 5d37 117b d938
000003f0: 85d7 4e39 056c bcbb 7e1a 06bb 499a c0b8
0.006346486 -0.0017480986 -2.3674984e-05 -9.951356e-07 0.004582567 0.0011943093 0.012499615 -0.074905455
-0.00085292646 0.013429298 -0.00018475995 -0.094006896 8.8376255e-05 0.0031613212 0.0005418587 -0.006302531
0.0006434259 0.017458402 -0.07094525 0.001344825 0.08157106 -0.00085514673 0.0012091685 5.200032e-07
0.020210767 2.754679e-07 1.5871845e-05 0.0014527973 0.0020368625 0.014908961 7.6018125e-10 -0.04035875
-0.0007508812 4.1486586e-05 -0.08706873 -0.004049434 -0.022063352 -0.039171655 0.012638293 -2.3031856e-18
0.041276906 -0.00044253966 -4.629476e-05 0.038665757 0.0013930835 -0.07067402 0.01993009 -0.002989661
0.005428476 -0.016750943 -0.0034903926 0.0035880147 -0.016605843 0.005140171 0.003673911 0.0110577755
0.00033981813 0.009347925 2.673983e-05 -0.0007405089 0.00012474037 -0.004360696 -0.0026463382 0.006063437
-0.006869543 -0.0023092495 0.017676197 -0.026520722 0.11904186 0.00850185 0.00016893235 0.0007052471
0.0080985725 -0.053561036 -0.0006472962 -0.009695939 0.010286884 0.011079754 -0.00011010781 -0.0049047307
0.033832926 -0.00026846075 0.00089496205 3.6933696e-05 -0.047381006 0.029710578 -0.035957105 0.20504156
0.00015137254 -0.0058409064 -1.7275877e-05 -0.0027200896 0.07485857 -0.00039632505 -0.0039980705 -2.3644455e-07
-7.2063235e-06 -0.0001179844 7.9671e-09 0.016109478 6.12378e-05 0.007447672 -0.010490422 -6.967973e-05
-9.022059e-05 0.0084674 -0.00023758267 -0.00024340437 -5.057179e-05 -1.8875116e-06 -8.398175e-06 -3.4119268e-05
-0.06371574 0.035811644 -9.3145325e-05 0.00039276193 0.16774416 -0.015174304 -0.017537117 0.0011385111
5.6895726e-07 0.000395323 -4.0923413e-05 -0.0014922022 0.0027490263 0.009444607 -0.009823878 -6.312759e-05
0.017194446 -0.022991272 -0.00016983434 -1.8540075e-06 0.021749398 -0.0021226313 0.09654008 -0.020356411
0.00044086832 0.0133412 -0.00014632555 -0.06800234 -0.00019776155 -0.024964916 6.3027415e-05 0.03530373
5.2872525e-05 0.047679536 -0.04590199 -0.020276776 0.006360999 0.0013936445 -0.00020430279 1.0925186e-06
0.03722177 -2.5219176e-06 -0.00289811 -0.00046822167 0.00013633988 0.020346172 -8.0447016e-10 0.15006827
-0.0007581513 1.2623666e-05 -0.035626322 0.0006971008 -0.011991963 -0.005465303 -0.00537459 1.1961301e-17
0.014944481 -0.0010120418 -6.653713e-05 -0.002289218 0.00041808846 0.014254872 0.06261928 0.0029195878
-0.0050485004 -0.005451509 -0.0011978489 0.0687881 -0.01181818 -0.0006606418 -0.00028758164 -0.0089112455
0.00046604773 0.107179046 -4.768697e-07 0.00011337968 -0.00073846534 -0.002070787 -0.0020582892 -0.023340462
0.023896502 0.001950801 0.029071525 0.11293559 -0.013006903 0.0043916213 -0.00036019128 -0.0042197877
0.0053172824 0.009614637 -0.0021169437 0.010081114 -0.0049271886 -0.0013055792 -0.0005013725 0.05303375
-0.030921577 -0.0004707591 -0.00040591942 -0.00048387048 0.052234318 -0.0173641 0.09564612 -0.04366511
-0.00013966764 0.03370077 -0.00031093162 0.01154779 0.05257185 -5.525658e-05 0.0052233986 1.9208832e-08
3.0963914e-05 -0.0002014534 -7.439315e-09 0.09547321 1.6604621e-05 -0.0028321992 0.021350455 0.00013523904
-0.00011857692 0.07000757 -0.0040366254 0.0009086581 0.0017464373 -1.3792043e-06 -5.7282778e-06 -1.29840755e-05
-0.044691127 0.008942266 -6.7855486e-05 -0.0012838407 -0.048430964 0.0029276686 0.04991992 -0.0007371791
8.590675e-05 -0.00021858804 1.320103e-05 0.00010370289 0.00019725978 -0.0057501816 -0.0020462568 -9.184011e-05

conv5.bias f4 [256]
00000000: 3692 a83d 88f1 143e e14c eb3b 7835 b0bc
00000010: 945c 063e a740 1e3e 6c4e c2bb 7bb4 4b3d
00000020: 3297 58bb b33c 9bbb c17c 31ae ed45 aa3d
00000030: 9edc 823d c807 683d 453a 18b9 0ebf 90ae
00000040: c049 52bd 2f57 483e 32eb 4bbd 2662 0a30
00000050: 69ff 0abb 2ece 9eab 26d2 b0b1 cccb 35ba
00000060: 632f 983d defb 813d b705 d93a dd94 edbc
00000070: 041e 883d f0cd b5ad 60cc b43d cf84 353b
00000080: e26d 8d3d 2a55 e4aa f385 28b8 01cf 503e
00000090: cf94 153e a8a9 ea3d c875 253d 1944 71bb
000000a0: 87ab 243d 43a6 a13d 0820 353e ffd7 bebc
000000b0: a1f0 aa3c d488 913c df76 ecb8 610a 593d
000000c0: 4688 e5b4 fac2 3e3d 277d e23c d526 712e
000000d0: a2f4 a43c 51fe 283e fd0a 44ae 821a 933d
000000e0: 36a5 0cbc ea04 b831 35b5 d6ba 2bef 173d
000000f0: e053 543e 9eea d63c ba93 e4bc 5dc5 a5ac
00000100: 696d 7bb5 7cbc d73d a2f7 029f c269 2db3
00000110: f037 e23c a0b6 b63d d5e8 4cac 844c 99bc
00000120: 2aec 40bb 33f6 20bb bfcc b93b 4254 7ab3
00000130: e153 293d 3e10 943d e9b5 a03d eada f4b8
00000140: 9618 fb3b a968 3a3d a860 0f3d 2d75 1cbd
00000150: 071d 67ac 30dc d03d 3aec b53d 61e0 c63d
00000160: 231c d1b9 80d2 3e3d 3f1b 5ab6 4bdf b83d
00000170: 3e92 173d e9a3 ad3d 4af4 2239 a831 c8b3
00000180: 7dce fd3c d108 993d 0a0d d93c 0653 533e
00000190: b42a 3fbc d9c3 3ebc 6e10 3abd b68b 0bbd
000001a0: 9f48 b8bc e8fe ffbc fd6f 933d 44e8 af3c
000001b0: e012 af36 50bb 273e ae9d 183d 4c92 e43c
000001c0: 9fed 1dbd 6322 b13d dedd c53d f625 5f3d
000001d0: 26af 90ad 3bd5 083d 3730 2e3e feef 97b8
000001e0: ce92 cfb9 9b94 d53d 56bf f4ae ec41 713d
000001f0: 770d 493e 5808 bd3c 02c6 a93d 81ca 2f3e
00000200: c683 473d 59dd a13d 9853 8fb0 aed2 a4bc
00000210: 2a89 383c 166b 1d3c 5e5d 8fb3 9ffc acbb
00000220: 23c0 3bbb 10d9 aa3c e469 0a3e bf98 703d
00000230: 20de a83d 5c43 a93d 10cb ac3d 742d 323c
00000240: 82bf 753d ed8b c23d c1a6 b93b 9587 523e
00000250: b9de 153a e9cf bc9d 4f9e c3ac 9f42 b53d
00000260: c8d5 603d 3626 9fa3 646c b23d eef5 5c3e
00000270: 6330 0f34 37f6 283d 08f1 b6ae 71cb 42b7
00000280: 805f 32a6 42fc a23d b92f e2b0 ab33 bd3c
00000290: 39ff 00b7 2253 fcb7 136c 383c 5956 4a3e
000002a0: 1dff 193d 6d59 86af fe91 463d 3ecb bd3d
000002b0: f98e 5e3c 467f 9238 a168 2db2 c4f0 82ab
000002c0: 0066 563b 2fcd 403e e040 763d 96ed f63d
000002d0: 8adf b33d 18a7 6f3d 19ff c4b2 4194 0abb
000002e0: 0c2a 2a3c f710 e1af 3f48 083d a2bf d03d
000002f0: e8f5 743d 048e 043a 8d68 53bc 7e82 3d3d
00000300: 3e6d aa39 7d72 fdbc 7bc1 f83c cbc5 293e
00000310: eb4e 2bb7 388f 973c 84e6 b63d a6d0 8e3d
00000320: ecfb 433e ddef 3d3d 9fbd e0b2 d79c 3d3d
00000330: d3ed 7d3d f152 503e 0bed ad3d 009b 653d
00000340: d1e6 2e3d e486 2935 419f 943d dd94 61bc
00000350: 848d 6cbc 5604 a43d a7fa 013e 40e1 0a37
00000360: 5a4c 053d a048 0fb9 f5c5 ab3d 557d cea1
00000370: 948b a3b6 6250 9cbc 5e17 9f3d 1ed5 d43d
00000380: feb4 033d c4b8 c43d e3f3 7f3d ff97 803d
00000390: 1463 933d 1c26 103d 6b87 2bb3 3dc2 95b0
000003a0: c912 d830 fc54 2d3d 9055 913d 9081 a3bb
000003b0: bad1 1dbb 5025 153c 4283 563d 2631 123c
000003c0: a460 603c 2327 633d 50f1 b93d 36fa 583e
000003d0: c5e2 883d f9f4 8827 beb1 9d3d 040f fab4
000003e0: d782 4bb0 0df0 f43d 85df 1ebd d14f 813d
000003f0: a2ee 213e 0777 4f3d 0008 3cb7 c5a7 f3aa
0.082310125 0.14545262 0.0071807955 -0.02150987 0.13121253 0.1545435 -0.005929759 0.049732666
-0.0033049104 -0.0047374605 -4.0355944e-11 0.083141185 0.06389736 0.056648046 -0.00014517557 -6.5823e-11
-0.051339865 0.19564508 -0.049784847 5.0343585e-10 -0.0021209365 -1.1283802e-12 -5.1461653e-09 -0.000693497
0.07430913 0.06346868 0.0016557489 -0.029001648 0.0664635 -2.0668772e-11 0.08828044 0.0027697568
0.06905724 -4.056003e-13 -4.017907e-05 0.20391466 0.14607547 0.114581406 0.040395528 -0.003681427
0.040202644 0.0789304 0.17688 -0.023296354 0.020866694 0.01776544 -0.000112754984 0.052988414
-4.2753726e-07 0.046572663 0.027647568 5.4831546e-11 0.020136181 0.16503264 -4.4575e-11 0.0718279
-0.008584311 5.3556635e-09 -0.0016380908 0.037093323 0.20735121 0.026234921 -0.027902473 -4.7114938e-12
-9.3664e-07 0.105339974 -2.7733408e-20 -4.0375888e-08 0.027614564 0.08921552 -2.9119391e-12 -0.018713243
-0.002943764 -0.0024560809 0.0056701596 -5.8284293e-08 0.04133976 0.072296605 0.078471966 -0.000116756026
0.007662843 0.045509968 0.035004288 -0.038197685 -3.2843188e-12 0.101982474 0.08882947 0.09710766
-0.0003988455 0.046587467 -3.250039e-06 0.09026965 0.0370047 0.08478529 0.00015540529 -9.322258e-08
0.03098225 0.07472385 0.026495475 0.2063714 -0.011667896 -0.011643373 -0.045425825 -0.034068786
-0.022495566 -0.031249478 0.071990944 0.021473058 5.2176038e-06 0.16380048 0.03725975 0.027901791
-0.03855669 0.08649137 0.096614584 0.05447956 -1.6448686e-11 0.033406477 0.1701058 -7.244943e-05
-0.00039591495 0.10428735 -1.11298235e-10 0.05890076 0.19634043 0.023075268 0.0828972 0.17167093
0.048709653 0.07903547 -1.0428378e-09 -0.020119991 0.011263171 0.009608051 -6.67594e-08 -0.005279138
-0.0028648458 0.020855457 0.13516957 0.05873942 0.08245492 0.08264801 0.084371686 0.010875095
0.05999709 0.09499345 0.0056656306 0.20559533 0.0005717087 -4.997816e-21 -5.559809e-12 0.088505976
0.054891378 -1.7254998e-17 0.0871208 0.2157819 1.3335516e-07 0.041250434 -8.3192175e-11 -1.16106685e-05
-6.188558e-16 0.079582706 -1.6457228e-09 0.023095926 -7.688818e-06 -3.0079453e-05 0.011256236 0.19759502
0.03759681 -2.4438e-10 0.048479073 0.09267281 0.013583892 6.985529e-05 -1.0093715e-08 -9.303881e-13
0.0032714605 0.18828271 0.060120463 0.12057035 0.08782871 0.058508962 -2.2933408e-08 -0.0021145495
0.010386001 -4.0939316e-10 0.033272024 0.10192801 0.059804827 0.00050565624 -0.012903345 0.046267025
0.00032506319 -0.030938381 0.030365696 0.16579358 -1.0210769e-05 0.01850091 0.08930686 0.0697339
0.1913907 0.04637133 -2.6163262e-08 0.046292152 0.061994385 0.2034414 0.08492478 0.056056023
0.042700592 6.31537e-07 0.07256938 -0.013768402 -0.014438037 0.080086395 0.12693273 8.277886e-06
0.032543518 -0.00013664598 0.08387367 -1.3992278e-18 -4.8740276e-06 -0.019081298 0.07768129 0.103922114
0.03215503 0.09605554 0.062488448 0.06278991 0.07196632 0.035192594 -3.9937202e-08 -1.0896383e-09
1.5721408e-09 0.042317376 0.07096398 -0.0049898103 -0.0024081306 0.009103134 0.05237127 0.008922851
0.013694916 0.055457246 0.0907923 0.21189198 0.06683878 3.8013183e-15 0.07699917 -4.6577054e-07
-7.4036904e-10 0.119598486 -0.038787384 0.06314052 0.15813687 0.050650623 -1.1207536e-05 -4.3281885e-13
